model/ckpt/Dense_MOOCRadar_bocat_policy.pt (torch, 638682 bytes, 6 tensors)

obs_layer.weight f4 [256, 181]
-0.0048048613 0.036968417 0.054328732 -0.056434322 -0.020275775 -0.055576064 0.02178509 -0.043217275
0.0699436 -0.06830837 -0.03647781 0.06810662 0.027516317 -0.009449656 0.025997885 0.021689786
0.058177467 -0.047150005 -0.06674703 0.011337187 0.029074669 0.003820609 -0.040330227 0.06662398
-0.02796285 -0.05623926 0.04716969 -0.0067638704 0.06728298 -0.04086215 -0.06598745 -0.05493378
-0.04932798 -0.06828593 0.021068411 -0.06921836 0.011434917 0.04795237 -0.010807765 0.00083263643
-0.029578757 0.028464595 -0.04870711 -0.045488186 -0.048617758 -0.055546932 0.06306983 0.03899641
-0.012154682 0.07400102 -0.023119671 -0.016583316 -0.041626897 0.021021808 0.030514639 -0.058891088
0.035423797 0.022761762 -0.012854959 0.03999565 0.03149715 -0.060655724 0.04073751 0.00051594235
-0.035657723 0.054443315 0.022350267 0.023706095 0.030391429 -0.06778447 0.0687603 0.018007042
-0.01885562 0.020665037 0.029853882 -0.0016119665 -0.062123664 -0.056951676 0.07122339 -0.008341622
0.049723785 -0.009193478 0.02518746 -0.06616388 -0.025566723 0.042175744 -0.011926809 -0.027604222
0.07290138 0.032805067 -0.05415195 0.07329139 -0.03182803 -0.005167793 -0.021858893 0.038309205
-0.022602241 0.03896825 -0.021384435 -0.058268256 -0.0015297775 0.027442658 0.07131951 0.021550067
0.032057367 0.057544548 -0.05889757 0.017099993 -0.014264622 -0.014585044 -0.042136297 0.07333324
0.04015995 0.027380032 0.026915707 -0.07074057 0.06548342 0.0045692 -0.056888945 -0.025038743
-0.029997773 -0.038764812 0.0142116435 8.931313e-05 0.03914754 -0.03906253 0.012145891 -0.016468521
-0.03347554 -0.04044044 -0.042907983 0.011150272 -0.01050353 0.051534288 0.013875006 -0.0033957174
0.046072837 0.03122279 0.043589942 -0.050235167 0.06444883 -0.0720031 0.0019640622 -0.055711914
-0.036023628 0.03439381 -0.012034818 0.020136455 -0.0038641903 0.039600372 0.033921503 0.059397966
-0.0010237098 0.013675532 -0.043894786 0.064770706 0.0440975 -0.0006777708 0.022955414 -0.025990034
-0.06536543 -0.012927247 -0.018276481 -0.028363228 0.06607111 -0.0074000736 0.0398259 0.057547167
-0.051141884 0.047292836 0.05029317 -0.010029915 0.0598079 -0.038016476 0.033645637 -0.06042483
0.03739112 0.07179118 0.030142207 -0.011059183 0.0034854352 -0.029988732 0.017262712 -0.015464319
0.010981557 -0.05114303 0.056908973 0.00410578 -0.005015897 -0.051942848 0.037228815 -0.042767007
-0.03133122 0.01342539 0.054144103 0.059012312 0.06471499 0.07348602 -0.0104672285 0.062147733
0.018462034 0.0074157934 -0.055260576 0.00953456 -0.052335136 0.0640686 0.0027183383 0.07337051
0.026820742 0.04188307 -0.007995229 -0.05232993 0.019857872 -0.01816448 0.0390921 -0.002749085
-0.06066394 0.038014177 -0.02237348 -0.031764824 0.058714226 0.013100425 0.07432109 0.03538061
0.030462079 0.071362324 0.0063842423 -0.045387227 -0.06397407 0.04796443 0.030827487 0.021001048
0.049785048 0.039520435 -0.006458056 0.051799912 -0.011848804 -0.0090524675 0.03087157 -0.07303056
-0.0062605655 -0.06995017 0.015604905 0.007659878 -0.03577388 0.034516934 0.06570165 -0.004325563
-0.024048151 0.048198964 0.042108443 0.0651661 -0.034249473 0.0037454027 -0.029207801 -0.026174225
00000000: 1972 9dbb 326c 173d ce87 5e3d ad27 67bd
00000010: 6219 a6bc baa3 63bd a576 b23c 9904 31bd
00000020: 973e 8f3d 42e5 8bbd c269 15bd 7c7b 8b3d
00000030: e669 e13c bbd2 1abc 84f9 d43c c7ae b13c
00000040: 7f4b 6e3d 5d20 41bd abb2 88bd 9cbf 393c
00000050: 002e ee3c 2f63 7a3b 4f31 25bd 2772 883d
00000060: 5912 e5bc 235b 66bd 0135 413d 75a3 ddbb
00000070: a9cb 893d 125f 27bd 6e24 87bd 3e02 61bd
00000080: 230c 4abd 7ed9 8bbd a997 ac3c 5bc2 8dbd
00000090: 8559 3b3c b469 443d 0d13 31bc 4945 5a3a
000000a0: 264f f2bc 952e e93c 1b81 47bd d251 3abd
000000b0: 6a23 47bd 2e85 63bd c12a 813d b3ba 1f3d
000000c0: 6e24 47bc d98d 973d 7765 bdbc bcd9 87bc
000000d0: f780 2abd ed35 ac3c d6f9 f93c c837 71bd
000000e0: 8b18 113d e076 ba3c 9b9d 52bc 7bd2 233d
000000f0: 2803 013d 2372 78bd 60dc 263d 4e40 073a
00000100: d50d 12bd f4ff 5e3d e817 b73c 4933 c23c
00000110: 72f7 f83c 96d2 8abd 33d2 8c3d 8183 933c
00000120: 1a77 9abc b949 a93c 2190 f43c 9f48 d3ba
00000130: 6275 7ebd 2946 69bd 92dd 913d 4cab 08bc
00000140: 2bab 4b3d 3ea0 16bc ef55 ce3c ee80 87bd
00000150: 4e71 d1bc 79c0 2c3d aa68 43bc 4022 e2bc
00000160: 524d 953d 9b5e 063d 6fce 5dbd cc19 963d
00000170: 1c5e 02bd 9756 a9bb 6c11 b3bc 1dea 1c3d
00000180: 5628 b9bc 2c9d 1f3d 692e afbc b2aa 6ebd
00000190: d182 c8ba 6dcf e03c f70f 923d c489 b03c
000001a0: 964e 033d d5b3 6b3d 943e 71bd 4915 8c3c
000001b0: 29b6 69bc 1cf6 6ebc 1c97 2cbd bd2f 963d
000001c0: c27e 243d 174c e03c 547e dc3c 6fe0 90bd
000001d0: 2c1c 863d 3ab9 953b 6204 69bd 0d1e cdbc
000001e0: e4bd f5bc dac7 1ebd f4d7 683c 9f4d bb38
000001f0: 2c59 203d 0800 20bd 8fff 463c fee8 86bc
00000200: a61d 09bd e0a4 25bd 48c0 2fbd a1af 363c
00000210: ff16 2cbc 9e15 533d fe53 633c af8a 5ebb
00000220: dfb6 3c3d f0c6 ff3c 5e8b 323d 64c3 4dbd
00000230: c0fd 833d 5c76 93bd 7fb7 003b 2d32 64bd
00000240: 838d 13bd 86e0 0c3d af2d 45bc 35f5 a43c
00000250: 5b3e 7dbb 0034 223d 46f1 0a3d 484b 733d
00000260: 002e 86ba 570f 603c 05cb 33bd 81a6 843d
00000270: 959f 343d 6eac 31ba fe0c bc3c 0de9 d4bc
00000280: 50de 85bd cecc 53bc 8fb8 95bc 005a e8bc
00000290: 4a50 873d 517c f2bb 7c20 233d 94b6 6b3d
000002a0: 277a 51bd 22b6 413d 3600 4e3d 8354 24bc
000002b0: 21f9 743d 2ab7 1bbd 02d0 093d 0780 77bd
000002c0: 6e27 193d 4107 933d caec f63c 9331 35bc
000002d0: e66b 643b eeaa f5bc 886a 8d3c 0e5e 7dbc
000002e0: fdeb 333c 5b7b 51bd 6219 693d c789 863b
000002f0: 655c a4bb 06c2 54bd 3e7d 183d 752c 2fbd
00000300: 2a55 00bd 2bf6 5b3c 35c6 5d3d e5b6 713d
00000310: 4b89 843d d77f 963d bd7e 2bbc 9f8e 7e3d
00000320: b13d 973c 2f00 f33b ea58 62bd d836 1c3c
00000330: 5e5d 56bd 6636 833d 2626 323b 4743 963d
00000340: 2cb7 db3c 958d 2b3d 6cfe 02bc e957 56bd
00000350: faac a23c adcd 94bc 0a1f 203d fe29 34bb
00000360: c07a 78bd c1b4 1b3d 9748 b7bc d51b 02bd
00000370: 547e 703d 2aa3 563c a835 983d 42eb 103d
00000380: 9c8b f93c 6926 923d e832 d13b f5e7 39bd
00000390: d604 83bd 5a76 443d ed89 fc3c 640a ac3c
000003a0: 68eb 4b3d 2ee0 213d 1a9e d3bb 252c 543d
000003b0: 7c21 42bc cd50 14bc 60e6 fc3c 0c91 95bd
000003c0: 6e25 cdbb 0942 8fbd b7ab 7f3c b7ff fa3b
000003d0: a287 12bd a161 0d3d 968e 863d 74bd 8dbb
000003e0: a100 c5bc 476c 453d e779 2c3d ce75 853d
000003f0: 2d49 0cbd 6e75 753b 3345 efbc 546b d6bc

obs_layer.bias f4 [256]
0.004386689 -0.16783792 0.18501161 -0.15173243 0.16041063 -0.10367279 -0.07717623 0.032883413
-0.06489719 -0.21672194 0.041030865 -0.22454415 -0.12807117 -0.021422958 -0.16469084 0.09801532
-0.18579325 -0.054080732 -0.28705817 0.12676387 0.2132722 0.22154637 0.02380724 -0.3228661
-0.16970317 -0.10091519 -0.09505889 0.0049737343 0.013366604 -0.17679131 0.105205424 0.11140345
0.059341088 0.2673367 0.056805406 -0.18419759 -0.060043473 -0.030697262 -0.20671858 -0.14849569
0.041762806 0.14629118 0.19276522 0.17405446 -0.16227378 0.11871687 -0.023893166 -0.15250568
-0.04175108 0.023889504 -0.11218148 -0.24760191 0.15582095 0.08016498 -0.031415723 -0.100700945
0.10928247 0.21012352 -0.15702245 -0.16300942 0.071630515 0.16855532 -0.19193129 -0.13891466
0.053879708 0.14080526 0.0064725373 0.112309635 0.11327498 0.32701558 -0.06691301 -0.17636801
-0.16492404 -0.08897692 0.03423592 0.10746136 0.19623719 0.18048735 0.21434431 0.043640375
0.10171757 0.005906964 -0.08951634 -0.15821722 -0.09118495 0.21700202 0.0024448782 -0.102193944
0.008035177 -0.13980044 0.039099406 0.07994557 0.15937023 0.17052154 0.11955609 -0.07575808
-0.04152737 0.08619017 -0.15967491 0.036369048 -0.0120435925 0.15930666 0.032581896 -0.068729475
0.06739058 -0.23350365 0.07634109 0.18025313 0.085470125 -0.2729171 -0.07893381 -0.0797278
-0.17018697 0.025084106 0.02962611 0.10763485 0.28547144 -0.25066996 0.1415884 0.11433262
-0.053742584 0.0034347477 -0.16430646 -0.13464285 0.029164303 -0.26722407 -0.09093723 -0.08542655
0.043324344 -0.19869208 -0.030945279 -0.108513236 0.11681078 0.06346867 0.060768627 0.038757857
-0.277261 -0.018866314 0.13732024 0.1073212 0.14530616 0.045201074 -0.1241993 0.07447058
0.0037724357 -0.052693862 0.196928 -0.17294654 -0.10703908 0.1405235 -0.16576773 0.041819744
-0.2147597 -0.13875268 -0.095427625 -0.16381215 0.04088822 0.18798864 -0.113936156 0.13215381
0.16507171 0.051290326 -0.2379212 -0.131777 0.12759101 -0.08782076 0.17135078 -0.094153404
-0.086249046 0.098801345 -0.24684112 0.074466385 -0.24441658 0.07357415 -0.08784585 -0.11877753
0.0974888 -0.17998365 -0.13124743 0.05921843 -0.17689057 -0.15836455 -0.048461273 0.19457547
0.15907 -0.058891147 -0.02391466 0.20678043 -0.0942336 -0.0061588385 0.0016865989 0.15290743
0.12763895 -0.16250011 0.19146131 -0.07883357 0.31232432 0.2120268 0.013997946 0.061871774
-0.2481359 -0.05537658 0.2209664 -0.09391269 -0.019332353 0.06927475 -0.20480536 -0.117534794
0.035332803 0.21787614 -0.19278987 0.2166759 0.1606206 0.12734818 0.25957307 -0.03508059
0.1074432 0.044948153 -0.010383616 0.2249929 -0.11067331 0.035727054 0.03635176 0.19070369
0.058245204 0.054123335 -0.030448027 -0.016647713 0.09429979 0.1071675 -0.20213194 0.030840896
-0.19218574 -0.14066921 0.05368767 0.0091954125 -0.035230935 -0.032126814 0.085888885 0.15168005
-0.15706697 0.2118629 -0.15018776 -0.32213515 0.11342076 0.038633063 -0.07199038 -0.10191572
0.07398015 0.025403691 0.044635907 -0.06511063 -0.110470675 0.099547215 0.17470711 -0.020058136
00000000: 37be 8f3b b4dd 2bbe af73 3d3e bf5f 1bbe
00000010: af42 243e 6652 d4bd 920e 9ebd c2b0 063d
00000020: d1e8 84bd 5bec 5dbe fb0f 283d e7ee 65be
00000030: 1725 03be 337f afbc b7a4 28be 42bc c83d
00000040: 9640 3ebe c283 5dbd 4af9 92be 63ce 013e
00000050: 0764 5a3e 0ddd 623e 6707 c33c b54e a5be
00000060: abc6 2dbe a0ac cebd 3cae c2bd b5fa a23b
00000070: 9aff 5a3c c808 35be f175 d73d 7e27 e43d
00000080: a40f 733d 5be0 883e c9ac 683d 4b9e 3cbe
00000090: 25f0 75bd d378 fbbc 09ae 53be 410f 18be
000000a0: 7a0f 2b3d 5bcd 153e 3f64 453e 553b 323e
000000b0: 192b 26be d521 f33d 9abb c3bc 732a 1cbe
000000c0: 2e03 2bbd ecb3 c33c 67bf e5bd 5b8b 7dbe
000000d0: 878f 1f3e 892d a43d c6ad 00bd 4c3c cebd
000000e0: 7dcf df3d 9f2a 573e 7eca 20be f1eb 26be
000000f0: 05b3 923d c499 2c3e a389 44be a53f 0ebe
00000100: f8b0 5c3d 412f 103e 9417 d43b 9802 e63d
00000110: b6fc e73d 966e a73e b009 89bd d199 34be
00000120: d9e1 28be 8839 b6bd f73a 0c3d b414 dc3d
00000130: 67f2 483e add1 383e 137d 5b3e 40c0 323d
00000140: 4d51 d03d 358f c13b 5854 b7bd b203 22be
00000150: 2dbf babd c735 5e3e 403a 203b 0f4b d1bd
00000160: faa5 033c d927 0fbe b326 203d 81ba a33d
00000170: f331 233e 339d 2e3e d3d9 f43d 0d27 9bbd
00000180: 9b18 2abd 7984 b03d d281 23be b6f7 143d
00000190: 7d52 45bc 4921 233e 9874 053d 0ac2 8cbd
000001a0: 1304 8a3d 951b 6fbe b858 9c3d 4794 383e
000001b0: f60a af3d cabb 8bbe 0da8 a1bd 5448 a3bd
000001c0: 7e45 2ebe 2f7d cd3c 75b2 f23c a96f dc3d
000001d0: 5029 923e d057 80be 8dfc 103e 3827 ea3d
000001e0: 2f21 5cbd 8119 613b f43f 28be d1df 09be
000001f0: fae9 ee3c 98d1 88be 4c3d babd 1df4 aebd
00000200: de74 313d f075 4bbe f480 fdbc 303c debd
00000210: 7d3a ef3d ddfb 813d 86e8 783d 8fc0 1e3d
00000220: 27f5 8dbe 878d 9abc ad9d 0c3e 38cb db3d
00000230: 23cb 143e c324 393d 345c febd 0884 983d
00000240: f83a 773b 85d5 57bd 7ea7 493e e618 31be
00000250: 4e37 dbbd 64e5 0f3e 04bf 29be 2e4b 2b3d
00000260: f7e9 5bbe 2f15 0ebe 8f6f c3bd 5fbe 27be
00000270: 687a 273d 1880 403e 5c57 e9bd 5453 073e
00000280: 8f08 293e ce15 523d 9da1 73be 8df0 06be
00000290: 38a7 023e 5fdb b3bd 9476 2f3e 80d3 c0bd
000002a0: 57a3 b0bd 5c58 ca3d ebc3 7cbe d581 983d
000002b0: 5748 7abe 0bae 963d 86e8 b3bd a241 f3bd
000002c0: 35a8 c73d a24d 38be ba65 06be 068f 723d
000002d0: cd22 35be 512a 22be 547f 46bd cb3e 473e
000002e0: 3fe3 223e d837 71bd ade8 c3bc 40be 533e
000002f0: 8cfd c0bd 15d0 c9bb de10 dd3a c493 1c3e
00000300: c9b3 023e 6e66 26be 6f0e 443e 7f73 a1bd
00000310: f9e8 9f3e 8e1d 593e a457 653c 426d 7d3d
00000320: 5617 7ebe 8ed2 62bd 0445 623e 4c55 c0bd
00000330: e25e 9ebc ecdf 8d3d 7fb8 51be 15b6 f0bd
00000340: 21b9 103d ec1a 5f3e b56a 45be 4ae0 5d3e
00000350: ba79 243e 9067 023e c3e6 843e aab0 0fbd
00000360: 2e0b dc3d 8e1b 383d 0b20 2abc 8a64 663e
00000370: b0a8 e2bd 8856 123d 95e5 143d d447 433e
00000380: 8692 6e3d 6eb0 5d3d 246e f9bc c960 88bc
00000390: 4020 c13d a27a db3d adfb 4ebe 0ca6 fc3c
000003a0: 57cc 44be 970b 10be 9ae7 5b3d 5ba8 163c
000003b0: 504e 10bd 6897 03bd 83e6 af3d 0452 1b3e
000003c0: 2ad6 20be 97f2 583e d2ca 19be e6ee a4be
000003d0: 2549 e83d b43d 1e3d b16f 93bd 30b9 d0bd
000003e0: e882 973d 671b d03c 24d4 363d b958 85bd
000003f0: 733e e2bd 69df cb3d 6ce6 323e f650 a4bc

actor_layer.0.weight f4 [256, 256]
-0.0039371024 0.026856065 -0.010174425 -0.06931734 0.0160683 0.017157635 -0.028766407 0.017930781
-0.022985028 0.048402585 -0.020110898 0.0413512 -0.06908585 0.030200198 -0.016758427 0.06019881
-0.0605292 -0.005587426 -0.015287532 0.045317944 0.048430573 0.07284118 -0.050378215 -0.0713954
0.0071988776 0.02664335 -0.016763432 0.029352298 0.04526224 -0.055556152 -0.045162182 0.034628205
-0.028286649 -0.043378774 -0.047960367 0.025174852 0.007375945 0.010999925 0.03307314 0.033127423
0.017166581 -0.018137615 -0.044194855 -0.041159976 -0.01724265 0.014992678 0.009726919 0.036783904
-0.015462992 0.042941898 0.030818937 -0.06666311 0.06829821 0.06928416 -0.04095521 -0.04583136
-0.023266887 0.028962366 0.021320023 0.03396429 0.014820627 -0.011584449 -0.018235162 0.006762135
-0.051717214 0.044992127 -0.01842485 0.035446778 0.009497273 0.03623547 0.0050179833 -0.016116071
-0.0021397928 -0.065634996 -0.04813603 0.06064401 -0.029085426 -0.031308193 -0.011364966 -0.006220034
-0.022395885 -0.038662333 0.0139831845 -0.004727399 -0.04964806 0.067619905 0.057770304 -0.009847935
0.06207218 -0.06860118 -0.02597065 0.061969567 0.033561643 -0.028396575 0.04158872 -0.01064659
-0.030944115 0.05415774 -0.035587914 0.03686431 0.05083333 -0.026251322 -0.028588261 -0.02336788
-0.022535384 -0.06508454 0.07092727 -0.026425393 -0.034664024 0.018516507 -0.025622636 -0.009136195
0.016310036 -0.037147168 -0.018296812 -0.021299819 0.02639902 -0.07899129 0.07039582 -0.0072541237
0.05330755 0.04513545 0.020535875 -0.04288296 0.029792963 -0.037351944 0.055963058 0.017385634
0.060645957 0.03583653 -0.0091713965 -0.009254796 0.065705664 0.06593278 0.000629858 -0.03866451
-0.07477721 -0.050220713 0.04165488 0.05786998 0.0577336 -0.02744809 -0.04681891 0.06593023
0.007899049 0.00758321 0.06710931 -0.061654143 -0.0073361658 0.021362502 0.0031828298 0.029021025
-0.059134077 0.03977309 0.054683913 -0.0018955241 -0.026371572 0.012856963 -0.051869605 0.020685181
-0.02383643 -0.055974893 -0.002214593 0.04702566 0.07348055 -0.059432533 0.053904466 0.010078976
-0.060090173 -0.0433039 0.038999718 -0.054225713 -0.06498986 0.059680626 -0.050552014 -0.029200474
-0.029724682 -0.05586565 0.017655289 -0.049633153 0.022686824 0.005554257 0.01057106 0.07638922
-0.029944295 0.0044114594 -0.01390869 -0.0037874756 -0.04057198 0.044292253 0.035318296 -0.044327375
-0.012244098 -0.042806987 0.03766442 -0.067064226 0.012046272 -0.021664388 -0.0078046853 -0.044999167
-0.068600655 -0.01664094 -0.021868527 0.047782794 0.04624079 -0.028812641 -0.061031725 0.021004368
0.010291513 0.059856545 0.028811926 0.059297767 0.06310172 0.061300576 -0.011001555 -0.032335926
0.0029261294 -0.06099622 -0.012100695 -0.022209385 -0.058525752 0.029684495 0.023372464 -0.026810588
0.058908235 0.05654169 0.012264742 0.053791292 -0.028489992 0.005959841 -0.041813098 -0.033522993
-0.07278637 0.018988172 -0.0066042393 0.03596017 -0.004308207 -0.010234264 0.040197443 0.0075854254
-0.012307354 -0.037644718 0.011323892 -0.045739114 -0.026794756 0.055183537 -0.06284636 0.026525028
-0.044264026 -0.056630414 0.038583416 0.03124304 -0.00023275567 0.058778424 -0.038316175 -0.0031049866
00000000: cf02 81bb 4001 dc3c a2b2 26bc 40f6 8dbd
00000010: aba1 833c 2b8e 8c3c 87a7 ebbc 93e3 923c
00000020: 194b bcbc ca41 463d 9cbf a4bc e05f 293d
00000030: e27c 8dbd 6866 f73c f848 89bc 0793 763d
00000040: 77ed 77bd ba16 b7bb 8e78 7abc 4f9f 393d
00000050: 235f 463d c22d 953d 6359 4ebd c037 92bd
00000060: 90e4 eb3b 2843 da3c 7753 89bc 3b74 f03c
00000070: e664 393d d98e 63bd fbfb 38bd 4ed6 0d3d
00000080: 67b9 e7bc f1ad 31bd 1772 44bd 7e3b ce3c
00000090: e9b1 f13b 0839 343c b377 073d 9fb0 073d
000000a0: eea0 8c3c 5695 94bc aa05 35bd 5d97 28bd
000000b0: 7540 8dbc d9a3 753c a85d 1f3c b8aa 163d
000000c0: 7d58 7dbc d8e3 2f3d ff77 fc3c ab86 88bd
000000d0: efdf 8b3d dbe4 8d3d a6c0 27bd aab9 3bbd
000000e0: 339a bebc 7c42 ed3c 54a7 ae3c 241e 0b3d
000000f0: 37d2 723c b3cc 3dbc e861 95bc e694 dd3b
00000100: 6ed5 53bd aa49 383d b6ef 96bc a430 113d
00000110: 739a 1b3c a56b 143d e56d a43b da05 84bc
00000120: c43b 0cbb a46b 86bd 492a 45bd da65 783d
00000130: 8f44 eebc 053d 00bd 1f34 3abc 6dd1 cbbb
00000140: 9377 b7bc 655c 1ebd ba19 653c 4ce8 9abb
00000150: c45b 4bbd 4e7c 8a3d 8ea0 6c3d 3c59 21bc
00000160: 663f 7e3d c77e 8cbd 67c0 d4bc cdd3 7d3d
00000170: ef77 093d ef9f e8bc ef58 2a3d 096f 2ebc
00000180: 837e fdbc 82d4 5d3d a2c4 11bd 08ff 163d
00000190: 9c36 503d 030d d7bc ee31 eabc ff6d bfbc
000001a0: 209c b8bc 0b4b 85bd 5142 913d 117a d8bc
000001b0: ddfb 0dbd eeaf 973c 90e6 d1bc fbaf 15bc
000001c0: a09c 853c a127 18bd 32e3 95bc f57c aebc
000001d0: c242 d83c 2fc6 a1bd af2b 903d 00b4 edbb
000001e0: 0459 5a3d f3df 383d da3a a83c 0ba6 2fbd
000001f0: 5f10 f43c 5afe 18bd 8539 653d 516c 8e3c
00000200: e567 783d 53c9 123d a043 16bc 6ea1 17bc
00000210: b190 863d c407 873d 0e1d 253a ad5e 1ebd
00000220: cb24 99bd 3cb4 4dbd 4f9e 2a3d 1209 6d3d
00000230: 117a 6c3d d1da e0bc 2fc5 3fbd 6e06 873d
00000240: 036b 013c 937c f83b 9b70 893d 0e89 7cbd
00000250: 3864 f0bb 6a00 af3c 0697 503b 80bd ed3c
00000260: 9336 72bd 1ce9 223d 3dfc 5f3d 3c73 f8ba
00000270: 3209 d8bc 03a6 523c 3975 54bd f873 a93c
00000280: 9e44 c3bc ee45 65bd b522 11bb fa9d 403d
00000290: f87c 963d 876f 73bd eeca 5c3d 4a22 253c
000002a0: 1d21 76bd 6e5f 31bd 2bbe 1f3d c81b 5ebd
000002b0: 6719 85bd ac73 743d a10f 4fbd d535 efbc
000002c0: 2d81 f3bc 61d3 64bd d3a1 903c 224c 4bbd
000002d0: b8d9 b93c 7c00 b63b 3d32 2d3c f471 9c3d
000002e0: bd4d f5bc 018e 903b 46e1 63bc 4c37 78bb
000002f0: ce2e 26bd cb6b 353d eba9 103d 9f90 35bd
00000300: 789b 48bc 6156 2fbd 0246 1a3d f858 89bd
00000310: ba5d 453c 8479 b1bc 72be ffbb 0c51 38bd
00000320: 807e 8cbd 9552 88bc a025 b3bc e4b7 433d
00000330: fc66 3d3d 7d08 ecbc 67fc 79bd 5a11 ac3c
00000340: bc9d 283c 232c 753d fd06 ec3c 37e2 723d
00000350: 793b 813d 5016 7b3d de3f 34bc ad72 04bd
00000360: 4ec4 3f3b 2cd7 79bd fe41 46bc 75f0 b5bc
00000370: b3b8 6fbd e62c f33c 9c77 bf3c e1a1 dbbc
00000380: c349 713d 4298 673d 0ef2 483c 4254 5c3d
00000390: d863 e9bc c54a c33b 3644 2bbd 684f 09bd
000003a0: 0511 95bd 158d 9b3c 6068 d8bb f94a 133d
000003b0: dc2b 8dbb 9dad 27bc 13a6 243d 298f f83b
000003c0: c9a4 49bc 5931 1abd d887 393c f058 3bbd
000003d0: ad80 dbbc 2208 623d 98b5 80bd 044b d93c
000003e0: 324e 35bd 4bf5 67bd a509 1e3d 67f1 ff3c
000003f0: e00f 74b9 a5c1 703d 6cf1 1cbd 087d 4bbb

actor_layer.0.bias f4 [256]
0.1757239 0.05079751 0.035688497 0.07196896 -0.1383375 -0.06893008 0.004815191 0.14426407
-0.11871239 0.10333296 0.066101834 0.12105294 0.054610144 0.023904497 0.07327165 -0.11990765
0.19222818 0.07855428 -0.25842893 -0.09614351 -0.027567491 0.12926498 0.13743842 0.04706585
0.07267282 0.012652609 -0.0075990413 0.039610263 0.0010920339 0.101104505 0.08037131 -0.16047299
0.18057558 0.019167408 0.121659584 0.14356127 0.08176379 0.14631188 0.121125795 0.035118498
0.124281794 -0.082561925 -0.13909167 0.10017387 -0.103067026 -0.17403845 -0.055448364 -0.13583288
0.13254017 -0.036316544 0.15635714 -0.06946939 0.04059608 0.19347832 -0.15062268 -0.091557026
0.011218492 -0.13731837 0.20059475 -0.14599788 0.12046927 0.047440127 -0.11498744 0.019072883
-0.04245611 -0.12041235 0.16703397 -0.0045025903 -0.12755188 0.08261765 -0.020657878 -0.11499538
0.060461644 -0.11834167 0.107386015 -0.14828692 -0.14902028 -0.028362075 0.020711783 0.06565829
0.15875642 -0.12975511 -0.1062341 0.07705256 -0.09861895 -0.14932479 -0.16599986 0.032752767
0.05441796 -0.06066434 -0.15535285 0.051046886 -0.17700368 -0.011906266 -0.00076520914 0.10426469
0.093143806 -0.15393543 -0.016523896 0.08110371 0.07739789 0.032652866 -0.073502444 0.025306769
0.0318765 -0.068230525 -0.19064358 -0.10303879 -0.1929483 0.0039911373 0.21253443 0.028728679
0.15943041 -0.0005387747 0.18547444 0.0965755 -0.060879376 0.018362736 0.10786784 0.15837847
-0.08421378 -0.14762016 0.10950066 0.14549384 0.109520815 -0.2150639 -0.0968156 -0.17511211
0.03806689 -0.0060124816 -0.018850807 -0.021455968 0.0975099 0.100540504 -0.11454374 -0.13272531
-0.04283256 -0.10561322 -0.078681186 0.15111981 0.08144651 0.07023071 0.13464378 -0.05071538
-0.019957861 0.042012468 0.0693312 0.003407838 -0.15655144 0.052521564 0.14866915 0.111659735
-0.06627887 -0.07317655 -0.01770041 -0.026076918 -0.034411095 0.06292265 -0.062460523 0.0965984
0.055759247 -0.11542108 0.068871655 0.056337878 0.1994103 0.15221043 0.005233587 0.18238497
0.020851526 -0.1400067 -0.04273339 -0.21632092 0.05785365 0.0050820587 -0.01027935 0.05221308
-0.097730525 0.0010505333 -0.13395615 -0.08141247 0.093159705 -0.11545514 0.04195794 -0.093217604
0.07858104 -0.043957863 0.009735212 0.069236584 0.071574874 0.11201247 0.0588249 -0.06833389
0.026794316 0.0620303 0.063312806 -0.08251303 -0.046897102 -0.05813824 -0.074605316 0.13374808
0.08862011 -0.13768224 -0.09065419 0.14762525 -0.066125534 -0.14028876 0.026483994 0.09788084
0.13282311 -0.056820534 -0.016232597 0.21313119 -0.06299893 -0.05471562 0.01675592 -0.121151276
0.06838231 -0.090314746 0.11906761 -0.11440336 0.03523782 0.010815141 -0.15472265 0.13478507
0.06928851 0.011143547 0.042346638 0.09984148 -0.18181309 0.16191955 0.0271733 0.12582214
0.04246405 -0.13325797 -0.041993532 -0.06408616 -0.124137774 0.10247098 0.03643396 0.05829204
-0.23290953 0.12343144 -0.12435437 -0.1007603 0.14175816 0.14763841 0.06803854 -0.09307915
-0.032491222 0.05664279 -0.010442517 0.04102356 -0.032703895 -0.20393807 -0.019287918 0.15485594
00000000: f7f0 333e 0d11 503d 1a2e 123d 7664 933d
00000010: 58a8 0dbe 372b 8dbd c0c8 9d3b f6b9 133e
00000020: 7b1f f3bd 3ba0 d33d 6660 873d 9bea f73d
00000030: e3ae 5f3d 5dd3 c33c 720f 963d 2492 f5bd
00000040: 77d7 443e 11e1 a03d cc50 84be e3e6 c4bd
00000050: 38d5 e1bc 0a5e 043e a8bc 0c3e 1fc8 403d
00000060: 7dd5 943d e34c 4f3c 6101 f9bb 5f3e 223d
00000070: 9422 8f3a e10f cf3d b799 a43d 0853 24be
00000080: cee8 383e f804 9d3c a928 f93d ba01 133e
00000090: c673 a73d c8d2 153e cd10 f83d 6ad8 0f3d
000000a0: 7487 fe3d 3a16 a9bd 0c6e 0ebe f527 cd3d
000000b0: ce14 d3bd 2337 32be d31d 63bd c617 0bbe
000000c0: 9cb8 073e a8c0 14bd 161c 203e f845 8ebd
000000d0: 1348 263d 2e1f 463e d53c 1abe 4082 bbbd
000000e0: c4cd 373c 309d 0cbe b668 4d3e 7880 15be
000000f0: 98b8 f63d 9450 423d 897e ebbd bc3e 9c3c
00000100: 75e6 2dbd c09a f6bd f40a 2b3e 778a 93bb
00000110: f69c 02be 7133 a93d b63a a9bc b382 ebbd
00000120: a1a6 773d 1e5d f2bd 33ed db3d 87d8 17be
00000130: c698 18be 9557 e8bc c2ab a93c db77 863d
00000140: 0b91 223e 86de 04be 4491 d9bd bccd 9d3d
00000150: bbf8 c9bd 99e8 18be defb 29be c427 063d
00000160: 5ee5 5e3d 2c7b 78bd d114 1fbe 8a16 513d
00000170: 7440 35be 8012 43bc 5198 48ba ba88 d53d
00000180: 2ec2 be3d 40a1 1dbe 1f5d 87bc b419 a63d
00000190: c982 9e3d 03bf 053d 7388 96bd 2450 cf3c
000001a0: ef90 023d 72bc 8bbd 1238 43be 0006 d3bd
000001b0: 3d94 45be 16c8 823b a0a2 593e 6858 eb3c
000001c0: ba41 233e 8f3c 0dba 03ed 3d3e 60c9 c53d
000001d0: a75c 79bd 736d 963c d0e9 dc3d f72d 223e
000001e0: 4678 acbd bd29 17be e241 e03d 56fc 143e
000001f0: 734c e03d b639 5cbe 4247 c6bd 9750 33be
00000200: 07ec 1b3d 5a04 c5bb 026d 9abc 6dc4 afbc
00000210: 45b3 c73d 2ee8 cd3d e995 eabd 25e9 07be
00000220: 3271 2fbd be4b d8bd 9a23 a1bd 27bf 1a3e
00000230: 6ecd a63d 1ed5 8f3d 0fe0 093e eeba 4fbd
00000240: ab7e a3bc 4415 2c3d 84fd 8d3d 0956 5f3b
00000250: 054f 20be da20 573d ba3c 183e dcad e43d
00000260: 37bd 87bd 96dd 95bd 7300 91bc 439f d5bc
00000270: a6f2 0cbd 97dd 803d 9bd6 7fbd 62d5 c53d
00000280: cf63 643d e361 ecbd 950c 8d3d 8cc2 663d
00000290: 3732 4c3e 0ddd 1b3e 837e ab3b 20c3 3a3e
000002a0: d2d0 aa3c eb5d 0fbe 3509 2fbd 3b83 5dbe
000002b0: f3f7 6c3d 6687 a63b b86a 28bc 62dd 553d
000002c0: f126 c8bd 0cb2 893a cd2b 09be 95bb a6bd
000002d0: 84ca be3d bf73 ecbd 17dc 2b3d dfe8 bebd
000002e0: 19ef a03d 290d 34bd 7080 1f3c e9cb 8d3d
000002f0: d995 923d cb66 e53d 61f2 703d a3f2 8bbd
00000300: c17f db3c 7c13 7e3d 25aa 813d 97fc a8bd
00000310: 2d17 40bd 5d22 6ebd acca 98bd 42f5 083e
00000320: 767e b53d 93fc 0cbe e7a8 b9bd 132b 173e
00000330: d36c 87bd dba7 0fbe f6f4 d83c c075 c83d
00000340: c802 083e a6bc 68bd 39fa 84bc 103f 5a3e
00000350: 9505 81bd 7c1d 60bd b643 893c 291e f8bd
00000360: 060c 8c3d f0f6 b8bd b8d9 f33d 4f4c eabd
00000370: 8855 103d fd31 313c 9d6f 1ebe 1905 0a3e
00000380: 22e7 8d3d 6c93 363c ab73 2d3d b179 cc3d
00000390: 362d 3abe 3dce 253e 8a9a de3c 85d7 003e
000003a0: c9ee 2d3d c774 08be 6901 2cbd 9b3f 83bd
000003b0: f23b febd 4edc d13d c73b 153d a2c3 6e3d
000003c0: d67f 6ebe 9fc9 fc3d 81ad febd 6b5b cebd
000003d0: 0d29 113e 862e 173e ca57 8b3d 48a0 bebd
000003e0: 8415 05bd 4502 683d 1717 2bbc 5208 283d
000003f0: 85f4 05bd 24d5 50be b201 9ebc 8e92 1e3e

actor_layer.2.weight f4 [181, 256]
0.034637872 0.039067693 0.043273445 -0.0341 -0.04289341 0.03291522 0.050076395 0.035978507
-0.028348826 -0.01679576 0.020604307 -0.047955744 0.052258052 0.052555885 -0.03160911 0.061684914
-0.012124095 -0.03655279 -0.037647445 -0.04009212 -0.023579085 -0.03585392 -0.009170082 0.005627472
0.019844074 0.027318988 0.005965987 0.016098132 -0.052795902 0.02345203 -0.004639498 -0.0011229028
-0.05421524 0.035762902 0.007099002 -0.0029630214 0.010631073 -0.020666286 -0.0114289485 0.043339916
-0.028665341 0.015062374 0.02248073 0.0006240659 0.06285632 0.036599558 -0.0026051744 -0.038508125
0.0030760684 -0.05128592 -0.033289995 0.01040045 -0.036294986 0.0086431 -0.038692046 -0.00046188722
0.011206854 0.039739825 -0.07338419 -0.046607893 0.0056381132 0.00913763 0.04161485 -0.04752911
-0.04745475 -0.035077136 -0.0006033573 0.0008892547 -0.012546886 0.025584871 0.027057324 -0.019781228
0.042255744 -0.013279217 -0.039395723 -0.018422665 0.0685555 0.044449024 -0.022765806 0.010212491
-0.03875561 -0.042870935 -0.019024821 -0.034281272 0.054940958 0.065661766 -0.031713754 0.054120515
-0.019133063 -0.006050228 0.00075685186 -0.038372397 0.018074468 0.05765664 0.04586338 -0.028759774
-0.05181359 0.05866133 -0.0006542218 -0.012683973 0.021283042 -0.027592631 0.061061554 0.010524022
-0.027991991 0.028678143 0.043847986 0.0058561075 -0.016909903 0.019536076 -0.06855833 0.049612597
0.046771158 -0.03234365 -0.06815116 -0.0030200374 -0.055573065 -0.0026725803 0.03294666 -0.052149363
0.029180326 0.031586364 0.051343605 -0.021035293 0.032540694 -0.03234948 -0.0241507 0.05773874
0.015632592 -0.027658474 -0.022386763 0.016611138 0.037994545 -0.032211065 -0.0031892539 0.036174744
0.021347996 0.041652884 -0.04658359 -0.0060087917 0.045100026 0.0023592738 -0.038282376 -0.042871907
0.042219963 0.054191608 -0.0016537941 0.05561915 -0.01620702 0.024889523 0.044253126 -0.054515943
0.0438529 -0.019989887 -0.04965479 0.02957304 -0.022574617 0.05268857 -0.005442844 -0.06709387
0.04310157 -0.0568313 0.018182542 -0.020184636 -0.022222232 0.043835945 0.011277113 -0.0044107344
-0.029074147 0.03969087 0.01897294 -0.021406027 -0.045684367 -0.029350739 0.0066089416 -0.046280645
0.028502729 -0.058576204 0.0701483 0.01853223 -0.028150892 0.02017003 -0.027114755 0.05740732
0.041094746 0.013395697 0.027338617 -0.052069306 -0.006917084 0.008018572 -0.048104584 0.041087292
-0.044452053 -0.033061482 -0.0680804 0.0019655733 0.04241975 -0.023039896 0.011514816 -0.042919576
0.025629621 -0.038398407 0.03462459 -0.023753455 0.0077490914 0.042633988 0.003036785 -0.065736465
-0.02036288 -0.03775493 -0.060054842 -0.03270104 -0.049068592 -0.0560088 0.012342713 -0.0064531295
-0.05116991 0.03709875 -0.064020656 0.052691933 0.029304743 -0.03461842 0.054593604 -0.06290981
0.0277903 -0.046610106 0.006247573 -0.04015673 0.04281078 -0.012690762 -0.04997309 -0.023923999
0.049850486 0.0020853486 -0.05208482 -0.023485163 0.0142147355 -0.0008990111 0.022475364 -0.03342029
0.010199186 -0.053312793 0.061292294 -0.0052250475 0.011856561 0.021645851 -0.05144425 0.061679445
0.0044528916 -0.00033472857 -0.021788323 0.026785735 0.03892307 0.07940677 0.013505775 0.003788624
00000000: 71e0 0d3d 7205 203d 7f3f 313d 71ac 0bbd
00000010: 00b1 2fbd 1cd2 063d e81c 4d3d 335e 133d
00000020: cc3b e8bc 4397 89bc 5dca a83c 3e6d 44bd
00000030: 8a0c 563d d744 573d 8e78 01bd 52a9 7c3d
00000040: 24a4 46bc 61b8 15bd 3534 1abd a337 24bd
00000050: ed28 c1bc 8fdb 12bd 1d3e 16bc a866 b83b
00000060: 0a90 a23c 12cc df3c 547e c33b 3be0 833c
00000070: 8440 58bd 791e c03c ee06 98bb 5e2e 93ba
00000080: cd10 5ebd 1f7c 123d bf9e e83b 402f 42bb
00000090: f42d 2e3c 584c a9bc 7c40 3bbc 3285 313d
000000a0: 94d3 eabc 2dc8 763c 8229 b83c 5b98 233a
000000b0: d0ba 803d 6be9 153d 93bb 2abb b2ba 1dbd
000000c0: dd97 493b 2f11 52bd 175b 08bd a666 2a3c
000000d0: 0daa 14bd ca9b 0d3c 8d7b 1ebd 7429 f2b9
000000e0: f49c 373c 3ac6 223d 734a 96bd ebe7 3ebd
000000f0: ecbf b83b 00b6 153c 5574 2a3d e2ad 42bd
00000100: e95f 42bd 0bad 0fbd 9f2a 1eba df1c 693a
00000110: 7491 4dbc 5d97 d13c 52a7 dd3c 3e0c a2bc
00000120: 5c14 2d3d 1391 59bc 695d 21bd 21eb 96bc
00000130: d366 8c3d 2e10 363d 5b7f babc 4b52 273c
00000140: 34be 1ebd 6f99 2fbd f1d9 9bbc 856a 0cbd
00000150: c509 613d ad79 863d 48e6 01bd 79ad 5d3d
00000160: f1bc 9cbc fe40 c6bb 7867 463a 602c 1dbd
00000170: e810 943c 5e29 6c3d 3ddb 3b3d 9e99 ebbc
00000180: 7d3a 54bd dd46 703d 1580 2bba 70d0 4fbc
00000190: c659 ae3c f109 e2bc ae1b 7a3d f36c 2c3c
000001a0: 764f e5bc 6dee ea3c f299 333d 97e4 bf3b
000001b0: a386 8abc 1f0a a03c 4f68 8cbd 9436 4b3d
000001c0: 1d93 3f3d c67a 04bd d692 8bbd d2eb 45bb
000001d0: 95a0 63bd 7526 2fbb 14f3 063d 929a 55bd
000001e0: 940b ef3c b460 013d ac4d 523d 3552 acbc
000001f0: 6449 053d e380 04bd b0d7 c5bc 757f 6c3d
00000200: ec0f 803c 0694 e2bc 7264 b7bc 1514 883c
00000210: 2ba0 1b3d c0ef 03bd cd02 51bb f82b 143d
00000220: fee1 ae3c 379c 2a3d 6fce 3ebd 66e5 c4bb
00000230: ceba 383d 0c9e 1a3b fbcd 1cbd 749a 2fbd
00000240: d7ee 2c3d 05f8 5d3d 1fc4 d8ba e8d0 633d
00000250: 96c4 84bc 1de5 cb3c c442 353d 1c4c 5fbd
00000260: 199f 333d d5c1 a3bc d262 4bbd 2943 f23c
00000270: 67ee b8bc f8cf 573d e259 b2bb 8368 89bd
00000280: 468b 303d f0c7 68bd 8ef3 943c 405a a5bc
00000290: 660b b6bc 528d 333d a4c3 383c ec87 90bb
000002a0: e82c eebc e592 223d 246d 9b3c b15b afbc
000002b0: 881f 3bbd f670 f0bc d28f d83b c690 3dbd
000002c0: 8e7e e93c 9aed 6fbd e9a9 8f3d e7d0 973c
000002d0: b39c e6bc 9e3b a53c c31f debc f023 6b3d
000002e0: f752 283d a079 5b3c 3cf5 df3c a046 55bd
000002f0: b5a8 e2bb 5460 033c 5009 45bd 264b 283d
00000300: 5b13 36bd 7a6b 07bd bd6d 8bbd d9d0 003b
00000310: 55c0 2d3d 2abe bcbc a4a8 3c3c 70cc 2fbd
00000320: 36f5 d13c a647 1dbd 84d2 0d3d 9b96 c2bc
00000330: 17ec fd3b faa0 2e3d cc04 473b d7a0 86bd
00000340: 0ed0 a6bc eaa4 1abd 11fc 75bd 87f1 05bd
00000350: 26fc 48bd 7c69 65bd 1739 4a3c c674 d3bb
00000360: 8a97 51bd dcf4 173d 431d 83bd 7fd3 573d
00000370: 8010 f03c 0bcc 0dbd 8b9d 5f3d dcd6 80bd
00000380: 7ca8 e33c 3dea 3ebd 71b8 cc3b 627b 24bd
00000390: 5b5a 2f3d eaec 4fbc 95b0 4cbd 43fc c3bc
000003a0: 0630 4c3d 58aa 083b e456 55bd f563 c0bc
000003b0: ece4 683c 9dab 6bba 411e b83c b7e3 08bd
000003c0: 7d1a 273c 845e 5abd a10d 7b3d e036 abbb
000003d0: 0542 423c a452 b13c 35b7 52bd 96a3 7c3d
000003e0: 90e9 913b 827e afb9 6d7d b2bc c26d db3c
000003f0: cc6d 1f3d 04a0 a23d 5347 5d3c 904a 783b

actor_layer.2.bias f4 [181]
-0.04837927 -0.037649114 -0.005286088 -0.018800246 0.16455784 0.028849386 -0.07591997 -0.09938023
0.022810426 -0.025910549 -0.084659725 0.07346851 -0.06263808 -0.07767409 -0.007804215 -0.049825676
-0.021675661 -0.054692946 -0.08394717 0.03125731 0.19121087 -0.08005987 -0.11383841 0.059284203
0.13251121 0.035510622 -0.049338855 0.08729318 0.032945395 -0.031652905 -0.052244842 -0.033035286
-0.03756818 0.06867272 0.064249486 0.28984603 -0.062086046 0.021116428 -0.061092384 0.017728284
-0.05992801 -0.07968993 -0.06572074 -0.067637295 -0.023369357 -0.06119578 -0.07676951 -0.048830185
0.13041125 -0.04926896 -0.028724648 0.032167558 -0.06870646 -0.044035554 -0.09922896 -0.10434661
-0.041197427 -0.0058824867 -0.058026087 -0.034817033 -0.087244704 -0.024686178 -0.029983064 -0.054224446
-0.11103169 -0.10049769 -0.02128831 -0.104837075 -0.024922028 -0.015289423 0.004067637 0.0148617625
-0.020244202 -0.06847161 0.22811134 0.03527744 -0.07638962 -0.051761843 -0.00015243143 -0.03688032
-0.009518318 0.015670419 -0.064804636 0.02224873 -0.07256974 -0.04025587 0.19044906 0.31577948
0.14389072 0.0063337344 -0.059518386 -0.003490311 -0.022164984 -0.014816467 -0.08751147 -0.042152673
0.051030356 -0.020943142 -0.10966713 -0.019409172 -0.0744473 -0.020052396 -0.05932813 -0.120861486
-0.083937846 -0.035454802 -0.03363868 -0.09871139 -0.037793316 -0.03751094 0.028248895 0.011464113
-0.00071289367 -0.00545315 -0.030103633 -0.04425121 -0.045923606 -0.09951595 0.29739356 0.037966877
0.16774283 0.31025913 0.0041013137 0.12852466 0.18134576 -0.049336728 -0.112840064 0.027306294
0.02234515 -0.015640577 0.008281596 -0.051862113 0.22568198 -0.035337545 0.053675525 -0.041671496
0.20816657 0.006006129 -0.03696711 -0.09585614 -0.11260611 -0.10821366 0.15938699 0.32585055
-0.09919987 -0.0633821 -0.07906603 -0.05842561 -0.052793078 -0.08601021 -0.10133752 -0.0791503
0.021108732 -0.011651382 -0.11362309 0.05366108 -0.05218475 -0.0519942 -0.10411102 -0.10030456
-0.0017955012 0.19903047 0.2396836 -0.11320652 -0.03513884 -0.023764124 -0.11915391 0.15808676
-0.0039074346 -0.0005148277 -0.10922944 0.17485534 0.13345791 0.015257929 -0.050454125 7.033348e-05
-0.07261526 -0.04997219 0.11486882 -0.04158985 0.1260129
00000000: 5729 46bd f535 1abd ec36 adbb f902 9abc
00000010: da81 283e 8c55 ec3c ee7b 9bbd dd87 cbbd
00000020: eedc ba3c 5c42 d4bc 1462 adbd a876 963d
00000030: 6548 80bd 9813 9fbd 80ba ffbb 0216 4cbd
00000040: 2891 b1bc b605 60bd 7eec abbd aa07 003d
00000050: c8cc 433e 6ef6 a3bd 1d24 e9bd fed3 723d
00000060: 05b1 073e 9673 113d 8a17 4abd c4c6 b23d
00000070: c0f1 063d 7aa6 01bd b0fe 55bd 0250 07bd
00000080: 18e1 19bd 48a4 8c3d 3c95 833d b366 943e
00000090: f04d 7ebd 5cfc ac3c 023c 7abd e83a 913c
000000a0: 1377 75bd 7934 a3bd 9898 86bd 6c85 8abd
000000b0: 1871 bfbc 6da8 7abd 5539 9dbd 2902 48bd
000000c0: 878a 053e 40ce 49bd f44f ebbc 21c2 033d
000000d0: f9b5 8cbd a05e 34bd 8e38 cbbd adb3 d5bd
000000e0: a2be 28bd e0c1 c0bb c3ac 6dbd 4e9c 0ebd
000000f0: 5aad b2bd ab3a cabc 0b9f f5bc 741a 5ebd
00000100: 9564 e3bd bcd1 cdbd d264 aebc d2b4 d6bd
00000110: 4829 ccbc 7d80 7abc d049 853b c07e 733c
00000120: 2bd7 a5bc d83a 8cbd 0596 693e 147f 103d
00000130: 2972 9cbd 3a04 54bd 00d6 1fb9 d20f 17bd
00000140: b8f2 1bbc 405f 803c 4bb8 84bd f842 b63c
00000150: 729f 94bd 57e3 24bd 1405 433e d9ad a13e
00000160: 1758 133e 378b cf3b 8dc9 73bd b4bd 64bb
00000170: 5793 b5bc c4c0 72bc 3739 b3bd 48a8 2cbd
00000180: 3505 513d f490 abbc 2999 e0bd fcff 9ebc
00000190: d377 98bd ec44 a4bc 0e02 73bd 3a86 f7bd
000001a0: 9be7 abbd 0e39 11bd b6c8 09bd 3229 cabd
000001b0: 2acd 1abd 12a5 19bd 3a6a e73c fad3 3b3c
000001c0: 7ce1 3aba 56b0 b2bb e59b f6bc c240 35bd
000001d0: 641a 3cbd 05cf cbbd f843 983e 2883 1b3d
000001e0: c7c4 2b3e 49da 9e3e 5064 863b f89b 033e
000001f0: b4b2 393e 4f15 4abd b118 e7bd 73b1 df3c
00000200: 2d0d b73c ab20 80bc 88af 073c 5e6d 54bd
00000210: 2d19 673e 1abe 10bd deda 5b3d bbaf 2abd
00000220: 9e29 553e 10cf c43b d36a 17bd 3950 c4bd
00000230: 089e e6bd 209f ddbd 5836 233e e2d5 a63e
00000240: 4d29 cbbd 79ce 81bd 5fed a1bd b14f 6fbd
00000250: 8e3d 58bd 1f26 b0bd 0c8a cfbd 8d19 a2bd
00000260: 38ec ac3c 70e5 3ebc 39b3 e8bd b8cb 5b3d
00000270: adbf 55bd dff7 54bd 2938 d5bd 7a6c cdbd
00000280: 0657 ebba a5ce 4b3e 9e6f 753e d2d8 e7bd
00000290: bfed 0fbd fbac c2bc f706 f4bd 7fe1 213e
000002a0: f009 80bb 81f5 06ba afb3 dfbd 470d 333e
000002b0: 31a9 083e 65fc 793c fca8 4ebd 0080 9338
000002c0: 4fb7 94bd a4af 4cbd 5840 eb3d 1e5a 2abd
000002d0: 8709 013e
