model/ckpt/Dense_ComputationalThinking_binn_policy.pt (torch, 825544 bytes, 6 tensors)

obs_layer.weight f4 [256, 272]
0	0x3c88500a	0.016639728
1	0xbd1500ed	-0.036377836
2	0xbc8b765a	-0.017024208
3	0xbbf5b130	-0.007497929
4	0x3d6e4fdf	0.05818164
5	0xbd46794a	-0.048455514
6	0xbcd84300	-0.026399136
7	0xbd0ca15c	-0.03433357
8	0x3d3756d4	0.04476054
9	0x3ce83774	0.028346755
10	0x3c6a3e99	0.014297151
11	0x3cf31aa8	0.029675797
12	0xbc10be79	-0.008834475
13	0xbc75cf71	-0.015003071
14	0x3cea8015	0.028625527
15	0x3d617c5b	0.055050235
16	0xbcb90bd5	-0.02258865
17	0xbd471b62	-0.0486101
18	0xbb82707c	-0.0039806943
19	0x3ca0b914	0.019619502
20	0x3d342a30	0.043985546
21	0x3cdd90e9	0.027046638
22	0x3c70a2f5	0.0146872895
23	0xbc85da6f	-0.016339509
24	0x3c60333c	0.01368409
25	0x3cfd851b	0.030947259
26	0x3cc684d7	0.024233265
27	0x3b4dcff4	0.0031404467
28	0xbd364110	-0.044495642
29	0x3caf52de	0.021401819
30	0x3a284fe9	0.0006420599
31	0x3d58d608	0.05293849
32	0x3cf7c6d7	0.030246181
33	0xbc9aaee9	-0.018882232
34	0xbd4a95b8	-0.04945919
35	0x3c9a557e	0.018839594
36	0xbd05b434	-0.03264256
37	0xbc848747	-0.016177787
38	0x3ce74d5c	0.02823513
39	0x3d5e2766	0.054236792
40	0xbc16c53d	-0.009202299
41	0xbb38a2cc	-0.0028173206
42	0xbc928a6d	-0.017888272
43	0x3d351fc7	0.04421976
44	0x39742c38	0.00023286126
45	0xbc2682b2	-0.010162996
46	0x3d70d502	0.05879689
47	0x3d3facb9	0.04679558
48	0x3c6047cb	0.013688992
49	0x3cd97611	0.026545556
50	0x3d5af676	0.0534577
51	0xbd483621	-0.048879746
52	0xbce5272f	-0.027972786
53	0x3cd6c353	0.026216185
54	0xbbb15717	-0.0054119932
55	0xbd1f6b6a	-0.038920797
56	0x3c1a08de	0.009401528
57	0x3d0f0a3c	0.03492187
58	0xbd364cbc	-0.044506773
59	0x3c856d81	0.016287567
60	0xbd62f93d	-0.055413473
61	0x3d4d78fb	0.050164204
62	0xbcaf8f2b	-0.021430572
63	0xbd713946	-0.05889251
64	0xbb6773b2	-0.0035316763
65	0x3cf4657d	0.02983355
66	0xbc94bf94	-0.018157758
67	0xbb3a02b7	-0.0028382966
68	0xbd47a937	-0.04874536
69	0xbcd2d18b	-0.025734683
70	0xbcb57393	-0.022149837
71	0x3b02846f	0.0019915362
72	0x3d61b0c6	0.055100225
73	0x3ca0d5ec	0.019633256
74	0xbd39f9c6	-0.045404218
75	0xbd2486ed	-0.040167738
76	0xbcdc472b	-0.026889404
77	0xbc060364	-0.008179519
78	0x3d3a034b	0.045413297
79	0x3bcf448c	0.00632531
80	0xbb344a49	-0.0027510098
81	0xbcfe141d	-0.03101545
82	0xbbbece30	-0.0058229193
83	0xbc83a1de	-0.016068395
84	0x3b5618ce	0.0032668593
85	0x3c900fdc	0.017585687
86	0x3cce58b3	0.02518878
87	0x3c1e1e22	0.009650739
88	0x3c315f85	0.010825996
89	0x3cfb34b7	0.030664785
90	0xbd11d35f	-0.03560197
91	0x3c2b8659	0.010469043
92	0x3c879652	0.01655117
93	0xbcffc912	-0.031223807
94	0xbd565cb1	-0.05233449
95	0xbd6051d3	-0.054765534
96	0xbd76eea7	-0.06028619
97	0x3d112c5d	0.0354427
98	0x3d715a2f	0.058923896
99	0xbc252324	-0.010079179
100	0x3d3b06a2	0.045660622
101	0x3bdcf0f2	0.00674259
102	0x3b15be17	0.0022848898
103	0x3d32ba81	0.043634895
104	0x3d2a9338	0.041644305
105	0x3d2c3bb4	0.042049125
106	0xbc633897	-0.013868473
107	0xbc3e4e1a	-0.011615301
108	0x3d116473	0.035496186
109	0xbd416fd9	-0.047225807
110	0xbc8afa95	-0.01696519
111	0xbccbe40c	-0.024889015
112	0xbbb92ff4	-0.0056514684
113	0x3d3b63d9	0.04574952
114	0xbc74fa41	-0.014952243
115	0xb9f81d2b	-0.00047323978
116	0xbc0188c6	-0.0079061445
117	0xbd031a07	-0.032007243
118	0xbd61a95d	-0.055093158
119	0xbd22789c	-0.039665803
120	0x3cc56144	0.024094231
121	0xbc9ce74f	-0.019153265
122	0x3d3c6ebc	0.046004042
123	0x3cbc1f67	0.022964193
124	0x3ca6d78e	0.020366456
125	0x3c2f3c92	0.010695593
126	0xbd2902e0	-0.041262507
127	0xbcfe7f41	-0.031066539
128	0xbcbeef2c	-0.023307405
129	0xbc664302	-0.014054062
130	0xbc9f063a	-0.019412149
131	0xbd496210	-0.049165785
132	0xbcfd03e9	-0.030885654
133	0x3d093467	0.03349724
134	0xbd27200d	-0.04080205
135	0x3d34cfb4	0.044143394
136	0xbc83e538	-0.016100511
137	0xbcc723c2	-0.024309043
138	0xbcaa4d21	-0.020788731
139	0x3c111cc2	0.008856954
140	0xbd405d46	-0.046963952
141	0x3d31071f	0.04321968
142	0xbd195ac3	-0.037440073
143	0xbce9f838	-0.028560743
144	0xbd5ddd8c	-0.05416636
145	0x3c34e0c0	0.011039913
146	0xba5252e8	-0.0008023218
147	0xbb26706a	-0.0025396594
148	0xbcfac063	-0.030609315
149	0x3cdf8b2d	0.027288044
150	0x3ccdf0cd	0.025139237
151	0xbd05def3	-0.032683324
152	0x3d002beb	0.031291883
153	0x3ced0032	0.028930757
154	0xbc9ebca9	-0.01937707
155	0x3b2ef091	0.0026693682
156	0xbc5f7ae1	-0.013640136
157	0x3c40bf54	0.011764366
158	0xbd59cdd1	-0.053174797
159	0xbcadb164	-0.02120275
160	0xbcd03519	-0.025415944
161	0x3d4aa507	0.04947379
162	0xbd240b62	-0.040049918
163	0xbba5354d	-0.0050417543
164	0xbcae2ad7	-0.021260662
165	0xbc852480	-0.016252756
166	0x3d489b0a	0.04897598
167	0xbd0942a3	-0.033510815
168	0x3be14d94	0.006875703
169	0x3cb03c53	0.02151314
170	0x3c6d6c47	0.014491147
171	0x3d07dda8	0.033170372
172	0x3d130955	0.03589757
173	0xbd16cb9b	-0.036815267
174	0xbd778d01	-0.060437206
175	0xbc82e102	-0.015976433
176	0x3d62bc14	0.055355147
177	0x3c7c557c	0.01540124
178	0x3d66998b	0.056298774
179	0x3cad0a7b	0.021123162
180	0x3d741825	0.05959334
181	0x3d5688f1	0.05237669
182	0xbd12574a	-0.035727777
183	0x3c88c2a3	0.016694373
184	0x3c78eec0	0.015193641
185	0xbd177fef	-0.03698724
186	0xbd1ac7e7	-0.037788298
187	0x3c68ea98	0.014216088
188	0xbd0b0bee	-0.033946924
189	0x3bb4c4b5	0.0055166134
190	0x3d743809	0.05962375
191	0xbd5cf15e	-0.053941123
192	0xbd44ba1f	-0.04802906
193	0x3d151e7c	0.036406025
194	0xbd5a5c68	-0.05331078
195	0x3d0cee7c	0.034407124
196	0x3d5922ae	0.05301159
197	0x3d6996db	0.057028633
198	0x3c4b346f	0.012402638
199	0x3ced756b	0.028986653
200	0x3ca3098c	0.019902013
201	0x3d24047d	0.040043343
202	0xbd6a57fb	-0.05721281
203	0x3d6e2d6f	0.058148798
204	0xbc544933	-0.012956905
205	0xbc406449	-0.01174266
206	0xbd0c2293	-0.03421266
207	0x3cf3cd48	0.029760972
208	0x3d0e73f0	0.034778535
209	0x3d344a78	0.04401633
210	0x3d52a39b	0.051425558
211	0x3b32585c	0.002721331
212	0x3c0f3da1	0.008742721
213	0x3d1f233d	0.038851965
214	0x3cb68c89	0.02228381
215	0x3d731d47	0.059354093
216	0xbb3e8911	-0.0029073397
217	0xbc40e2fb	-0.011772866
218	0x3cbe4ddb	0.023230484
219	0xbd29a57d	-0.041417588
220	0xbcb601e6	-0.022217702
221	0xbce90a71	-0.028447362
222	0x3d30fe1c	0.043211088
223	0x3d3485b3	0.044072818
224	0xbcf59e3d	-0.02998268
225	0xbd09190d	-0.033471156
226	0xbd758a9c	-0.05994664
227	0xbcffce59	-0.031226324
228	0x3cbf506e	0.023353782
229	0x3d488bd7	0.048961487
230	0x3d5d01ae	0.05395668
231	0xbd42bf9d	-0.047546018
232	0xbc8ecfca	-0.017433066
233	0xbca8d31f	-0.020608483
234	0x3d5f3d5e	0.054501884
235	0xbccdeaa6	-0.025136303
236	0x3bede073	0.0072594224
237	0xbcbb2742	-0.022845868
238	0x3d143d58	0.036191314
239	0x3d048968	0.032357603
240	0x3d51fa71	0.05126423
241	0x3d069755	0.032859165
242	0xbd6ba0a4	-0.057526246
243	0x3ce5862e	0.028018083
244	0x3d25c626	0.040472172
245	0xbc9fffb4	-0.019531108
246	0x3d5d7a65	0.054071803
247	0x3d2def08	0.042464286
248	0xbd0fcf9c	-0.0351101
249	0x3cc527d0	0.024066836
250	0xbc882353	-0.016618406
251	0x3d18f31c	0.037341222
252	0x3bc68c02	0.0060591707
253	0x3d43f5d7	0.047841873
254	0x3cc2cebc	0.02378022
255	0x3d2a1a24	0.041528836

obs_layer.bias f4 [256]
0	0xbc93bada	-0.018033434
1	0x3caf67dd	0.02141183
2	0x3cac8e07	0.021063818
3	0x3bed3786	0.007239285
4	0x3c53c871	0.012926207
5	0xbcefbbf1	-0.029264422
6	0xbc4f8b8d	-0.012667549
7	0x3d71c599	0.059026334
8	0x3d07a482	0.03311587
9	0x3c6cc161	0.014450402
10	0x3ce7fb70	0.028318137
11	0xbd0d09bb	-0.034433108
12	0xbcb62da1	-0.022238554
13	0xbbc33ae4	-0.005957948
14	0xbca40fc2	-0.020027045
15	0x3d246d91	0.040143553
16	0x3ca80386	0.020509493
17	0x3cfee01d	0.031112725
18	0x3cb27fc6	0.021789443
19	0x3c6d988a	0.0145017
20	0xbc5d7edc	-0.013519015
21	0x3d0fc30f	0.03509813
22	0x3cf3f16c	0.029778205
23	0xbcfacb46	-0.030614506
24	0xbc804c29	-0.015661316
25	0x3d05f464	0.032703772
26	0xbc48a969	-0.012247422
27	0x3ca97842	0.020687226
28	0xbcb92ffc	-0.022605889
29	0x3cca2d2d	0.024679745
30	0xbd471b74	-0.048610166
31	0x3c3102b0	0.010803863
32	0x3d4b18ac	0.049584076
33	0x3d207141	0.039170507
34	0x3c9a272f	0.018817512
35	0x3ce9ab00	0.028523922
36	0xbca519f8	-0.020153984
37	0x3d522f5e	0.051314704
38	0xbceb2fe4	-0.02870936
39	0xbd247bd0	-0.04015714
40	0xbca9233c	-0.020646684
41	0x3cf1ebfc	0.029531471
42	0x3b1ee177	0.0024243274
43	0x3bdd345e	0.0067506274
44	0xbd72c7bb	-0.05927251
45	0x3d556e53	0.052107166
46	0xbd3c47c7	-0.04596689
47	0x3b74e966	0.0037370562
48	0x3c579968	0.0131591335
49	0x3ce7531f	0.028237877
50	0xbd430ec4	-0.047621503
51	0x3d2fba6b	0.04290239
52	0x3d2825f7	0.04105183
53	0x3c8cc3f1	0.017183276
54	0x3cfc168f	0.030772476
55	0x3a14c008	0.0005674367
56	0xbc1ce381	-0.0095757255
57	0xbc8d30d3	-0.017235195
58	0xbd33fead	-0.04394405
59	0x3c954b66	0.01822443
60	0xbd780383	-0.060550224
61	0x3ca729f8	0.020405754
62	0x3be70586	0.007050219
63	0xbd0b3db6	-0.0339944
64	0x3d2f406e	0.042786054
65	0x3c67d239	0.014149242
66	0x3b6eca41	0.003643647
67	0xbc37a18f	-0.011207952
68	0x3c361d69	0.01111541
69	0x3d44c26b	0.048036974
70	0x3c93480b	0.017978689
71	0xbb3b2edb	-0.0028561864
72	0x3d0ae44c	0.033909127
73	0xbcb28210	-0.021790534
74	0xbd0548e4	-0.032540217
75	0xbcd08a84	-0.025456674
76	0xbca20342	-0.019776944
77	0xbcd89819	-0.026439713
78	0xbd062830	-0.03275317
79	0x3d09943e	0.03358864
80	0xb94d1a0d	-0.00019560028
81	0x3ca357e2	0.019939367
82	0x3c229d3d	0.009925184
83	0x3cc0dbdb	0.023542335
84	0x3d2b75f0	0.04186052
85	0x3c1029ad	0.008798999
86	0xbd6a2f2f	-0.057173904
87	0x3d01beb5	0.031676013
88	0x3c57cbac	0.013171118
89	0x3d2ebf8b	0.04266314
90	0x3d26e355	0.040744144
91	0xbc77d60c	-0.015126716
92	0xbce2d20b	-0.027688047
93	0xbc912da9	-0.017721968
94	0x3cafb3c7	0.02144803
95	0x3d5447af	0.051826175
96	0x3d535bf0	0.05160135
97	0xbbe216a4	-0.0068996716
98	0x3d13d71f	0.036093827
99	0xbd15bfc7	-0.036559846
100	0x3ca8c1ac	0.020600162
101	0x3d42a5c9	0.047521386
102	0x3c8d6a81	0.0172627
103	0x3c61b5d7	0.013776264
104	0xbb01a074	-0.0019779475
105	0x3b31be3b	0.0027121443
106	0x3c22fc29	0.009947815
107	0x3d6a1919	0.05715284
108	0x3d4e7915	0.05040844
109	0xbc7f5bc7	-0.015585846
110	0xbd6f8f20	-0.058486104
111	0xbd49e594	-0.04929121
112	0xbd251619	-0.040304277
113	0x3d48e9e1	0.04905117
114	0x3d36c429	0.044620667
115	0xbadb55aa	-0.0016733904
116	0x3d30c7a2	0.043159135
117	0x3c67d0c5	0.014148896
118	0xbd2c129c	-0.042009935
119	0xbd28c1cf	-0.041200455
120	0x3d061468	0.032734305
121	0x3d388f1b	0.04505835
122	0xbd26cc10	-0.040721953
123	0x3c3026dc	0.010751452
124	0xbd70dfae	-0.058807068
125	0x3c86d1f1	0.01645753
126	0x3cb349b7	0.021885736
127	0x3d2d91f9	0.04237554
128	0x3caf011b	0.021362832
129	0xbd69b190	-0.057054102
130	0x3d0c6aeb	0.034281652
131	0xbcc75868	-0.024334148
132	0x3c85eae5	0.016347358
133	0xbd712779	-0.058875535
134	0xbd0b3fe5	-0.03399648
135	0xbd495822	-0.049156316
136	0xbb3b6e66	-0.0028599738
137	0x3d58e2ae	0.052950554
138	0x3d52dd9a	0.051480867
139	0xbd09298f	-0.0334869
140	0xbcf2f259	-0.029656576
141	0x3ce7b3b5	0.028283933
142	0xbd49da1a	-0.049280263
143	0x3b1f71c6	0.002432929
144	0x3cef2a1e	0.029194888
145	0xbd702555	-0.058629353
146	0xbd350bc9	-0.044200692
147	0x3cd127f4	0.025531746
148	0x3d11f8fb	0.035637837
149	0x3ccb1150	0.024788529
150	0xbd3a207f	-0.045441147
151	0xbcd8f895	-0.02648572
152	0x3b2e8710	0.0026630796
153	0xbb9f0064	-0.0048523415
154	0x3c6bcb92	0.014391797
155	0x3d6e2dcc	0.058149144
156	0x3d5dc90b	0.054146808
157	0x3d1e1b51	0.03860027
158	0xbd3858e6	-0.045006655
159	0xbcc8b301	-0.024499418
160	0xbd2804fd	-0.041020382
161	0x3d3e522f	0.046465095
162	0x3ccc4e62	0.02493972
163	0xbbb05da5	-0.005382257
164	0xbac602ea	-0.001510707
165	0xbd6df416	-0.058094107
166	0xbcd5d461	-0.026102247
167	0xbcf54804	-0.029941566
168	0xbd2f656c	-0.042821333
169	0xbd47a0cb	-0.04873733
170	0xbcd8db1d	-0.026471669
171	0xba02ae65	-0.0004985093
172	0x3d2f8c0e	0.042858176
173	0x3d1e3484	0.0386243
174	0xbb301c38	-0.0026872288
175	0xbd618c5d	-0.0550655
176	0x3c766c6d	0.015040499
177	0x3d4cbcbc	0.04998468
178	0x3d3f6da0	0.046735406
179	0x3d3550f4	0.044266656
180	0x3c17d12e	0.009266181
181	0xbd159b87	-0.036525276
182	0xbcb5e83c	-0.022205465
183	0x3d4ca76a	0.049964346
184	0xbd3e96c1	-0.04653049
185	0xbd0c6ced	-0.034283567
186	0x3d0f4bde	0.034984462
187	0x3d11e66f	0.03562015
188	0x3c076c1a	0.0082655195
189	0x3d241fba	0.04006932
190	0xbc6e4970	-0.014543876
191	0x3d752633	0.059850883
192	0x3cbac9e6	0.02280135
193	0xbbf07f4e	-0.0073393947
194	0x3ce7fbd5	0.028318325
195	0xbc037183	-0.008022669
196	0xbd0b17a2	-0.033958085
197	0xbca65792	-0.020305429
198	0x3cfc5f71	0.030807229
199	0xbd63f575	-0.055654008
200	0xbbe50480	-0.006989062
201	0xbcd087ab	-0.025455317
202	0x3d63eab8	0.055643767
203	0xbd596ee3	-0.053084265
204	0xbd750548	-0.05981949
205	0x3d3785bc	0.044805273
206	0xbc800fad	-0.015632475
207	0xbd1bd571	-0.03804535
208	0x3a8cafd0	0.0010733549
209	0xbc8c4e06	-0.017127048
210	0x3d3a54b1	0.045490924
211	0xbc8841a8	-0.01663287
212	0xbcc70437	-0.024294002
213	0xbd6191cc	-0.055070683
214	0xbc37ca46	-0.011217659
215	0xbd66b3c4	-0.05632378
216	0xbd61ba06	-0.055109046
217	0xbd542ff6	-0.05180355
218	0xbcaa6500	-0.020800114
219	0xbd34dd9d	-0.04415666
220	0x3c0163b2	0.007897304
221	0x3c170073	0.009216416
222	0xbd273270	-0.040819585
223	0xbd183c28	-0.037166744
224	0x3c11227d	0.00885832
225	0xbbc32911	-0.005955823
226	0xbcf1da82	-0.029523138
227	0x3d04235e	0.03226029
228	0xbc5d248b	-0.013497482
229	0x3c491294	0.012272496
230	0x3a54c9fc	0.0008117256
231	0xbd27db8b	-0.040980857
232	0x3a54587b	0.0008100343
233	0xbc85895a	-0.016300846
234	0x3ce500e0	0.027954519
235	0x3d71909e	0.05897581
236	0x3d2c8057	0.042114582
237	0xbc02ce61	-0.007983775
238	0x3d50adfb	0.05094717
239	0xbd52e094	-0.051483706
240	0x3d275d00	0.040860176
241	0xbcaad286	-0.020852339
242	0xbd15c025	-0.036560196
243	0xbd18de56	-0.03732141
244	0xbd1d36c1	-0.038382296
245	0xbd004568	-0.03131619
246	0x3d3d0771	0.046149675
247	0x3cd8c27c	0.026459925
248	0x3d0a9198	0.033830255
249	0x3baf7844	0.005354913
250	0x3c9c615f	0.019089399
251	0x3d5c999e	0.05385744
252	0x3cb61f71	0.02223179
253	0x3b9cbcca	0.0047832476
254	0x3d2e6c97	0.042584028
255	0x3c42c3a8	0.011887468

actor_layer.0.weight f4 [256, 256]
0	0xbd4d08fc	-0.050057396
1	0x3d024eb4	0.03181334
2	0x3c9f625c	0.019456081
3	0xbd59bbd0	-0.053157628
4	0x3c866d78	0.01640962
5	0xbcbd4d88	-0.023108259
6	0xbd00df30	-0.03146285
7	0xbcd9fec8	-0.026610747
8	0x3c1078f0	0.008817896
9	0x3d37d830	0.044883907
10	0xba47f680	-0.0007627979
11	0x3d699c98	0.057034105
12	0x3d320e5a	0.043470718
13	0xbc59dd80	-0.013297439
14	0x3d25e4ce	0.04050141
15	0x3d25f4b0	0.040516555
16	0x3d24f212	0.04026992
17	0x3d06f55a	0.03294883
18	0x3cfdf770	0.031001776
19	0xbd21fa08	-0.03954509
20	0x3ccf2424	0.025285788
21	0xbcd95e60	-0.02653426
22	0xbaee2300	-0.001816839
23	0x3bb28ce0	0.0054489225
24	0xbc8bd39c	-0.017068677
25	0x3d5af004	0.053451553
26	0x3d15c312	0.036562987
27	0xbd1562a2	-0.036471017
28	0xbd41d78c	-0.047324702
29	0x3d432f5e	0.047652595
30	0x3d37f378	0.044909924
31	0x3b53af40	0.0032300502
32	0xbd21078e	-0.039313845
33	0xba9adec0	-0.0011815652
34	0x3c7e2068	0.015510656
35	0x3d6c9bbe	0.057765715
36	0xbbb93330	-0.005651854
37	0x3c7b8918	0.01535251
38	0xbd0a0112	-0.033692427
39	0xbd32d432	-0.043659396
40	0xbd221c3e	-0.039577715
41	0xbd38172e	-0.04494398
42	0xbc9008a0	-0.017582238
43	0xbb65d140	-0.003506735
44	0x39d24900	0.0004010871
45	0x3d39a062	0.04531897
46	0x3cd4ed9c	0.025992207
47	0x3c2abd38	0.01042109
48	0xbb622820	-0.003450878
49	0x3d293a9e	0.041315667
50	0xbd43ea5e	-0.04783093
51	0x3d4228c8	0.047402173
52	0xbd15ee7e	-0.036604397
53	0xbc832310	-0.01600793
54	0x3d656e14	0.05601318
55	0xbc025730	-0.007955357
56	0x3d146c28	0.03623596
57	0xbd14fe5c	-0.03637539
58	0x3d466e0e	0.0484448
59	0xbc9b7a88	-0.018979326
60	0xbd4f8f00	-0.050673485
61	0x3d25b9d6	0.04046043
62	0xbd452984	-0.048135296
63	0xbd1e8b58	-0.038707107
64	0xbd2aece8	-0.041729838
65	0xba472480	-0.00075966865
66	0x3c57d8c0	0.013174236
67	0xbd252e02	-0.04032708
68	0xbcc8ed90	-0.024527341
69	0x3cc0032c	0.023439012
70	0xbc601338	-0.013676457
71	0xbc6046d8	-0.0136887655
72	0x3d019d24	0.031644
73	0xbd014c34	-0.031566814
74	0x3d324b02	0.043528564
75	0x3d10f646	0.035391115
76	0xbd11857c	-0.03552769
77	0x3cee31f0	0.029076546
78	0x3d394d10	0.04523951
79	0xbcfe24d8	-0.031023428
80	0xbd68b420	-0.056812406
81	0xbcac9458	-0.02106683
82	0x3d605dca	0.054776944
83	0xbbfe5400	-0.0077614784
84	0x3c9ac918	0.018894717
85	0xbb703460	-0.0036652312
86	0x3cbe77a0	0.023250401
87	0x3d6b6aac	0.057474777
88	0xbd782d68	-0.060590178
89	0x3c1c1ab8	0.009527855
90	0xbd0bf4f8	-0.034169167
91	0x3cb36c88	0.021902338
92	0x3d06c77e	0.032905094
93	0x3d61f322	0.05516351
94	0xbd463344	-0.048388734
95	0xbb9a3df0	-0.0047070906
96	0x3c8c5ed4	0.017135061
97	0x3d0a37da	0.03374467
98	0xbc91eefc	-0.017814152
99	0xbd60e4f0	-0.05490583
100	0xbd78e59a	-0.06076584
101	0x3c9c40f0	0.019073933
102	0xbd3e17ec	-0.046409532
103	0x3cdad324	0.026712008
104	0xbd3a7cb2	-0.045529075
105	0x3c5994f8	0.013280146
106	0xbd310eb0	-0.043226898
107	0x3d477e50	0.048704445
108	0x3cf80cfc	0.030279629
109	0x3d26d874	0.04073377
110	0xbcadb69c	-0.021205239
111	0x3d1f3f02	0.03887845
112	0x3d2e481a	0.04254923
113	0xbc978418	-0.018495604
114	0xbd6850b2	-0.056717582
115	0x3b6afd40	0.0035856515
116	0xbc578088	-0.013153203
117	0x3c39f518	0.011349939
118	0x3d0d7290	0.034533083
119	0xbd1ef814	-0.038810804
120	0x3d6ffb6a	0.058589377
121	0x3c653158	0.013988815
122	0x3c26a558	0.010171257
123	0xbbc0a210	-0.0058786944
124	0xbd701d16	-0.05862149
125	0xbd054558	-0.032536834
126	0x3d680684	0.05664684
127	0x3d217d66	0.03942623
128	0x3d4380e0	0.047730327
129	0xbc134768	-0.008989193
130	0x3d1aeb4a	0.037822045
131	0xbc81f878	-0.01586555
132	0x3cb1e974	0.021717764
133	0x3c6d8848	0.014497824
134	0x3d2e35fc	0.042531952
135	0x3b537200	0.0032263994
136	0x3cecb2b4	0.028893806
137	0xbad31980	-0.0016105622
138	0xbd2c664c	-0.042089745
139	0x3b034d80	0.0020035207
140	0xbd06cca0	-0.03290999
141	0x3b735200	0.0037127733
142	0x3d497164	0.049180403
143	0x3c8605e8	0.016360238
144	0x3d556272	0.052095838
145	0x3d4bbf22	0.049742825
146	0x3d0b7b8a	0.034053363
147	0xbd277b46	-0.040889047
148	0x3c62f198	0.013851546
149	0xbd1c509e	-0.03816282
150	0x3c0b7c08	0.008513458
151	0x3d0e40e8	0.03472987
152	0x3d35d98e	0.04439693
153	0x3c849a50	0.016186863
154	0x3c9f5124	0.01944787
155	0xbd66845c	-0.05627857
156	0x3d617614	0.05504425
157	0x3b4e8060	0.0031509623
158	0x3d1813c2	0.037128218
159	0x3d3a56ce	0.04549294
160	0xbcd509f4	-0.026005723
161	0x3ce6c704	0.02817107
162	0x3aa27400	0.001239419
163	0xbd38386c	-0.044975683
164	0xbcc42e28	-0.02394779
165	0xbd37e830	-0.044899166
166	0xbd502e5c	-0.05082546
167	0xbd7af4aa	-0.061268486
168	0xbc691370	-0.014225826
169	0xbd6c5d7e	-0.05770635
170	0x3d72c214	0.05926712
171	0xbc990768	-0.01868029
172	0xbce3697c	-0.02776026
173	0x3d0f4bc2	0.034984358
174	0x3d7d9762	0.061911948
175	0x3d553056	0.05204805
176	0x3d535cbc	0.05160211
177	0xbc97f688	-0.018550172
178	0x3bd300b0	0.006439291
179	0x3d51da4e	0.051233582
180	0xbd272676	-0.040808164
181	0xbd10ee74	-0.035383657
182	0xbc178a28	-0.009249248
183	0xbb106700	-0.002203405
184	0xbc571400	-0.013127327
185	0xbd60e530	-0.05490607
186	0x3d4b2772	0.049598165
187	0xbd2f83de	-0.042850368
188	0xbd6e6eb4	-0.058211043
189	0xbcedbdf0	-0.029021233
190	0xbd40f952	-0.04711277
191	0xbd2ffdac	-0.04296653
192	0x3b810260	0.0039370507
193	0xbc11a948	-0.008890457
194	0xbd73fe6c	-0.059568807
195	0x3d57704c	0.05259733
196	0x3d3d64ea	0.046238817
197	0xbc8471d4	-0.016167559
198	0x3ce7b340	0.028283715
199	0x3d3621d4	0.044465855
200	0x3d14bfb0	0.03631562
201	0x3cdf6508	0.027269855
202	0x3c47de80	0.012199044
203	0x3d27f07a	0.04100082
204	0x3cf28140	0.029602647
205	0xbb467220	-0.0030280426
206	0x3cf5bb0c	0.029996417
207	0x3ca33e74	0.01992724
208	0x3d189ebe	0.037260763
209	0x3d61fb3e	0.055171244
210	0x3c904dac	0.017615162
211	0x3c9595dc	0.018259935
212	0x3d6e0c50	0.05811721
213	0xbce043c4	-0.027376063
214	0xbd6b7f34	-0.057494357
215	0xbc3e1f58	-0.011604153
216	0x3ce63b00	0.028104305
217	0xbd512874	-0.05106397
218	0x3d5709da	0.05249963
219	0x3d413c78	0.047176808
220	0x3c670390	0.01409997
221	0xbd6e9f48	-0.05825737
222	0x3c7c0c90	0.0153838545
223	0xbcdeaee8	-0.027183011
224	0x3d0e771c	0.03478156
225	0xbd7146ac	-0.05890529
226	0xbd07a52a	-0.033116497
227	0x3b4d0320	0.003128238
228	0x3d159cf2	0.036526628
229	0x3cbae304	0.022813328
230	0xbd2445a0	-0.040105462
231	0xbc8611f0	-0.016365975
232	0x3cfe6aec	0.031056844
233	0xbbbcec90	-0.005765505
234	0xbd100600	-0.035161972
235	0x3b2a8380	0.0026018322
236	0xbd607ac6	-0.054804586
237	0x3d1dc5fa	0.038518883
238	0xbd3230fa	-0.04350374
239	0x3d3632fa	0.04448221
240	0xbd40cc2e	-0.04706972
241	0xbcee4078	-0.029083475
242	0xbcba0450	-0.022707134
243	0xbca404b0	-0.020021766
244	0xbc3abdc0	-0.011397779
245	0x3d0a3936	0.033745967
246	0x3c930820	0.01794821
247	0xbd1700a4	-0.036865845
248	0x3d7d83d2	0.06189329
249	0xbd5fe2a8	-0.054659516
250	0x3d01c010	0.031677306
251	0x3d1f4c32	0.038891025
252	0xbbabfd00	-0.005248666
253	0x3d3381c2	0.04382492
254	0xbd063b02	-0.032771118
255	0x3d497bee	0.049190454

actor_layer.0.bias f4 [256]
0	0xbd70460a	-0.058660544
1	0x3ccfe1ec	0.025376283
2	0xbca743c0	-0.020418048
3	0xbc9ecd9c	-0.019385152
4	0xbce5bd28	-0.028044298
5	0xbd729cce	-0.05923157
6	0x3d4114de	0.04713904
7	0x3d5c64ae	0.053806953
8	0x3ca78f44	0.020454057
9	0xbd70aaf4	-0.058756784
10	0x3c828b18	0.015935466
11	0x3a8cde00	0.0010747313
12	0xbd0999d6	-0.033593975
13	0xbc2d4e10	-0.010577694
14	0x3c862390	0.01637438
15	0xbd774a80	-0.060373783
16	0xbc5b9060	-0.013401121
17	0x3d6faff0	0.058517396
18	0xbd35da68	-0.04439774
19	0x3b9a5bc0	0.0047106445
20	0xbc17e240	-0.009270251
21	0xbcc4e3e4	-0.024034448
22	0x3d6f5efc	0.058440194
23	0x3d50d5da	0.050985195
24	0xbc22ef08	-0.009944685
25	0x3d6bf48a	0.057606257
26	0xbd0937a2	-0.03350032
27	0x3cac8dd8	0.02106373
28	0x3d1fbb72	0.03899712
29	0x3ca1a0d4	0.01973001
30	0xbd467c4c	-0.048458382
31	0x3d2cf0ea	0.04222194
32	0xbcc49e6c	-0.024001323
33	0x3cde821c	0.02716165
34	0x3d6f2bdc	0.058391437
35	0x3d3bd10c	0.04585366
36	0xbd183d40	-0.037167788
37	0xbd31920a	-0.043352164
38	0xbcdd0280	-0.026978731
39	0xbd2e6ad6	-0.042582355
40	0x3d1b61a6	0.03793492
41	0x3cbfa224	0.023392744
42	0xbd6cb4fa	-0.05778978
43	0xbd49bce6	-0.049252413
44	0x3d62afec	0.055343553
45	0xbcfad4b0	-0.030618995
46	0xbd3fa866	-0.046791457
47	0xbc8458f8	-0.016155705
48	0x3c1e9e50	0.009681299
49	0x3d11b504	0.03557302
50	0x3d0f894e	0.035043053
51	0x3d789ddc	0.06069742
52	0xbd7cf93e	-0.061761133
53	0xbcb51f10	-0.022109538
54	0x3cf47ed8	0.02984564
55	0x3d3357ca	0.043784894
56	0x3d189d7a	0.037259556
57	0xbc69dbb8	-0.014273576
58	0x3d256e98	0.040388674
59	0xbcd742ac	-0.026276909
60	0xbcbd2908	-0.023090854
61	0x3d3cdda6	0.046109818
62	0x3d3ec238	0.04657194
63	0xbd7709d4	-0.060312107
64	0xbd5f64ca	-0.05453948
65	0xbcb9f490	-0.022699624
66	0x3d5dcf98	0.054153055
67	0xbd3dcf92	-0.046340533
68	0x3d4141dc	0.04718195
69	0xbd1eea34	-0.038797572
70	0x3d193cbc	0.037411436
71	0x3c7f40b0	0.015579388
72	0x3c9db0fc	0.019249432
73	0xbd3f1dee	-0.046659403
74	0x3d662478	0.056187123
75	0xbc77cb98	-0.015124224
76	0xbd78c556	-0.06073507
77	0xbc661ac8	-0.014044471
78	0x3d0369a0	0.032083154
79	0x3bd2c140	0.0064317286
80	0xbd424c18	-0.04743585
81	0xbbe2c830	-0.006920837
82	0x3bc439f0	0.005988352
83	0x3d08a5b4	0.03336115
84	0xbcf831c0	-0.03029716
85	0x39faab00	0.0004781112
86	0x3c9f1578	0.019419417
87	0xbd62f238	-0.05540678
88	0xbcec8ac0	-0.028874755
89	0xba87d800	-0.0010364056
90	0x3d2b000c	0.04174809
91	0x3d7e26e4	0.062048808
92	0x3c0b6760	0.008508533
93	0xbc4a9a38	-0.01236587
94	0x3caa12f0	0.020760983
95	0x3cdfae64	0.027304836
96	0x3d54a7d0	0.05191785
97	0x3c42f1f8	0.01189851
98	0x3ccc51bc	0.024941318
99	0x3bd702c0	0.006561607
100	0xbb5e76a0	-0.0033945218
101	0x3d6b179c	0.057395563
102	0xbc202a48	-0.009775706
103	0x3d7c2d1a	0.06156645
104	0x3c8d33c4	0.017236598
105	0xbd7ff94e	-0.062493615
106	0xbca11198	-0.01966171
107	0x3c253668	0.010083772
108	0x3c0442b8	0.008072548
109	0xbb2d45c0	-0.002643928
110	0xbaf8ba40	-0.0018976405
111	0x3cade258	0.021226093
112	0x3c485158	0.012226425
113	0xbd422c00	-0.047405243
114	0xbc6ae038	-0.0143356845
115	0xbc015a18	-0.007895015
116	0x3ce45ca4	0.027876206
117	0xbd19202a	-0.03738419
118	0xbd2a0adc	-0.041514263
119	0x3d252fde	0.040328853
120	0xbd7adf4e	-0.061248116
121	0xbd455c5e	-0.04818379
122	0xbb224760	-0.002476178
123	0x3b8791a0	0.004137233
124	0xbc4ec338	-0.012619786
125	0x3c288228	0.010284938
126	0xbd7d2efc	-0.061812386
127	0xbcca0e34	-0.024664976
128	0xbcc91594	-0.024546422
129	0xbbce7b80	-0.0063013434
130	0x3d6307da	0.05542741
131	0xbc9a7524	-0.018854685
132	0xbcf969c0	-0.030445933
133	0x39a4b400	0.00031414628
134	0xbbe90720	-0.007111445
135	0x3d1683e4	0.036746874
136	0xbd339c62	-0.04385031
137	0xbd6c1084	-0.057632938
138	0x3ae00980	0.0017092675
139	0xbca083ac	-0.019594036
140	0xbbff76f0	-0.007796161
141	0xbd129312	-0.03578479
142	0xbc74cdd0	-0.014941648
143	0x3d3a3caa	0.04546801
144	0xbd0e5fa2	-0.03475917
145	0xbd544158	-0.05182013
146	0x3d282968	0.041055113
147	0x3ced32b4	0.028954841
148	0x3d19ea38	0.037576884
149	0xbc65f9d8	-0.014036618
150	0x3d69e34e	0.05710154
151	0x3c2ccc18	0.010546707
152	0x3d4eb334	0.05046387
153	0xbd0af7de	-0.03392779
154	0x3d0a81d8	0.033815235
155	0x3d368d7a	0.044568516
156	0x3d3be5d0	0.045873463
157	0x3c33e7c0	0.0109805465
158	0x3ceb45c4	0.02871979
159	0x3ca54d04	0.020178325
160	0x3d119546	0.03554275
161	0xba977900	-0.0011556447
162	0x3d74ec7c	0.05979584
163	0x3c1cd9b8	0.009573393
164	0x3d2676ec	0.040640756
165	0x3d066ea0	0.032820344
166	0xbd0329a0	-0.03202212
167	0xbca0de80	-0.019637346
168	0x3d0f5536	0.034993373
169	0xbcf8384c	-0.030300282
170	0x3d1ee4ca	0.03879241
171	0x3c253ef0	0.010085806
172	0x3c1531d0	0.0091061145
173	0x3d25cd36	0.040478908
174	0xbb65d640	-0.003507033
175	0x3ce5a520	0.02803284
176	0x3c20aae0	0.009806365
177	0x3d2521f0	0.04031557
178	0xbbafb170	-0.0053617284
179	0x3be3d260	0.006952569
180	0x3c25bc00	0.0101156235
181	0xbd1803e8	-0.0371131
182	0x3c594ae8	0.013262488
183	0x3d4d8ece	0.050185017
184	0xbd2aa08c	-0.041657016
185	0xbd5711b6	-0.052507125
186	0x3d4922cc	0.04910545
187	0x3cf7c0b0	0.030243248
188	0x3a5d4380	0.0008440539
189	0xbd29ea4c	-0.04148321
190	0x3cda3fc0	0.026641726
191	0xbce6103c	-0.028083913
192	0x3bd59c10	0.0065188482
193	0x3cbacea0	0.022803605
194	0x3d67e7e2	0.056617625
195	0x3cb3676c	0.021899901
196	0x3d1617d2	0.03664381
197	0x3c0be5e8	0.008538701
198	0xbcb138e4	-0.021633573
199	0xbd290bdc	-0.041271076
200	0x3d51fac2	0.051264532
201	0xbd321418	-0.043476194
202	0x3cef6140	0.029221177
203	0x3d56ce74	0.052442983
204	0x3cadeb80	0.02123046
205	0xbd293a3e	-0.04131531
206	0xbd4e569e	-0.050375573
207	0xbca54460	-0.020174205
208	0x3d4a06ec	0.049323007
209	0x3cd74b94	0.026281156
210	0x3cb70610	0.022341758
211	0xbbc988a0	-0.00615032
212	0xbad27640	-0.001605697
213	0xbc84c434	-0.016206838
214	0xb9730a00	-0.00023178011
215	0xbd05ba4a	-0.032648362
216	0xbccfde80	-0.025374651
217	0xba1f0900	-0.000606671
218	0x3d0d473c	0.034491763
219	0xbd53e0ec	-0.051728174
220	0xbcfe2658	-0.031024143
221	0xbd46f6c4	-0.048575178
222	0xbd3f2f1c	-0.046675786
223	0x3b8550a0	0.004068449
224	0xbcabb5a4	-0.020960636
225	0xbc42b408	-0.011883743
226	0xbb86a430	-0.004108928
227	0xbd49d410	-0.049274504
228	0xbd60e130	-0.054902256
229	0xbd66e9b2	-0.056375213
230	0xbcbe7bc0	-0.023252368
231	0x3d7edfe4	0.062225237
232	0xbc978834	-0.018497564
233	0x3cab2c78	0.020895228
234	0xbd2eb9e6	-0.042657755
235	0xbba30560	-0.004975006
236	0x3cb1c984	0.021702535
237	0x3ca4b184	0.020104177
238	0x3ced5944	0.02897323
239	0x3d047a8a	0.032343425
240	0xbd5821e0	-0.05276668
241	0x3c076d20	0.0082657635
242	0xbd0fa6e4	-0.03507127
243	0x3bdaa450	0.0066724196
244	0x3c6aeac0	0.014338195
245	0x3b75fca0	0.003753461
246	0xbd0ebb0a	-0.034846343
247	0xba994000	-0.0011692047
248	0xbd0465fc	-0.032323822
249	0x3d1582fc	0.03650187
250	0xbd5eb3a8	-0.054370552
251	0x3d3c8bc6	0.046031736
252	0x3d65a314	0.056063727
253	0x3d598e4c	0.05311422
254	0x3d78c920	0.060738683
255	0xbca0945c	-0.019601993

actor_layer.2.weight f4 [272, 256]
0	0x39bb5800	0.00035732985
1	0xbd14075e	-0.03613984
2	0xbd0f7cf6	-0.03503128
3	0x3d35c67e	0.04437875
4	0x3cae30d0	0.02126351
5	0xbd64724a	-0.055773057
6	0x3c816aa4	0.01579792
7	0x3cae8ffc	0.021308891
8	0xbd4f1812	-0.050560065
9	0x3d4aa974	0.04947801
10	0xbb0a4480	-0.0021097958
11	0xba4e2900	-0.0007864386
12	0xbd49d412	-0.04927451
13	0xba0df200	-0.0005414784
14	0xbd756716	-0.059912764
15	0x3d182372	0.03714318
16	0x3cb7d664	0.022441097
17	0x3cee7ec4	0.029113181
18	0xbcefa3ac	-0.02925285
19	0xbb181ac0	-0.0023209304
20	0x3d3fbcb6	0.04681083
21	0x3d4fc85c	0.050728187
22	0xbd71a0ee	-0.058991365
23	0xbc4ef7c8	-0.012632318
24	0x3d7bf8ee	0.061516695
25	0x3d1cc6be	0.038275473
26	0x3c3183d0	0.010834649
27	0x3c2b4f00	0.010455847
28	0x3d3dc170	0.046327055
29	0x3d399c7a	0.045315243
30	0xbd67c720	-0.056586385
31	0xbd02ebb4	-0.031963065
32	0xbca3fb4c	-0.020017289
33	0xbcc7a484	-0.02437044
34	0x3c528388	0.012848742
35	0xbd4f7138	-0.050645083
36	0xbcaf92c4	-0.021432288
37	0x3cd1e88c	0.025623582
38	0x3d24ccfa	0.040234543
39	0x3a86b280	0.0010276586
40	0x3d74be94	0.059752062
41	0x3cb73e04	0.022368439
42	0xbcadaf8c	-0.021201871
43	0x3bdd09b0	0.0067455396
44	0x3d226190	0.039643824
45	0xbcd27414	-0.025690116
46	0xbd6a1f28	-0.05715862
47	0x3d4d6de0	0.050153613
48	0x3d4f6b5c	0.050639495
49	0x3d33030a	0.04370407
50	0xbb045460	-0.0020191893
51	0xbd65dbe2	-0.0561179
52	0xbd206150	-0.039155304
53	0xbd1989d6	-0.037484966
54	0x3d39a070	0.04531902
55	0xbb3edde0	-0.0029123947
56	0xbc56f658	-0.013120256
57	0x3d4c723a	0.049913622
58	0xbcc3595c	-0.02384632
59	0x3c957c68	0.018247798
60	0xbd240726	-0.04004588
61	0xbd2439ba	-0.040094115
62	0x3c8d6724	0.017261095
63	0xbd09c80c	-0.033638045
64	0x3ba1f5a0	0.004942611
65	0x3c3d7c18	0.011565231
66	0xbc3621a0	-0.011116415
67	0x3d21693e	0.039407007
68	0xbd1bcac8	-0.038035184
69	0xbcdd8208	-0.027039543
70	0xbcd26fd4	-0.02568809
71	0x3cc08ba4	0.023504086
72	0xbd75d27a	-0.06001518
73	0xbc325050	-0.010883406
74	0xbc97fe90	-0.018554002
75	0xbd51f916	-0.051262937
76	0xbd1a42e0	-0.037661433
77	0xbcf35070	-0.029701442
78	0xbd7f79f4	-0.062372163
79	0xbcdae784	-0.026721723
80	0x3cebe6ac	0.028796516
81	0x3d2627fa	0.04056547
82	0x3d41d374	0.047320798
83	0xbc99038c	-0.01867845
84	0x3c33e480	0.010979772
85	0xbb230ae0	-0.0024878308
86	0x3c300b38	0.010744862
87	0x3cbe8708	0.023257747
88	0x3c8bd724	0.01707036
89	0x3d7e2dc2	0.062055357
90	0x3d1a2040	0.037628412
91	0x3d0c3296	0.03422793
92	0x3d02b686	0.03191235
93	0x3d2ca206	0.042146705
94	0x3d6f7caa	0.0584685
95	0xbd227c34	-0.03966923
96	0xbd39313c	-0.04521297
97	0x3cfc3540	0.03078711
98	0x3d1c9040	0.038223505
99	0x3d1e099e	0.03858339
100	0x3d62e1d4	0.055391148
101	0xbd681d08	-0.05666831
102	0xbcfa4eac	-0.030555092
103	0x3badf400	0.005308628
104	0xbd4aca12	-0.049509116
105	0x3d1f0948	0.03882721
106	0xbd774a8a	-0.06037382
107	0xbd29bbda	-0.041438915
108	0xbd0a038a	-0.03369478
109	0xbd520000	-0.05126953
110	0xbc0766e8	-0.008264281
111	0x3c44c8a0	0.012010723
112	0x3c83a588	0.016070142
113	0xbd72a90a	-0.05924324
114	0x3cff6dfc	0.031180374
115	0xbb81dc30	-0.003963016
116	0x3d65f3b6	0.056140624
117	0xbb9f30b0	-0.004858099
118	0x3c688d98	0.014193915
119	0xbcc8815c	-0.024475746
120	0x3d4cae98	0.049971193
121	0xbbaf9c70	-0.005359225
122	0xbc4870c8	-0.01223392
123	0x3c38fa40	0.011290133
124	0xbc373a98	-0.011183403
125	0xbc8eea00	-0.017445564
126	0xbd105620	-0.035238385
127	0xbd4bcaec	-0.04975407
128	0x3cfe2c7c	0.031027071
129	0xbc6726f0	-0.0141084045
130	0x3cb8016c	0.022461616
131	0xbd03b4e0	-0.032154918
132	0x3cae85b0	0.021303982
133	0xbc5b4898	-0.013384007
134	0xba58f000	-0.0008275509
135	0x3d7ce52e	0.061742
136	0x3cdefe8c	0.027220987
137	0x3d7aa24e	0.061189942
138	0x3d47a530	0.04874152
139	0x3d3c3578	0.04594943
140	0x3cf0888c	0.029361986
141	0xbcd82bd4	-0.026388086
142	0xbd2a5c40	-0.041591883
143	0x3d17f498	0.037098497
144	0x3cc378a4	0.023861237
145	0x3c738ff0	0.01486586
146	0xbd46ee98	-0.048567384
147	0xbd6fb9ea	-0.05852691
148	0x3d6f3076	0.058395825
149	0x3d6e239c	0.05813943
150	0x3c33b098	0.010967396
151	0xbd52c592	-0.05145795
152	0xbd6cfec2	-0.057860143
153	0x3bb67b30	0.0055688843
154	0x3cd11cc8	0.02552642
155	0xbd79bb44	-0.060969606
156	0x3c772ea8	0.015086807
157	0x3d0b4a64	0.03400649
158	0xbd699734	-0.057028964
159	0x3d6b8cb2	0.057507224
160	0xbc3b22c0	-0.011421859
161	0xbc98e7f4	-0.018665291
162	0xbc80bf00	-0.015716076
163	0xbcafc094	-0.021454133
164	0x3cedf40c	0.029047035
165	0xbcead910	-0.028667957
166	0x3c0d69b0	0.008631155
167	0xbc007ec0	-0.00784272
168	0x3d5a6a32	0.053323932
169	0x3ca4a580	0.020098448
170	0x3d4edcd2	0.05050356
171	0x3d3b7a82	0.04577113
172	0xbb03ed00	-0.0020130277
173	0x3d03c3ca	0.03216914
174	0xbd725da8	-0.05917135
175	0xbd0c18ac	-0.034203216
176	0xbd62c164	-0.055360213
177	0x3d410f1a	0.047133543
178	0x3d2b11ec	0.04176514
179	0x3d0052dc	0.03132902
180	0xbd1dd128	-0.038529545
181	0xbd48b15c	-0.048997268
182	0x3cfd4498	0.030916497
183	0x3d0cba02	0.03435708
184	0xbd6b2736	-0.05741044
185	0x3c84a0f4	0.01619003
186	0x3a635200	0.0008671582
187	0xbd0ea92a	-0.034829296
188	0x3ca28d7c	0.019842856
189	0x3c80993c	0.015698068
190	0xbae04f00	-0.0017113388
191	0xbd14ff98	-0.036376566
192	0x3d025848	0.031822473
193	0xbd3c2f32	-0.045943446
194	0xbc8149f0	-0.015782326
195	0xbc8ff914	-0.017574824
196	0x3d48653c	0.04892467
197	0xbcb73414	-0.0223637
198	0xbd6d911a	-0.057999708
199	0x3c2f3830	0.0106945485
200	0xbb806c20	-0.0039191395
201	0xbcda0dc4	-0.026617892
202	0xbd292010	-0.041290343
203	0x3cd4c234	0.02597151
204	0xbc95fb24	-0.01830823
205	0xbd35db1e	-0.04439842
206	0xbd7bfc06	-0.061519645
207	0x3c22b520	0.009930879
208	0xbd629a7e	-0.055323116
209	0x3c092bc8	0.008372255
210	0x3d1c42a2	0.038149484
211	0x3d51a96e	0.05118697
212	0xbba07480	-0.0048967004
213	0x3d0e3d28	0.034726292
214	0x3d59c93a	0.05317042
215	0x3a0c2780	0.0005346462
216	0xbbcecfe0	-0.0063114017
217	0xbd14f7f8	-0.036369294
218	0xbd033a80	-0.03203821
219	0xbcaceea4	-0.021109886
220	0x3bcbe1a0	0.006221965
221	0x3cfc61d8	0.030808374
222	0x3d78e81c	0.06076823
223	0x3cc3e38c	0.023912214
224	0x3d392c4a	0.045208253
225	0xbbb04ec0	-0.0053804815
226	0x3cabc264	0.020966716
227	0x3d6f61dc	0.058442935
228	0x3d6d55c6	0.057943128
229	0x3ad52d80	0.001626417
230	0xbd4998a2	-0.049217828
231	0xbd3f8686	-0.04675915
232	0x3c6cd630	0.014455363
233	0x3c9bdaf8	0.01902531
234	0xbd6abfca	-0.05731181
235	0x3d083f50	0.033263505
236	0xbd42fbf8	-0.047603577
237	0xbc37e718	-0.011224531
238	0xbd56a1da	-0.052400447
239	0x3c9e4de0	0.019324243
240	0x3c7f2b60	0.015574306
241	0x3d3daee0	0.046309352
242	0x3d58ffd6	0.05297836
243	0x3d56716e	0.05235427
244	0x3cebee30	0.0288001
245	0xbcfde1f4	-0.030991532
246	0xbd14f840	-0.036369562
247	0xbd0522ea	-0.032504
248	0xbca09788	-0.019603506
249	0x3ca11440	0.019662976
250	0x3b422120	0.0029621795
251	0x3d700574	0.05859895
252	0xbd650c40	-0.055919886
253	0x3d2c586e	0.04207652
254	0xbd5d0a80	-0.05396509
255	0x3c020038	0.0079346225

actor_layer.2.bias f4 [272]
0	0xbc9888a8	-0.01861985
1	0xbd17b110	-0.037034094
2	0x3a606800	0.0008560419
3	0xbcdb32ac	-0.02675756
4	0xbd157392	-0.03648717
5	0x3d3e5a34	0.046472743
6	0x3d4853ea	0.04890815
7	0x3d64f130	0.055894077
8	0xbd6db6aa	-0.05803553
9	0x3c525c60	0.012839407
10	0x3d63ec84	0.05564548
11	0x3d389ee2	0.045073397
12	0xbd0cd47c	-0.03438233
13	0xbd7f0e86	-0.06226971
14	0x3d237106	0.03990271
15	0xbcbebb0c	-0.02328255
16	0x3b817920	0.003951207
17	0x3cfe8ad0	0.03107205
18	0x3c882d48	0.016623154
19	0xbc9619f0	-0.018322915
20	0x3ad6cdc0	0.0016388223
21	0x3d479d38	0.04873392
22	0xbc4d6a30	-0.012537524
23	0x3cb90104	0.022583492
24	0xbc4150a0	-0.011799008
25	0x3d7c00fe	0.061524384
26	0xbcafa6d4	-0.021441855
27	0x3aaaf5c0	0.001304321
28	0xbd26dd6a	-0.0407385
29	0xbd563b36	-0.05230256
30	0x3c252b60	0.010081142
31	0x3d4ed45a	0.050495483
32	0xbd14bc58	-0.03631243
33	0xbae86740	-0.0017730966
34	0x3d08802e	0.033325367
35	0xbba68550	-0.00508181
36	0xbcf0b4e0	-0.029383123
37	0xbd47afb8	-0.048751563
38	0xbd354a16	-0.044260107
39	0xbd3be9e8	-0.045877367
40	0xbd6f3d02	-0.05840779
41	0xbd5a5bea	-0.053310312
42	0xbd26fe3e	-0.040769808
43	0xbd4ae766	-0.049537085
44	0x3d4661d4	0.04843314
45	0x3d6042be	0.05475115
46	0xbd7aa9f8	-0.06119725
47	0xbd71f482	-0.05907107
48	0x3d3cedfc	0.046125397
49	0xbd7b25d6	-0.06131538
50	0x3d2d89c8	0.042367727
51	0x3d1ea822	0.038734563
52	0x3c76f0b8	0.01507204
53	0x3d26ab5c	0.040690765
54	0x3cd7cad0	0.026341826
55	0x3d51a73a	0.05118487
56	0x3d6285d8	0.055303425
57	0x3c7ec6b8	0.015550308
58	0xbd750492	-0.05981881
59	0xbc7c7f18	-0.015411161
60	0x3c2c2130	0.010505959
61	0x3c58a4e8	0.01322291
62	0x3c13a460	0.009011358
63	0x3bf970e0	0.0076123327
64	0x3cd499a0	0.02595216
65	0xbbba9290	-0.005693741
66	0xbcf9d7a0	-0.030498326
67	0xbc46d180	-0.01213491
68	0xbcee8184	-0.029114492
69	0xbcef8240	-0.029236913
70	0xbd4420c4	-0.04788281
71	0xbc9de9e4	-0.019276567
72	0x3c21ce38	0.009875827
73	0x3d458c42	0.048229463
74	0x3b2dd1c0	0.0026522726
75	0xbd639c04	-0.05556871
76	0xbc888dd4	-0.016669191
77	0xbc04f8c0	-0.008115947
78	0x3d2f96f8	0.042868584
79	0xbb0e9740	-0.0021757632
80	0x3d04ebb4	0.032451347
81	0x3d38f7aa	0.045158066
82	0xbd1137a4	-0.035453454
83	0xbc8cd13c	-0.017189614
84	0x3bcf42f0	0.0063251182
85	0xbcb05714	-0.021525897
86	0x3d22b548	0.039723665
87	0xbd579f30	-0.052642047
88	0xbc6948b8	-0.014238529
89	0x3c7f76f8	0.015592329
90	0xbc252ae8	-0.01008103
91	0xbd77c210	-0.060487807
92	0x3c9dbbf4	0.019254662
93	0x3d4cd338	0.05000612
94	0xbcfcb5cc	-0.030848406
95	0xbc336630	-0.010949656
96	0x3c0b8d68	0.008517601
97	0xbd77c076	-0.06048628
98	0x3cb84bfc	0.02249717
99	0x3d3d8bb6	0.046275817
100	0xbc725778	-0.014791362
101	0xbc7f02f0	-0.015564665
102	0xbd4cec76	-0.050030194
103	0xbd5f8f00	-0.054579735
104	0xbd728c1a	-0.059215643
105	0x3c824ab8	0.01590477
106	0xbc7a0030	-0.015258834
107	0x3ba873b0	0.005140744
108	0xbc4d6750	-0.012536839
109	0xbd4e59fe	-0.050378792
110	0xbd3a7648	-0.045522958
111	0xbd573a16	-0.05254563
112	0x3c192a90	0.009348527
113	0x3d21e586	0.03952553
114	0x3d286028	0.041107327
115	0x3d77c6f8	0.060492486
116	0x3ce1b74c	0.027553223
117	0xbd57ff64	-0.052733794
118	0x3bcdb330	0.0062774643
119	0x3d16ecd6	0.036846958
120	0xbd69c8ac	-0.05707614
121	0x3b0f5000	0.0021867752
122	0xbc7e8c58	-0.01553639
123	0xbbcc1940	-0.006228596
124	0x3d7ee064	0.062225714
125	0xbcfed21c	-0.031106047
126	0xbc416378	-0.0118035
127	0xbcf064cc	-0.029344939
128	0xbd609bd6	-0.054836117
129	0xbca4ea88	-0.020131364
130	0x3d456f6c	0.048201963
131	0x3d5c5504	0.053792015
132	0x39e48900	0.00043589622
133	0xbd7fcf82	-0.062453754
134	0x3d7eae24	0.062177792
135	0x3cbc6590	0.022997648
136	0x3c66fac8	0.014097877
137	0xbae28e00	-0.0017284751
138	0xbcb5ffac	-0.02221664
139	0x3d4eda50	0.050501168
140	0xbd256418	-0.04037866
141	0xbd675dcc	-0.056485936
142	0x3cecad38	0.02889119
143	0xbc166728	-0.009179868
144	0xbb09bba0	-0.0021016374
145	0xbd1d2a1a	-0.03837023
146	0x3c5dd1e0	0.013538808
147	0xbc8ccf00	-0.017188549
148	0xbd5cdaf0	-0.053919733
149	0x3d374eb2	0.044752784
150	0xbd6a8940	-0.057259798
151	0xbba26860	-0.00495629
152	0x3d2582a8	0.040407807
153	0x3ccdf4a8	0.025141075
154	0xbd2fc230	-0.0429098
155	0x3d5fd5f0	0.054647386
156	0x3c963288	0.018334642
157	0x3d3f1114	0.046647146
158	0xbc0ae480	-0.00847733
159	0x3d2f41d2	0.04278738
160	0x3cf5d948	0.030010834
161	0xbd059904	-0.03261663
162	0xbca134e8	-0.019678548
163	0x3c8cafa0	0.017173588
164	0xbd0f85d2	-0.03503973
165	0x3ce432c8	0.027856246
166	0xbd0c94a2	-0.034321435
167	0xbd787a12	-0.06066329
168	0xbd06f1ca	-0.03294543
169	0xbd72a0d8	-0.059235424
170	0x3d3fc062	0.04681433
171	0xbaea9280	-0.0017896444
172	0xbc747ec0	-0.014922798
173	0x3d1fec5c	0.03904377
174	0x3d20ec0a	0.039287604
175	0xbd754750	-0.059882462
176	0x3d443ebe	0.047911398
177	0xbb845280	-0.004038155
178	0xbd02915a	-0.0318769
179	0x3cdb24ec	0.026751004
180	0xbcff5314	-0.031167544
181	0x3bb33ed0	0.0054701343
182	0xbd3b0692	-0.045660563
183	0x3d3a74ae	0.04552143
184	0x3c9863d4	0.01860229
185	0x3cbc9698	0.023021027
186	0xbd3584c4	-0.04431607
187	0x3d1f387c	0.038872227
188	0xbd3533dc	-0.04423891
189	0xbd4dec26	-0.050274037
190	0xbd0b82e0	-0.03406036
191	0x3c9b6b30	0.01897201
192	0x3d16878a	0.036750354
193	0xbd7ab172	-0.06120438
194	0x3ccfafa0	0.0253523
195	0x3d5a2332	0.05325622
196	0xbc0ddef0	-0.0086591095
197	0xbcffd150	-0.031227738
198	0xbbd01230	-0.0063498244
199	0x3d581af0	0.052760065
200	0xbc27a130	-0.010231301
201	0xbcfeaa30	-0.031087011
202	0xbbe16140	-0.006878048
203	0x3d67d1b8	0.056596488
204	0xbd03dee8	-0.032195
205	0x3b473600	0.0030397177
206	0x3c19c1f0	0.009384617
207	0x3d03838e	0.032107882
208	0xbd54e67e	-0.051977627
209	0x3c85232c	0.016252123
210	0xbce9839c	-0.028505139
211	0x3d21673e	0.0394051
212	0x3ce87eac	0.028380714
213	0x3ca38ecc	0.019965552
214	0xbc58edc0	-0.013240278
215	0xbc848ec0	-0.01618135
216	0xbc97ad98	-0.018515393
217	0x3d25e988	0.040505916
218	0xbd5a4de4	-0.05329694
219	0xbbba5220	-0.0056860596
220	0x3d3f8dd2	0.04676611
221	0x3c4508b8	0.0120260045
222	0x39ad9300	0.00033106655
223	0xbd119720	-0.035544515
224	0x3c8c23fc	0.017107002
225	0xbd25cabe	-0.040476553
226	0xbbf17a80	-0.0073693395
227	0x3d672860	0.05643499
228	0xbd0f62aa	-0.035006203
229	0xbd08cdc6	-0.033399366
230	0x3d3023d2	0.04300291
231	0x3d7e7dae	0.062131576
232	0x3d3365c0	0.04379821
233	0xbd2e2712	-0.04251773
234	0xbcc9b730	-0.024623483
235	0x3ced79f8	0.028988823
236	0x3c8c79ac	0.017147861
237	0xbd7b6f18	-0.061385244
238	0x3d71e880	0.05905962
239	0xbd0b5e52	-0.034025498
240	0xbd778f26	-0.06043925
241	0xbd2b8458	-0.04187426
242	0xbd087d90	-0.03332287
243	0x3d3ac280	0.045595646
244	0x3c20bd70	0.00981079
245	0x3bb52f60	0.005529329
246	0x3d277e5a	0.040891983
247	0xbd3c1bec	-0.045925066
248	0xbd266678	-0.040625066
249	0xbd640b34	-0.055674747
250	0x3cfb78c8	0.030697241
251	0x3ce20f88	0.027595297
252	0x3cf6c0cc	0.03012123
253	0x3d0e2a64	0.034708396
254	0x3c39bdd8	0.011336766
255	0x3d2132f2	0.039355226
