model/ckpt/Dense_ProbabilityAndStatistic_bocat_policy.pt (torch, 807078 bytes, 6 tensors)

obs_layer.weight f4 [256, 263]
00000000: 567a 38bc 2ac2 33bd 5647 54bd ca29 b0bc
00000010: 7b0f 2ebd 6b8a 4ebd 5c9b 6ebd 610d b23c
00000020: 68ad 153b ddf1 5c3b 006a d9ba fbb9 febc
00000030: b572 27bc 5f72 5a3d 75aa 75bd 532e 073d
00000040: 08bd 2fbc 1928 103d a766 663d dc68 44bd
00000050: 6f51 53bd 44dc bfbc c347 843c 1908 603d
00000060: d64a 173d d0ac 21bd f939 1c3d 0ba5 5c3d
00000070: 2c66 1ebd 0d46 093d a8ba 69bc eb61 5a39
00000080: 6c44 e23c 1d38 24bc 7f80 0a3d 5560 ffbc
00000090: d8d6 66bd c248 93bc af7f 5ebd 95a8 aebc
000000a0: 8185 a1bc 4a3b 4bbd ec33 0f3d c9ac de3c
000000b0: d005 7abc 1987 76bb 5fe8 25bd 9967 26bd
000000c0: 16dc 46bd 72b0 593c 931e 1dbd 0834 7fbc
000000d0: 7d18 6cbb dfcf ce3c a9a9 463d f8e1 21bd
000000e0: 0c75 3a3d 065b 6e3d a180 503c 707f a73c
000000f0: a72f d63c d19a 56bd 924e 1fbd 7237 5bbd
00000100: 0352 7a3c 5299 d7bc 0d77 683d a9ca 40bd
00000110: 9fdc 313d 7e32 41bc 624b 0d3d f879 87bb
00000120: 6030 3d3d 4c20 82bc 9a1a 52bd e620 18bd
00000130: abed 59bd a6fd 6dba e7a1 74bd 2cce 54bc
00000140: ffe9 b33c 5763 16bc 26b7 7cbc 3a33 4d3d
00000150: b4d2 f7bb 7bb2 d83c 52c3 d4bc 45f9 2d3c
00000160: 197a 8a3a 9384 693d be2d 99bc e57f 4abd
00000170: b27b 0abd 7ecb 0a3c cbdf 56bc 9645 b8bc
00000180: c5d5 013d 2998 bb3c c6dc 3fbd 1f45 273c
00000190: 3818 353d bc2d e1bc 55a7 543d 4125 163c
000001a0: c871 b83c 6472 373b 87a6 8e3b 47b8 00bd
000001b0: b2bf 1d3d 5075 043d f87e 3d3d 0f00 5fbd
000001c0: 547c 19bc d292 6ebd 0d53 0ebd 3b6e 62bc
000001d0: a218 113d 7ed3 463c 9812 4f3d 1d84 543d
000001e0: 868f 76bd 3a6b 333d e1e5 c83c 99cd 4abd
000001f0: 45df 7abd 9e89 733d d2f2 123c b47e f3bb
00000200: 9ace f1ba 88a6 81bb 7ef4 4fbd e61b 203a
00000210: 025e 8ebc 6705 583b 48f6 c83c c1c0 2bbc
00000220: 5c4a 543d 1fc1 1c3d f95d 33bd bb3a 56bd
00000230: ee30 c1bc 1f13 6e3c 9797 7abc 147f b43c
00000240: 6d3f e0ba f292 31bd a7dd 493c 4d32 0d3d
00000250: 06cb 673d d3a3 843b 6a57 f3bc 9010 45bd
00000260: 9a77 babc d5cb 0b3d 71ef 733d b426 873c
00000270: 4c96 f73a 1359 03bd d705 8a3b 37f2 d9bc
00000280: 5f8e 183c f75a 67bc 8add fbbb 58b2 1dbd
00000290: b26d a43c 7828 78bd 1716 2ebd 1376 64bd
000002a0: c2a2 673d d8b2 e7bc fa9e 433d e637 f03c
000002b0: 299d 38bd 9df2 1bbc b81c be3b 9c2f 3b3b
000002c0: 33c8 4ebd ddad b7bc e114 763d e2d2 50bd
000002d0: e71b bebc 6d49 7bbd f08e 2bbc badc a53c
000002e0: 0643 a63c 8c3a 3dbd 4549 493d 388f 353d
000002f0: 655d 673d 41db afbc 26fe 3ebd 094a 18bd
00000300: e76e 933c 0b6c 14bd f11b 0f3d 4d71 52bd
00000310: 34d0 013d ac1f 1abd d546 2d3d 3381 d33a
00000320: 2e36 393d 1fd0 4bbc bcda 57bd 5c8d aa3c
00000330: 283b 243d c033 6fbd c352 fcbb 4a28 673d
00000340: 46b5 bcbc 0e76 d7bc bd75 84bb 6b9b 613d
00000350: d738 33bc 58ed 823c c1e3 e3bb 69d0 373d
00000360: 4baf a2bc bc25 653d a284 d5bc c4db fd3c
00000370: 16ba cb3b dc59 773c fe17 37bd e963 f63a
00000380: 7395 2a3d 3120 af39 4493 ef3b fa2c 46bd
00000390: 071d 723c f6ef e7bb fe1f ef3b 6a84 1bbd
000003a0: 566a bb3c 97b1 5dbc 79d3 9d3c 3c10 f13c
000003b0: bf5c 1d3d 351f 1b3c ccef 393c 0fc4 1f3d
000003c0: 93e8 6f3d f350 4fbd 4001 41bd 78c0 6ebd
000003d0: 09fe 11bd ad6e 00bc cec2 633d 7756 773d
000003e0: 3c44 88bc ce34 01bd e1e7 36bd 0d04 78bd
000003f0: 32e6 533c ac55 07bd 2e65 153d d257 8fbc
-0.011259636 -0.04388634 -0.051825844 -0.021504302 -0.042495232 -0.050424974 -0.05825363 0.021734895
0.0022838954 0.0033713498 -0.0016587377 -0.031094542 -0.010220219 0.05333173 -0.059977014 0.033003163
-0.010726221 0.03519449 0.05625024 -0.047951564 -0.051591333 -0.02342046 0.0161475 0.054695223
0.036936603 -0.039471447 0.038141225 0.053868335 -0.038671657 0.03351407 -0.014265694 0.00020826577
0.027620517 -0.010023144 0.03381395 -0.031173864 -0.056357235 -0.01797903 -0.054320987 -0.02132062
-0.01971698 -0.04961709 0.034961626 0.027182 -0.015260175 -0.0037617146 -0.04050481 -0.040626142
-0.048549734 0.013286697 -0.038359236 -0.01557637 -0.0036025338 0.025245605 0.048501644 -0.03952214
0.04552178 0.058192275 0.01272598 0.02044651 0.02614577 -0.05239374 -0.03889329 -0.053519674
0.015278342 -0.026318226 0.05675416 -0.04706827 0.04342329 -0.011791823 0.03449572 -0.004134413
0.046188712 -0.015884541 -0.0512949 -0.03714075 -0.053205173 -0.0009078629 -0.059724715 -0.012988608
0.021962164 -0.009178958 -0.015424525 0.05009768 -0.0075629596 0.026452294 -0.025972042 0.0106185125
0.0010564952 0.0570112 -0.01869857 -0.049438376 -0.03380937 0.008471368 -0.01311488 -0.022494119
0.031698007 0.022899704 -0.046841405 0.010209351 0.04421255 -0.027487628 0.051917393 0.009164155
0.022515193 0.0027991766 0.0043533477 -0.03142574 0.038512893 0.03233844 0.046263665 -0.054443415
-0.009368021 -0.058245488 -0.034747172 -0.013820226 0.035423882 0.012135385 0.05055484 0.051883806
-0.06019547 0.04380343 0.024523677 -0.04951248 -0.061248083 0.059457414 0.008969026 -0.0074308757
-0.0018448413 -0.0039566197 -0.050770275 0.0006107673 -0.01737881 0.0032962204 0.024531499 -0.010482968
0.051828727 0.038270112 -0.04379079 -0.052302103 -0.023582902 0.014530926 -0.015294931 0.022033252
-0.0017108746 -0.04335303 0.012320912 0.0344718 0.056590103 0.0040478497 -0.029704768 -0.0481115
-0.022762109 0.034129936 0.05955452 0.016497947 0.0018889396 -0.03206737 0.004212122 -0.026604755
0.009311288 -0.014120809 -0.0076863216 -0.03850016 0.020071838 -0.06058547 -0.042501535 -0.055776667
0.056551702 -0.028283522 0.047759034 0.02932353 -0.045071755 -0.009518293 0.0058017634 0.0028562313
-0.050483894 -0.022421772 0.060078505 -0.050982364 -0.023206664 -0.06134932 -0.010471091 0.020246852
0.020295631 -0.046198413 0.04914214 0.044326037 0.056485552 -0.021466853 -0.046629094 -0.03717998
0.017997218 -0.03623585 0.034938756 -0.051377583 0.0316927 -0.03762786 0.04230388 0.0016136527
0.045217685 -0.012439757 -0.052698836 0.020819359 0.04009548 -0.058398962 -0.0077002957 0.056434907
-0.023035657 -0.02630141 -0.004042356 0.05507986 -0.010938845 0.015982315 -0.0069546406 0.04487649
-0.019858977 0.05594419 -0.02606422 0.030988581 0.0062172515 0.015097108 -0.044700615 0.0018798086
0.041646432 0.00033402586 0.0073112566 -0.048382737 0.0147774285 -0.007078166 0.007297515 -0.037968077
0.022877853 -0.01353111 0.019265877 0.029426686 0.038418528 0.00946789 0.011348676 0.039005335
0.05857141 -0.05061431 -0.047120333 -0.05828902 -0.035642657 -0.007838887 0.055605702 0.060385194
-0.0166341 -0.0315445 -0.04465473 -0.060550738 0.012933301 -0.033040687 0.036473446 -0.01749793

obs_layer.bias f4 [256]
00000000: 6709 733d 5fa8 39bd 69f7 c63c d246 43bd
00000010: 2ae1 b7bc 54eb bd3c f980 ccbc 3739 58bd
00000020: e514 563b 92d3 2cbd 7a3b e7bb 06dc 9abc
00000030: 0748 ae39 559e 263d 5392 dabb 7a0b 423d
00000040: c474 fa3c fa2b a8bc 7c12 51bc 3ac8 3abd
00000050: 0b10 6bbc c42f 1b3c a9c9 c5bc ad67 0d3d
00000060: c769 8b3b 10b7 443c 84c7 003c f74a 83bd
00000070: 1c21 78bd 50b1 22bd 2f81 103d b02a f5bc
00000080: bd07 8bbc 2393 97bc 145f 87bc 8af2 76bc
00000090: 6dde f23c dad7 8cbc 63d2 703c 2b1f 813d
000000a0: 7069 c3bc 48a9 5bbd 7611 84bd 2685 ea3c
000000b0: 5f75 51bc 673d e43c 3f95 15bd d7ff 12bd
000000c0: 778c 0cbd 4b06 153d 185e 89bc f2d6 36bc
000000d0: cbc8 593d 6897 4bbd ec22 de3c 6a54 37bb
000000e0: af9c 85bd 6aab 07bc 4e24 1b3c 044e 9b3b
000000f0: 25aa 8bbd ef1a d7bc 89a5 883c 1b08 55bd
00000100: 0302 873b 123f 64bd fb92 bfbb 72ba d8bb
00000110: 55d8 29bd 94ce 0e3d c003 b83b cfa7 b9bc
00000120: 35a2 85bd 9a61 a03c dc2f 5e3d 95f2 5abd
00000130: bf8c e2bc 303a 5e3c 52d8 3dbd 90a0 65bd
00000140: 3dc6 b7bb 74b8 2d3c dd45 9ebc 148a 703d
00000150: bc10 0d3d 9abb da3c de75 66bd 9008 8cbd
00000160: 6aef f3bb 813f 853b 37c3 5b3d 5f96 4ebd
00000170: a191 8d3c 70e2 eb3c 579b dabb 9815 05bd
00000180: c427 633d 342a 0d3d 7e93 463d f78d 1ebd
00000190: f33f 9ebc 4631 01bd e155 2d3d 8ca5 52bc
000001a0: 37aa 613d 8a42 b33c 163b b5bc 8331 a33c
000001b0: 6265 07bd bd7f 903c 08a1 2e3a 8f49 393d
000001c0: a8cc 7fbc 383b 6cbd 6633 e1bc 7033 33bd
000001d0: a502 193b e43c c8bc 609d 943c a4e9 97bd
000001e0: a60d 193d 7311 5bbd 7ff0 36bc d656 833b
000001f0: 7d50 78bc ab81 213d 30c9 95bc 2771 923c
00000200: 9506 0cbc 6326 123c 2eae 053d 7b18 19bd
00000210: e3dc 513d e738 a23c f984 0a3d 5c35 60bd
00000220: ce4a 013d a1d9 c5bc 3d43 8a3d 19da 1c3d
00000230: e644 3b3c e50b 5e3d 3c32 6e3d 8ab8 82bd
00000240: ef4f 18bd e365 59bd 1fba 22bd 7452 2dbd
00000250: e97b ccbc d27e 8b3d 762d 5f3d 8fc2 00bd
00000260: 321a d53c 99ba 233d 90d1 8dbb 8a57 373d
00000270: b412 b23c 00b8 453d c00b 55bd 79ab e7bc
00000280: a34e bd3c ce6c 5b3c bb01 9ebd 6d6b 573d
00000290: 98fc 383c 18a0 63bd 7dab c33c 6e37 da3c
000002a0: 4a7e 3cbd 537a 7ebc 266d 2d3d f792 82bd
000002b0: 31bf d3bc 66d5 9abc c087 7e3d 463c 953c
000002c0: 7906 983c bc53 7ebd 00b1 79bd d9c2 1dbd
000002d0: b6b7 b53c 5ae6 453d 0901 2dbd 4e1b 79bd
000002e0: b21c 303d 8bc6 31bc 7c0f bb3c 370c 483c
000002f0: 12ae 723d a219 faba 87e3 643d 5f53 fcbc
00000300: b103 293d cd17 98bd c704 6a3d 62ea 53bc
00000310: 10bc a53d 5417 1ebd 51a4 263c e8e9 9a3b
00000320: 1f67 603d 32f4 be3c d611 173d 3a8a d0bc
00000330: d0a3 ad3c 07e9 a53c 9bde 3dbd 41d2 b63c
00000340: 66cc f63b 6f83 2c3c 1131 8e3b 5238 b53c
00000350: 6eae 91bc 21ca 28bd b5e7 7bbd 3392 2f3d
00000360: 131b 563c ff9c 82bd 62c2 90bc 70cf 3a3d
00000370: 7eb0 20bb 7919 53bc 110d 2d3d fe52 163d
00000380: 8255 a0bb 6050 043d 2174 283c efbe 0cbb
00000390: 35f2 adbc ce02 8ebc 6297 3c3c 6097 883d
000003a0: e6c7 803c 9121 423d 601a 1ebc 7638 8a3b
000003b0: 1e52 3e3d 152a 703a 3f01 4d3d 5518 0dbd
000003c0: c0e2 b73c b63a 6ebd a22a 9dbc 8987 4ebd
000003d0: 937f a93a 09f8 4cbd 8c09 4abd ed9c 273d
000003e0: 4b86 f23b 695e 5c3d e755 8c3d a87e 80bb
000003f0: 791d 4dbd f912 d7bb cfff 05bc 6777 ac3c
0.05933514 -0.045326587 0.024287896 -0.04767496 -0.022446234 0.023183502 -0.024963843 -0.05278894
0.0032666263 -0.042193957 -0.0070566507 -0.018903743 0.0003324153 0.04067834 -0.0066702752 0.047374226
0.030573256 -0.020528782 -0.012760755 -0.045601107 -0.014347087 0.009471837 -0.02414401 0.0345227
0.004254553 0.012006536 0.007860068 -0.06410783 -0.06057845 -0.03971988 0.03527945 -0.029927582
-0.016971463 -0.018502777 -0.016524829 -0.015072474 0.029647077 -0.01719277 0.014698598 0.06304773
-0.023853987 -0.053628236 -0.06448643 0.028627943 -0.012784331 0.02786131 -0.036519285 -0.03588852
-0.034313645 0.036382955 -0.0167685 -0.011159645 0.053170007 -0.04970494 0.027116261 -0.0027973899
-0.06524026 -0.008280614 0.009469105 0.004739525 -0.06819562 -0.02625796 0.016680496 -0.052009683
0.004120113 -0.05572421 -0.005846379 -0.006614023 -0.041466076 0.034864977 0.0056156814 -0.022663025
-0.06525079 0.01957779 0.05424486 -0.053454 -0.027655004 0.013563678 -0.046348877 -0.056061327
-0.0056083486 0.010603059 -0.019320423 0.05872543 0.034439787 0.026700784 -0.05626475 -0.06837571
-0.007444312 0.004066408 0.05365297 -0.050436374 0.017281355 0.028794497 -0.00667135 -0.032491297
0.055457845 0.034464076 0.048480503 -0.038709607 -0.019317603 -0.03154113 0.04231823 -0.012856852
0.05509397 0.021882314 -0.022122901 0.01992107 -0.03305567 0.017639035 0.0006661569 0.045236167
-0.015612759 -0.057673663 -0.027490329 -0.043750226 0.0023347524 -0.024443097 0.018141448 -0.0741761
0.03736653 -0.053483438 -0.011165737 0.0040081544 -0.015155909 0.0394303 -0.01828441 0.01787622
-0.008546491 0.008920285 0.032636814 -0.037376862 0.051236045 0.019802524 0.03381822 -0.054738387
0.03156548 -0.024151625 0.06751106 0.03829393 0.011430001 0.054210562 0.058153376 -0.06382854
-0.037185606 -0.053075682 -0.03972828 -0.04231496 -0.024961429 0.068112984 0.054486714 -0.031435546
0.026013467 0.039972875 -0.0043279603 0.044761218 0.021737434 0.04827118 -0.05201316 -0.028280007
0.023108786 0.01339264 -0.07715174 0.052592684 0.011290692 -0.0555726 0.023885483 0.026637759
-0.046018876 -0.015532094 0.04234042 -0.063756876 -0.025848003 -0.018900584 0.06214118 0.018217217
0.018557774 -0.062091574 -0.060959816 -0.0385159 0.022182327 0.048315383 -0.042237315 -0.060817055
0.042996116 -0.010850559 0.022834532 0.0122099435 0.059248038 -0.0019081126 0.05588105 -0.030801473
0.041263286 -0.07426415 0.057133462 -0.012934299 0.08092511 -0.038596466 0.010171012 0.004727591
0.054785844 0.0233098 0.036882244 -0.025456537 0.021196276 0.020252718 -0.04635487 0.022317054
0.0075316904 0.010529383 0.0043393453 0.022121582 -0.01778337 -0.04120839 -0.06150027 0.042864036
0.013067978 -0.06377601 -0.017670814 0.045607984 -0.002451926 -0.012884491 0.04224879 0.03670024
-0.004893006 0.032303214 0.010281594 -0.002147611 -0.021233657 -0.017335322 0.011510702 0.066694975
0.015720319 0.047395293 -0.009649843 0.0042181564 0.04646503 0.0009161544 0.050050016 -0.034447033
0.02244699 -0.05816146 -0.019185368 -0.050422225 0.0012931697 -0.050041232 -0.04932551 0.04092114
0.007401263 0.053800974 0.06852322 -0.0039213486 -0.050076935 -0.006563541 -0.008178665 0.02105303

actor_layer.0.weight f4 [256, 256]
00000000: 9488 4b3d a936 b63c e5a8 b2ba 415d 433b
00000010: 5460 a6bc a1b0 c2bc e962 7a3b 03b3 a63c
00000020: 1b2a 713c 6c14 72bd b41a 2fbd a6c1 9a3c
00000030: 0061 28bd 6bd4 16bd 3fdf 7bbd 51af 49bd
00000040: a6c7 083d eca3 1a3d 6a47 383d 5ba0 a5bc
00000050: 4ad8 14ba 0ade 3d3d 1e6f 5b3c 9747 4b3d
00000060: 2aa6 78bd 3bd0 00bc afcd a93c edf1 5bbd
00000070: 0e27 8c3a d4b0 023d 49bd ecbc 795a edbb
00000080: c605 1fbd 42f3 fc3c f292 80bd 3c98 c73c
00000090: 0aa7 1fbc deeb 05bb 0b12 2cbd 0ddf 3dbc
000000a0: 6ce4 53bd 497e 983c 5cf6 9ebc 47bf 39bd
000000b0: efcc b43c 3379 0d3d c737 86bb fb5a 4e3c
000000c0: 7e34 79bd fc6d 44bd b36b eb3c 2e58 09bd
000000d0: f4a9 aa3c e068 07bd 1a98 41bd 043a 573c
000000e0: b2b9 4c3d 209c 683d 9df0 63bb f685 103d
000000f0: 2988 033d 0b11 73bc 4efd 6fbd 02e0 a03c
00000100: abef f93c bc39 233c 5233 4f3d 2930 253d
00000110: c93c 203c 9276 9c3c 47d0 013c ea1c 05bc
00000120: 1afb 43bd 92a1 443d 9afc 88bc b1a9 4cbd
00000130: 1f70 51bd 2db6 76bd 0460 12bd 4337 24bd
00000140: d5af 26bd 02d6 3fbd 50f8 62bd e6c1 453d
00000150: bf47 26bd d369 65bd f97b 17bc faee 603d
00000160: 913a 763d 8d22 1e3d 8cff 543d a612 fe3c
00000170: ee7f 5abd f54b dc3b 9107 8ebc d2df 07bd
00000180: 8d6a 35bc 3726 81bc 06e4 443d 02d1 303d
00000190: 6054 38bd d98c 61bd 280a 113d 8fe0 03bd
000001a0: c1f6 173d 3a0d a3ba 843f 5bbd ec93 80bc
000001b0: c237 5c3d ff09 cd3c a679 7a3c fdac 9d38
000001c0: edd3 41bd f29c afbc 2057 f8bc 468a ed3c
000001d0: ed0f 243c 3f3a 32bd 058c 0a3c 1dcb 473d
000001e0: bb1b a5bc 0c80 653d 041c 66bb ea3b 573d
000001f0: 8612 4bbd 8c07 5cbc 312c 0abc 80b0 18bd
00000200: 9a36 203d 7fe8 183d 974f 643d a1b2 1bbd
00000210: 5636 3dbd 1784 123d 830c 5cbd 9c00 f7bb
00000220: de04 6c3d 2219 0fbd 4bef c1bb 8a8c 17bd
00000230: cc64 2cbd f724 6f3d f8cc 733d df5e c6bb
00000240: 8d2b 9b3c 82ac 1cbd e6f0 983b 68d6 f73c
00000250: ee2f cabc b72e 1d3d eee7 643d b78a 443d
00000260: 6658 fd3c 217d 723d 1999 ef3c 20f4 ecbc
00000270: 9d1a 6f3d b17d e2bc 6662 4fbd ec5f 13bd
00000280: abc2 07bd 451e b9bc fce5 913c 9408 483d
00000290: ff2d 5bbb 0a82 ffbc 19e8 b0bc d1ea a23c
000002a0: 5160 193d 284d 7dbd 518e 5f3d 0eec b63b
000002b0: fbf5 75bd ea09 c93c c70f 53bc f8dc bb3c
000002c0: 7bb2 58bd fb22 efbc 4004 38bd d08b 9b3b
000002d0: 2b10 2abd f8d6 77bc 8807 43bc 9920 5dbd
000002e0: 13f2 7cbd bbb4 9b3c aadb 6f3d 2774 2a3d
000002f0: 8c35 7e3b 07f9 0cbd 8a35 b4bc a436 6c3d
00000300: 9655 0c3c 5742 ccbc fbb8 41bd 8ddb 74bd
00000310: bb4b 13bd 4b53 0d3d 43b3 45bc d025 0f3d
00000320: c49c 5b3c f04c 003d 7c23 b4bc f852 c4bc
00000330: 7256 733c f6fe 53bc 9caf 79bd 6de5 e93b
00000340: aab8 093d fd5f 5f3d 4970 333d 6cff 343d
00000350: 08c6 adbb 1880 60bd 70dc 243c 5e85 4f3d
00000360: cf94 07bc 99f3 d6bc ddf0 673d 007d 7dbd
00000370: 64ed 993c 0d0c 433d 74b3 053c 825b ee3c
00000380: 7130 22bd 3ffd c43b 9c38 d43c 2e21 d23c
00000390: f899 76bd be91 7f3c e7d4 943c 9503 e13c
000003a0: 0bca 7f3c 7f91 103d 397d 6dbd ae31 61bd
000003b0: 7c09 e5bc b730 6bbd 1b00 323d 5305 393d
000003c0: 7a20 513c 57c8 0fbd 788a c6bc a117 ccbc
000003d0: e4fa 0dbd 007b 5a3d aa20 453d 26ca 0dbd
000003e0: ad85 5b3d 7ed5 bcbc 4879 993b e755 b5bc
000003f0: b524 5e3c 14a3 ce3c 2709 e53c 87da 413d
0.049690798 0.02224286 -0.0013630657 0.0029810222 -0.020309605 -0.023765864 0.0038205928 0.020349031
0.014719511 -0.059101507 -0.042750075 0.018891167 -0.04110813 -0.03682367 -0.0614922 -0.04923946
0.033393525 0.037753984 0.04498998 -0.020218065 -0.00056779815 0.04635433 0.013393192 0.04962882
-0.06070534 -0.007862146 0.02072796 -0.053697515 0.0010692792 0.031906918 -0.028898852 -0.007243451
-0.038823865 0.030877713 -0.062780276 0.024364583 -0.009744415 -0.0020434777 -0.042009395 -0.011588824
-0.051731512 0.018614905 -0.019404583 -0.045348432 0.022070376 0.034539413 -0.0040960046 0.012594934
-0.060841076 -0.04795645 0.028737878 -0.03353136 0.020832993 -0.033059 -0.047264196 0.013136391
0.04998178 0.056789517 -0.0034780868 0.035284005 0.032112274 -0.014835606 -0.05859118 0.019638065
0.03050979 0.009962495 0.050586052 0.040329132 0.009780117 0.019099507 0.007923192 -0.008124569
-0.04784689 0.048005648 -0.016722012 -0.049966518 -0.051132318 -0.06023233 -0.0357361 -0.040091764
-0.04069503 -0.046834953 -0.05541259 0.04828062 -0.040595766 -0.056009125 -0.009245866 0.054915406
0.060114447 0.03860717 0.05200152 0.031014752 -0.05334466 0.006722922 -0.017337592 -0.033172436
-0.011072767 -0.015765293 0.048069023 0.043168075 -0.04500234 -0.055065963 0.035410076 -0.032196578
0.037100557 -0.0012439855 -0.05352737 -0.015695535 0.053764112 0.02502918 0.015287792 7.518565e-05
-0.04732125 -0.021437142 -0.030314982 0.028996598 0.010013563 -0.04351258 0.008456235 0.04877769
-0.020154824 0.05603032 -0.0035111913 0.052547373 -0.049578212 -0.013429534 -0.008433388 -0.0372777
0.039114572 0.0373311 0.055739965 -0.03801215 -0.046194397 0.035770502 -0.05372287 -0.0075379144
0.05762183 -0.034936078 -0.0059184185 -0.036999263 -0.042088315 0.05838486 0.059521645 -0.00605379
0.018941665 -0.038250454 0.004667389 0.030253604 -0.024681058 0.03837463 0.055885248 0.04798385
0.03092594 0.059201363 0.029247807 -0.028925002 0.05837499 -0.027647825 -0.05063095 -0.03598015
-0.033144634 -0.022597441 0.01780986 0.048836306 -0.0033444164 -0.031189937 -0.021595048 0.01988736
0.03744537 -0.06184116 0.054579083 0.005582339 -0.06004904 0.02454086 -0.01288218 0.022932515
-0.052904587 -0.029191485 -0.044925928 0.0047468916 -0.041519325 -0.015126936 -0.011903651 -0.053986166
-0.061754297 0.019007077 0.058559097 0.041614678 0.003878924 -0.03441718 -0.021998186 0.057669297
0.008565327 -0.024933977 -0.04729555 -0.059779692 -0.035960894 0.034503262 -0.012066665 0.03494817
0.013404075 0.031323373 -0.021989577 -0.023965344 0.014852153 -0.012939205 -0.06095849 0.0071379454
0.033623375 0.0545349 0.043808255 0.0441889 -0.005303148 -0.05480966 0.010062322 0.0506643
-0.008275225 -0.026239203 0.05662619 -0.061886787 0.018789954 0.047618914 0.008160461 0.029096369
-0.03959698 0.0060116346 0.0259059 0.025650587 -0.06020543 0.0155987125 0.018167926 0.027467528
0.015612136 0.035295006 -0.05798075 -0.05497902 -0.027958624 -0.057419505 0.04345713 0.045171093
0.012764091 -0.03510317 -0.024235949 -0.02491361 -0.034663096 0.05333996 0.048126854 -0.034616612
0.05359428 -0.02305102 0.0046836473 -0.022135688 0.013558556 0.025224246 0.027958466 0.047327545

actor_layer.0.bias f4 [256]
00000000: d054 6e3c b794 0e3d 9804 9b3c 4f6c a03d
00000010: 421a 9d3c dd2c 7fbc de4e d9bb 35a2 afbc
00000020: cfd0 02bd 011c 2abd 7d3c 8a3d 2601 b0bd
00000030: c4ea 3f3b 5baa 903a 2933 d739 ef69 b0bd
00000040: 19b1 693d 4b64 04bb 9cda 6abc 281f 2fbd
00000050: 859b 50ba 8b29 5b3c 2a8e 343d 34b9 7f3d
00000060: efd4 1cbd 13d2 a03c 2f3e 813d 6dbe 2f3c
00000070: a43b 6d3d a4b4 353d c84d 933d 40c5 2c3d
00000080: b437 553d d1ce 053d e784 8bbc b93c 8fbc
00000090: f3e0 f539 1a62 12bd d555 4dbd 6f38 073d
000000a0: 3e59 6b3d 168b adbc d975 a63d b18a 36bd
000000b0: dc56 103c 33da c2bc 3e65 3a3d 289c 043c
000000c0: 05d0 443c 01ef 8d3d bac8 773d d0ca 943d
000000d0: 84eb 453d 0e24 543c 8d1f 1d3d 8d24 913d
000000e0: be36 793d 350d e73b 4c6d 1e3d 3b1b 24bc
000000f0: 325b 703b d853 a5bb 8caa 3fbd 369b 79bc
00000100: a9fe 80bd b8c7 1bbd 67c2 ca3c 5e5c 2c3d
00000110: acd1 383d 4fa1 123c 93da 5e3d a3fe 0bbc
00000120: 3cea 66bd 5e48 973d 9a39 4abc 6b6a 623d
00000130: 75f7 7cbc 74b5 11bd d308 3f3d f4d3 923c
00000140: 1cae 90bc 7399 d73c 4962 11bd c1fc 533d
00000150: 4ed3 0c3d 665a e2bc bb47 f4bc f01c 6fbd
00000160: b6c8 013c d803 1f3d 0b80 863b 7957 bfbd
00000170: f825 413c 462b 1e3d 85a1 1a3d 7bc4 943c
00000180: f1db 8f3c 20fb 63bc 0519 633d c8ea 8bbd
00000190: 482c 3dbd aad3 283d b263 dc3c 96ca d339
000001a0: f0ac 59ba e64a 173c b1a5 753d 04eb 12bd
000001b0: d50c 283b e651 5fbd d1a5 59bd 1045 a33d
000001c0: cad9 2b3d 9076 8ebd d1e0 4a3d 5dbb 883d
000001d0: 4d65 d0bc 996e 673c b01d a9bd efd9 643d
000001e0: 298d 153c 8c5e 53bc 4a6b adbc 4c8f 8dbc
000001f0: e692 c0bb f787 fbbc 4b76 5f3d f98f ad3c
00000200: 5760 0ebd 3806 6d3d 7b6c f5b8 511c 943b
00000210: 3bf0 92bb 7f7e 0dbd 2fe6 39bd 6c06 62bd
00000220: 85b9 05bc cb5d 153d 61f2 313d cb40 083d
00000230: c3ae 85bd a89c 213d 4394 5e3d eed6 a7bc
00000240: 883e 24bc f182 6c3d 888b f1bc 858e de3c
00000250: 8a5a 46bd 0fe9 c2bc 9b37 8fbd e50a 54bd
00000260: c3f5 683d 1828 b23c 5243 3c3c db58 183d
00000270: 7f5f 2fbd c38b 50bd f6c4 a2bc 0607 e13c
00000280: 53ac 503d 5348 1d3d 4f0f 523d f95f f9bc
00000290: e148 5bbd cf93 2ebd 3a60 8bbd e6f5 953c
000002a0: 313e 52bd a5f1 753b e973 8a3c d002 3d3d
000002b0: 8601 903d 0879 aabc 20c7 82bc 304d 2cbc
000002c0: 058c 85bd 8a67 173d f844 3e3c a226 57bd
000002d0: 8128 2e3d fa92 a6bb faab 893d 89e7 223c
000002e0: 8a65 99bc 1689 8c3c 0868 a0bc e66d 2b3c
000002f0: 053a 1fbc 626e e6ba 5afc 4dbd 1e07 f8bb
00000300: 9456 a73c 4b3b 17bc 5593 3fbc b2d0 82bd
00000310: 0ee5 85bc 1ffb 74bd 30bc a03d c568 763b
00000320: 3e8f 1dbd 28a7 52bd b1a6 bfbc 807b 813c
00000330: 9ad9 2fbc 1603 4b3d ec78 543d 4850 9f3d
00000340: 657f 38bd 7b45 b9bc 6913 473d 7adc 4c3d
00000350: 0d84 253d aa7a d63c 7a60 1e3d ac10 633d
00000360: 2365 2dbd ef04 1dbd 5915 4e3d ba46 7ebc
00000370: c095 853b 8cad 28bc 1a4b 7e3d acad 7d3d
00000380: a676 273b 7e69 28bd 3da2 6f3d 233d 13bd
00000390: fd3c b33c 7a10 b1bd e2a9 5f3c 2bf9 9a3d
000003a0: 6a64 7cbc 450b 17bd cc90 5bbd d800 7abd
000003b0: e011 47bc 9d5e 6dbd 8a66 6c3d c503 763c
000003c0: 624a da3c 2984 8a3c 5528 fdbc 40a5 db3c
000003d0: 5180 703d 3623 e8bb bb6a 7bbc b0ce 553c
000003e0: 207d 0f3d d0b8 99bd 1b23 54bb 4f90 8cbd
000003f0: 2a17 49bd 220c 2e3d 10b7 c03b de40 603d
0.014546588 0.034809794 0.018923089 0.07833158 0.01917756 -0.015574661 -0.006631716 -0.021439651
-0.031937417 -0.041530613 0.067498185 -0.08593969 0.0029284218 0.0011037098 0.00041046113 -0.08613955
0.05705366 -0.002020138 -0.014334347 -0.042754322 -0.00079577445 0.013376604 0.04408089 0.062432483
-0.038289007 0.019631421 0.06310689 0.010726553 0.057918206 0.044361725 0.0719257 0.0421803
0.052055076 0.03266794 -0.017031146 -0.01748501 0.00046897642 -0.03573809 -0.050130684 0.033012804
0.057458155 -0.021184485 0.081279464 -0.04456586 0.008809771 -0.023785686 0.04550671 0.008093871
0.012012486 0.06930352 0.060494162 0.07265246 0.04832031 0.012948049 0.038360167 0.0708705
0.06084322 0.007051135 0.038678452 -0.010016258 0.003667545 -0.0050453953 -0.046793506 -0.015234759
-0.062985726 -0.038032264 0.024750901 0.042080276 0.045121834 0.008949592 0.054407667 -0.008544597
-0.056375727 0.0738685 -0.012342835 0.05527727 -0.015439858 -0.035573438 0.046639275 0.017923333
-0.017661147 0.026318287 -0.035494123 0.051754717 0.034381203 -0.027630996 -0.02981936 -0.058377206
0.007921388 0.038822025 0.0041046194 -0.09342856 0.011788838 0.038615488 0.037751693 0.018160095
0.01756093 -0.013914853 0.055443782 -0.0683189 -0.046184808 0.041217484 0.026903007 0.00040395994
-0.0008303663 0.009234166 0.05997247 -0.03586866 0.0025642414 -0.054521464 -0.05313665 0.07972157
0.041955747 -0.06956208 0.049530808 0.06676362 -0.025438929 0.01412549 -0.082576156 0.0558719
0.0091278935 -0.01290096 -0.021169323 -0.017280243 -0.0058768867 -0.030704482 0.054556172 0.021186816
-0.034759846 0.05786726 -0.000117027164 0.004519977 -0.004484204 -0.034544464 -0.045385536 -0.055181906
-0.008161907 0.0364664 0.04344404 0.033264916 -0.06527474 0.03945604 0.054340612 -0.020488229
-0.010024674 0.057742063 -0.029485479 0.027167568 -0.04842619 -0.023792772 -0.06993028 -0.051768202
0.056875 0.021747634 0.01149066 0.037194114 -0.04281568 -0.050914537 -0.019869309 0.02746917
0.05094559 0.038399052 0.05128413 -0.030441271 -0.0535363 -0.04262143 -0.06805463 0.01830573
-0.05132884 0.0037528065 0.016900973 0.04614526 0.070315406 -0.020809665 -0.01596409 -0.01051645
-0.06520847 0.036963977 0.011613123 -0.052527077 0.042519096 -0.005083439 0.06722255 0.009942898
-0.018725175 0.017155211 -0.019580856 0.010463214 -0.009718423 -0.0017580504 -0.05028949 -0.007569208
0.020427026 -0.009230445 -0.011692842 -0.06387462 -0.016344573 -0.0598098 0.07848394 0.0037599069
-0.038466685 -0.051428944 -0.023394914 0.01580596 -0.010733033 0.04956349 0.051873133 0.07778984
-0.045043368 -0.022616139 0.048602495 0.05001495 0.040409137 0.026181538 0.038666226 0.05543582
-0.04233278 -0.038334783 0.050313327 -0.015519792 0.0040766895 -0.010295283 0.06208334 0.061933205
0.0025552898 -0.04111623 0.05850433 -0.035946976 0.021879667 -0.08645721 0.013651343 0.07567056
-0.0154048 -0.03687598 -0.053604886 -0.06103596 -0.012150258 -0.05795156 0.057714976 0.015015547
0.026646797 0.016908722 -0.03090302 0.026812196 0.058716122 -0.0070842756 -0.015345271 0.013049766
0.035031438 -0.07505953 -0.0032369557 -0.06863462 -0.049094357 0.04249204 0.0058811978 0.054749362

actor_layer.2.weight f4 [263, 256]
00000000: 34ea 53bc 6016 2fbd 2880 2f3d 7f09 0fbc
00000010: 2c2c 56bd 79b6 6bbd a804 93bc 936b 20bd
00000020: dc29 4a3d c83e 5d3d c89a f13c 3e00 29bd
00000030: 10bc 1fbc 6c0e 313d 2c48 363b acbf fcbc
00000040: 6c89 3a3d 99ac 4e3d f3c6 913c 7845 643d
00000050: ed5f 47bd ea7e 24bd 2de7 0c3d eb9b 193d
00000060: 0a12 72bd a53a 143d f99e 2ebd a4a8 acbc
00000070: 1b20 32bd 5268 b1bc 5b33 49bd 8fbb ca3c
00000080: 89a0 cebc 785b 923b e155 c6bc 23e0 143b
00000090: 1b11 c7bc 23fd aabc 7fce d23c 4db4 afbc
000000a0: ef6a f0bc a220 d2bc cf29 22bd d677 353d
000000b0: 49f0 703d 0a51 0d3c 5d91 cfbc 40a0 33bd
000000c0: df9a 0bbd 69bc 4c3d 4f27 ad3c 9bb3 afbc
000000d0: df65 6c3c c822 dcbc c04f 543d 6803 44bd
000000e0: 9b47 023d e48e 283d 3728 7dbb 5ba6 643d
000000f0: 8dbd 0ebd fa0b 6ebc 54ae 53bd 8a6e 67bd
00000100: 336f f73c 5915 17bd a64a bb3b 674c b9bc
00000110: b4da d5bb c0c0 70bd 503f 1e3c f1be 073c
00000120: bbf3 bd3b e834 febc a262 f1bb 1856 a6bc
00000130: 110c cdbc fe8b 06bd bae5 c4bc d79d e1bc
00000140: d377 37bd d49f 4f3d ea35 6dbd 4e09 40bc
00000150: 74da 38bd ac78 c138 f810 ae3c e346 323d
00000160: 090a 173d 6f01 52bd 4986 a23c 807e ed3a
00000170: b8a0 193d ff04 013d c053 833c 2938 1f3c
00000180: 59cb 4bbc 21c9 d83c 5a0b 193d b218 32bc
00000190: f7a4 753d 9d2a f13b 9ac2 d93c 82e2 20bd
000001a0: a149 babc 7c44 3abd a0f3 cabc 334e 2dbd
000001b0: aee4 c03c e4ae 0ebd 9fea 5abd e204 5abd
000001c0: 89b4 ad3c 230f 5e3c a350 613b 8c2d d33c
000001d0: ce46 13bd 8fb8 103d d477 f43c 6057 16bd
000001e0: d1f1 edbc 5c03 013d 4d26 513d 1c82 1a3d
000001f0: d52d 04bc 57a2 2fbc 4654 1e3d 0cfe 66bd
00000200: 48a3 b5bb da53 a43a a463 3ebd 5593 85bc
00000210: 8318 09bd 2827 8abc b6e2 63bd e673 d8bc
00000220: 17bb d6bc d7a3 fa3b a3df 65bd eaa3 13bd
00000230: c14e 6dbc 6649 debc c7dc e73c 9d6d adbb
00000240: 0ccb 40bd 08c8 87bc 96cb ddbc bfc8 c4bc
00000250: a0b1 343d c07f 85ba aa2f 4f3c e1e6 c8bb
00000260: 88ac 59bd 0ca4 5e3d bd2c 99bc b4c4 5d3d
00000270: 7691 743d 0c9e 68bd ae3e 68bb ad3c 153d
00000280: 1662 81bc 19bf 9ebc f162 3e3d 8d79 f5bc
00000290: 1831 06bc 02df 073c 998f 79bd 615a 49bd
000002a0: e888 f03c cd68 493b c923 b33a 45e4 6dbd
000002b0: 746f 033c 6be4 0f3d db0b 493c 0c1d 4ebd
000002c0: 7b6e 7c3b 64b6 e13c aa78 bd3a b923 7a3d
000002d0: 215d 0dbd ca29 533d 8b80 ff3c 0ab1 23b7
000002e0: 5d1f a33c ed8a 7abd 6765 583d 245d 6d3d
000002f0: 529d 2c3d 8081 833c 23ba 3f3c aade 61bd
00000300: 6798 5c3d 05f4 0b3d d3ae 6b3c 7e96 613d
00000310: 2865 353d f1d9 05bd 926c 3dbc 66e0 453d
00000320: 4c01 803d b4de f4bc 6d04 31bd 5399 ecbc
00000330: 0170 633b 8d0e 713c 6c0a f5bc c9b5 41bd
00000340: 0b53 803d ccba 213d 3a02 11bd 2bf6 77bc
00000350: e3ca 3ebd eeea 21bd c072 673d 4663 4d3d
00000360: a724 403d 93b7 163d f89f dbbc 8734 693c
00000370: 2e87 cfbb 9320 7e3d 6c1c 503d ddac 72bd
00000380: 5a20 0f3b 07b5 623d 9457 62bc ab79 393d
00000390: ce39 343d 66d8 b9bc d3f2 353a 958f 9d3c
000003a0: 6ff6 00bd 3eac 4dbd b723 2ebd b220 6cbd
000003b0: 84af 6cbd 49c2 74bc bb5a 513d 39d7 edbc
000003c0: 6f07 e73b 3b20 62bc b0f2 74bd c0f2 8e3c
000003d0: 6858 2d3d ca9a 6bbd 8d60 e8bc bc66 353c
000003e0: 4f4d 623d 04ff b33c 341e 723c 9c71 0d3d
000003f0: 7b0b 9a3c 0053 36bd aca5 783c 4907 35bd
-0.012934256 -0.042745948 0.04284683 -0.008730291 -0.05228822 -0.057547066 -0.017946556 -0.03916509
0.049356326 0.05401495 0.02949275 -0.041259997 -0.009749427 0.043226644 0.0027814014 -0.030853115
0.045541212 0.05045757 0.017795062 0.055730313 -0.048675466 -0.040160097 0.034400154 0.03750221
-0.059099235 0.03618874 -0.042632077 -0.021076508 -0.04348765 -0.02165619 -0.049121242 0.024747638
-0.025223034 0.0044664703 -0.024210872 0.0022716604 -0.024300149 -0.020872658 0.02573323 -0.021448279
-0.029347865 -0.025650326 -0.039590653 0.044303738 0.058822904 0.008625278 -0.02533787 -0.043854
-0.034083243 0.04998437 0.021136908 -0.021447947 0.014428585 -0.026872054 0.051833868 -0.04785481
0.03180657 0.041151896 -0.0038628706 0.05582271 -0.03484874 -0.014529223 -0.051679924 -0.056501903
0.030204391 -0.036885593 0.005715686 -0.02261944 -0.0065263156 -0.05877757 0.00965865 0.00828527
0.005796877 -0.031031087 -0.0073664943 -0.020304725 -0.025030168 -0.03284835 -0.024035323 -0.027541084
-0.044792008 0.050689533 -0.057912745 -0.011720968 -0.045130208 9.225434e-05 0.021248326 0.043524634
0.036874805 -0.0512709 0.019839423 0.0018119365 0.03750679 0.031498905 0.016031146 0.0097179795
-0.012438619 0.026463093 0.03736434 -0.010870146 0.059971776 0.007359816 0.026582051 -0.039278515
-0.022740187 -0.045475468 -0.024774373 -0.042310905 0.023546543 -0.034834757 -0.05344641 -0.053227313
0.02120425 0.013553414 0.0034380339 0.025778554 -0.035956196 0.03533226 0.029842295 -0.03670442
-0.029045971 0.031497344 0.051061917 0.03772174 -0.008067568 -0.010719857 0.03865459 -0.05639462
-0.0055431463 0.0012537197 -0.046481743 -0.016305605 -0.03347064 -0.016864374 -0.05563613 -0.026422452
-0.026212258 0.0076489258 -0.05612148 -0.036044993 -0.014484108 -0.027134608 0.028303517 -0.005292608
-0.04706864 -0.016574875 -0.027074616 -0.024021504 0.04411471 -0.0010185167 0.012645641 -0.0061310385
-0.053143054 0.054355666 -0.01869809 0.05414267 0.059709035 -0.05679135 -0.003543775 0.036434818
-0.015793841 -0.019378232 0.046481077 -0.029965186 -0.008190416 0.008292915 -0.06092796 -0.049158458
0.029362157 0.0030732632 0.0013667281 -0.058079023 0.008022178 0.035129946 0.012270893 -0.05032067
0.0038518 0.027552791 0.0014455516 0.061069224 -0.034512643 0.051553525 0.031189224 -9.756777e-06
0.019912416 -0.061167646 0.05283108 0.057950154 0.04214222 0.016052961 0.011702093 -0.05514399
0.05385628 0.034168262 0.014384943 0.05507516 0.044285923 -0.03267855 -0.01156153 0.048309706
0.06250247 -0.02989135 -0.04321711 -0.028881704 0.003470421 0.014712942 -0.029912196 -0.047292504
0.06265839 0.039484784 -0.035402514 -0.015134375 -0.046580207 -0.039530687 0.05650592 0.050143503
0.046909954 0.036796164 -0.026809677 0.014233715 -0.0063332533 0.062042784 0.050808355 -0.059246887
0.0021839351 0.055348422 -0.013814826 0.045282047 0.04400044 -0.022686195 0.00069407857 0.019233504
-0.031485017 -0.05021309 -0.04251453 -0.05764837 -0.057784572 -0.014938899 0.051111918 -0.02903329
0.0070504467 -0.01380163 -0.059801757 0.017449737 0.04232064 -0.057520665 -0.028366352 0.011071857
0.05524951 0.021972187 0.014777709 0.034532174 0.018804302 -0.04451275 0.015176218 -0.0441964

actor_layer.2.bias f4 [263]
00000000: d231 09bd 74f7 c7bc 1814 3abd 45da 9cbd
00000010: 874f 8abd 909a 11ba f003 1b3c d3b0 9ebd
00000020: ab00 d73b 8f7f c23c db61 943c 718e 83bd
00000030: 16f4 013c 70f0 99bb 77d2 883c 9624 3fbd
00000040: 5a39 afbd 2fdd a0bd 9d4a 083d 90b7 dcbc
00000050: cc41 013c f68e 4cbd e02b d33c c457 febc
00000060: b0e0 77bb 1829 5bbd 4276 adbd 4d16 90bd
00000070: 0eb6 463d df37 ce3d 2ed3 a03c 6f13 4b3d
00000080: c467 d6bc 618b c93c 161c 323d 24d3 083d
00000090: 29fe 353c 5869 9d3d c860 afbc 60fc e33b
000000a0: 9091 e5bb ec29 27bd feb7 bd38 48c7 a53c
000000b0: 4539 a53d 5a09 61bd ee58 3a3d 304a d53d
000000c0: 9c10 473d ba00 7b3d 02ed 983d 9cdb 4d3d
000000d0: fec1 283c cae5 d13d 0240 c33d c732 44bd
000000e0: 6f61 6d3d edd7 19bc de8b 533d b60c 833d
000000f0: e31f 13bc caf1 133d 5822 403d d0cb 8ebc
00000100: d2df 9d3d 0824 13bd 65ea 933d 44e0 8a3c
00000110: acba 103c bdef 8ebd 77b9 82bc 6e35 3ebd
00000120: 86ef 343d 4fae 583d 9793 56bc 082c 1dbd
00000130: 0029 e33c c4e7 92bd e17e 253d 1ccf 90bd
00000140: 6888 723c 1f97 363a a07c b2bc b581 b13a
00000150: 60e0 25bc ccca 14bd 4859 25bd 9e65 8bbd
00000160: f0ae fc3b 1180 6c3c 7578 7e3b cac3 453c
00000170: 4465 3f3d bccd 003d 4a1d 223d 9d63 61bc
00000180: 5862 193d 183a 59bc c8d8 9dbd 13f9 62bc
00000190: 87e5 07bd 56a0 c4bc 0748 62bd bf59 a6bd
000001a0: a070 9abd 66c1 42bd f6e2 00bd 067e a8bd
000001b0: 2e93 263c 5e26 84bd 6ee9 84bd 387b 48bd
000001c0: 1332 00bd abce 59bb 0bbe 053d a9fa dc3c
000001d0: be63 48bd 2b0c d63c 33cd 713d dca7 713c
000001e0: e869 ac3c 5528 f43c 9261 003c e7bc 143d
000001f0: ee65 9d3c f3a5 783d 02fa 8e3b 2806 72bd
00000200: 5102 b43c feca 8bbd 6702 563b 26a7 03bd
00000210: f810 a93d 9b11 133d 9596 e5bb 1f22 4f3d
00000220: 04ba 693c ce9a 813d 816a 263d 1258 d0bc
00000230: 37ed e6bc 76df 9d3d 24b8 d8bc d119 413d
00000240: da09 30bd 2c2c 983d eede b13c a339 33bd
00000250: 66f3 253d a2cc bfbb a183 3e3d b838 383c
00000260: 7717 30bc b83c 6f3c ab47 f73c af9d 1abd
00000270: 1812 3fbd dff9 7dbb 450f bb3c e573 d83c
00000280: e4da 86bd 0d4a e1bc 00c0 5dba 48d2 323d
00000290: 2a3b debc 7455 adbc 07d6 523d d25f 9abc
000002a0: 9d24 043d 367d 1b3d 5f96 8cb9 3f72 e33c
000002b0: 882e 48bc c5a3 2fbd 3f71 483d 496a 0cbc
000002c0: 2c73 44bd 8bcd 1bbd e2be 643c f7ad 21bd
000002d0: fe0f b93c 24ff 57bd a640 5c3d 7857 19bd
000002e0: 05cc 30bd 5cc4 e9bc 5c5b 1c3d f2db 433d
000002f0: de59 53bc 352d fe3c bc4f 403d 40dd 45bd
00000300: 9d83 d8bc ad38 a93c f2e9 53bd ee5c 0dbd
00000310: 8003 043a b562 db3c 1d82 e8bc 1b05 303c
00000320: 169e f4bb f0a8 0b3d 4001 663c a279 363d
00000330: 9dd7 9c3c 3ce3 39bd b5a1 2bbd 55b0 473d
00000340: 541d 8cbd 4fbd 8938 7df8 03bc c41e 2ebd
00000350: f463 0dbd 2090 1cbd dcaf 8bbd 1dde b6bc
00000360: 0309 1f3d 6c5a 2bba ad65 91bd 8f53 93bd
00000370: 7f56 3f3b fa0a 513d ab4a 393d f42c 5ebd
00000380: 5e86 3e3d 000f b5b9 a4b6 623d 003b 9b39
00000390: 1264 15bc 4a1a 083d 3f46 28bc d287 7bbd
000003a0: cd06 87bc e4c0 5c3c 926f 02bd 37ce ebbc
000003b0: 4e63 4abd 79a7 35bd bf9c a1bd 40e1 c33a
000003c0: 3598 f1bc ad9f b0ba 8ccf 9e3c 58e0 dd3b
000003d0: 1814 453d 7634 fdbc 7c17 9ebc 240a fe3c
000003e0: 3871 85bd 2c81 07bd 512c 33ba 2361 b3bd
000003f0: 70ca a5bd 1858 1dbd c316 1fbd 07f2 94bc
-0.033494778 -0.024409987 -0.04542932 -0.07658819 -0.0675345 -0.00055543426 0.009461388 -0.0774857
0.006561359 0.023742465 0.018113067 -0.06423653 0.00793173 -0.004697852 0.01670192 -0.04666575
-0.08555861 -0.078546874 0.03327428 -0.026942998 0.007889222 -0.049941026 0.025777757 -0.03104771
-0.0037823133 -0.053505987 -0.084698215 -0.070355035 0.048513465 0.1006925 0.019631948 0.04957908
-0.026172526 0.024602594 0.043483816 0.033404484 0.01110796 0.07686108 -0.021408454 0.0069575757
-0.007005878 -0.040811464 9.0464935e-05 0.020236626 0.08067564 -0.05494056 0.045494966 0.10414541
0.048599824 0.06127999 0.07467081 0.050258264 0.010300158 0.10248907 0.09533693 -0.047899988
0.057954248 -0.00938986 0.05164706 0.06398909 -0.00897977 0.03611926 0.046907753 -0.01743117
0.07708706 -0.035923034 0.072224416 0.016952641 0.008833569 -0.0697932 -0.015957577 -0.046437673
0.04417374 0.05290061 -0.013096712 -0.03837207 0.027729511 -0.07173112 0.040404204 -0.07070753
0.01480303 0.0006965268 -0.021787941 0.0013542684 -0.010124296 -0.036326215 -0.04036835 -0.06806491
0.007711284 0.01443483 0.0038829122 0.0120706055 0.046727434 0.031446204 0.039578713 -0.01375666
0.037447304 -0.01325848 -0.07707363 -0.013853329 -0.03317788 -0.024002235 -0.055244472 -0.081225865
-0.07541013 -0.04754772 -0.031466447 -0.08227162 0.010166926 -0.064526305 -0.06489836 -0.048945636
-0.031297754 -0.0033234756 0.032651942 0.026974993 -0.048923247 0.026128849 0.059033584 0.014749493
0.021046594 0.029804388 0.007835763 0.036312964 0.019213643 0.060705137 0.0043632993 -0.059087902
0.02197376 -0.06825827 0.003265524 -0.032141827 0.0825519 0.03590546 -0.007006476 0.05056965
0.014265541 0.06328355 0.040628914 -0.02543262 -0.028189285 0.077086374 -0.026454993 0.04714376
-0.042978145 0.074303 0.021712746 -0.04375614 0.040515326 -0.0058532516 0.04651225 0.011243992
-0.010747782 0.014601879 0.030185541 -0.037748035 -0.046648115 -0.003875367 0.02283443 0.02642245
-0.06584719 -0.02750113 -0.0008459091 0.04365757 -0.027127821 -0.021158911 0.051473644 -0.018844519
0.03226148 0.037961207 -0.00026814916 0.027764438 -0.012218125 -0.042880792 0.048936125 -0.008570262
-0.0479614 -0.038037818 0.013961526 -0.039472546 0.022590633 -0.052733555 0.05377259 -0.037436932
-0.04316332 -0.028536014 0.038173065 0.047817178 -0.012899844 0.031027416 0.04695104 -0.048306704
-0.026429946 0.020656908 -0.05173678 -0.034512453 0.0005035922 0.026780466 -0.028382355 0.010743405
-0.0074651344 0.03409666 0.014038384 0.04454959 0.019145781 -0.045382723 -0.041902263 0.048752148
-0.068415314 6.5679305e-05 -0.00805485 -0.04250981 -0.03451915 -0.038223386 -0.06820652 -0.022322709
0.038826954 -0.0006536606 -0.07099471 -0.07193672 0.0029195843 0.05103586 0.045237225 -0.05424209
0.04651486 -0.00034534186 0.05534996 0.00029607862 -0.009118097 0.033228196 -0.010270654 -0.061408825
-0.016482735 0.013473723 -0.031844683 -0.028784854 -0.04941111 -0.044349167 -0.07891225 0.0014944449
-0.029491523 -0.0013475321 0.019386075 0.0067711286 0.048114866 -0.030908804 -0.019298308 0.031010695
-0.065157354 -0.033082172 -0.0006834912 -0.08758762 -0.080952525 -0.03841409 -0.038840067 -0.018181814
