model/ckpt/Dense_MOOCRadar_binn_policy.pt (torch, 638672 bytes, 6 tensors)

obs_layer.weight f4 [256, 181]
00000000: 5509 18bc e6fe 7abd 6848 04bc c35f 353c
00000010: ba34 31bb 2e52 62bc 6e97 7f3d ce2f 273c
00000020: da4b 8bbc 6e8a 2ebd eedd 633d a999 223d
00000030: 859c e13c 0aa6 48bd 9de9 193d ed35 0e3d
00000040: 77f8 65bd cee0 1d3d 5eb3 883c 9111 3cbd
00000050: 9935 c3bb 9950 c93c ccfa 0c3a 24fe afbc
00000060: 96c1 9d3c 46de 30bd 7d91 673d e37f 57bd
00000070: 5467 343d 7c79 503c 8aef ab3c 0cb2 58bd
00000080: 322e acbc dea9 3c3d c674 ae3c 2f78 ce3c
00000090: 06d8 493a bdc7 693d eeef 4c3c 9740 633c
000000a0: 8e71 e7bc 7be3 46bd ae60 cabc 96bb 1b3d
000000b0: 67b1 bc3c e8f4 8ebc 03e4 473d 07e4 fcba
000000c0: 130d 8f3d b1b0 003c 1a5c 0abd af8d 79bd
000000d0: 1d8f a9bc 8d5a 043d 541a c43c 732c ae3c
000000e0: b84e 86bd ebb3 243c 5b5d bc3b c633 9cbc
000000f0: 9454 b7bc 63cf 8c3c 2721 913d 99e9 3ebc
00000100: 8810 29bc 776e ab39 2a83 293d b9f1 92bd
00000110: 7e9f 35bd 9297 933d 51b5 82bd ccfb 6a3d
00000120: 9462 ba3b bde4 debc 8ba2 8f3d d725 48bd
00000130: 22cc 163c 5441 003d 1293 de3b b14a dc3c
00000140: 6b45 4b3d fa75 1c3d 539e cbba bee2 28b9
00000150: c4ba 56bd a5ea cd3b 1b70 3e3c d3bd 13bd
00000160: 1053 05bd 479f 3abd f4f5 c83c 596e 1dbd
00000170: 3597 95bd c042 5c3d 6f76 903c 1825 853d
00000180: 5a0a db3c 8d71 28bd 87ab 253d 2ccc f0bc
00000190: e77e 733d 6616 68bd ab6a cbbc 5f21 bc3b
000001a0: 3667 a2bc 977c 9b3b 86eb 80bc 838a 913d
000001b0: 8c59 353d abb1 2e3c 1615 153d 93c0 193d
000001c0: ae8b 403d 2d7f 08bd da12 0cbc c72c 4e3d
000001d0: 39f5 d6bc 0b38 8abd 2ed9 3c3d dbf8 003d
000001e0: 6832 573d 722b 883d ef70 31bb e80e cfbc
000001f0: 0cb5 613c d7a8 553d b0e5 95bd fe88 933d
00000200: 82be a4bb aa21 4e3d 1413 29bd 86b9 be3c
00000210: cc26 f33b b848 0e3d 955f fb3c 7c73 26bd
00000220: e1f9 553c e18a d0bb daba 85bd 4a8a 113c
00000230: ccc4 b7bb 5a25 893c 13fe eb3c 7210 b2ba
00000240: 4b5f fa3c 6825 63bd ca1a 77bd 529c 733d
00000250: d3eb 173c dd0f 513d dd64 15bc 9a20 33bd
00000260: 970a 3d3d e7f9 8abd b3f3 a7bb 938a 433d
00000270: 506b 35bd dee9 60bd 8f2a 76bc 6353 67bd
00000280: cfc1 6fbb 8522 abbc 14f7 94bd 3f00 153d
00000290: 88b7 ad3c 965b a73c 764e 16bd 63b5 f83c
000002a0: 57b2 7abd 2cf9 33bd f767 49bd 9d78 79bc
000002b0: 84cc 8cbd 8057 47bd 9e0a 92bd 1390 87bd
000002c0: 30b2 523d ba2e 033d 0757 0c3d 2501 7bbd
000002d0: cd31 673c 984f 713d b56e 8ebd 2d0f f9bb
000002e0: e309 34bb 4c42 fb3a fa2d d3bc aea7 27bd
000002f0: cde2 1a3c 52bf 91bc a2ed 82bd b79b c23c
00000300: 3c4d f0bc 29be 62bd 951d 30bd a057 35bb
00000310: 7c5a c13c 445b 43bd bb6c a03c 8597 bebc
00000320: 85bd 6d3a 1a47 97bd bcb1 8dbd 68d7 2ebd
00000330: 0745 1a3d a08f 4d3d dc10 10bd 957a 1f3c
00000340: 2dbc 7d3a 6500 c73c bfaa 8fbd 4356 d3bc
00000350: bd9f 473d 11a0 953d 40b1 51bd 067d 30bd
00000360: e17f 81bd b2c9 8b3d 92d4 9abc 643c 09bd
00000370: 00e8 07bd b72d 4cbd fa76 53bd 66b1 03bd
00000380: 4e85 7bbc 537b 25bd a786 42bd 7678 5abc
00000390: 149a 023d 3eb4 803c 17f1 01bc df48 64bd
000003a0: 8926 943d 646e 04bd af76 6e3d e3cd 473d
000003b0: 2c53 0f3d 9727 8d3d c842 703d 38c9 013d
000003c0: e78d 8cbd 75ac 52bc fe31 483d e84e bfbb
000003d0: c0ff 36b8 2266 97bd 92e1 0fbc f6be 68bd
000003e0: 0e7c ed3c 0469 93bd caf0 6b3d 674c 2fbd
000003f0: 28b2 e63c 9784 fcbc bb3c 25bd 848b 33bd
-0.009279569 -0.061278246 -0.008073904 0.011070195 -0.0027039484 -0.0138135385 0.062400274 0.010204269
-0.017003942 -0.042612486 0.05563157 0.039697323 0.027540455 -0.048986472 0.037576307 0.034719396
-0.056145158 0.03854447 0.016687091 -0.04591519 -0.005957317 0.024574565 0.0005377948 -0.021483488
0.019257348 -0.043180726 0.056535233 -0.052612197 0.044043854 0.012724277 0.020988245 -0.052904174
-0.021018121 0.046060435 0.021295916 0.025203792 0.00076997315 0.05707525 0.012508376 0.01387038
-0.02825239 -0.048556786 -0.024704304 0.038020693 0.02303381 -0.017450765 0.048801433 -0.0019294032
0.069849156 0.0078546265 -0.03377924 -0.060926136 -0.020698125 0.03231292 0.023938335 0.02126143
-0.06557983 0.010052661 0.0057484335 -0.019067656 -0.022379197 0.017188733 0.070864014 -0.011652374
-0.010318883 0.00032697964 0.041384853 -0.07175011 -0.044341557 0.07206644 -0.063822396 0.05736904
0.005688021 -0.02720868 0.070134245 -0.048864212 0.0092039425 0.0313123 0.0067924345 0.026891084
0.04962675 0.03819845 -0.0015534855 -0.00016106197 -0.052424207 0.0062840753 0.011623408 -0.036069702
-0.032549918 -0.045562055 0.024531342 -0.038435314 -0.07304231 0.053774595 0.017634599 0.06501216
0.026738334 -0.041123915 0.040446784 -0.029394232 0.059447195 -0.056661986 -0.024831137 0.005741283
-0.019824605 0.004745077 -0.015737306 0.07106497 0.04427485 0.0106624765 0.036397062 0.03753717
0.04700821 -0.03332441 -0.008549416 0.05033567 -0.026239978 -0.067489706 0.046105556 0.031487327
0.052538306 0.066489115 -0.002707537 -0.025275663 0.013776075 0.05216297 -0.073192 0.072038636
-0.005027593 0.050325073 -0.04127796 0.023281824 0.0074203964 0.03473732 0.030685226 -0.04063748
0.013060064 -0.006364212 -0.0652978 0.008883068 -0.005608177 0.016741443 0.028807675 -0.0013585223
0.030563017 -0.055455595 -0.060328282 0.05947525 0.0092725335 0.05104052 -0.009118286 -0.043732263
0.046152677 -0.06785946 -0.0051254868 0.047739577 -0.044291794 -0.054910533 -0.015024795 -0.05647601
-0.0036584025 -0.020890484 -0.07273689 0.036377188 0.021205679 0.020429414 -0.03669592 0.03035993
-0.061205234 -0.0439388 -0.049171414 -0.01522651 -0.06874946 -0.04866743 -0.07130931 -0.06619277
0.051439464 0.032026984 0.034262683 -0.06128039 0.0141109945 0.058913797 -0.069547094 -0.007600686
-0.0027471713 0.0019169538 -0.02577876 -0.040931396 0.009453488 -0.017791424 -0.06392981 0.023755891
-0.029333703 -0.055357132 -0.04299696 -0.0027670637 0.023602717 -0.04769446 0.019583097 -0.02326561
0.0009069073 -0.073866084 -0.06918666 -0.042685896 0.037663486 0.0501858 -0.03517233 0.009733816
0.00096792245 0.02429218 -0.07014989 -0.025797969 0.048736323 0.07305921 -0.05119443 -0.04308798
-0.06323219 0.0682558 -0.01890019 -0.03350486 -0.033180237 -0.049848285 -0.051627137 -0.032151602
-0.0153516065 -0.040400814 -0.047491696 -0.013334384 0.03188522 0.015710946 -0.007931015 -0.055733558
0.072339125 -0.03233184 0.058218654 0.048780333 0.03499143 0.06892317 0.058657438 0.031686038
-0.06863003 -0.0128585 0.0488758 -0.005838264 -4.3630367e-05 -0.07392527 -0.0087818075 -0.05682274
0.028989818 -0.071977645 0.05760268 -0.042797472 0.028161123 -0.030824943 -0.04034112 -0.043834224

obs_layer.bias f4 [256]
00000000: e5f7 bd3c 3e5e dcba 4534 1b3d e4e4 81bd
00000010: 5978 67bd ad82 1c3c 718e 063d 074f 693c
00000020: dcb0 063d 5bf5 8ebd 50c6 a23c d488 3b3d
00000030: 8aca 933d bacd 5a3d 3640 bbbc c23d 35bb
00000040: ed04 33bd d448 47bd f76d 7f3d 16a0 0abd
00000050: a634 8ebd b481 8f3c 43a6 ecbb a9fa 20bd
00000060: 82c0 1d3d 5fdb 923b d483 81bd 540d 6ebd
00000070: 36cc 633d 1483 703d 1f83 7e3d 0f66 7ebd
00000080: cbe2 86bd 4bf4 313d 1e09 5a3c d3f0 8b3d
00000090: 3f14 0bbd 0954 783d 8f03 94bd 814e 26bd
000000a0: b3e7 f1ba dc98 dfbc 5214 383d 4081 dc3c
000000b0: 51d7 4d3c d3ce 78bd ad89 38bd 33a8 af3c
000000c0: a77e fdbc 0d9e 68bc 3c9e 90bd 0400 49bd
000000d0: 124e bfbc 7b2a 5ebd 379d 35bd 1be4 8e3d
000000e0: 5161 d7bc be2f 233d 4168 e6bb 8d04 3fbd
000000f0: 0284 e13c 5379 db3c f838 ed3c c0f2 603c
00000100: 734e 51bd 87fc 4e3d 5073 61bd 0d11 523d
00000110: 4aef 963c 94d8 87bb aec4 c5bc f234 863d
00000120: 90d4 03bd b6b1 663d c656 263d f00a 843b
00000130: 03f8 773d 2c36 7cbd 9b06 da3c b34d 183d
00000140: 77f9 9bba f60d 45bd ed5f 27bd fa2e 333d
00000150: 54d7 953c 2e9c 803d bdf5 6a3c 327a 0dbd
00000160: cbff 12bb db99 97bd c647 8ebc 7d4f 7dbd
00000170: 4616 4a3d daf0 813d 5545 073c f360 72bd
00000180: 30c1 1a3d 1e08 88bd 4547 75bd 8837 e23b
00000190: 8a6b 1f3d 0506 0ebd ecc5 91bd 8902 e23c
000001a0: 2393 03bd 1e99 85bd 3c1d 4d3d 95e8 94bc
000001b0: ff9b c2bc c724 a23c 78c3 883d 6df3 8c3d
000001c0: f9f4 8cbd 929f 26bd 6958 6f3c c109 853c
000001d0: a791 783d c51a 8fbd 4357 383c 3827 56bd
000001e0: 5a59 e0bc 78ea 483c bd58 ec3c 70df 84bd
000001f0: 80e1 4d3d 0dd3 57bd 6006 5e3d 4a12 1c3d
00000200: 7295 18bc 9d39 6e3d 00bf 883b f584 04bd
00000210: c1cb 3dbd facd 073d 27af f739 accc 6fbd
00000220: 8027 a7bc ab0d 86bd cb4c 973d 92c0 2dbd
00000230: 0ace 89bc 6794 4bbc f8de 85bc ba2c 8fbb
00000240: 7095 38bc 5e67 5a3d f1c5 943d cc90 c9bc
00000250: c908 f1bb f080 c6bc 329f 623d 57d2 0ebc
00000260: 8791 dabc ace1 93bd dd5a 6d3d ecc5 fe3c
00000270: 017e 953d 7979 5dbc 1af5 06bd 8e8c c43b
00000280: 215c 44bc 8801 bdbc e0ed 82bd db42 20bd
00000290: 0ffe 81bd 113d 493d 8e93 973d e3b6 0d3d
000002a0: 0ad1 e83b 4c63 4c3c 6b3d 893d be06 6b3d
000002b0: 4f57 6abd 0601 d13c 779b a23c 5d6f 3cbd
000002c0: c5b2 913d 4e04 fb3c 4eb9 233d 7620 b6bb
000002d0: 9359 8e3d 6094 1b3b 760a 06bd fd12 0d3d
000002e0: d3f7 a93c b7c5 e53c 0843 cd3c 9e93 8bbd
000002f0: 5408 783d 3025 7cbd 586c e23c 1f2b 543d
00000300: 271b 9a3b 85f1 6c3d 5d13 e13c 5535 91bd
00000310: 544c 24bd bc69 293d dc48 c0bc 671f 67ba
00000320: 4a81 03bd 0684 453d 0c7a 38bc 6667 3fbd
00000330: 08b5 833d c36b 933d 7c07 92bd 6456 943d
00000340: 89bb 55bd 5a58 b1bc ea12 99bc 2038 f2bc
00000350: 13e9 4d3d 3c83 f63c 3987 883d c1c9 873d
00000360: a922 f2bc 3216 083c 5895 893c cb2b d6bc
00000370: de77 563b f252 1fbd 4bad d83b 92ea 773d
00000380: 9c5f a8bc dc3d 67bd 539d 183b 14ca 44bd
00000390: fc67 63ba 327b 733d 2976 243d 4e2c 453d
000003a0: 5e22 bb3c 5ce6 85bd e047 e3bb cf0b 843d
000003b0: 208e 94bc 612b 103b b3e9 653d 731b 90bd
000003c0: 2a18 bf3c f42d 02bd a9f0 8b3d a7da 513d
000003d0: 4f6c 5e3d c9a9 dfbc 08a2 4c3b 9dd9 24bd
000003e0: 3206 6a3d 4b0f 0abd 72bb 47bd f435 003d
000003f0: 7a79 493d 38df 8ebc f3b8 113d a332 8cbd
0.023189494 -0.0016812754 0.037891645 -0.063424855 -0.056511257 0.00955264 0.032850686 0.014240033
0.03288351 -0.069803916 0.019869953 0.045784786 0.07216366 0.053418852 -0.022857767 -0.0027655219
-0.04370587 -0.04865344 0.06236073 -0.033844076 -0.06943636 0.017517902 -0.0072219684 -0.03930155
0.038513668 0.0044817175 -0.06323972 -0.05811818 0.055614673 0.058718756 0.062136766 -0.06210905
-0.06586226 0.043445867 0.013307838 0.06833043 -0.033954855 0.060627017 -0.07227241 -0.04060221
-0.0018455893 -0.027294569 0.044941254 0.0269171 0.012563542 -0.060744118 -0.045053173 0.021442508
-0.030944182 -0.0141978385 -0.07061431 -0.04907228 -0.023352657 -0.05423973 -0.044339385 0.069771014
-0.026291521 0.039840452 -0.007031471 -0.0466352 0.027528767 0.02679125 0.028957829 0.013729751
-0.051100206 0.050533798 -0.05504161 0.051285792 0.018424649 -0.004145691 -0.024141636 0.06553067
-0.032185137 0.056321822 0.040610097 0.004029624 0.060539257 -0.0615751 0.026614478 0.037183475
-0.0011899908 -0.048109017 -0.040862966 0.043745972 0.018291153 0.06279789 0.014340815 -0.034540363
-0.0022430297 -0.074023925 -0.017368209 -0.061843384 0.049337648 0.06344767 0.008256276 -0.05917449
0.037781894 -0.06642173 -0.05988242 0.0069035925 0.038920917 -0.03467371 -0.07117829 0.0275891
-0.032122742 -0.065233454 0.05007671 -0.01817731 -0.023756025 0.019792927 0.06677908 0.06882367
-0.06882662 -0.04067952 0.014608481 0.016240003 0.06068578 -0.06987528 0.011251274 -0.052283496
-0.027386356 0.012262933 0.028850907 -0.0648793 0.05026388 -0.052691508 0.0542053 0.03810338
-0.009312974 0.058160413 0.0041731596 -0.03235336 -0.046336893 0.03315542 0.0004724201 -0.0585448
-0.020404577 -0.06545576 0.07387694 -0.042419977 -0.01682188 -0.012425519 -0.016341671 -0.0043693455
-0.011266097 0.053321235 0.07264317 -0.024605177 -0.0073557836 -0.024231404 0.0553276 -0.008717141
-0.026680721 -0.07220778 0.057947982 0.031100236 0.07299424 -0.013517731 -0.03294859 0.0059982007
-0.011984856 -0.02307202 -0.06393027 -0.03912626 -0.06347286 0.049130503 0.07401191 0.034598242
0.0071049975 0.012474846 0.06701168 0.057379477 -0.05721217 0.025513183 0.019849522 -0.04600464
0.07114176 0.030641701 0.039971642 -0.005558069 0.06950679 0.0023739561 -0.03272482 0.034441937
0.020748055 0.02804838 0.025056377 -0.06815265 0.060554817 -0.061558902 0.027639553 0.051798936
0.004702944 0.05784752 0.027475053 -0.070902504 -0.040111855 0.0413606 -0.023472242 -0.000881663
-0.03210572 0.04822161 -0.011259567 -0.046729468 0.06431013 0.07198288 -0.07130334 0.0724304
-0.0521808 -0.021648575 -0.018685777 -0.029567778 0.050271105 0.030091874 0.06666417 0.066302784
-0.029557543 0.008306073 0.016794845 -0.026143929 0.0032725255 -0.038897462 0.006612455 0.060526438
-0.020553403 -0.056455478 0.0023287132 -0.04804428 -0.00086748577 0.05944366 0.04015175 0.048137955
0.022843536 -0.06538078 -0.0069360584 0.06447565 -0.018134177 0.0021998512 0.056131076 -0.070364855
0.023326952 -0.031782106 0.06833012 0.051233914 0.05430251 -0.02730264 0.0031224508 -0.040246595
0.057134815 -0.03370599 -0.048762746 0.031301454 0.049188115 -0.017440423 0.035576772 -0.06845596

actor_layer.0.weight f4 [256, 256]
00000000: eacd 753d 6ec4 533d 9ceb d73c a8d9 d8bc
00000010: 2803 96bc 1c2d 563d 6006 883c 8a21 2b3d
00000020: 601e e9bc 8210 10bd 98f9 473d be2b 78bd
00000030: a070 963c e829 4b3c 447c b83c b021 41bd
00000040: d442 dc3c 361f 22bd 00e9 4e3a 785a 633c
00000050: 8e13 6cbd 3038 e1bb a0ba 993b 00ba 91ba
00000060: 586a 0cbc d8c4 6e3c 6ec6 4ebd a0c3 253d
00000070: 301d 0b3c 8cd3 d9bc c668 423d 6c45 413d
00000080: c8b8 35bc 1c31 00bd 8e89 3d3d 5419 7cbd
00000090: 58dc 13bd b08a edbb 6a28 4bbd 009d 623a
000000a0: 6431 fbbc c0d3 453d 009a f3b9 bc64 f93c
000000b0: 6041 413c fcec 78bd a06b 2ebd 6043 583d
000000c0: d00e 0a3d 8cf9 ba3c a8c2 73bc b091 0fbc
000000d0: dc19 8cbc 8061 c1bb 44a6 a0bc febb 1abd
000000e0: 9063 d6bb 8cbc de3c a8ac 41bc 1097 643c
000000f0: 1c59 53bd 4cf8 043d eca1 aebc 02f2 6c3d
00000100: 0096 8eb9 80d7 fe3c e0e9 1a3c ce42 0d3d
00000110: 7c38 253d 54de f73c bc25 49bd c0e9 ca3a
00000120: 4686 6a3d d6be 61bd fae6 0a3d 3cc2 c3bc
00000130: 28b7 e73c ea7b 103d c0e2 d2bb 8808 af3c
00000140: 6a58 3bbd 00f4 3ebb ea5a 5abd a802 edbc
00000150: 1ced 0f3d 002e f2bc b891 6abc 2027 143d
00000160: c2e9 2bbd 00d9 b63b 7ea8 643d 5258 33bd
00000170: e4fd 473d 6854 313d 20f5 47bc 5091 573d
00000180: c84e da3c 72dd 1a3d 60c0 5dbd d453 9dbc
00000190: 388a 773c 58c8 fcbc e012 e1bc 6a41 0a3d
000001a0: 78c0 09bd ba6d 08bd c8e1 4dbd 447c 8e3c
000001b0: 9473 90bc 3c55 7a3d 7c0b ac3c 505a 1bbd
000001c0: c0e5 90ba 5c2e 04bd 686f de3c 8ac6 673d
000001d0: 7c14 70bd c882 113c 00bf 843a 3866 c9bc
000001e0: 8c82 913c 1a1c 26bd 8892 a33c 48c7 62bc
000001f0: 2479 02bd 4afc 2fbd e691 483d 2605 203d
00000200: 12d8 203d b059 203d 2068 cabc d067 9b3b
00000210: 10d7 40bc 6026 7d3b deca 0fbd 001a fcb9
00000220: 3c60 883c 6209 7dbd 4002 763d 145a 40bd
00000230: 009a 6fbc 2074 073c 9065 0fbd 1839 12bc
00000240: c090 653b 4a42 12bd 3210 0e3d e8e8 55bc
00000250: 0442 debc a0f5 863b 2cfa b7bc 8080 cdba
00000260: a054 d13c 6ce0 0abd e0de 5e3c 90b5 ce3b
00000270: a2fa 653d d07e 2fbc 388d 0ebd 6a5d 44bd
00000280: 00df f53c d092 96bc 3060 33bd 10b8 9a3b
00000290: 2ea2 06bd b05b b3bc d8c5 a6bc e603 2cbd
000002a0: 08ea 06bc aa9a 1fbd fc62 3fbd f891 92bc
000002b0: 6426 553d 1802 c2bc 6822 403d d2e3 613d
000002c0: 2415 cbbc 7879 fdbc c69b 193d 0070 76bc
000002d0: e8a1 5d3d dc55 f4bc 10e5 7dbc 2c37 a2bc
000002e0: 30d7 07bc 10db 563d 004f 963c e4ff 77bd
000002f0: a0a4 823b f8c8 1d3c 5404 71bd ecec 113d
00000300: a043 f3bb 9233 733d d01a 22bc 20e6 7d3b
00000310: 6a24 05bd 60ff 5b3c 2ad3 533d e0a0 db3c
00000320: 2423 8e3c 80d5 273b f820 babc e0b7 fe3c
00000330: 38ae dfbc 4601 6b3d 0ad1 02bd 309f 52bc
00000340: 6c9a bfbc 863e 753d a025 2ebc 4eb6 68bd
00000350: b04b d83c 70ab a2bb e8c0 5f3c 845e a0bc
00000360: a0eb 9abc 08a5 413c 3012 963b 92b3 41bd
00000370: 1a24 2abd 803b 51bc c8ff 56bd 463e 7a3d
00000380: f2c6 4bbd 3877 5fbc fc87 06bd 24fc 32bd
00000390: 6496 7cbd d8a5 05bc 8618 49bd 2097 263b
000003a0: b04e a8bc b0d2 bc3c 4642 2c3d 1820 28bd
000003b0: 362b 503d d637 673d 34b2 c13c 846c 0fbd
000003c0: 18fb 91bc 3604 463d 0078 12bb 6073 0cbb
000003d0: 1007 603c a877 2fbd 509c 6c3d 300f 7a3d
000003e0: 7670 09bd 18f1 84bc 000f ce3c 5a6a 6d3d
000003f0: 8e8b 403d d073 9b3b d418 93bc dcb4 ebbc
0.060010828 0.051701 0.026357464 -0.026470974 -0.018312052 0.052289113 0.016604602 0.041780032
-0.028456867 -0.035171993 0.048822016 -0.06058859 0.01836425 0.012400128 0.022520192 -0.047151268
0.026887335 -0.039580546 0.0007892996 0.01387655 -0.057635836 -0.006873153 0.004691437 -0.0011118054
-0.008570276 0.014573298 -0.050482206 0.040469766 0.008490846 -0.026590131 0.0474632 0.047185346
-0.011091419 -0.031296834 0.04627376 -0.061547592 -0.036098808 -0.007249199 -0.04959909 0.00086446106
-0.0306632 0.048297644 -0.0004646331 0.030443542 0.011795372 -0.06077288 -0.042583108 0.05279863
0.033705533 0.022824071 -0.014877953 -0.008762762 -0.017102174 -0.0059015155 -0.019610532 -0.03777694
-0.0065426305 0.027189516 -0.01182095 0.013952032 -0.051598653 0.032463357 -0.021317445 0.057847984
-0.0002719611 0.031108618 0.009455174 0.034487538 0.04033707 0.030257381 -0.049108252 0.001548104
0.05725696 -0.055113636 0.033911683 -0.02389633 0.028285578 0.035274424 -0.006435722 0.021366373
-0.045738615 -0.0029137135 -0.05330936 -0.02893193 0.035138234 -0.02956295 -0.014316969 0.036170125
-0.041970976 0.0055800676 0.05582475 -0.0437854 0.048826113 0.043293387 -0.012204438 0.052628815
0.026648894 0.037808843 -0.05413854 -0.019205011 0.0151086375 -0.03085725 -0.02747482 0.03375379
-0.033630818 -0.03330777 -0.05026415 0.017393239 -0.017633237 0.061116442 0.02100157 -0.037927926
-0.0011054799 -0.032270774 0.027152732 0.056585826 -0.058613285 0.008881278 0.0010127723 -0.024584875
0.017762445 -0.040554143 0.019967332 -0.013841458 -0.03185381 -0.04296521 0.048967265 0.03906741
0.03926856 0.039148033 -0.024707854 0.0047426 -0.011770025 0.003862761 -0.03510558 -0.00048084557
0.01664745 -0.061776526 0.06006074 -0.046960905 -0.014624119 0.008267432 -0.035008967 -0.008924745
0.0035028905 -0.03570775 0.034683414 -0.013056017 -0.027131088 0.0041186363 -0.022458158 -0.0015678555
0.025553048 -0.03390543 0.013602942 0.006308265 0.056147225 -0.010711387 -0.034802645 -0.04794065
0.030013561 -0.018380553 -0.043792903 0.004721649 -0.03286951 -0.021894306 -0.020358011 -0.041995905
-0.008234508 -0.03896586 -0.04672526 -0.017891869 0.052038565 -0.023682639 0.046907812 0.055148907
-0.024790354 -0.03094171 0.037502073 -0.015041351 0.054109484 -0.029826097 -0.015496507 -0.019801699
-0.008291051 0.052455008 0.018348217 -0.06054677 0.00398691 0.009630434 -0.05884202 0.035626337
-0.007423833 0.059375353 -0.009894088 0.0038741902 -0.03250543 0.013427585 0.051715054 0.02681011
0.01735074 0.0025609434 -0.022720799 0.031093538 -0.027304754 0.05737426 -0.031937636 -0.012855336
-0.023389064 0.05987408 -0.010629088 -0.056814484 0.026403278 -0.0049642846 0.013656832 -0.019576319
-0.018911183 0.011819132 0.004579805 -0.047290392 -0.041538335 -0.012770534 -0.052490026 0.061094545
-0.049750276 -0.013639264 -0.03284453 -0.04369749 -0.06166686 -0.008157216 -0.049095653 0.0025419667
-0.020545334 0.023049682 0.04205539 -0.041046232 0.05082246 0.056449734 0.023644544 -0.035015598
-0.017819926 0.04834386 -0.0022349358 -0.0021431074 0.013673559 -0.042838722 0.05776626 0.06104964
-0.033554517 -0.016228244 0.025153637 0.057962753 0.04700809 0.0047440305 -0.017956175 -0.028772764

actor_layer.0.bias f4 [256]
00000000: f862 e0bc ae12 573d f0df e73c 6ee7 793d
00000010: 74d0 243d 741a ccbc 6eb2 1dbd 3ea2 013d
00000020: d846 6fbc fcfd 493d 7cd9 f33c f8ce 48bd
00000030: a8d8 e1bc 182f e83c 86bb 2ebd 847e af3c
00000040: 6c72 323d e6ce 513d 7c40 a23c 4272 413d
00000050: 5ace 40bd de54 5c3d 4ea3 383d 32da 063d
00000060: 602d 07bc 40f0 d8bc a813 c5bc cc6d 36bd
00000070: d0cb d8bb d057 7cbd 5084 593d c074 063d
00000080: 88ef c7bc 14a2 d33c a069 75bc 869a 31bd
00000090: 14d7 02bd c4ac cf3c e8ec 1abc f028 8e3c
000000a0: e80b 5bbc 60a5 efbb 9488 243d f6d8 433d
000000b0: f4d3 963c 0093 543c 58f4 82bc d40a cf3c
000000c0: be6d 603d 989c 49bd b057 b7bb 7068 2c3d
000000d0: 46e8 683d 768a 243d aab7 213d 40a3 2cbb
000000e0: c4a0 3a3d 1a7f 143d c0ef 0cbc c8ec 57bd
000000f0: 70a1 f6bb ea8d 603d 081a 0cbc a0c3 493d
00000100: a030 223c aedc 7fbd 309e f13b 4e37 65bd
00000110: 2a66 36bd 2c8c a9bc c073 13bb 9cc4 373d
00000120: 30c8 4fbc 0ae1 3ebd 1cc4 a5bc f444 283d
00000130: 1816 64bd 00cc 0eba c09c 8f3b 4489 e8bc
00000140: a8ec 06bd f09d e9bb f6a5 083d 163b 60bd
00000150: da75 243d 40db 69bb 0e9a 313d 0646 4f3d
00000160: 846b 11bd fef0 693d 68b7 dcbc 9c9c eb3c
00000170: 00f3 c83a 80b3 0d3c ee3b 073d d032 54bc
00000180: cc3c 38bd 7647 5a3d 3c6a 5b3d 182a 203c
00000190: 2002 24bd 984b 34bd 60e5 02bc b221 66bd
000001a0: 463c 003d 94ab 4dbd 0c20 6d3d cc64 8f3c
000001b0: 8426 e43c c85e 23bd f8ec dcbc e0d8 7fbb
000001c0: 4073 3fbc 00af 063a bc45 d23c d6b8 71bd
000001d0: 2665 74bd 605e 22bd 5400 ac3c 0016 2ebc
000001e0: 92a4 05bd 607b 973b bcec df3c 20e6 37bb
000001f0: f0e0 403d f60c 79bd f0ec 013d 381f 843c
00000200: 3ef2 723d f86c a33c 9839 8e3c 507d af3b
00000210: 1a6c 483d 20b4 7dbc 6615 523d e495 eabc
00000220: e420 f03c 0037 27bb f8f1 383c a0ac 773c
00000230: 6038 5d3d b8fc 123c 6423 37bd dc18 87bc
00000240: b404 cabc 1c90 54bd 0067 873c e629 343d
00000250: f2d9 543d c491 913c 5c68 efbc c419 d43c
00000260: fc6d 11bd 140d 633d dcf4 d7bc 16be 3abd
00000270: d828 4abd 7a89 153d ae6e 6b3d e0d2 ea3b
00000280: 2412 103d 3c8d 273d 54bb 77bd 64d3 6e3d
00000290: 3cab d2bc def2 30bd 6863 903c 36fb 0bbd
000002a0: a067 733b 6622 213d 1816 4f3c d067 35bc
000002b0: 940d c2bc 769f 29bd 82f7 00bd 58e7 37bc
000002c0: 74d9 c5bc 101a 673d 28cf aabc 70f6 993c
000002d0: b409 9cbc 0882 39bd dc72 65bd c462 5c3d
000002e0: 98cf 603c a01d f83b 16ed 123d 283c a5bc
000002f0: 1071 203c 24f4 613d 88d6 103c 983d 52bc
00000300: e248 0abd 0001 563b 480e a6bc 8e92 753d
00000310: 8899 1c3c 92d8 6bbd ba29 153d 3072 2a3d
00000320: 1ed2 6a3d a096 763b fc0e b8bc 0495 bbbc
00000330: d2e2 6ebd 18cb 013d d8fc 1bbd 4eb0 7a3d
00000340: 3cf4 a2bc 00d6 f43c f00a dabc 2e0e 5fbd
00000350: 60fc 4d3d 4099 8d3c d057 6a3c ac27 463d
00000360: e4e2 66bd 5cd9 53bd 90d0 153d 285e 6abc
00000370: 460e 09bd 28ca fc3c ba9c 2abd 60b2 053c
00000380: 6685 1e3d 78da 013d b88e 053c b4e0 0b3d
00000390: 40cd 753b 18ae 543c 7e2b 32bd 8cf1 40bd
000003a0: 2ebd 5bbd 6c72 3bbd e063 7e3d 42e7 2a3d
000003b0: 8885 0cbc 5aa6 0dbd 1046 febc 4018 02bc
000003c0: b0ec 8f3c a2e4 7c3d fea6 14bd fc64 cfbc
000003d0: 5818 3b3c 50e7 2d3d f409 fe3c 6419 823c
000003e0: d0e0 ca3b 20ec 5ebd dc06 cebc a069 163c
000003f0: f8fa ce3c b691 38bd ec8b 1fbd 26bd 5e3d
-0.027390942 0.05250805 0.028305024 0.061011724 0.04023786 -0.024914958 -0.038500242 0.031648867
-0.014604293 0.049314484 0.02976679 -0.049025506 -0.02756913 0.028342769 -0.042659305 0.021422632
0.043566152 0.051222704 0.01980614 0.047228105 -0.047071792 0.053791873 0.045077614 0.03292293
-0.008250564 -0.026481748 -0.024057224 -0.044538304 -0.006616093 -0.061607182 0.0531047 0.032826185
-0.02440621 0.02583412 -0.014978796 -0.043360256 -0.031943396 0.025350936 -0.009455897 0.017353505
-0.013369538 -0.0073134154 0.040169314 0.047814332 0.018411614 0.012974501 -0.015985653 0.025273718
0.05479216 -0.049221605 -0.00559517 0.042091787 0.05686214 0.04017111 0.039481796 -0.0026342422
0.045563474 0.036254026 -0.008602083 -0.052716047 -0.007526569 0.05482284 -0.008551128 0.04925883
0.009899288 -0.062466316 0.0073735937 -0.055960946 -0.044531025 -0.020696722 -0.0022499412 0.044865236
-0.012682006 -0.046601333 -0.020235114 0.041081384 -0.055685133 -0.00054472685 0.0043826997 -0.028385766
-0.032940537 -0.0071294233 0.033361398 -0.05474385 0.040151455 -0.0035683662 0.04335981 0.05060389
-0.035502926 0.057114594 -0.026942924 0.0287612 0.0015331209 0.008648753 0.033016138 -0.012951568
-0.044979855 0.053290807 0.05356811 0.009775661 -0.04004109 -0.044017404 -0.007989258 -0.056184478
0.03130748 -0.050212458 0.05789189 0.017504118 0.027850397 -0.039885312 -0.026968464 -0.003903918
-0.011685193 0.00051377714 0.025668018 -0.059014164 -0.059666775 -0.039640784 0.02099625 -0.010625362
-0.03262765 0.0046228617 0.027334563 -0.002806075 0.047089517 -0.060803376 0.0317201 0.016128168
0.05931305 0.019949421 0.017361447 0.0053555146 0.04893122 -0.01548484 0.05128994 -0.028635927
0.029312558 -0.002551496 0.011288159 0.015116841 0.05400884 0.008971386 -0.044711486 -0.016491346
-0.024660446 -0.051895246 0.016528606 0.04398527 0.05196566 0.017769702 -0.029224567 0.025891192
-0.03550528 0.055432394 -0.026361875 -0.045591436 -0.049355358 0.03650806 0.0574786 0.0071662515
0.03517355 0.040906176 -0.060481384 0.058307067 -0.025716417 -0.043200366 0.017625526 -0.03417512
0.0037140623 0.039339446 0.012639545 -0.011072114 -0.023688115 -0.04141184 -0.03148604 -0.01122459
-0.024151541 0.05642134 -0.020850733 0.018794268 -0.019047596 -0.045290023 -0.05601774 0.053805128
0.013721369 0.007571891 0.035870634 -0.020170286 0.009792581 0.05516447 0.008840211 -0.012832068
-0.033760913 0.0032654405 -0.020270482 0.05995422 0.009558089 -0.057579584 0.036416747 0.041612804
0.05732929 0.00376264 -0.022468083 -0.022898205 -0.05832178 0.031687826 -0.038082927 0.061203294
-0.01989185 0.0298872 -0.026616544 -0.054456882 0.05028951 0.01728499 0.014303163 0.048377678
-0.056368724 -0.051720962 0.036575854 -0.014304675 -0.033460878 0.030858114 -0.041653372 0.008160204
0.038701437 0.03170249 0.008151703 0.03414984 0.0037506372 0.01298096 -0.04349851 -0.047105357
-0.053647213 -0.045763418 0.062106967 0.04172445 -0.008576758 -0.034582473 -0.031039268 -0.007940352
0.017568916 0.06174148 -0.03629207 -0.025316708 0.011419378 0.042456925 0.031010605 0.015881248
0.0061913505 -0.054424405 -0.025149755 0.009180456 0.025266156 -0.045060836 -0.0389518 0.054379605

actor_layer.2.weight f4 [181, 256]
00000000: 7063 84bb 341f 11bd b8a1 3e3c 549f 94bc
00000010: 8046 2fbd 92ed 2fbd 0824 f9bc 00ea 3839
00000020: 00ef 703d 50e3 c13c d00e fcbb a0b9 fe3b
00000030: 9ce8 93bc ead6 2c3d d61b 77bd 82e4 02bd
00000040: b82f b93c a0ec bdbc 708c 83bc b44b 52bd
00000050: 00f0 72b9 9c34 35bd 746c f1bc 32cc 26bd
00000060: 908e 133c 9880 61bc a605 22bd 1683 353d
00000070: 0078 cebb fe0c 353d 20ac 2fbb 10f7 4abc
00000080: 0452 583d b06b 383d 0ef2 1c3d 7e71 5bbd
00000090: 6812 86bc 04d0 64bd f094 fbbb 88e5 563c
000000a0: b6a6 53bd 881e 1b3d 10d8 e93b 5cfa ecbc
000000b0: ac06 463d 1c75 3c3d acf4 043d d03a 213c
000000c0: 90c3 173d 9a78 53bd 5488 b23c e001 afbc
000000d0: 981e 7ebc c049 72bb 9087 c4bb 32fb 2ebd
000000e0: 008f 0ebd 74d2 c53c 6009 773b 30f5 efbc
000000f0: 1835 a93c ec13 9fbc 4065 30bc 3635 32bd
00000100: a07e 063c a4e8 7f3d 5e14 3d3d 00f5 57ba
00000110: 9a64 11bd d6a0 7a3d c02d 933a 803a fd3a
00000120: 5cd4 f63c 8016 073d a023 f9bb 6829 24bd
00000130: 805c aa3c 6001 b2bb 0057 8f39 067a 52bd
00000140: a03b 62bc 962b 0abd f44c 28bd bc70 6d3d
00000150: c4c1 78bd 14e4 5ebd 509e fdbc 0474 583d
00000160: 3263 263d c889 ea3c 702f 76bc 4af0 3abd
00000170: 20eb 0fbb a06b a6bb 7a26 0e3d e2c3 503d
00000180: ee59 40bd a432 02bd 7297 19bd ecce 86bc
00000190: d0d5 6ebc ac61 823c f8aa 12bd 800b e33c
000001a0: 4886 543c 5045 08bc d089 3ebc a476 543d
000001b0: a6fe 62bd 70f9 103d 5ef7 6e3d c893 743d
000001c0: 84d7 063d 7c06 5c3d 0e56 00bd c87b 7cbd
000001d0: 9040 c9bb d6d7 7fbd 341a e3bc 988a d23c
000001e0: a4f0 9cbc 285b aa3c 60b6 4abb f038 4ebd
000001f0: 9438 a7bc 008d f03b 50a4 5fbc e2fd 043d
00000200: 9424 b73c 621f 283d 9edf 2abd cc89 f33c
00000210: 22df 4c3d e822 8dbc 7c67 5abd c064 22bb
00000220: d47a bdbc 2c94 393d bee9 113d a08f 87bb
00000230: c047 603d 8e8e 063d 14d2 76bd fcb9 f3bc
00000240: 1035 40bc 345f c33c 566c 7c3d a8b4 99bc
00000250: 74ce 57bd 1c85 dbbc 58f5 f73c 20be 18bc
00000260: f058 2d3d c4fc 2f3d 2474 4fbd a8d3 403c
00000270: 60c2 653d 0e4b 773d 1adb 0fbd d0c2 173d
00000280: b425 4bbd a868 68bc 1057 8bbc e625 653d
00000290: 6853 70bd 702a 71bd da15 2f3d 70fc 8ebb
000002a0: 188b 59bc 3ab6 1e3d 8098 973b 40bc bfbb
000002b0: 60a0 a9bc b6d6 50bd a08e ef3c 3012 2d3d
000002c0: a433 7cbd f064 dd3c 148b 373d 4cd2 5abd
000002d0: a8c9 0fbd b85c 42bd 50a1 b63c 3ece 5fbd
000002e0: c8fb e23c 304e ed3b f4a1 3b3d dc31 213d
000002f0: c001 8fbb 8434 4bbd 2a02 15bd b200 55bd
00000300: acc5 25bd 90a1 a63c 2ad2 7cbd c48d 45bd
00000310: f23c 653d 64a4 293d 5e0c 483d 1c76 5dbd
00000320: 6807 143c 025d 55bd bc4e 6cbd 10cd bd3b
00000330: 0483 123d 7411 973c 54a9 64bd 08fd 1fbc
00000340: f630 433d a013 38bb cc06 9a3c b0c0 0ebd
00000350: 4e7a 3bbd 0654 67bd 800a c4bc 8c72 e4bc
00000360: 6056 9a3c 643d 4cbd 7090 1a3d 00b0 36bb
00000370: 3004 f3bc ba1f 64bd 58fc 3e3c 58f9 60bc
00000380: a860 4cbc a8d5 c63c 14a3 25bd 6088 673d
00000390: 7098 79bd b0e0 8b3c cc83 a9bc 3a9f 043d
000003a0: 7420 a73c 6c22 ed3c 38c1 d73c 60fd 6c3d
000003b0: 004e 06bd 0452 6b3d c01d b33a a41d 313d
000003c0: 6ab4 2a3d 9c9f 27bd 70bc 4ebc 8825 e43c
000003d0: 1852 3b3c e8ba 2f3c 2e9f 553d 1433 f63c
000003e0: b438 d8bc b286 57bd 0880 543c c8b8 d13c
000003f0: e066 5c3c 96f0 24bd 407f 1d3b f89e d3bc
-0.004040174 -0.03543015 0.011635236 -0.01814238 -0.042791843 -0.042951174 -0.030412689 0.00017634779
0.05882168 0.023667961 -0.0076921955 0.007773593 -0.018055253 0.042197146 -0.06032928 -0.031956203
0.022605762 -0.02318412 -0.016058177 -0.051341727 -0.00023168325 -0.044239625 -0.02947066 -0.04072208
0.0090061575 -0.013763569 -0.039556168 0.044314466 -0.006300926 0.044201843 -0.0026805475 -0.012388006
0.05281259 0.045024574 0.03831678 -0.05357503 -0.016366199 -0.05586244 -0.007677667 0.013116248
-0.05167266 0.037870914 0.0071363524 -0.028927974 0.048346207 0.04601012 0.0324599 0.009840682
0.037051737 -0.051628686 0.021793522 -0.021363199 -0.015510224 -0.0036970228 -0.0059976056 -0.042720027
-0.034804344 0.024148203 0.0037694797 -0.02929172 0.0206552 -0.01941868 -0.010766327 -0.043507777
0.008208901 0.062477723 0.046162 -0.0008238107 -0.03549633 0.06118854 0.0011228845 0.0019319803
0.030130558 0.032980442 -0.007603124 -0.04007855 0.02079606 -0.005432293 0.00027339906 -0.051385902
-0.013808161 -0.033732973 -0.041089013 0.05796884 -0.060731664 -0.05441673 -0.030959278 0.052845016
0.040621944 0.028630152 -0.015025958 -0.045639314 -0.0021960214 -0.005078748 0.034704663 0.05096806
-0.046960764 -0.031786576 -0.037497945 -0.01645609 -0.014577344 0.015915714 -0.03580758 0.027715445
0.012971468 -0.008317307 -0.011629537 0.051870957 -0.055418633 0.035394132 0.058341376 0.059711248
0.032920375 0.05371712 -0.03133207 -0.061641484 -0.0061417297 -0.062461697 -0.027722456 0.025700852
-0.019157715 0.02079542 -0.0030931458 -0.05034727 -0.02041272 0.0073410273 -0.013650015 0.032468684
0.022356309 0.041045554 -0.041717164 0.029728793 0.050017484 -0.017228559 -0.053321347 -0.002477929
-0.023129858 0.045307323 0.035623305 -0.0041369945 0.054755926 0.032850794 -0.06025894 -0.02975177
-0.011731401 0.023849107 0.061626755 -0.018762901 -0.052687123 -0.02679687 0.030268356 -0.009322673
0.042321146 0.042965665 -0.05064787 0.011769213 0.056093574 0.060374312 -0.03512106 0.037051022
-0.049596503 -0.014185108 -0.017009288 0.055944346 -0.058673292 -0.058878362 0.04274545 -0.004363589
-0.013277791 0.038748004 0.0046263337 -0.0058512986 -0.020706356 -0.050986014 0.029242814 0.042253673
-0.061572686 0.02702567 0.04481037 -0.05342321 -0.035104424 -0.047451705 0.022293717 -0.054640047
0.02770795 0.0072419867 0.045808747 0.03935419 -0.0043642223 -0.04961063 -0.036379017 -0.052002616
-0.040471718 0.02034071 -0.061723866 -0.0482309 0.055966325 0.04141654 0.04883992 -0.054067716
0.009034969 -0.052090652 -0.057692274 0.0057922676 0.035769477 0.01844094 -0.055825546 -0.009764917
0.047654115 -0.002808787 0.01880207 -0.03485173 -0.045770936 -0.056476615 -0.023930788 -0.027886651
0.018840015 -0.049863234 0.037735403 -0.00278759 -0.029665083 -0.05569432 0.011656843 -0.013731323
-0.0124742165 0.024271801 -0.040438727 0.05652654 -0.06093639 0.017074913 -0.020692728 0.032378413
0.020401217 0.028947078 0.026337251 0.057858825 -0.03278923 0.057451263 0.0013665482 0.043241158
0.041675963 -0.0409237 -0.012618169 0.027849928 0.011433147 0.010725714 0.05215376 0.030053653
-0.026394226 -0.05261869 0.012969978 0.025600806 0.013452262 -0.040268503 0.0024032146 -0.025832638

actor_layer.2.bias f4 [181]
00000000: 6c90 52bd 8028 13bb c09d 79bd 1c95 ffbc
00000010: acf5 06bd 8200 6abd 5488 82bc e29c 45bd
00000020: 103c f33c de7f 033d 1e9e 72bd 00e1 203c
00000030: c004 19bc 0cc0 703d e674 4b3d 7c53 2ebd
00000040: 94ce 833c 3a32 74bd be9d 1dbd 6c32 863c
00000050: 40fb fdbb 18e3 053d 76bd 3d3d d2ed 703d
00000060: c245 10bd d6f4 373d f8ea f83c 8091 babc
00000070: c406 39bd 742e 093d 3808 a43c 708c 65bd
00000080: 1cf3 ea3c 20c4 f5bc 40bb 5cbb 3621 45bd
00000090: 3c37 5abd 8886 c0bc 204e fabb 2859 4e3d
000000a0: 8ead 5a3d 48ce e73c 3ccc 34bd 6c4c 96bc
000000b0: 8a1e 353d 18d8 2bbc 8c05 5f3d 1c79 e63c
000000c0: 6820 88bc 62b5 273d 405a 023b d055 e83b
000000d0: c01a 08bd 6aa4 47bd 7449 bfbc 44c4 563d
000000e0: 8444 013d c042 2bbd 4e8b 66bd f493 893c
000000f0: b823 563c d44b 95bc 7021 91bc 826b 59bd
00000100: e042 473c 007b f93b b06e 92bb c6c8 44bd
00000110: fe80 083d a8ec 3fbc e8a9 703d 12a1 4d3d
00000120: fc7a a1bc 80f0 2c3a 6816 c1bc 20e6 443c
00000130: 3823 40bd 6480 bf3c 8c83 bc3c 5ca2 d83c
00000140: d012 313c fcb5 1bbd 5e35 4d3d 90e8 e43c
00000150: 0828 4fbc d4bd 98bc e840 dcbc a013 493d
00000160: 3287 0fbd a035 1b3c 6ef2 72bd 20ae 793d
00000170: 0c3d babc b6c7 363d fc66 233d 1011 92bc
00000180: 6254 493d 68e4 3cbc 408b 83bc d07c 47bd
00000190: 44d0 a3bc 1420 98bc 94c7 66bd 00bf ddbb
000001a0: 5c5c 073d 6ed2 7a3d c4d1 20bd 78f8 3d3d
000001b0: a0dd 32bb 603e 5abb ace5 2bbd f8dc d53c
000001c0: 8038 6d3c 28fd 5d3c 7eee 3fbd e01a 40bb
000001d0: 9203 6c3d 4c8b 023d e2dd 61bd 7c96 583d
000001e0: dc37 a7bc 183a 21bc 7657 043d 40fd 5a3b
000001f0: 247e fcbc b833 243c 1669 65bd 0059 ef3b
00000200: dcc2 93bc 6afe 0ebd a042 2dbd c00a 13bc
00000210: f2e4 46bd a007 4ebd 4cc4 4fbd a8d3 b53c
00000220: b245 05bd 58b3 24bc 4059 9bbb 98cb 5dbc
00000230: bc3e 813c aa1d 0bbd 4a56 72bd d09b dd3b
00000240: e651 5ebd 5049 383d aa5d 183d be8d 473d
00000250: 90e2 1bbd 4a12 06bd 8000 1d3d c823 79bc
00000260: f255 0f3d 086e 5f3d bc9c 033d 88e2 743d
00000270: 20d0 fbbc 4e09 72bd a2f7 1d3d 381c 2cbd
00000280: 0c29 0ebd b027 833c 4416 babc 487e 5abd
00000290: e89e 4c3d a874 27bd d814 7fbc 4c71 873c
000002a0: 1c75 27bd 4060 69bb 16ef 353d 04ec 0ebd
000002b0: 409d f93a 00e0 963a b06a 40bc f4e0 b83c
000002c0: 9851 123c 4c12 1a3d 509f 4fbc 8cf6 0f3d
000002d0: f036 32bc
-0.051407263 -0.002245456 -0.060941458 -0.03119903 -0.032949135 -0.05712939 -0.015934147 -0.04824532
0.029691726 0.032104366 -0.059232824 0.009819269 -0.009339511 0.0587769 0.04967203 -0.042560086
0.016089715 -0.059618212 -0.038480513 0.016381465 -0.0077508986 0.032687277 0.046323262 0.058820553
-0.035222776 0.044911228 0.03038548 -0.022774458 -0.045172468 0.033491567 0.02002345 -0.056042135
0.028680377 -0.030000746 -0.0033680946 -0.048127376 -0.05327533 -0.02350165 -0.0076387078 0.050377995
0.05338817 0.028296605 -0.044140086 -0.018346988 0.044218577 -0.0104885325 0.05444865 0.028133921
-0.016617015 0.040944465 0.001989022 0.007090308 -0.033228636 -0.04874078 -0.023350455 0.052433267
0.031559482 -0.041811705 -0.056285195 0.016794182 0.013070039 -0.018224634 -0.01771614 -0.053081043
0.01216194 0.0076135397 -0.0044687614 -0.048043035 0.03332614 -0.011714138 0.058755785 0.050202437
-0.019711964 0.00065971166 -0.023570254 0.012017757 -0.046908587 0.023376651 0.023011945 0.026444606
0.010807708 -0.03801535 0.050099723 0.027942926 -0.012643822 -0.018645205 -0.026886418 0.04909098
-0.03504104 0.009473234 -0.05931323 0.060957074 -0.022734188 0.044624053 0.039893135 -0.017830402
0.04915274 -0.011529066 -0.01605761 -0.048703015 -0.01999677 -0.018569984 -0.056342676 -0.0067671537
0.033047065 0.061235838 -0.039262548 0.046379536 -0.0027292743 -0.0033301339 -0.04196708 0.026106343
0.014478803 0.013549127 -0.046858303 -0.0029312894 0.057620592 0.031871125 -0.055143245 0.052877888
-0.020412378 -0.009840511 0.03230997 0.003341511 -0.030821867 0.010022096 -0.05600842 0.007304311
-0.018037252 -0.034910597 -0.042299867 -0.008974731 -0.048558183 -0.05030024 -0.050724313 0.022195652
-0.03253717 -0.0100525245 -0.004740864 -0.01353731 0.015776984 -0.033963837 -0.059164323 0.006762959
-0.054277323 0.04499179 0.0371987 0.04871916 -0.038057864 -0.032732286 0.038330555 -0.015206285
0.034994073 0.054548293 0.032131895 0.05978635 -0.03073889 -0.059090905 0.03856624 -0.0420191
-0.034707114 0.016010135 -0.022715695 -0.053343087 0.049956232 -0.040882736 -0.015568934 0.016533516
-0.04088317 -0.0035610348 0.044417463 -0.03489305 0.0019044057 0.0011510849 -0.011744186 0.022568204
0.008930586 0.037615106 -0.01267226 0.035147235 -0.010877356
