model/ckpt/Dense_ProbabilityAndStatistic_binn_policy.pt (torch, 807068 bytes, 6 tensors)

obs_layer.weight f4 [256, 263]
0.009663647 -0.048245445 -0.00972618 0.019999696 -0.04427608 0.047094706 -0.012611287 -0.006726092
0.016449787 0.04614104 0.013195746 0.013815708 -0.011184467 -0.057475295 0.03765661 0.0025377763
-0.013155008 -0.03697152 0.037544865 0.0019304492 -0.060018223 -0.05986346 0.058452822 0.012556972
0.0024299186 -0.018410727 -0.029714858 -0.031743005 0.029147409 -0.026345592 -0.00081405253 0.0044196956
0.033673882 -0.02187927 0.036566492 0.012997598 0.002482653 -0.027863178 0.02637668 0.023574378
-0.058317803 0.042157505 0.042647555 -0.045205884 -0.06070225 -0.032274224 0.02693916 0.0064970646
-0.052754477 0.030787187 0.032197487 -0.0069409325 0.050673086 0.041271802 -0.057629667 0.059600078
0.0137705235 0.055046543 -0.058541995 0.027475316 0.015809992 -0.05033778 0.052068364 -0.033922162
-0.0044412483 -0.033662077 -0.0477069 -0.04494106 0.02342793 0.0031456326 -0.05578892 0.015671158
-0.059824258 -0.029931426 -0.04446321 -0.011351329 -0.0057227425 0.046522103 -0.014959597 0.0053908853
0.0013898155 0.002456477 0.036711503 -0.05040896 -0.05549278 0.046378337 0.061474014 0.006042927
0.033447236 0.043991797 -0.025979334 -0.061370447 -0.051375195 0.058164217 0.00425373 -0.043883108
0.057305146 0.056006487 0.012464646 -0.0023326974 0.019067245 0.05353132 -0.0053030807 0.0024134675
-0.03943514 0.056445386 0.034968697 0.055939883 0.03260339 -0.027690245 -0.05674427 -0.043803155
0.002625559 0.05466565 -0.059126247 0.022093348 0.012494211 0.04493017 -0.02775763 0.03661437
-0.03728861 -0.056458604 -0.018201958 0.011838626 -0.0547407 -0.037993547 -0.019115025 -0.036103357
0.014066201 -0.02085259 0.0008250272 -0.0052314843 -0.014109813 -0.06036546 0.061195977 -0.023255253
-0.00950476 0.008137166 -0.0012958066 -0.04446753 -0.044600014 0.022844596 0.031246366 -0.033202037
-0.011442994 -0.0068708286 -0.045455452 0.0054685166 -0.004427377 0.020051064 -0.033069126 0.03755886
0.056051724 -0.045648172 0.015954096 0.04515895 0.0243891 -0.049879864 0.04230767 -0.050434165
0.03692013 -0.01881987 -0.033687606 0.018008647 0.03966487 0.01949889 0.061262805 0.010153465
0.011325257 -0.015984248 -0.050377276 -0.010794737 -0.0073394612 0.045319896 -0.029838674 0.015948009
0.020203238 -0.005353823 0.009823438 0.05541484 0.025814911 0.011394875 -0.057532497 0.0005679491
0.0364943 0.014026506 0.02289952 0.046315856 0.015455862 0.046726823 0.04628994 0.008321376
-0.057073627 -0.021851199 -0.0019886892 -0.024203721 -0.0022932973 -0.0075643063 0.02583564 -0.0018321107
-0.04592785 -0.009933927 0.021784497 -0.050509952 -0.0564474 -0.045658566 0.054589976 0.043329604
-0.044384476 -0.0110147605 -0.046714887 0.04425699 -0.05707327 0.052698858 -0.0064872364 0.009395977
-0.017928312 -0.02922759 -0.053298548 0.033535585 0.0036605166 0.03853238 0.0246823 -0.041732658
-0.008693177 0.028657172 -0.018945714 -0.053135935 -0.007985056 0.014209518 -0.026108494 0.060027767
-0.042065796 0.04483975 -0.047653902 0.049375825 0.00548424 0.041604638 -0.05227067 0.060305756
0.03223288 0.0077094915 -0.047069546 -0.059383553 -0.027555043 -0.01781433 -0.017192472 -0.05547469
0.048350725 -0.05219534 0.024631321 0.057693258 -0.0033187503 0.051842798 0.0018642041 0.039215676
00000000: 4654 1e3c 049d 45bd 8e5a 1fbc 67d6 a33c
00000010: d65a 35bd 61e6 403d 929f 4ebc 8d66 dcbb
00000020: b4c1 863c 63fe 3c3d f832 583c 485b 623c
00000030: 0e3f 37bc 376b 6bbd d13d 1a3d d250 263b
00000040: 1a88 57bc 736f 17bd a5c8 193d 2007 fd3a
00000050: abd5 75bd 6333 75bd 3a6c 6f3d c2bb 4d3c
00000060: 453f 1f3b 18d2 96bc 936c f3bc f404 02bd
00000070: 8cc6 ee3c b6d2 d7bc 2466 55ba 18d3 903b
00000080: a0ed 093d 283c b3bc bfc6 153d e1f3 543c
00000090: 01b4 223b 5241 e4bc e813 d83c 0e1f c13c
000000a0: a6de 6ebd 59ad 2c3d 34af 2e3d ce29 39bd
000000b0: eca2 78bd fa31 04bd 83af dc3c 54e5 d43b
000000c0: 1415 58bd 6935 fc3c 83e1 033d c370 e3bb
000000d0: 958e 4f3d 9f0c 293d 160d 6cbd 361f 743d
000000e0: c39d 613c 7c78 613d bbc9 6fbd ea13 e13c
000000f0: f583 813c fd2e 4ebd a345 553d f7f1 0abd
00000100: e487 91bb 3fe1 09bd 4f68 43bd 1e14 38bd
00000110: eeeb bf3c f526 4e3b ec82 64bd cd60 803c
00000120: 480a 75bd c032 f5bc 0e1f 36bd edfa 39bc
00000130: d885 bbbb f68d 3e3d 1919 75bc 06a6 b03b
00000140: 782a b63a d8fc 203b cd5e 163d a079 4ebd
00000150: 664c 63bd 36f7 3d3d 2dcc 7b3d bf03 c63b
00000160: f8ff 083d be30 343d 9dd2 d4bc 945f 7bbd
00000170: cc6e 52bd 9a3d 6e3d e062 8b3b c6be 33bd
00000180: cdb8 6a3d 0f67 653d 8438 4c3c 2be0 18bb
00000190: e932 9c3c a843 5b3d 77c5 adbb 442b 1e3b
000001a0: be86 21bd 4733 673d 563b 0f3d 3821 653d
000001b0: 228b 053d a7d6 e2bc ae6c 68bd f06a 33bd
000001c0: 9211 2c3b 17e9 5f3d 5d2e 72bd 1cfd b43c
000001d0: 85b4 4c3c b308 383d f863 e3bc f3f8 153d
000001e0: f1bb 18bd 2341 67bd 461c 95bc ccf6 413c
000001f0: c937 60bd 1f9f 1bbd 1d97 9cbc 1de1 13bd
00000200: ec75 663c 0dd3 aabc a346 583a df6c abbb
00000210: d82c 67bc c641 77bd a2a8 7a3d cd81 bebc
00000220: dab9 1bbc bf51 053c 0ed8 a9ba 9623 36bd
00000230: 81ae 36bd 9724 bb3c 61f8 ff3c dcfe 07bd
00000240: 657b 3bbc b024 e1bb 7f2f 3abd 3e31 b33b
00000250: 8813 91bb 2142 a43c 7e73 07bd 52d7 193d
00000260: 7e96 653d 94f9 3abd 2ab2 823c 97f8 383d
00000270: a6cb c73c d44e 4cbd cf4a 2d3d 0e94 4ebd
00000280: 9039 173d 212c 9abc 04fc 09bd df86 933c
00000290: a177 223d 23bc 9f3c b5ee 7a3d b85a 263c
000002a0: 928d 393c 66f1 82bc 6758 4ebd 69dc 30bc
000002b0: dd7f f0bb 5ba1 393d 3c70 f4bc 66a5 823c
000002c0: 4381 a53c 1f6f afbb 7cf2 203c acfa 623d
000002d0: cb79 d33c 92b1 3a3c 32a7 6bbd 6be2 143a
000002e0: 0c7b 153d 6ecf 653c c697 bb3c b2b5 3d3d
000002f0: 953a 7d3c a064 3f3d 859a 3d3d 6156 083c
00000300: 09c6 69bd 4901 b3bc ab54 02bb e246 c6bc
00000310: 254b 16bb 00de f7bb 44a5 d33c 6f23 f0ba
00000320: d71e 3cbd e9c1 22bc 6775 b23c 86e3 4ebd
00000330: 6435 67bd 7a04 3bbd bd99 5f3d 627a 313d
00000340: 7fcc 35bd 4177 34bc 1c58 3fbd d146 353d
00000350: a9c5 69bd c2da 573d e292 d4bb 95f1 193c
00000360: 65de 92bc b36e efbc 944f 5abd 9c5c 093d
00000370: 47e5 6f3b 21d4 1d3d 8932 ca3c ddef 2abd
00000380: d46d 0ebc 72c2 ea3c 0b34 9bbc 11a5 59bd
00000390: c1d3 02bc 0acf 683c 7be1 d5bc addf 753d
000003a0: 2f4d 2cbd e3a9 373d bd30 43bd 4e3e 4a3d
000003b0: 24b5 b33b a069 2a3d c519 56bd 2b03 773d
000003c0: a006 043d e79f fc3b ffcb 40bd 2b3c 73bd
000003d0: 1dbb e1bc 5cef 91bc 3ad7 8cbc 6e39 63bd
000003e0: 690b 463d c8ca 55bd a0c7 c93c c44f 6c3d
000003f0: 647f 59bb 1d59 543d 4f58 f43a 9ea0 203d

obs_layer.bias f4 [256]
-0.02084027 0.012834757 -0.037539843 -0.052838024 0.014919697 0.027564269 -0.05546101 0.039619256
-0.034146614 -0.050657935 -0.015626634 -0.020600356 0.061289772 -0.020695945 -0.011280843 -0.054787688
-0.022285819 -0.0112590045 -0.03134788 -0.03450717 -0.026924951 -0.056542996 -0.011821932 -0.0060298503
-0.031801306 0.018489499 0.022324102 -0.030298177 -0.057599135 0.056814108 0.04360605 -0.019234791
0.043037124 -0.0050280592 0.021189902 0.017628048 0.02179781 -0.02498435 -0.044083312 0.055238415
0.060677603 -0.052699044 -0.05418869 -0.012791042 0.04751902 0.055584908 0.011989633 -0.0136499265
0.043934572 0.05855939 -0.04073759 -0.06117744 0.023948943 -0.060136415 -0.0042118016 0.054265562
-0.007991907 -0.0426556 -0.026635617 -0.06015661 0.05684649 0.005815186 -0.054223295 -0.017543757
0.008739796 -0.02628361 0.0040400582 -0.021373061 0.009837485 0.028035415 -0.045098998 -0.043713424
0.009042978 0.03141118 -0.021828543 -0.046213977 -0.027878609 0.04281353 -0.041723464 0.03176383
-0.0560312 0.05704554 -0.039603796 -0.006390574 -0.04807466 -0.025297029 0.0074887774 -0.016624883
-0.04064002 0.04731186 -0.05587593 0.027595943 -0.0061468817 0.05654631 -0.05202831 0.014820727
-0.017404614 -0.012628642 0.011024801 -0.061374027 0.023370763 0.021755323 0.0100979 -0.02004425
0.044311497 0.053459797 0.022473661 -0.05031645 0.027949587 -0.060415216 0.043830242 0.03319573
-0.015959235 0.0064897947 -0.012398776 0.049620956 0.039331164 -0.024138644 0.060613584 0.011481283
0.0041193436 -0.028354099 0.021966055 -0.014345037 -0.05164998 -0.035830762 0.037668835 -0.029179428
-0.018196747 0.010854139 0.02458541 0.019802453 -0.054615084 -0.04685022 -0.045818925 0.044663083
0.0144627 -0.031027261 -0.034234215 0.007714806 0.03537394 -0.023230238 -0.0130748255 0.0025086673
0.020910772 0.046737004 0.0023614462 -0.0071694385 0.041444067 0.045913704 -0.0412865 -0.05520289
0.04325073 0.012682413 0.04861838 0.0020213486 0.005993111 0.021718128 -0.050434258 0.01116068
-0.049116924 -0.0062563345 0.0108312415 0.03314398 -0.05065185 -0.008707504 0.035897132 -0.0470783
-0.035718765 0.03289773 0.046257764 -0.0077291033 -0.0463606 -0.04110156 0.038007814 0.018348357
0.038223024 -0.037522737 -0.02511223 -0.030749248 -0.017434297 0.041540135 0.024821868 0.023870386
0.016126134 -0.05020427 0.04086024 0.021753771 -0.021605646 0.03763962 -0.0044891015 -0.05160624
-0.029669445 -0.050394867 -0.01557928 -0.057563387 0.008922646 0.019773463 -0.023192925 0.029969275
-0.013950999 0.0077917315 0.01896063 0.052603 0.058969717 0.019265061 -0.038260225 0.040681537
0.00013176237 -0.030575579 -0.059313413 -0.059249997 0.016777623 -0.0063843112 -0.055361334 0.012274901
-0.058069713 0.031710338 -0.04855295 -0.010818701 0.044722557 0.032870658 -0.06156349 0.036525544
-0.037745975 -0.0041001947 0.02299164 0.03780764 0.021754572 0.0017486574 -0.023557289 0.0025512942
-0.019735217 0.023488322 -0.03288102 0.031314567 0.021480963 0.060414113 -0.020668799 0.050124764
-0.03538684 0.04467285 0.055486444 0.008781423 0.028108805 0.041751735 0.011228065 -0.058594175
0.023697004 -0.037611395 -0.04837112 -0.043858882 0.008281013 -0.05330609 -0.041291982 0.051651787
00000000: 37b9 aabc df48 523c 61c3 19bd af6c 58bd
00000010: bf71 743c 76ce e13c 162b 63bd cd47 223d
00000020: 52dd 0bbd b27e 4fbd 6d03 80bc 14c2 a8bc
00000030: fc0a 7b3d 8b8a a9bc 49d3 38bc 0e69 60bd
00000040: c090 b6bc b077 38bc a266 00bd 6457 0dbd
00000050: b791 dcbc a199 67bd c7b0 41bc 0d96 c5bb
00000060: 1642 02bd 4a77 973c 09e1 b63c e233 f8bc
00000070: 12ed 6bbd e9b5 683d 429c 323d 4892 9dbc
00000080: b247 303d 6bc2 a4bb 7296 ad3c b268 903c
00000090: 5291 b23c fbab ccbc b490 34bd ad41 623d
000000a0: 1489 783d f4da 57bd f6f4 5dbd 8591 51bc
000000b0: 4ea3 423d 00ad 633d 2a70 443c f1a3 5fbc
000000c0: bdf4 333d f9db 6f3d 76dc 26bd 3295 7abd
000000d0: 9330 c43c 9a51 76bd 2703 8abb 9145 5e3d
000000e0: 7df0 02bc a3b7 2ebd f032 dabc c766 76bd
000000f0: ddd7 683d 518d be3b 3f19 5ebd edb7 8fbc
00000100: 5c31 0f3c ba50 d7bc 7762 843b 8f16 afbc
00000110: 672d 213c 87aa e53c bab9 38bd d90c 33bd
00000120: 0029 143c 02a9 003d c6d1 b2bc de4a 3dbd
00000130: ae61 e4bc 3d5d 2f3d 39e6 2abd ca1a 023d
00000140: f980 65bd 96a8 693d 9737 22bd 0568 d1bb
00000150: efe9 44bd b73b cfbc 6b64 f53b e830 88bc
00000160: 2676 26bd 15ca 413d 29de 64bd e310 e23c
00000170: c86b c9bb 1b9d 673d a31b 55bd a2d2 723c
00000180: 1f94 8ebc 5de8 4ebc 5ea1 343c 5563 7bbd
00000190: 0b74 bf3c 3838 b23c aa71 253c d733 a4bc
000001a0: f97f 353d a9f8 5a3d af1a b83c 9f18 4ebd
000001b0: 88f6 e43c f275 77bd 5787 333d 3ff8 073d
000001c0: f1bc 82bc 58a8 d43b 3c24 4bbc 583f 4b3d
000001d0: b719 213d 68be c5bc f345 783d fe1b 3c3c
000001e0: 8ffb 863b db46 e8bc 28f2 b33c 7207 6bbc
000001f0: ee8e 53bd 47c3 12bd a34a 1a3d b209 efbc
00000200: 5811 95bc 8fd5 313c 5767 c93c c138 a23c
00000210: 11b4 5fbd 04e6 3fbd a0ac 3bbd a3f0 363d
00000220: f6f4 6c3c e22c febc 2d39 0cbd 7ccc fc3b
00000230: 44e4 103d 574d bebc cb37 56bc 7468 243b
00000240: 114d ab3c 4d6f 3f3d 7ec2 1a3b 9ced eabb
00000250: 41c1 293d 0210 3c3d 081c 29bd 6d1c 62bd
00000260: ad27 313d e5c9 4f3c 1124 473d 9a78 043b
00000270: dc61 c43b 37ea b13c 2794 4ebd 49db 363c
00000280: d42e 49bd f001 cdbb 8575 313c fbc1 073d
00000290: 5078 4fbd eba9 0ebc df08 133d 2dd5 40bd
000002a0: d74d 12bd c5bf 063d c878 3d3d 6b44 fdbb
000002b0: 9de4 3dbd 1c5a 28bd 15ae 1b3d 4b4f 963c
000002c0: bf8f 1c3d 71b1 19bd 2ab8 cdbc d9e5 fbbc
000002d0: 5fd2 8ebc fd25 2a3d 3b57 cb3c d48b c33c
000002e0: f41a 843c fea2 4dbd 115d 273d f734 b23c
000002f0: 53fe b0bc 012c 1a3d 5019 93bb 1161 53bd
00000300: 560d f3bc d96a 4ebd 3d40 7fbc 96c7 6bbd
00000310: 4a30 123c f5fb a13c 17ff bdbc 2082 f53c
00000320: bb92 64bc c851 ff3b 5353 9b3c 3e76 573d
00000330: 3b8a 713d c3d1 9d3c c1b6 1cbd afa1 263d
00000340: b129 0a39 a379 fabc 9ff2 72bd 20b0 72bd
00000350: 3a71 893c 7c33 d1bb 91c2 62bd ab1c 493c
00000360: 82da 6dbd b3e2 013d 75df 46bd ec40 31bc
00000370: 002f 373d 62a3 063d 002a 7cbd cf9b 153d
00000380: 869b 1abd ed5a 86bb f758 bc3c 2fdc 1a3d
00000390: a536 b23c 3533 e53a 37fb c0bc 9d33 273b
000003a0: c0ab a1bc 956a c03c 40ae 06bd b443 003d
000003b0: d8f8 af3c ca74 773d 9d51 a9bc a04f 4d3d
000003c0: cbf1 10bd e1fa 363d c145 633d f5df 0f3c
000003d0: 7044 e63c de03 2b3d ebf5 373c 7200 70bd
000003e0: 3820 c23c 680e 1abd cc20 46bd 5fa5 33bd
000003f0: 16ad 073c 7d57 5abd c821 29bd d390 533d

actor_layer.0.weight f4 [256, 256]
0.011840105 0.011898428 -0.024854437 -0.0032434165 -0.040080063 0.02169545 0.051633805 -0.052931756
-0.0024669692 0.0035866648 -0.012879655 0.026344158 -0.049644224 -0.06112826 0.04735837 0.00073729455
0.006144941 -0.016083509 0.04237143 0.059551366 -0.016438782 -0.05846308 -0.031412043 -0.002972968
0.039465867 -0.059248187 -0.01892808 0.028174184 0.05125448 -0.0041640624 -0.013076596 -0.0125263855
-0.022417322 -0.05081266 0.031198971 0.03790903 -0.050489463 0.037683427 0.028583348 -0.05119162
-0.0067096353 0.025792338 -0.032876156 0.04469222 -0.046029955 -0.02215708 0.04435177 0.016565137
-0.0018761158 -0.052527703 -0.012015946 -0.035557464 -0.023720771 0.015564539 0.014921576 -0.02968353
0.026807979 -0.052362166 -0.035030834 -0.024954855 -0.04172963 0.014826968 0.039326116 -0.0042461976
-0.025484845 0.04609081 -0.022739045 -0.010632083 0.031007238 0.025220454 -0.010034196 -0.053129874
0.021393895 -0.0017685294 -0.018721603 0.024814606 0.00070533156 -0.058692962 -0.058472186 -0.039506704
-0.018613711 -0.008555479 0.0012422279 0.05329509 -0.048395522 -0.0013716519 0.0029230714 0.060197443
-0.023066238 -0.056666896 -0.003192462 0.008582592 0.06129314 -0.044053957 0.03692367 0.027246341
-0.019739322 0.0614523 0.011994213 0.04944329 -0.021989286 0.05689454 -0.048284613 0.021465614
0.03700018 -0.0010833293 0.05949934 -0.037790082 -0.0361017 -0.014611073 0.025187768 0.034249514
-0.041117385 0.062059842 0.024428256 -0.049427994 0.017045423 0.027670406 -0.019748501 0.02666302
0.038792133 -0.00084634125 0.026220717 -0.024556309 -0.0039560273 0.007274069 0.04815899 -8.008629e-05
-0.061760344 -0.017655708 -0.041676544 -0.0553378 0.014608853 -0.027066447 0.012948148 0.009358786
0.02571877 -0.054495677 -0.011313163 0.03664656 -0.055850655 -0.0051015615 0.01796706 0.044193685
0.018939339 0.06210485 -0.050294667 0.013875157 -0.0229204 0.03786602 -0.02119127 0.05470849
-0.004926525 -0.015851654 0.05653946 -0.054665975 -0.017503247 0.021119386 0.013071902 0.02968555
-0.061869018 0.054253653 -0.037319653 0.009837978 0.009170279 0.035639547 0.016973928 0.048545502
0.027770631 0.01588916 -0.043580398 0.006450422 -0.03483156 0.03700553 -0.0044246092 0.0018027052
0.00092823803 -0.041170962 0.025396742 -0.011379272 -0.010111153 0.047683403 -0.05862529 0.03455157
-0.051402643 0.03357581 -0.016751163 0.046940945 0.026532546 0.05827096 -0.059206784 0.025591932
0.031105734 0.05793944 0.016071558 -0.019918367 0.020457387 -0.0013697296 0.012372427 -0.012179323
-0.02522137 0.023825645 -0.015242092 0.022572935 0.055792987 -0.05880463 -0.0030029789 0.039546676
0.041872732 -0.055041872 0.027103625 0.06078399 0.025642239 0.062412463 -0.03744165 -0.008913681
0.029001817 0.057146713 0.06124211 0.036868155 -0.046751544 0.030242413 -0.043851763 -0.012137003
0.0327143 0.017558195 0.018464953 0.033400312 -0.004688598 -0.026185662 0.016786322 -0.023551129
0.061674714 0.05395809 0.019127265 0.04877127 0.056809574 -0.00020813942 0.04538004 -0.056941755
0.021227688 0.06079919 -0.030361772 0.02746801 -0.008658491 0.03581901 0.014369145 0.038570836
0.04306642 0.0048920736 -0.014946654 -0.030979365 -0.037993208 0.037680224 -0.033515282 -0.013443619
00000000: 00fd 413c a0f1 423c 889b cbbc 808f 54bb
00000010: fe2a 24bd a8ba b13c f87d 533d f8ce 58bd
00000020: e0ac 21bb 400e 6b3b 3005 53bc b4cf d73c
00000030: be57 4bbd a061 7abd dafa 413d 0047 413a
00000040: 805b c93b 90c1 83bc aa8d 2d3d 22ec 733d
00000050: a0aa 86bc fc76 6fbd eaa9 00bd 20d6 42bb
00000060: f6a6 213d 3aae 72bd 100f 9bbc 8ccd e63c
00000070: 38f0 513d b072 88bb 383f 56bc 783b 4dbc
00000080: 88a4 b7bc f020 50bd fc94 ff3c 8046 1b3d
00000090: 0ace 4ebd f059 1a3d a027 ea3c 4eae 51bd
000000a0: 80dc dbbb 744a d33c 26a9 06bd 300f 373d
000000b0: e889 3cbd c482 b5bc 34aa 353d 9cb3 873c
000000c0: 00e8 f5ba 4a27 57bd 88de 44bc b4a4 11bd
000000d0: 1052 c2bc 6802 7f3c a079 743c e02a f3bc
000000e0: 689c db3c b679 56bd 7e7c 0fbd 206e ccbc
000000f0: b0ec 2abd d0ec 723c 6c14 213d b023 8bbb
00000100: 98c5 d0bc b8c9 3c3d 3c47 babc 3032 2ebc
00000110: e402 fe3c 209b ce3c 7866 24bc b69e 59bd
00000120: 4042 af3c 00ce e7ba 0c5e 99bc 0048 cb3c
00000130: 00e6 383a 0868 70bd 8880 6fbd c8d1 21bd
00000140: c87b 98bc 482c 0cbc 40d2 a23a f44b 5a3d
00000150: 623a 46bd 00c9 b3ba 0091 3f3b 9891 763d
00000160: 68f5 bcbc 8c1b 68bd a038 51bb 009e 0c3c
00000170: 840e 7b3d ec71 34bd 463d 173d b833 df3c
00000180: 5cb4 a1bc 68b5 7b3d 6083 443c 0c85 4a3d
00000190: e022 b4bc 400a 693d 16c6 45bd a8d8 af3c
000001a0: 808d 173d 80fe 8dba 94b5 733d c6c9 1abd
000001b0: 60df 13bd 4863 6fbc 9456 ce3c 3849 0c3d
000001c0: b46a 28bd 7632 7e3d c41d c83c 0275 4abd
000001d0: d8a2 8b3c 0cad e23c 9cc7 a1bc 686c da3c
000001e0: 80e4 1e3d 00dd 5dba d4cc d63c 502a c9bc
000001f0: 90a1 81bb 505b ee3b 5c42 453d 00f4 a7b8
00000200: 6af8 7cbd b4a2 90bc 06b5 2abd e4a9 62bd
00000210: f859 6f3c 74ba ddbc 7824 543c 9855 193c
00000220: 2cb0 d23c dc36 5fbd d85a 39bc b41a 163d
00000230: a8c3 64bd 002b a7bb a82f 933c 7004 353d
00000240: ac26 9b3c a861 7e3d c801 4ebd a054 633c
00000250: 90c3 bbbc 6619 1b3d 5099 adbc 0216 603d
00000260: b06e a1bb 54db 81bc ec95 673d 6ee9 5fbd
00000270: f862 8fbc 9002 ad3c 882b 563c 1c2f f33c
00000280: 5e6a 7dbd 1439 5e3d 7edc 18bd 782f 213c
00000290: f03e 163c c6fa 113d e80c 8b3c a6d7 463d
000002a0: 3c7f e33c fc29 823c 5c81 32bd 105e d33b
000002b0: 8aab 0ebd 1c93 173d 50fc 90bb c048 ec3a
000002c0: 0055 733a e2a2 28bd d40c d03c 2070 3abc
000002d0: 40a9 25bc ac4f 433d 1221 70bd f285 0d3d
000002e0: 948b 52bd ca86 093d bc39 89bc 2645 403d
000002f0: c85a d93c 88ad 6e3d d082 72bd 2ca6 d13c
00000300: 74d1 fe3c e851 6d3d 80a8 833c d82b a3bc
00000310: 4096 a73c 8088 b3ba b8b5 4a3c c88b 47bc
00000320: 0c9d cebc 002e c33c f8b9 79bc e0ea b83c
00000330: 3087 643d 20dd 70bd a0cd 44bb b2fb 213d
00000340: be82 2b3d 9673 61bd 6c08 de3c a2f8 783d
00000350: ac0f d23c 36a4 7f3d 6a5c 19bd b00a 12bc
00000360: 3895 ed3c ac12 6a3d 02d9 7a3d 1003 173d
00000370: 8c7e 3fbd f0be f73c e89d 33bd 48da 46bc
00000380: 6eff 053d 34d6 8f3c d043 973c c4ce 083d
00000390: d0a2 99bb 5083 d6bc 7883 893c 4cee c0bc
000003a0: a09e 7c3d 2803 5d3d c8b0 9c3c 62c4 473d
000003b0: 28b1 683d 0040 5ab9 6ce0 393d c23b 69bd
000003c0: b0e5 ad3c 9208 793d 40b9 f8bc 9804 e13c
000003d0: 58dc 0dbc f4b6 123d 906c 6b3c 74fc 1d3d
000003e0: 6a66 303d b04d a03b d0e2 74bc 70c8 fdbc
000003f0: c49e 1bbd 9456 1a3d 5247 09bd a042 5cbc

actor_layer.0.bias f4 [256]
0.053702712 -0.03452784 -0.060041204 -0.050375283 0.022218868 -0.041180305 -0.036715798 0.05251483
0.059823662 0.032122627 0.033201754 0.0064412057 0.0027841106 0.015537538 0.04418175 -0.011715062
0.059730954 -0.026594825 -0.04502567 0.04004558 -0.006891772 0.007894114 0.043093137 0.056818
0.014186807 -0.03998077 0.04328856 -0.04542353 0.037956454 -0.036366686 0.026683562 -0.026150614
-0.05197549 -0.029177517 -0.060579695 0.016027778 0.0065917596 0.034361094 -0.0342013 -0.053817593
-0.05998478 -0.050247885 -0.03319083 -0.057070963 0.015144341 -0.016313575 -0.013664402 -0.04572709
-0.03007324 -0.02368693 -0.011462063 0.032962747 -0.044467345 -0.050727427 -0.041930184 0.031163737
0.012650847 0.021803342 0.028230384 0.02102314 0.032372713 -0.037374176 -0.03732965 0.058834538
0.011521652 0.058552787 -0.038738124 0.045864828 0.061043948 -0.0140823275 0.051916383 0.037534714
0.05945137 -0.012167938 0.051544525 0.0165786 0.04715628 -0.03950005 0.022369087 -0.013720699
0.02366817 0.013142094 0.009736314 0.027351998 0.03293904 -0.035244346 -0.024417564 -0.02605293
-0.046916246 0.034597166 0.021355629 -0.0087512955 -0.057856 0.0025581867 -0.0041261017 -0.061935104
-0.03227359 0.013432436 -0.051069118 -0.003935352 0.004384741 -0.023491189 -0.0098832175 -0.022257656
-0.029657207 0.0022376627 -0.00633955 0.001988098 0.0003162697 0.03526959 0.014279008 0.03985276
-0.037325256 -0.019641034 0.0007413402 -0.03071817 0.0037146732 -0.052234784 0.019892283 0.012829781
0.029233143 0.023261249 -0.039048657 0.033939555 -0.009696037 -0.046713814 0.05026339 -0.05424808
-0.041809253 0.05327122 -0.031947605 -0.0041128024 0.047300115 0.018837333 -0.0016229078 -0.038840145
0.048023283 0.005847372 -0.013276301 0.012736112 -0.035902724 -0.048817836 0.008355446 0.017027296
0.040309258 0.02961611 0.0022367314 -0.015023679 -0.030500904 0.008995131 0.032135755 -0.003885597
-0.054580726 0.005982138 -0.05642181 0.025176555 -0.05009301 -0.062287383 -0.025961608 0.05324369
-0.0013479888 0.04852034 0.004477769 0.046817206 -0.0058206096 0.04697696 -0.037130356 -0.035059795
0.02115602 0.03604325 0.042259365 0.049628295 -5.3964555e-05 -0.05809039 -0.030943967 0.009187035
0.037812732 -0.014666356 0.022145465 0.0052364767 -0.043128483 -0.041356176 -0.027641878 -0.026455723
-0.030308753 0.048076585 0.05290409 0.00079943985 -0.056802146 0.0056030676 0.044059195 0.0031942353
-0.039468028 -0.008911632 -0.03665617 0.028224617 -0.029356554 0.025298372 -0.05048815 -0.011808947
0.031908862 0.018543132 -0.0050236285 0.009278268 -0.04048968 0.04044818 0.050197355 -0.019106016
-0.051006332 0.01792328 -0.044702344 -0.032989487 -0.045074604 -0.026572712 0.057255417 0.06079062
0.043335482 -0.044180624 0.03169167 -0.047154807 -0.025774047 -0.06120684 -0.0030123293 0.05054819
0.058751717 0.042509414 0.056784727 -0.009615473 0.051591188 0.008656338 -0.04201044 -0.048970193
0.02282533 -0.0052728727 0.029173411 -0.037669957 0.054287016 0.00067794323 -0.032431453 0.009698793
-0.047703028 -0.024427697 -0.0018622279 0.045622796 -0.0039835274 0.042003274 -0.0420937 -0.052631333
0.009285092 -0.051134087 0.0044092536 -0.040781192 -0.041915357 0.007440023 -0.050665468 0.012825802
00000000: 60f7 5b3d 106d 0dbd c4ed 75bd 5056 4ebd
00000010: 5804 b63c aeac 28bd 4e63 16bd ca19 573d
00000020: a809 753d 0493 033d 90fe 073d c010 d33b
00000030: a075 363b 2891 7e3c ecf7 343d 88f0 3fbc
00000040: 72a8 743d 64dd d9bc d66c 38bd d606 243d
00000050: 60d4 e1bb 5056 013c 6e82 303d feb9 683d
00000060: c86f 683c e0c2 23bd 584f 313d 060e 3abd
00000070: 3a78 1b3d 3cf5 14bd 7c97 da3c d039 d6bc
00000080: 40e4 54bd b005 efbc 6a22 78bd b04c 833c
00000090: b0ff d73b 38be 0c3d aa16 0cbd d66f 5cbd
000000a0: 9ab2 75bd bad0 4dbd 1cf3 07bd 3ec3 69bd
000000b0: f81f 783c 0ca4 85bc a8e0 5fbc 544c 3bbd
000000c0: 285c f6bc 180b c2bc 60cb 3bbc f203 073d
000000d0: 6423 36bd 90c7 4fbd fcbe 2bbd 184b ff3c
000000e0: 8045 4f3c ec9c b23c 6843 e73c b838 ac3c
000000f0: 4099 043d aa15 19bd fae6 18bd 7cfc 703d
00000100: 50c5 3c3c 0cd5 6f3d deab 1ebd c2dc 3b3d
00000110: 3809 7a3d 90b9 66bc 46a6 543d 00be 193d
00000120: 4883 733d 085c 47bc 5a20 533d d8cf 873c
00000130: f226 413d ceca 21bd 603f b73c c8cc 60bc
00000140: c0e3 c13c f051 573c 1085 1f3c 4c11 e03c
00000150: 16eb 063d 605c 10bd 5807 c8bc f46c d5bc
00000160: 402b 40bd c2b5 0d3d 00f2 ae3c 9861 0fbc
00000170: 6afa 6cbd 40a7 273b 4034 87bb aaaf 7dbd
00000180: 5031 04bd b813 5c3c da2d 51bd 20f4 80bb
00000190: e0ad 8f3b 9870 c0bc 38ed 21bc b055 b6bc
000001a0: acf3 f2bc c0a5 123b 00bc cfbb c04a 023b
000001b0: 00d1 a539 d876 103d 80f2 693c a63c 233d
000001c0: 5ee2 18bd 3ce6 a0bc 8056 423a aca4 fbbc
000001d0: e071 733b 24f4 55bd 24f5 a23c 0034 523c
000001e0: 587a ef3c 608e be3c 7cf1 1fbd 3404 0b3d
000001f0: 20dc 1ebc fc56 3fbd fce0 4d3d 3c33 5ebd
00000200: 2e40 2bbd ec32 5a3d 7edb 02bd b0c4 86bb
00000210: c4bd 413d c050 9a3c c0b7 d4ba d816 1fbd
00000220: 10b4 443d 509b bf3b d884 59bc 20ab 503c
00000230: bc0e 13bd 36f5 47bd 48e5 083c d47c 8b3c
00000240: 521b 253d 7c9d f23c 2096 123b e025 76bc
00000250: 08dd f9bc 5060 133c c8a0 033d 80a5 7ebb
00000260: 0a90 5fbd d005 c43b 8e1a 67bd 103f ce3c
00000270: 542e 4dbd 0e21 7fbd 70ad d4bc 0e16 5a3d
00000280: 00af b0ba 44bd 463d 40ba 923b 66c3 3f3d
00000290: d0ba bebb ea6a 403d 0016 18bd dc9a 0fbd
000002a0: 644f ad3c 16a2 133d 2818 2d3d 0a47 4b3d
000002b0: 0058 62b8 30f0 6dbd 347e fdbc 3885 163c
000002c0: 86e1 1a3d 284b 70bc 686a b53c c096 ab3b
000002d0: 7ea7 30bd 1865 29bd 3871 e2bc acb9 d8bc
000002e0: 104a f8bc f4eb 443d f6b1 583d 8091 513a
000002f0: 5ea9 68bd f099 b73b 6a77 343d 6056 513b
00000300: 3aa9 21bd 1802 12bc c824 16bd 5037 e73c
00000310: 287d f0bc 883e cf3c aacc 4ebd 507a 41bc
00000320: deb2 023d c4e7 973c 409d a4bb e003 183c
00000330: 82d8 25bd feac 253d be9b 4d3d 3884 9cbc
00000340: 04ec 50bd d8d3 923c ce19 37bd fc1f 07bd
00000350: 26a0 38bd 04af d9bc a884 6a3d 96ff 783d
00000360: 8c80 313d bef6 34bd 20cf 013d 6625 41bd
00000370: 1824 d3bc 06b4 7abd 806a 45bb 9e0b 4f3d
00000380: a4a5 703d 5a1e 2e3d 1a97 683d 388a 1dbc
00000390: 4851 533d 50d3 0d3c 2413 2cbd f894 48bd
000003a0: 30fc ba3c 10c8 acbb 14fd ee3c d04b 1abd
000003b0: 105c 5e3d 00b8 313a d8d6 04bd b0e7 1e3c
000003c0: 4064 43bd 981c c8bc 0016 f4ba f8de 3a3d
000003d0: 4088 82bb a00b 2c3d 726a 2cbd f493 57bd
000003e0: 8020 183c fa71 51bd 807b 903b 2e0a 27bd
000003f0: 70af 2bbd 70cb f33b 9886 4fbd 5023 523c

actor_layer.2.weight f4 [263, 256]
0.04312806 -0.05222921 0.046606965 0.027178332 0.030873522 0.049860165 -0.018095285 0.052007638
-0.026191972 0.011002198 -0.039840594 0.031848088 0.030092932 0.054488122 0.062270157 0.05421835
0.020480439 -0.04904665 -0.012598038 0.0040041655 0.03841468 -0.006217137 -0.025545657 -0.033554085
0.055874527 0.050113708 0.030998461 -0.014421217 -0.023978762 -0.043575868 0.0020504966 -0.000108897686
0.06008038 0.05890102 -0.060920015 -0.055459216 -0.05038335 -0.003600888 -0.02249521 0.022958629
-0.03224326 0.010169342 0.026480667 -0.023532517 0.05032225 -0.020976737 0.045452915 0.017224573
-0.004770331 0.03748078 -0.017700374 0.058497548 -0.05672966 0.04945939 0.04139518 0.00088617206
0.046568237 0.021431312 -0.010731086 0.033070743 -0.030148797 -0.00790631 0.03393674 0.016448393
-0.0034692958 0.024343774 0.025405988 0.03428884 -0.0038548633 0.0011318177 0.030724056 -0.021701492
-0.042821355 0.0016928539 0.05512198 -0.05458059 0.042909518 0.033036813 -0.044960722 0.023028977
0.0091833845 0.059774667 0.031142816 0.021578915 0.016202852 0.061871566 -0.028555304 -0.059344433
0.034152053 0.0044408366 0.039175846 0.049268775 -0.010876484 0.037531987 0.036999866 -0.004250936
-0.04471101 0.035579123 -0.022327341 0.045990914 -0.048487976 -0.026469178 -0.054235995 0.005238794
0.028788693 0.031562507 -0.03652761 -0.040172845 -0.024901628 0.05836521 0.009304725 -0.032943703
-0.025929742 0.05957836 -0.022919707 0.029818103 -0.03258624 -0.017875321 -0.042771682 -0.023268595
0.04836107 0.022400089 -0.025551312 -0.042579398 0.0456556 -0.04489781 0.013044193 -0.05374966
0.057555422 0.042808264 0.022239067 0.012594551 -0.0054725558 0.022707492 -0.026555672 -0.061427712
0.01148805 -0.042207293 0.029214151 -0.04130006 0.04072506 -0.00903412 0.010347575 0.030511692
-0.05454983 -0.04467261 -0.023229912 -0.010916382 0.02385369 -0.010563865 -0.045361474 -0.0053927675
-0.043724112 0.04120238 0.041236505 0.04944978 -0.03849797 0.038287982 0.023374878 -0.02040144
0.010790519 -0.04706148 -0.048113883 -0.054224305 -0.05539348 -0.02358754 -0.054511704 0.021178506
0.025929853 0.007953413 -0.047576003 0.008345477 -0.06084592 0.0615905 -0.018744484 0.019844122
0.024554446 0.042402267 0.044060603 0.002275154 0.03099884 0.04979968 0.032228038 0.0142770335
-0.046020314 -0.05548668 0.05504168 -0.030918159 0.0075031146 0.053260617 -0.03318485 0.0267312
-0.03976401 -0.028178222 -0.024286725 -0.050536714 0.03265246 0.0048852265 -0.053086706 -0.038961142
-0.03791803 0.013712741 0.0584305 0.03234043 0.035508715 -0.060904108 -0.049113788 -0.05125779
-0.033876307 -0.054000594 0.057014808 0.057895586 -0.020196818 -0.010217212 0.029151775 0.03854865
0.05183143 0.036942303 -0.02507434 0.05285179 0.02289033 0.011274114 -0.018740892 -0.016614906
-0.004476309 0.018808208 0.02663014 0.040434577 0.03999535 -0.021306656 0.039722107 -0.02202122
0.01502642 0.021960817 0.025334142 0.025584303 -0.04947155 0.017548457 -0.020954214 0.039474145
-0.017161928 0.042288594 -0.007772431 0.015812434 0.033738755 -0.018312097 -0.013429932 0.048430093
0.052396886 0.0371963 0.01653248 -0.046627373 0.0076107606 0.020219855 -0.00865449 -0.010061584
00000000: 0ca7 303d 4cee 55bd f2e6 3e3d 18a5 de3c
00000010: 78ea fc3c 2c3a 4c3d 903c 94bc f605 553d
00000020: 8c90 d6bc 9042 343c e42f 23bd 2473 023d
00000030: 7485 f63c f02e 5f3d fe0e 7f3d 1014 5e3d
00000040: 98c6 a73c 24e5 48bd 0068 4ebc 6035 833b
00000050: b658 1d3d 20b9 cbbb 2045 d1bc 0270 09bd
00000060: b0dc 643d 0844 4d3d 7cf0 fd3c f846 6cbc
00000070: 1c6f c4bc 9c7c 32bd a061 063b 0060 e4b8
00000080: d816 763d 3242 713d 4487 79bd 3429 63bd
00000090: c65e 4ebd e0fc 6bbb e047 b8bc bc13 bc3c
000000a0: 8211 04bd 509d 263c fced d83c 44c7 c0bc
000000b0: b41e 4e3d 68d7 abbc d62c 3a3d 8c1a 8d3c
000000c0: 7050 9cbb 7285 193d 6000 91bc 209b 6f3d
000000d0: 5c5d 68bd ee95 4a3d fe8d 293d 004e 683a
000000e0: 56be 3e3d b890 af3c 70d1 2fbc 3075 073d
000000f0: 9cfa f6bc 7889 01bc 4001 0b3d c8be 863c
00000100: 205d 63bb 986c c73c 3820 d03c 7472 0c3d
00000110: e0a1 7cbb 8059 943a 04b1 fb3c 54c7 b1bc
00000120: 7265 2fbd c0e2 dd3a 96c7 613d e68f 5fbd
00000130: e4c1 2f3d 9c51 073d bc28 38bd 44a7 bc3c
00000140: e875 163c 48d6 743d 381f ff3c 44c6 b03c
00000150: d8bb 843c 0a6d 7d3d d0ec e9bc 2613 73bd
00000160: 06e3 0b3d 7084 913b da76 203d 0ece 493d
00000170: 4833 32bc 24bb 193d 2c8d 173d 704b 8bbb
00000180: e422 37bd 6abb 113d d4e7 b6bc f860 3c3d
00000190: 549b 46bd e4d5 d8bc 9026 5ebd 30aa ab3b
000001a0: 44d6 eb3c b047 013d fa9d 15bd 488c 24bd
000001b0: 80fe cbbc 5c10 6f3d d872 183c faef 06bd
000001c0: 9c6a d4bc 7008 743d 1cc2 bbbc 1845 f43c
000001d0: 2679 05bd 446f 92bc 5c31 2fbd c89d bebc
000001e0: 4216 463d 6480 b73c fc50 d1bc bc67 2ebd
000001f0: 5e01 3b3d c4e6 37bd 50b7 553c 9a28 5cbd
00000200: 3cbf 6b3d b857 2f3d b42e b63c 6059 4e3c
00000210: 2053 b3bb 1005 ba3c 488b d9bc a09b 7bbd
00000220: 6038 3c3c 8ee1 2cbd 8452 ef3c 402a 29bd
00000230: 52cf 263d d803 14bc e088 293c a8f3 f93c
00000240: a46f 5fbd a0fa 36bd a84c bebc a0da 32bc
00000250: d068 c33c 1014 2dbc f4cc 39bd d0b5 b0bb
00000260: 0e18 33bd d4c3 283d 9ce7 283d da8b 4a3d
00000270: 0cb0 1dbd dcd3 1c3d ac7c bf3c ec20 a7bc
00000280: b8ca 303c 8ac3 40bd 1013 45bd 4e1a 5ebd
00000290: 46e4 62bd a83a c1bc aa47 5fbd 8c7e ad3c
000002a0: d86a d43c 084f 023c 0edf 42bd 78bb 083c
000002b0: 9239 79bd 5246 7c3d 088e 99bc 2490 a23c
000002c0: 6826 c93c 00ae 2d3d e478 343d c01a 153b
000002d0: 48f1 fd3c c0fa 4b3d 8c01 043d 38ea 693c
000002e0: cc7f 3cbd 0046 63bd 6273 613d 1448 fdbc
000002f0: b0dc f53b ce27 5a3d d6ec 07bd 64fb da3c
00000300: 96df 22bd 04d6 e6bc f4f4 c6bc 96ff 4ebd
00000310: 96be 053d 4014 a03b 7271 59bd b895 1fbd
00000320: f04f 1bbd 68ab 603c d254 6f3d 6677 043d
00000330: 9671 113d 9676 79bd 8a2b 49bd b0f3 51bd
00000340: e2c1 0abd ba2f 5dbd 5c88 693d ec23 6d3d
00000350: cc73 a5bc 1866 27bc b4cf ee3c 30e5 1d3d
00000360: 324d 543d d050 173d b468 cdbc 1e7b 583d
00000370: 8084 bb3c 10b7 383c 8086 99bc fc1b 88bc
00000380: 00ae 92bb ac13 9a3c 7427 da3c ba9e 253d
00000390: 2ad2 233d 4c8b aebc a6b3 223d d865 b4bc
000003a0: 6031 763c 2ce7 b33c 8c89 cf3c 2c96 d13c
000003b0: aea2 4abd c8c1 8f3c 2ca8 abbc a4af 213d
000003c0: 2c97 8cbc ce36 2d3d e0af febb 1489 813c
000003d0: a631 0a3d 4003 96bc 3809 5cbc a25e 463d
000003e0: 1e9e 563d 265b 183d 206f 873c 58fc 3ebd
000003f0: b063 f93b 1ca4 a53c 90cb 0dbc 58d9 24bc

actor_layer.2.bias f4 [263]
0.008481942 -0.002986744 -0.05251894 -0.061269194 -0.05957923 0.040535666 -0.052098103 0.03379029
-0.032219872 -0.009499364 -0.0047322214 -0.056092545 0.03446334 0.045917347 -0.03350862 0.04141868
-0.027900547 0.05517728 0.026810922 -0.04636251 -0.018779904 -0.027347177 -0.049742922 -0.03661613
0.0022649392 -0.0017787144 0.06198562 -0.049691983 0.039807573 -0.0444094 -0.044245407 -0.0605248
-0.041746818 -0.021270178 -0.05274208 0.026472494 -0.035666183 0.021522813 -0.0065116584 -0.0030771568
-0.0014754832 0.0067232475 -0.016159087 -0.026020475 0.042344764 -0.02811908 -0.027721956 -0.0015730411
-0.056616448 -0.036690652 -0.032821134 -0.020010583 -0.021624573 0.03534556 -0.061852604 0.040785983
0.043859594 0.012950309 0.04994954 -0.05372043 0.013299465 -0.019749604 0.0010281056 0.035398513
0.031866357 0.053002603 -0.012797445 -0.042309314 0.034767844 -0.012275308 0.05329562 -0.050203107
0.056604125 0.0011788383 0.052486934 -0.032261193 0.011417948 -0.012956351 0.017122932 0.048570156
0.01838307 0.039544247 -0.01647462 0.029453233 0.034383558 0.042151965 -0.039259374 0.049509943
-0.03614822 -0.04989025 -0.029296868 0.037541986 -0.018659897 0.031819396 0.039681867 -0.028286934
0.007850237 -0.015551209 0.030053578 0.015632138 0.042775534 0.054980837 0.04991921 -0.024987802
0.031266496 0.04414747 0.035819903 0.018049873 0.04684075 0.0060873553 -0.030482993 0.02439639
0.045820445 -0.035275035 -0.029379882 0.028078988 -0.049870834 -0.054221936 -0.0060509965 -0.058922306
-0.0033113956 -0.04458207 -0.012495302 0.0019474551 -0.006190978 -0.046142563 -0.021745801 0.06028924
-0.050541155 0.045660168 0.0042753145 -0.05252962 0.054454207 0.009705454 -0.04116892 0.004677072
0.02139128 -0.029720895 -0.037214845 0.05803223 0.04925397 0.015668638 -0.05633752 -0.044499263
0.05230496 -0.04783856 -0.011345357 0.027566113 -0.04850644 0.016175054 -0.05863206 0.049445003
-0.006689325 0.05209426 0.051159583 0.0052155107 -0.03379126 -0.04317365 0.016015634 0.02254437
0.0556126 -0.0599204 0.006450869 -0.039752923 0.02742286 -0.05145073 0.014489204 -0.013282023
0.05245825 -0.01601825 0.05235392 0.040383793 -0.029793918 -0.0606514 -0.053551912 -0.0061549395
0.026373737 0.052117743 -0.059301324 -0.02686216 -0.0076584667 -0.033460595 0.02509553 -0.02572821
0.056014054 -0.02194392 -0.007319197 -0.008641675 -0.05380792 0.023519106 0.04406794 -0.04319592
-0.04623086 0.042596072 0.008970387 0.0062325373 0.05044543 0.025758043 -0.01626467 0.030687243
-0.036201835 -0.00017222762 -0.061266884 0.010401405 -0.025662392 -0.037669115 -0.0028546005 -0.011519514
0.036890358 0.051662147 0.012766451 0.0366278 0.038892575 0.015348047 -0.01743301 0.0358421
0.031632148 0.02911307 -0.04128319 -0.008852139 0.01888702 0.04117369 0.060817987 0.0036986098
0.042462982 -0.060253955 -0.02388385 -0.016362198 0.005177252 -0.006707564 0.032895714 0.045762256
-0.013851732 -0.05790572 -0.039763898 0.048888184 -0.061440483 -0.05226384 0.03756927 -0.05362495
-0.047342747 -0.015437312 -0.015636459 -0.0012716651 -0.03131964 0.060167342 -0.036073633 -0.05962915
0.039283097 -0.05293914 -0.032610334 0.005343683 0.025988534 0.01371 -0.033584893 -0.014351904
00000000: d8f7 0a3c 40bd 43bb 1a1e 57bd 68f5 7abd
00000010: 5a09 74bd ba08 263d d264 55bd b067 0a3d
00000020: fcf8 03bd 38a3 1bbc c010 9bbb 4cc1 65bd
00000030: 6e29 0d3d d413 3c3d 5640 09bd a2a6 293d
00000040: b08f e4bc 9201 623d 94a2 db3c 9ee6 3dbd
00000050: 50d8 99bc 3007 e0bc 3cbf 4bbd ccfa 15bd
00000060: 606f 143b c023 e9ba a2e4 7d3d d289 4bbd
00000070: 440d 233d a2e6 35bd ac3a 35bd dae8 77bd
00000080: b6fe 2abd cc3e aebc 1408 58bd d8dc d83c
00000090: b416 12bd 9c50 b03c c05f d5bb 20aa 49bb
000000a0: 0065 c1ba b04e dc3b 1060 84bc e428 d5bc
000000b0: b471 2d3d fc59 e6bc 2819 e3bc 802e ceba
000000c0: a6e6 67bd f048 16bd 746f 06bd 3ced a3bc
000000d0: 0426 b1bc 82c6 103d 2859 7dbd 340f 273d
000000e0: 1ea6 333d 882d 543c e497 4c3d f409 5cbd
000000f0: 00e6 593c ecc9 a1bc 80c1 863a 08fe 103d
00000100: 4c86 023d 4219 593d 60ac 51bc 884c 2dbd
00000110: ba68 0e3d 601e 49bc 824c 5a3d c6a1 4dbd
00000120: bad9 673d 4083 9a3a 8afc 563d 5024 04bd
00000130: 5812 3b3c e046 54bc 6445 8c3c 80f1 463d
00000140: 1898 963c 26f9 213d c8f5 86bc e847 f13c
00000150: c6d5 0c3d 8aa7 2c3d 70ce 20bd f0ca 4a3d
00000160: 2810 14bd b859 4cbd fcff efbc a0c5 193d
00000170: a4dc 98bc 0e55 023d 7489 223d 00ba e7bc
00000180: 489e 003c 80ca 7ebc ec32 f63c f80e 803c
00000190: 6635 2f3d 9633 613d 1678 4c3d 38b3 ccbc
000001a0: 4c11 003d fad3 343d e4b7 123d 54dd 933c
000001b0: 16dc 3f3d 7078 c73b 78b7 f9bc f0da c73c
000001c0: 38ae 3b3d 8e7c 10bd 14ae f0bc e805 e63c
000001d0: 5c45 4cbd d217 5ebd 7047 c6bb 8458 71bd
000001e0: 0004 59bb b09b 36bd 18b9 4cbc c041 ff3a
000001f0: b0dd cabb fcff 3cbd 4024 b2bc daf1 763d
00000200: 3e04 4fbd 2806 3b3d f017 8c3b 4c29 57bd
00000210: 600b 5f3d a003 1f3c bea0 28bd 2042 993b
00000220: c43c af3c 3c79 f3bc 986e 18bd 34b3 6d3d
00000230: 88be 493d 845b 803c 2cc2 66bd dc44 36bd
00000240: ba3d 563d 5ef2 43bd e0e1 39bc 54d2 e13c
00000250: b0ae 46bd 8c81 843c 2c28 70bd d886 4a3d
00000260: 2032 dbbb ca60 553d b68c 513d e0e6 aa3b
00000270: b468 0abd dad6 30bd 3833 833c f8ae b83c
00000280: 0aca 633d 186f 75bd d061 d33b f6d3 22bd
00000290: e8a5 e03c 00be 52bd 2064 6d3c d89c 59bc
000002a0: 76de 563d b438 83bc 1071 563d 7a69 253d
000002b0: 6012 f4bc 9a6d 78bd 4059 5bbd 60af c9bb
000002c0: bc0d d83c 6a79 553d f2e5 72bd 080e dcbc
000002d0: e0f3 fabb fa0d 09bd 2495 cd3c f8c3 d2bc
000002e0: fe6e 653d bcc3 b3bc e0d5 efbb d095 0dbc
000002f0: b265 5cbd 24ab c03c 9680 343d 34ee 30bd
00000300: 925c 3dbd 3879 2e3d 88f8 123c 503a cc3b
00000310: de9f 4e3d 8802 d33c 7c3d 85bc d063 fb3c
00000320: 6048 14bd 0098 34b9 fcf2 7abd a86a 2a3c
00000330: f039 d2bc ee4a 1abd 4014 3bbb 58bc 3cbc
00000340: 581a 173d b09b 533d 602a 513c 0807 163d
00000350: d24d 1f3d 6076 7b3c accf 8ebc 2acf 123d
00000360: b690 013d 887e ee3c 9018 29bd 9008 11bc
00000370: f4b8 9a3c bea5 283d 481c 793d 6064 723b
00000380: aaed 2d3d dacc 76bd 10a8 c3bc 040a 86bc
00000390: f0a5 a93b 20cb dbbb a8bd 063d 3471 3b3d
000003a0: 60f2 62bc 8c2e 6dbd 78df 22bd fa3e 483d
000003b0: 04a9 7bbd 9c12 56bd 3ce2 193d d6a5 5bbd
000003c0: 78ea 41bd c8ec 7cbc 0818 80bc 00ae a6ba
000003d0: 0649 00bd 0872 763d f2c1 13bd b23d 74bd
000003e0: 50e7 203d b6d6 58bd 6a92 05bd 101a af3b
000003f0: e8e5 d43c e89f 603c 5090 09bd 4024 6bbc
