model/ckpt/Dense_Assistment17_binn_policy.pt (torch, 437614 bytes, 6 tensors)

obs_layer.weight f4 [256, 83]
0	0xbdd5dd48	-0.10442597
1	0xbd071e97	-0.032988157
2	0x3d21c33e	0.039492838
3	0x3b07b4d4	0.0020707147
4	0xbd4caaff	-0.049967762
5	0xbd7f5d94	-0.062345102
6	0x3dd1cf20	0.10244584
7	0xbd473ffd	-0.04864501
8	0x3d6c4ab4	0.05768843
9	0xbd51cb45	-0.051219244
10	0xbbd1e5ff	-0.0064055915
11	0xbdc0595e	-0.093920454
12	0xbddd1b32	-0.10796203
13	0x3dbb1fd7	0.09136932
14	0x3dae31ce	0.08505593
15	0xbb308ef3	-0.0026940673
16	0x3d1e588f	0.038658675
17	0x3d1fec90	0.039043963
18	0xbc38cbe7	-0.011279083
19	0xbd8aff1c	-0.067869395
20	0xbb61a372	-0.0034429696
21	0xbdd1d72e	-0.102461204
22	0xbd403860	-0.046928763
23	0xbcc2f2a8	-0.023797348
24	0xbd16ad1c	-0.036786184
25	0x3d95045d	0.07276223
26	0xbc5afd0e	-0.013365997
27	0xbdbc829b	-0.092045985
28	0xbcb46e02	-0.022025112
29	0xbd90b78b	-0.07066258
30	0x3d8049e8	0.062640965
31	0x3da84896	0.0821697
32	0x3d336a91	0.0438028
33	0xbdb68b93	-0.089133404
34	0xbd8631ce	-0.06552468
35	0x3b4823fb	0.0030539024
36	0xbdb98890	-0.0905925
37	0x3d64bbd5	0.055843193
38	0xbd1e41c9	-0.038636956
39	0xbd87ea86	-0.06636529
40	0x3b94290b	0.0045214943
41	0xbcd50418	-0.026002929
42	0xbd9f3b6a	-0.07775004
43	0xbbcebabb	-0.006308881
44	0xbdb3f5b0	-0.087870955
45	0x3d041996	0.032250963
46	0x3d463844	0.048393503
47	0xbd15ae39	-0.036543105
48	0x3c545680	0.012960076
49	0xbc9cd047	-0.019142283
50	0x3d583674	0.052786306
51	0xbce6ab72	-0.028157923
52	0x3d9ae72c	0.07563624
53	0xbd88e56e	-0.06684385
54	0xbd19b394	-0.037524775
55	0x3d3af0ee	0.045639925
56	0x3da4258c	0.08014974
57	0xbd828f2a	-0.06374963
58	0xbd5e0a85	-0.05420925
59	0x3d282d07	0.041058566
60	0xbd635bc0	-0.05550742
61	0xbd48716c	-0.048936293
62	0x3b023730	0.001986932
63	0x3a1617a4	0.00057255686
64	0x3d994322	0.07483508
65	0x3dc97222	0.09836222
66	0xbcda5b58	-0.026654884
67	0x3dd7500f	0.10513317
68	0x3d5c8c33	0.053844642
69	0x3d716204	0.058931366
70	0xbda4526a	-0.08023532
71	0xbd743eb1	-0.0596301
72	0x3dc19a3c	0.09453246
73	0x3dde0375	0.10840503
74	0x3d054adb	0.03254209
75	0x3cef5d0d	0.029219175
76	0xbdd6dc95	-0.104912914
77	0x3adb0b0d	0.0016711667
78	0xbc9bc322	-0.019013945
79	0xbd59a2ea	-0.053133883
80	0x3d969986	0.07353501
81	0xbbd7d593	-0.0065867393
82	0x3d57b38c	0.052661464
83	0x3d0c90bf	0.034317728
84	0xbbfab71e	-0.007651224
85	0xbcbb2a45	-0.022847304
86	0x3d93f885	0.07225136
87	0xbd6a562d	-0.05721109
88	0x3d3ce7d8	0.04611954
89	0xbc7093a1	-0.014683635
90	0xbd8011d3	-0.062534
91	0x3d6d281c	0.05789958
92	0xbcd92f55	-0.026511827
93	0xbd14dac3	-0.03634144
94	0xbca6a003	-0.020339971
95	0xbc82b8b6	-0.015957218
96	0xbd8894b7	-0.0666899
97	0xbd9ea878	-0.077469766
98	0xbd908993	-0.0705749
99	0xbda5c297	-0.08093756
100	0x3d4913f1	0.049091283
101	0x39b7ec7a	0.0003508067
102	0x3dacbb41	0.08434153
103	0xbdb3e8d8	-0.08784646
104	0xbceef0a2	-0.029167477
105	0x3dd40be2	0.10353829
106	0xbce1204d	-0.027481223
107	0xbbb1edc1	-0.005429954
108	0xbc5e8d32	-0.013583468
109	0xbcf1e0ee	-0.0295262
110	0x3c649aa1	0.013952882
111	0xbc495a03	-0.012289527
112	0x3b502c16	0.0031764559
113	0xbd5a5610	-0.05330473
114	0xbd65c986	-0.05610039
115	0xbd0af3bb	-0.033923846
116	0xbd5df051	-0.05418426
117	0x3d84927e	0.06473254
118	0x3c2a9546	0.010411566
119	0xbd934e2f	-0.07192647
120	0x3d5c0886	0.053719066
121	0x3d85071a	0.06495495
122	0x3db1a3d2	0.08673824
123	0x3b6defb4	0.0036306204
124	0x3c9b757a	0.018976916
125	0x3d549e9e	0.05190908
126	0xbb086910	-0.0020814575
127	0x3d1c08f2	0.03809447
128	0xbd7a018a	-0.061036624
129	0x3cca6694	0.024707116
130	0xbdba2270	-0.090886
131	0xb9b17299	-0.00033845453
132	0xbc7e39b4	-0.015516687
133	0xbc1da604	-0.009622101
134	0xbdb42a52	-0.087971345
135	0xbc1409fa	-0.009035582
136	0x3d218321	0.039431695
137	0xbda9a0b6	-0.08282606
138	0x3dd16f1f	0.10226273
139	0x3ddf135e	0.10892366
140	0x3d7828d3	0.060585808
141	0x3b9ba096	0.004749368
142	0xbd1a6eac	-0.0377032
143	0xbcd5be17	-0.026091618
144	0x3bdcd589	0.0067393226
145	0xbd382d7c	-0.044965252
146	0x3db9b5c7	0.090678744
147	0x3d969374	0.07352343
148	0xbd522e7f	-0.051313873
149	0x3c2c0f23	0.010501656
150	0x3bb4b168	0.0055143125
151	0xbdaeab93	-0.08528819
152	0xbd7363a8	-0.05942121
153	0x3db4ce4f	0.08828413
154	0xbdc0a3d7	-0.0940625
155	0xbd3ab3e0	-0.0455817
156	0xbdcc44d9	-0.09974069
157	0xbd8d32e0	-0.06894469
158	0xbd5df1a2	-0.054185517
159	0xbd26c458	-0.04071459
160	0xbc0541cd	-0.008133364
161	0xbd9a364f	-0.0752989
162	0xbdb04197	-0.0860626
163	0xbaf19281	-0.0018430502
164	0x3dbafd0d	0.09130297
165	0x3d9687a9	0.07350094
166	0xbdabf0c2	-0.0839553
167	0x3dc0ca01	0.09413529
168	0xbd08228a	-0.033236064
169	0xbdcc6576	-0.0998029
170	0x3dc535e0	0.096294165
171	0x3dcffef9	0.10156054
172	0xbc66209f	-0.014045863
173	0xbdcb46b2	-0.099255934
174	0xbc86fadc	-0.016477041
175	0x3d42ce13	0.04755981
176	0x3d86c548	0.06580597
177	0xbdd95771	-0.10612381
178	0xbb5dc1db	-0.003383747
179	0x3da01e40	0.0781827
180	0xbc7ed11f	-0.015552788
181	0x3d4920ec	0.049103662
182	0xbd7ac3a5	-0.061221737
183	0xbd6014c4	-0.054707304
184	0x3d178ea2	0.03700126
185	0xbdd1d569	-0.10245783
186	0xbddd6abd	-0.10811374
187	0x3cfaf6f9	0.030635344
188	0xbbc86d86	-0.006116572
189	0xbdd062e1	-0.1017511
190	0x3d8eb105	0.069673575
191	0x3dcb5008	0.09927374
192	0x3cddce51	0.027075918
193	0xbcda15cf	-0.026621727
194	0xbd97dcdd	-0.07415173
195	0xbdb2c54c	-0.08729038
196	0x3c954fec	0.018226586
197	0xbd6da72d	-0.05802076
198	0xbdd0375f	-0.10166811
199	0x3c3db1be	0.011578022
200	0xbd7463a0	-0.059665322
201	0xbca48ccf	-0.020086674
202	0xbd62bf4f	-0.055358227
203	0xbd98f943	-0.07469418
204	0x3c209d25	0.009803091
205	0x3d3527c6	0.044227384
206	0xbdccd951	-0.10002387
207	0x3c811c68	0.015760615
208	0x3d354441	0.044254545
209	0xbd9e8359	-0.07739896
210	0x3dc62abf	0.09676122
211	0xbda782b2	-0.08179225
212	0xbc6a7e21	-0.014312298
213	0x3dc88e78	0.09792799
214	0xbd628ffc	-0.055313095
215	0xbce40486	-0.027834188
216	0xbd5840e2	-0.052796252
217	0x3dac4797	0.08412092
218	0xbcb07e2e	-0.021544542
219	0x3c148978	0.009065978
220	0xbc4c2b38	-0.012461476
221	0xbd15483d	-0.036445845
222	0xbd891b60	-0.066946745
223	0x3dbebf44	0.09313825
224	0x3d8ae218	0.06781405
225	0xbd84dee3	-0.06487825
226	0x3dd41d79	0.10357184
227	0xbdd52838	-0.10408062
228	0x3ddb6537	0.107126646
229	0x3cc8d6ae	0.02451643
230	0xbc9e132d	-0.019296253
231	0xbd9bfa6f	-0.07616126
232	0x3cbd97e4	0.023143716
233	0x3d1a6c34	0.037700847
234	0x3d41c634	0.04730816
235	0xbd50a79d	-0.0509411
236	0x3a888561	0.0010415727
237	0x3db611d3	0.088901184
238	0xbc99ffa5	-0.018798659
239	0x3da33ff6	0.07971184
240	0xbc8acd3e	-0.01694357
241	0xbd1f0ff6	-0.03883358
242	0xbd35b144	-0.044358507
243	0xbd85320b	-0.065036856
244	0x3dc7420c	0.09729394
245	0x3bab2a1d	0.005223526
246	0xbd94e7f5	-0.07270805
247	0xbd4002f6	-0.046877824
248	0xbdb11fca	-0.086486414
249	0x3d25fef2	0.040526338
250	0x3d790c30	0.06080264
251	0x3c50acc9	0.012736508
252	0xbd50dd85	-0.050992507
253	0x3c7b5253	0.015339452
254	0x3c585f1c	0.01320627
255	0x3ca40c07	0.020025266

obs_layer.bias f4 [256]
0	0x3dc02362	0.09381749
1	0x3d34ec40	0.044170618
2	0x3ceb724d	0.028741026
3	0xbdba1bb5	-0.09087316
4	0x3c2c0f3f	0.010501682
5	0xbd280be1	-0.041026954
6	0xbd0f428f	-0.034975585
7	0xbd4a2b24	-0.04935755
8	0xbd58e625	-0.052953858
9	0x3cc023ac	0.02345451
10	0x3dd76f46	0.105192706
11	0xbdc6acb1	-0.09700907
12	0x3dc86e64	0.0978668
13	0xbc7c5fa1	-0.015403659
14	0xbdcd4201	-0.10022355
15	0xbbba8daa	-0.005693157
16	0x3cc51e56	0.024062317
17	0x3d8a93a5	0.06766442
18	0x3d908653	0.0705687
19	0xbcf7b790	-0.030238897
20	0x3d83d923	0.064379
21	0x3d63391b	0.055474382
22	0x3d36dce1	0.04464424
23	0x3ddf68f3	0.10908689
24	0x3d16ff30	0.03686446
25	0x3db8b37b	0.09018608
26	0xbd7150ef	-0.058915075
27	0xbd5c873f	-0.05383992
28	0xbd8af62e	-0.06785236
29	0xbc11c063	-0.008895966
30	0xbce71693	-0.028209006
31	0x3c91cf50	0.01779905
32	0xbd09db37	-0.033656325
33	0xbd126776	-0.0357432
34	0xbd14b3ef	-0.03630441
35	0xbc4de906	-0.012567764
36	0xbc951d3d	-0.018202418
37	0xbdbcc10c	-0.09216508
38	0x3db49020	0.08816552
39	0x3bad704e	0.005292929
40	0x3ddfdf91	0.10931314
41	0x3c8c8bd2	0.017156515
42	0x3dd7e9d2	0.105426446
43	0x3d64512b	0.05574147
44	0x3d9ea80b	0.077468954
45	0x3dc85174	0.09781161
46	0xbc5d0459	-0.013489806
47	0x3d8f39b2	0.069934264
48	0xbd0c444f	-0.03424483
49	0xbd987a45	-0.07445196
50	0x3c945420	0.01810652
51	0x3d707dbb	0.058713656
52	0x3dc3fa6f	0.09569251
53	0x3d0aff06	0.033934616
54	0xbd8b0c92	-0.06789507
55	0x3dc6679f	0.09687733
56	0xbd45b8d8	-0.048271984
57	0x3cedc6b4	0.029025413
58	0xbd321770	-0.043479383
59	0x3d061bb9	0.032741282
60	0x3dc4faf3	0.09618177
61	0xbdc7f0d3	-0.097627304
62	0xbd970720	-0.07374406
63	0x3db6f1b2	0.089328185
64	0x3dde7f3a	0.1086411
65	0xbc85dd56	-0.016340893
66	0x3d629838	0.05532095
67	0x3cf49db8	0.029860362
68	0x3d8b5a81	0.068043716
69	0x3d9258b6	0.071458265
70	0xbc74c9bc	-0.014940675
71	0xbdd1b300	-0.1023922
72	0x3d599457	0.053119984
73	0xbcf5fc08	-0.030027404
74	0xbdd2d399	-0.10294265
75	0xbd855377	-0.0651006
76	0xbd98006a	-0.07421954
77	0xbdc6be33	-0.09704246
78	0xbd0eae99	-0.034834478
79	0xbc25a661	-0.010110469
80	0x3dc2aa1a	0.095051005
81	0x3d1ccd93	0.03828199
82	0xbd040b0b	-0.032237094
83	0xbc9c39bc	-0.019070499
84	0xbd247438	-0.040149897
85	0x3da3b21c	0.07992956
86	0x3d72c0d6	0.059265934
87	0xbd92686a	-0.07148822
88	0xbd9a7860	-0.07542491
89	0x3d752126	0.059846066
90	0x3d0663fa	0.03281019
91	0x3dd2b4c1	0.10288382
92	0xbdc29d87	-0.09502702
93	0xbc9b0af3	-0.01892612
94	0xbda07315	-0.0783445
95	0x3d21f4a7	0.03953996
96	0xbddd4a1b	-0.1080515
97	0xbc32c1a7	-0.010910428
98	0x3d3b01af	0.045655902
99	0x3dc95ee2	0.098325506
100	0xbd22a03a	-0.039703585
101	0xbd9e40f6	-0.07727234
102	0x3cac216a	0.021012027
103	0x3d4c3a84	0.049860492
104	0x3b8b6fc7	0.0042552683
105	0x3d8224a7	0.06354647
106	0xbd50ad0f	-0.05094629
107	0x3cdb5177	0.026772244
108	0x3d79c598	0.060979456
109	0x3d2e14e1	0.04250038
110	0x3ccacbac	0.024755321
111	0x3dd62c60	0.104576826
112	0xbd387b8e	-0.045039706
113	0xbdaf94d8	-0.085733116
114	0x3d2a3f97	0.04156455
115	0x3da5df52	0.080992356
116	0xbda6ac2d	-0.08138309
117	0x3dbfd21a	0.093662456
118	0x3b88b1f2	0.0041716034
119	0x3b257678	0.0025247615
120	0xbdb384c4	-0.087655574
121	0xbc94b75a	-0.018153835
122	0xbb64ec3d	-0.0034930848
123	0x3da5113d	0.080599286
124	0x3d9616af	0.07328545
125	0xbc87ac4b	-0.016561648
126	0xbd3073c8	-0.043079168
127	0x3d8b6ff5	0.068084635
128	0xbd899f47	-0.06719833
129	0xbbd8a3b6	-0.0066113127
130	0xbdb101f1	-0.086429484
131	0x3dd17009	0.10226447
132	0xbbfdc8b3	-0.0077448725
133	0xbdcde1fd	-0.100528695
134	0xbd1b5ad8	-0.037928432
135	0xbdb3bdca	-0.08776434
136	0xbd0717e8	-0.032981783
137	0x3c295943	0.010336223
138	0xbd54a654	-0.051916435
139	0x3d6119f3	0.054956388
140	0x3d3e65c5	0.046483774
141	0xbdbc264d	-0.09186993
142	0x396b55a7	0.00022443254
143	0xbcd1a061	-0.02558917
144	0x3db2719c	0.087130755
145	0x3d42b395	0.047534544
146	0x3ce9218c	0.02845838
147	0x3c63e7a8	0.013910212
148	0xbd970d45	-0.07375578
149	0x3cd921ce	0.026505377
150	0xbcce526d	-0.025185788
151	0x3d1cca95	0.038279135
152	0x3d72717a	0.05919025
153	0x3c71ab4f	0.014750316
154	0x3c535b40	0.012900174
155	0x3d1d6865	0.038429637
156	0x3d923074	0.07138148
157	0xbddf6b14	-0.109090954
158	0x3d2bde9b	0.04196034
159	0xbda2927e	-0.079380974
160	0xbd13e35b	-0.036105495
161	0x3d547084	0.051865116
162	0x3d68934e	0.056781106
163	0x3bdec503	0.006798388
164	0xbd96b9c4	-0.07359651
165	0x3beae47c	0.0071683507
166	0x3dada712	0.08479132
167	0xbc70a747	-0.0146883195
168	0xbda05365	-0.07828406
169	0x3d88849b	0.066659175
170	0x3dd12f99	0.10214157
171	0xbdb89ae0	-0.09013915
172	0xbd2355ca	-0.039876737
173	0xbdadd0ee	-0.08487116
174	0x3dbbbb2a	0.09166558
175	0xbd007861	-0.031364802
176	0x3c225682	0.00990832
177	0xbd1f9acd	-0.03896599
178	0xbd452188	-0.04812768
179	0x3d637797	0.05553397
180	0x3d990fef	0.07473742
181	0x3d999283	0.07498648
182	0xbd676446	-0.056492113
183	0x3dd2f09a	0.10299797
184	0x3d9b23d7	0.07575195
185	0x3d2ff050	0.04295379
186	0xbc5cab1c	-0.01346853
187	0xbdaf6be8	-0.08565503
188	0xbda7fb39	-0.08202214
189	0xbd17c4ce	-0.037052922
190	0xbd81ec50	-0.06343901
191	0x3dc16abc	0.09444186
192	0xbdcbfb4e	-0.09960042
193	0x3dbb30f2	0.09140195
194	0x3c352109	0.0110552395
195	0x3dcfccab	0.10146459
196	0xbd2b15f5	-0.041768987
197	0x3d8b302d	0.06796298
198	0xbd5de87f	-0.054176804
199	0xbd061de1	-0.03274334
200	0x3d7e1f0e	0.062041335
201	0xbd5f4707	-0.054511096
202	0x3d81ddbe	0.06341122
203	0x3d9dcdc9	0.07705266
204	0x3dc10d5c	0.09426376
205	0xbd5967f5	-0.053077657
206	0xbd127303	-0.035754215
207	0x3dbcb030	0.092132926
208	0xbdcfe7af	-0.10151612
209	0x3d1ee6aa	0.038794197
210	0x3dd9c58d	0.10633383
211	0xbd30ea06	-0.043191932
212	0xbdbb5480	-0.091469765
213	0x3c7bd1a6	0.015369808
214	0xbca09a04	-0.01960469
215	0xbd87cc94	-0.06630817
216	0x3d4ab106	0.04948523
217	0x3d84a41c	0.06476614
218	0xbc17b886	-0.009260302
219	0xbdb90e82	-0.0903597
220	0xbc9f5578	-0.019449934
221	0x3daa9e77	0.08331006
222	0xbc94b5a6	-0.018153023
223	0x3daf03fb	0.08545681
224	0xbd185614	-0.037191465
225	0x3c8a55b6	0.016886573
226	0x3db2f6d9	0.08738489
227	0xbbf44b65	-0.007455277
228	0xbd0fa780	-0.03507185
229	0xbca382e7	-0.01995988
230	0xbaa5d69f	-0.0012652463
231	0xbcd6c2ab	-0.026215872
232	0x3b81fa7d	0.003966628
233	0xbcdf68dd	-0.027271682
234	0xbd3a2490	-0.045445025
235	0x3dc5da41	0.09660769
236	0x3dc4a7ea	0.096023396
237	0x3d88a04f	0.066712014
238	0xbdb0e3c5	-0.086371936
239	0xbdc8af85	-0.09799103
240	0x3dba2e24	0.09090832
241	0xbd2233e4	-0.039600268
242	0x3dcebacb	0.10094222
243	0x3cb5f40e	0.0222111
244	0x3b4c99f8	0.0031219702
245	0x3d752a11	0.05985457
246	0x3d95f365	0.073218144
247	0xbc51a8ce	-0.012796594
248	0xbdcfa8eb	-0.101396404
249	0x3c48f14c	0.012264561
250	0x3ac2f5cf	0.0014874282
251	0xbc8d04eb	-0.01721426
252	0xbd8035a4	-0.06260231
253	0xbd5ad64f	-0.053427037
254	0xbd89a776	-0.06721394
255	0xbd9cf88a	-0.076645926

actor_layer.0.weight f4 [256, 256]
0	0x3ce825a4	0.028338261
1	0xbd56a124	-0.05239977
2	0xbd38ea28	-0.045145184
3	0xbd47ac08	-0.048748046
4	0x3c57c440	0.013169348
5	0xbd6442f0	-0.0557279
6	0x3d493952	0.04912693
7	0xbcf94960	-0.030430496
8	0x3c8e8c90	0.01740101
9	0xbd75b96c	-0.059991285
10	0x3d6d50ac	0.057938263
11	0x3c3e6890	0.011621609
12	0x3d7a37f2	0.06108851
13	0x3cb4a058	0.022049114
14	0xbc307028	-0.010768928
15	0xbc4820b0	-0.012214825
16	0x3c679380	0.014134288
17	0xbd39c6ca	-0.045355596
18	0x3d76f700	0.06029415
19	0x3c7e8c38	0.01553636
20	0xbc162050	-0.009162977
21	0x3caaf624	0.020869322
22	0xbc2aa930	-0.010416314
23	0xbd479c30	-0.048732936
24	0x3cec8ea0	0.028876603
25	0xbd0d1d9a	-0.03445206
26	0x3cc7d158	0.024391815
27	0xbc582ec8	-0.013194747
28	0x3d3f1618	0.04665193
29	0x3cef0190	0.02917555
30	0x3c42f098	0.011898182
31	0xbd7030a2	-0.05864013
32	0xbd3ba9a8	-0.045816094
33	0xbd393c02	-0.045223244
34	0x3d280cc0	0.041027784
35	0x3bf6b650	0.0075290576
36	0x3d2156aa	0.03938929
37	0x3d4ed9b4	0.050500587
38	0xbcf5c668	-0.030001834
39	0x3d5190ae	0.051163368
40	0xbc032860	-0.008005232
41	0x3d4a2460	0.049351096
42	0xbcfdbe7c	-0.03097462
43	0xbcf9df18	-0.030501887
44	0x3ce5af78	0.028037772
45	0x3ca9a788	0.020709768
46	0x3d7eb3a6	0.062183045
47	0x3d7ff4f2	0.062489457
48	0x3b5c2260	0.0033589825
49	0x3d7a9ee6	0.061186694
50	0xbd744e24	-0.059644833
51	0xbd082e92	-0.033247538
52	0x3d0ac212	0.033876486
53	0x3d73850a	0.059453048
54	0x3c19b1e8	0.009380795
55	0xbd262326	-0.040560864
56	0x3d42ef6c	0.04759161
57	0x3d156106	0.036469482
58	0xbba2aed0	-0.004964687
59	0xbcb8ae5c	-0.022544079
60	0x3cecb040	0.028892636
61	0xbc44e788	-0.012018092
62	0xbc6c5818	-0.0144253
63	0x3cc1411c	0.023590617
64	0x3a511780	0.0007976219
65	0xbd2a8ee8	-0.041640192
66	0xbd05c084	-0.0326543
67	0x3cfea56c	0.031084739
68	0xbca7d14c	-0.020485543
69	0xbd24fe00	-0.040281296
70	0x3c455860	0.012044996
71	0xbd450154	-0.04809697
72	0xbc163968	-0.00916896
73	0xbc06b2e8	-0.0082213655
74	0xbc9368dc	-0.017994337
75	0x3c603fd8	0.013687097
76	0xbbcfbba0	-0.0063395053
77	0xbbc8d6d0	-0.0061291233
78	0x3d180460	0.037113547
79	0xbcc7b7a0	-0.024379551
80	0xbd4b42b2	-0.049624152
81	0x3c64ced0	0.013965324
82	0xbd39c62a	-0.045355
83	0x3b1e24e0	0.0024130866
84	0x3cc01580	0.023447752
85	0x3d042ac0	0.032267332
86	0x3d622088	0.055206805
87	0xbd03925a	-0.032121994
88	0xba7b3000	-0.00095820427
89	0x3d2becc0	0.04197383
90	0x3d41fd52	0.047360726
91	0xbcd4e20c	-0.025986694
92	0x3cfe5384	0.031045683
93	0xbc2817d0	-0.010259584
94	0xbd17e586	-0.037084125
95	0x3c740a68	0.014895059
96	0xbd33285c	-0.04373966
97	0x398cdf00	0.0002686903
98	0xbc4da708	-0.01255203
99	0xbb4ebe40	-0.0031546503
100	0x3d6e3c24	0.058162823
101	0x3d26f12e	0.04075735
102	0x3b811f40	0.003940493
103	0x3d31147a	0.04323242
104	0xbd3aa8d8	-0.04557118
105	0xbd47c152	-0.04876835
106	0x3be36c50	0.006940402
107	0x3d75d8ce	0.060021214
108	0xbc30edb0	-0.010798857
109	0xbd628028	-0.055298
110	0x3aa96040	0.0012922361
111	0xbd18c7b0	-0.03729981
112	0xbd69c820	-0.05707562
113	0x3c048578	0.008088462
114	0x3d2143ce	0.039371304
115	0x3d06e7da	0.032935955
116	0xbb0986a0	-0.0020984784
117	0x3c95508c	0.018226884
118	0xbbac3e20	-0.0052564293
119	0xba3ae880	-0.0007129982
120	0xbcd799bc	-0.026318423
121	0xbbfe9060	-0.0077686757
122	0xbd6dd6bc	-0.058066115
123	0x3c892168	0.016739562
124	0x3d6bc3be	0.05755972
125	0x3d09739a	0.033557512
126	0xbd30e612	-0.043188162
127	0x3cc23388	0.023706213
128	0xbc792ee0	-0.01520893
129	0x3d5ea006	0.05435183
130	0xbc3f5760	-0.011678547
131	0x3b52c6e0	0.0032161996
132	0xbb6c1800	-0.0036025047
133	0xbd71263c	-0.058874354
134	0x3d14289c	0.03617154
135	0xbd7861fc	-0.06064032
136	0xbd29556a	-0.041341223
137	0xbd7f3e82	-0.06231547
138	0x3ad43980	0.0016191453
139	0x3c97ef5c	0.018546753
140	0x3b6e2a00	0.0036340952
141	0x3d750d9c	0.059827432
142	0x3d48cac6	0.049021505
143	0xbce67688	-0.028132692
144	0xbc4a6218	-0.012352489
145	0xbc78d970	-0.01518856
146	0xbc188ff8	-0.009311669
147	0xbd442944	-0.047890916
148	0x3d41b07e	0.047287457
149	0x3c5dc1a8	0.013534941
150	0xbd440f3c	-0.04786609
151	0x3d03c376	0.032168828
152	0x3cc8ea2c	0.024525724
153	0x3c95cf1c	0.018287234
154	0x3d7a3f56	0.061095558
155	0x3d1d47dc	0.03839861
156	0xbbef5120	-0.007303372
157	0xbd1c5ad2	-0.03817255
158	0x3bb8a3b0	0.0056347474
159	0x3ce65580	0.028116941
160	0x3d37e28a	0.04489378
161	0xbbb53120	-0.005529538
162	0x3c6b3b70	0.014357433
163	0xbd5e57e8	-0.054283053
164	0xbd69c28a	-0.057070293
165	0x3aaad540	0.0013033524
166	0xbce1fff4	-0.027587868
167	0x3d150650	0.036382973
168	0xbd67ed6a	-0.0566229
169	0x3d29df36	0.041472636
170	0xbd67815c	-0.05651985
171	0x3ccaac88	0.024740472
172	0x3cd46fa8	0.025932148
173	0xbc5da7f8	-0.013528816
174	0xbbbee6b0	-0.00582584
175	0xbccdd040	-0.025123715
176	0xbc819794	-0.015819348
177	0xbd3d29c6	-0.046182416
178	0x3d6d3cec	0.057919428
179	0xbd23beda	-0.039976932
180	0x3d48b5d4	0.04900153
181	0xbc949170	-0.018135756
182	0x3d3f2f84	0.046676174
183	0xbc750540	-0.014954865
184	0xbd0d5cd4	-0.034512356
185	0x3d17902a	0.03700272
186	0x3c12bdb0	0.008956358
187	0x3d41d8ea	0.047326006
188	0x3b69bca0	0.0035665408
189	0x3cfa4a44	0.03055299
190	0xbb9d0b30	-0.0047925934
191	0x3d3bd80a	0.045860328
192	0xbbf3a5f0	-0.007435553
193	0xbd45e9b8	-0.048318595
194	0xbd79381c	-0.060844526
195	0x3b5db260	0.0033828244
196	0xbc084628	-0.008317508
197	0xbc3a5080	-0.011371732
198	0x3d14188c	0.036156222
199	0x3cf6f384	0.030145414
200	0x3c240740	0.010011494
201	0xbc424d68	-0.011859275
202	0xbd0f1d86	-0.034940265
203	0xbb722a80	-0.0036951602
204	0x3c138628	0.009004153
205	0x3cc8f614	0.024531402
206	0x3d24efdc	0.04026781
207	0xbc86b930	-0.016445726
208	0x3c0b4410	0.008500114
209	0xbd536578	-0.05161044
210	0x3d296202	0.041353233
211	0xbd3fe686	-0.046850704
212	0x3d416b44	0.047221437
213	0x3d7052ec	0.05867283
214	0x3acafb40	0.0015486255
215	0xbd188174	-0.03723283
216	0xbc486308	-0.012230642
217	0xbd2df6de	-0.04247176
218	0x3c95568c	0.018229745
219	0xbc207860	-0.009794325
220	0x3d4eb49a	0.050465204
221	0xbbb3c530	-0.005486153
222	0x3d360282	0.044435985
223	0x3d22a5ec	0.039709017
224	0xbd170868	-0.03687325
225	0xbd5aa752	-0.053382225
226	0x3d51f760	0.051261306
227	0x3d3a689c	0.04550992
228	0xbb11ccc0	-0.0022247285
229	0x3cbd2dc4	0.023093112
230	0xbd4c01f0	-0.049806535
231	0x3be95d00	0.007121682
232	0x3c5e0b48	0.013552494
233	0x3c5ea890	0.013589993
234	0xbcae1384	-0.02124954
235	0x3d719c74	0.058987096
236	0x3d7bf6de	0.061514728
237	0x3d0cf372	0.034411855
238	0xbd745236	-0.059648715
239	0xbd0adaec	-0.033900186
240	0xbc820030	-0.01586923
241	0x3d0a8450	0.03381759
242	0xbd734850	-0.059395134
243	0xbcc2b7d4	-0.023769297
244	0x3ce06e78	0.027396426
245	0x3d20e11c	0.03927718
246	0xbc1d5850	-0.009603575
247	0xbcc30088	-0.023803964
248	0x3c821734	0.015880205
249	0xbca3dc58	-0.020002529
250	0xbcee9474	-0.029123522
251	0xbd512424	-0.051059857
252	0x3d76628c	0.060152575
253	0xbc010398	-0.007874392
254	0x3d02e920	0.031960607
255	0x3d0ac16a	0.03387586

actor_layer.0.bias f4 [256]
0	0x3d4c8fce	0.04994183
1	0xbbb6fba0	-0.0055841953
2	0x3ceb0c70	0.028692454
3	0xbcd81a60	-0.026379764
4	0x3c277bc0	0.010222375
5	0x3d43c1ca	0.047792234
6	0xbd65b2ae	-0.056078605
7	0x3d0790aa	0.033096947
8	0x3d52c87e	0.051460735
9	0x3d4292c8	0.047503263
10	0x3b784760	0.003788434
11	0xbd5c8458	-0.05383715
12	0x3d6e1d2c	0.05813329
13	0xbc6a7470	-0.014309987
14	0x3d56c9e6	0.05243864
15	0xbca5f4a4	-0.020258255
16	0x3c85b804	0.016323097
17	0xbcbb122c	-0.022835813
18	0xbd45106c	-0.048111364
19	0xbd59c756	-0.053168617
20	0x3d1924d6	0.037388645
21	0xbcb4a5ac	-0.022051655
22	0xbd6e1c72	-0.058132596
23	0x3b08d260	0.0020877346
24	0x3d29fa08	0.041498214
25	0x3c18d818	0.0093288645
26	0x3b7b2420	0.0038321093
27	0x3d49d18a	0.049272098
28	0x3c521570	0.012822494
29	0x3d2933ea	0.041309275
30	0xbab55c00	-0.0013836622
31	0x3cd98488	0.026552454
32	0xbd7527d6	-0.059852444
33	0x3d392f42	0.045211084
34	0xbd4e02d8	-0.05029568
35	0x3c39f0a8	0.011348881
36	0x3b456040	0.0030117184
37	0x3d125a64	0.035730734
38	0x3d28cab8	0.041208953
39	0xbcc40a0c	-0.023930572
40	0xbd1d6342	-0.038424738
41	0x3c249370	0.010044917
42	0x3cd4ff34	0.026000597
43	0xbc19bcb8	-0.009383373
44	0xbd1f7afe	-0.038935654
45	0xbd593224	-0.053026333
46	0x3c37f0e8	0.01122687
47	0x3d1f322e	0.038866214
48	0xbd0b6690	-0.034033358
49	0x3d3fcd1a	0.04682646
50	0xbb8c78b0	-0.004286848
51	0xbd35b2b8	-0.044359893
52	0xbc7574d8	-0.014981471
53	0xbcda08f8	-0.026615605
54	0xbd699100	-0.05702305
55	0xbd2944e2	-0.041325457
56	0xbd48de3a	-0.049040057
57	0xbce6bb14	-0.028165378
58	0xbd3f6ed0	-0.04673654
59	0x3d08dbd8	0.033412784
60	0xbd5bf320	-0.05369866
61	0x3d4fec78	0.050762624
62	0x3d031c8e	0.032009654
63	0x3c533fb8	0.01289361
64	0x3d20fd5c	0.039304122
65	0xbd0118b8	-0.031517714
66	0xbd10068e	-0.0351625
67	0x3c7bc458	0.015366636
68	0xbc319908	-0.010839708
69	0x3d03f520	0.03221619
70	0xbd04c53a	-0.032414652
71	0xbd3bcb7e	-0.045848362
72	0xbbb3d010	-0.0054874495
73	0xbd13a8c6	-0.036049627
74	0xbc7fbec0	-0.015609443
75	0x3d259e70	0.0404343
76	0x3bb98810	0.005661972
77	0x3d0e8564	0.03479518
78	0x3cf8af10	0.030356914
79	0x3ac34c40	0.0014900044
80	0xbceb63bc	-0.02873408
81	0x3cc85444	0.024454243
82	0x3d47508c	0.0486608
83	0x3cb21c1c	0.02174192
84	0xbd34b128	-0.044114262
85	0x3d47a63c	0.048742518
86	0x3cb840a0	0.022491753
87	0x3d6411e0	0.05568111
88	0xbc406108	-0.011741884
89	0xbc7f0ad8	-0.01556655
90	0xbd535236	-0.051592074
91	0x3cd98e08	0.026556984
92	0x3d73f794	0.05956228
93	0xbd50ffa6	-0.051025055
94	0xbd7d8ab8	-0.06189987
95	0xbd0291a8	-0.03187719
96	0x3d1af19c	0.037828073
97	0xbc491060	-0.0122719705
98	0x3d0f56ee	0.034995012
99	0xbcbc7fcc	-0.023010157
100	0x3cd2be10	0.025725394
101	0x3d1e17ba	0.038596846
102	0x3c76f7a8	0.015073694
103	0xbc1fb5e8	-0.00974796
104	0x3d6ed798	0.058311075
105	0xbcf904d8	-0.030397817
106	0xbc0c59b0	-0.008566305
107	0xbd7fc9ea	-0.06244842
108	0xbd5bb01e	-0.053634755
109	0x3a5d9280	0.0008452311
110	0xbc955aac	-0.018231712
111	0xbc0c3040	-0.008556426
112	0x3d0b4358	0.03399977
113	0xbd7da2c4	-0.061922804
114	0xbcd67f5c	-0.026183777
115	0x3d4b0dda	0.049573757
116	0xbcb79b54	-0.022412933
117	0x3c1e0d08	0.009646662
118	0x3d538426	0.0516397
119	0xbd42832a	-0.04748837
120	0x3d167230	0.03672999
121	0xbce2930c	-0.027658008
122	0x3d480806	0.048835777
123	0xbd6d7548	-0.057973176
124	0x3ccbbdcc	0.024870776
125	0xbc0b59c0	-0.008505285
126	0x3ce51fdc	0.027969293
127	0xbcccaa04	-0.024983414
128	0x3d461bde	0.04836642
129	0xbd62b5e6	-0.055349253
130	0x3d77c542	0.060490854
131	0xbd365a2a	-0.04451958
132	0xbd339c8a	-0.04385046
133	0xbbec89b0	-0.007218562
134	0x3bcf80a0	0.006332472
135	0x3ba83200	0.0051329136
136	0xbb061560	-0.0020459518
137	0x3c87bb0c	0.016568683
138	0xbd7bf77c	-0.061515316
139	0xbd008aa2	-0.03138221
140	0xbcac822c	-0.021058165
141	0xbc4d4010	-0.012527481
142	0x3cd9f7a4	0.026607342
143	0x3b6c2660	0.0036033615
144	0x3bb95580	0.0056559443
145	0x3d304a02	0.04303933
146	0xbc920454	-0.01782433
147	0x3cbe9e3c	0.023268811
148	0x3d196d10	0.037457526
149	0x3d298564	0.041386977
150	0xbd70f4d2	-0.05882723
151	0xbb9d02b0	-0.00479158
152	0x3d7af95a	0.061272956
153	0x3d5f5722	0.054526456
154	0x3c525998	0.012838744
155	0xbc9fbed0	-0.019500166
156	0x3c348930	0.011019036
157	0x3d435c70	0.047695577
158	0xbd423a7c	-0.047419056
159	0x3c8b06c0	0.016970992
160	0x3ca5e9a4	0.02025301
161	0xbd1d0c94	-0.038342074
162	0x3cbdf5e4	0.023188539
163	0xbd0a5f8c	-0.033782527
164	0x3d27c558	0.040959686
165	0xbd575232	-0.052568622
166	0xbd619244	-0.05507113
167	0xbd10906a	-0.035293974
168	0x3d557a3e	0.052118532
169	0x3d1c2c92	0.038128443
170	0x3c59a248	0.01328332
171	0xbd46fe5e	-0.048582427
172	0x3b06c6e0	0.0020565316
173	0x3d038db0	0.032117546
174	0xbc9006ec	-0.017581426
175	0x3d1bc240	0.038027048
176	0xbc5dfba8	-0.013548769
177	0xbcf73ce4	-0.030180402
178	0x3c4daaa8	0.012552895
179	0x3d6cb33c	0.05778812
180	0xbd424166	-0.04742565
181	0xbc539d28	-0.012915887
182	0x3c280fc8	0.010257669
183	0xbc744570	-0.014909133
184	0xbd003d14	-0.03130825
185	0x3d13b7da	0.036064006
186	0xbd05cd14	-0.03266628
187	0xbcd8cd34	-0.026465036
188	0xbd724308	-0.059145957
189	0x3c4528d8	0.012033664
190	0x3d2e749c	0.042591676
191	0x3b907700	0.004408717
192	0xbd1221dc	-0.035676822
193	0xbc658eb8	-0.014011078
194	0x3cff61f4	0.031174637
195	0xbd5b50e4	-0.05354394
196	0x3cc91a38	0.024548635
197	0xbd7d56be	-0.061850302
198	0x3c78b2c0	0.015179336
199	0x3cd9a884	0.026569612
200	0x3d33984a	0.043846406
201	0xbd79b438	-0.060962886
202	0xbce29988	-0.0276611
203	0xbd72f71a	-0.059317686
204	0x3c41c770	0.011827335
205	0x3c904764	0.017612167
206	0xbca21504	-0.019785412
207	0xbd13c772	-0.036078878
208	0xbc55e2b0	-0.013054535
209	0x3d31ed1a	0.04343901
210	0x3b752180	0.0037404
211	0xbd694cbc	-0.056957945
212	0xbd45d798	-0.04830131
213	0x3d284d0a	0.041089095
214	0xbc3e3250	-0.011608675
215	0xbd5516d0	-0.05202371
216	0x3d671c32	0.056423374
217	0x3cf14588	0.0294521
218	0xbd6bed08	-0.057599097
219	0x3d2857fc	0.041099533
220	0x3d2b3688	0.041800052
221	0xbd221004	-0.039566055
222	0x3ca1a7e4	0.019733377
223	0x3d134aa6	0.035959862
224	0x398d9800	0.00027006865
225	0xbd2b4292	-0.041811533
226	0x3d06a19c	0.032868966
227	0xbd0cf74a	-0.03441552
228	0x3c8a6d28	0.016897753
229	0xbd638312	-0.05554492
230	0xbd5074c4	-0.050892606
231	0xbc5ce0c8	-0.013481326
232	0xbd67ecea	-0.056622423
233	0x3d489424	0.048969403
234	0xbd44563c	-0.047933802
235	0x3c16cf08	0.0092046335
236	0xbd5b2eb2	-0.05351133
237	0x3d0b4032	0.03399677
238	0x3bcf8040	0.0063324273
239	0xbbf00e70	-0.00732594
240	0xbc576ba0	-0.013148218
241	0x3d44205e	0.04788243
242	0x3cff93b8	0.031198367
243	0x3c827280	0.015923738
244	0x3bc96ae0	0.0061467737
245	0xbcd75cfc	-0.026289456
246	0xbd4dd71a	-0.050253965
247	0x3d166b7a	0.03672359
248	0x3d4f4220	0.05060017
249	0xbccb95ac	-0.024851643
250	0x3c10fbb8	0.008849077
251	0x3b873340	0.0041259825
252	0xbd21078a	-0.03931383
253	0x3bfe3230	0.0077574477
254	0x3d366874	0.044533208
255	0xbb8cf5e0	-0.0043017715

actor_layer.2.weight f4 [83, 256]
0	0xbd012af2	-0.031535096
1	0x3ccbe938	0.02489148
2	0x3d717328	0.058947712
3	0xbca602a0	-0.020264924
4	0xbd43c3ae	-0.047794037
5	0xbce1e25c	-0.027573757
6	0xbd38c040	-0.04510522
7	0xbbf92f40	-0.0076045096
8	0xbca45534	-0.02006016
9	0xbc4c91f0	-0.012485966
10	0x3d154a60	0.036447883
11	0xbd24ad72	-0.040204473
12	0x3d00c402	0.031436928
13	0xbba0a780	-0.00490278
14	0x3cac5098	0.021034524
15	0xbc213460	-0.009839147
16	0x3d66cad8	0.05634579
17	0xbd34f31e	-0.044177167
18	0xbcc961dc	-0.024582796
19	0x3c00d978	0.007864349
20	0xbcec25c4	-0.028826602
21	0x3cc169b0	0.023609966
22	0xbbd42e20	-0.006475225
23	0x3c328678	0.010896318
24	0x3d1fb4f4	0.03899093
25	0x3c4f2818	0.012643836
26	0xbc27cd88	-0.010241874
27	0x3b824c00	0.003976345
28	0xbd247560	-0.040151
29	0xbcf94118	-0.030426547
30	0x3d2b4182	0.04181052
31	0x3cc5ffc0	0.024169803
32	0x3d79ef3a	0.06101916
33	0x3c528048	0.012847967
34	0xbcf4d408	-0.02988626
35	0xbd48e562	-0.04904688
36	0x3cb8d7e4	0.022563882
37	0xbc991e3c	-0.018691175
38	0xbb3b4bc0	-0.0028579086
39	0x3c109948	0.008825608
40	0xbd28ce72	-0.041212507
41	0x3d4828b4	0.048866943
42	0xbafaae40	-0.0019125417
43	0x3cece220	0.028916419
44	0x3a7ad300	0.00095681846
45	0x3d055910	0.03255564
46	0xbd65a44a	-0.05606488
47	0xbd033cfa	-0.032040574
48	0x3d4be3ea	0.049777903
49	0xbc828eec	-0.015937291
50	0xbb6f1220	-0.003647931
51	0xbd093f26	-0.03350749
52	0x3d5d0268	0.053957373
53	0x3d528c94	0.051403597
54	0xbd7af516	-0.06126889
55	0xbd7740d0	-0.060364544
56	0x3d334ff0	0.043777406
57	0x3d150ee6	0.03639116
58	0x3c42e1a8	0.011894621
59	0xbcc24bd4	-0.023717798
60	0x3d5842c8	0.052798063
61	0x3c5fe158	0.013664566
62	0xbd2fc5c0	-0.0429132
63	0xbc1c3690	-0.009534493
64	0x3cffe06c	0.031234942
65	0xbd48c4a0	-0.04901564
66	0xba3b5f80	-0.00071477145
67	0xbd50bc40	-0.05096078
68	0x3d48a4b6	0.048985206
69	0xbc317658	-0.010831438
70	0xbd197024	-0.03746046
71	0x3d246aea	0.040141024
72	0xbce96ca4	-0.028494187
73	0x37e84000	2.7686357e-05
74	0x3ac75300	0.0015207231
75	0xbbdbb010	-0.006704338
76	0xbd4a21ec	-0.049348757
77	0xbc03bfa8	-0.0080413
78	0xbd0b0a02	-0.03394509
79	0xbd00d904	-0.031456962
80	0xbc415b10	-0.011801496
81	0xbd3eabe8	-0.04655066
82	0x3d1fddd2	0.039029904
83	0x3ca61bd4	0.020276941
84	0xbd37ab32	-0.044841
85	0x3cdd3864	0.027004428
86	0x3d229fea	0.039703287
87	0xbbb34310	-0.005470641
88	0x3d4580ec	0.048218653
89	0xbd2dde32	-0.04244823
90	0xbd3e4d86	-0.04646065
91	0x3d6146f4	0.054999307
92	0x3d1490c2	0.036270864
93	0x3d323628	0.04350868
94	0x3d27afa4	0.04093899
95	0xbd1f9b1c	-0.038966283
96	0xbd16fa74	-0.036859944
97	0xbd084834	-0.033271983
98	0x3d0342fa	0.032046296
99	0x3d364224	0.04449667
100	0x3d6fcb8c	0.058543727
101	0x3c87a7f4	0.016559578
102	0xbc12d270	-0.008961305
103	0x3c605048	0.013691016
104	0x3c405d80	0.011741042
105	0xbd6e4ad2	-0.058176823
106	0xbd0073a2	-0.031360276
107	0xbb32cf40	-0.0027284175
108	0x3d7a5070	0.061111867
109	0xbd7bdae6	-0.061488055
110	0xbc9dd188	-0.019264951
111	0xbd0ba344	-0.03409125
112	0x3d1f4b44	0.03889014
113	0x3baf0a80	0.005341828
114	0xbd27c9ba	-0.040963866
115	0xbd64a040	-0.05581689
116	0xbd5ae6ae	-0.05344265
117	0x3babf1d0	0.005247332
118	0x3d572a5c	0.05253063
119	0xbc851cd8	-0.016249105
120	0x3bea9760	0.0071591586
121	0xbc2535a8	-0.010083593
122	0xbd1e8f38	-0.038710803
123	0xbd55691e	-0.0521022
124	0xbd702286	-0.058626674
125	0x3d3c0956	0.04590734
126	0x3cda5500	0.02665186
127	0xbc901de4	-0.017592378
128	0x3b998e00	0.004686117
129	0xbc46c588	-0.012132056
130	0xbcd118a0	-0.025524437
131	0x3d33f63c	0.043936
132	0xbd7d0778	-0.0617747
133	0x3d6762f0	0.05649084
134	0xbce624a4	-0.028093643
135	0xbd403226	-0.046922825
136	0xbca824ac	-0.020525299
137	0x3cce1110	0.02515462
138	0x3cb107ac	0.021610104
139	0xbca5de4c	-0.020247601
140	0xbd4a183c	-0.049339518
141	0x3b8fd410	0.0043892935
142	0x3c850294	0.01623658
143	0x3d72e01c	0.05929576
144	0xbcc55450	-0.024088055
145	0x3c82b8a4	0.015957184
146	0x3c875ff8	0.016525254
147	0x3c9dc278	0.019257769
148	0x3d1a9ce0	0.037747264
149	0xbd59558c	-0.0530601
150	0x3c56fff0	0.013122544
151	0x3ca314d4	0.019907393
152	0xbcfd80d8	-0.030945227
153	0x3c3759d0	0.011190847
154	0xbd3c1bec	-0.045925066
155	0x3bb9e340	0.0056728423
156	0x3d407d56	0.04699453
157	0x3d56c362	0.052432425
158	0xbd05ad06	-0.03263571
159	0xbc7f54b0	-0.015584156
160	0xbc8aa67c	-0.016925089
161	0x3cc6fa90	0.0242894
162	0xbc697560	-0.014249176
163	0xbcbfd1ec	-0.023415528
164	0xbc79f0c8	-0.015255161
165	0xbcac9d08	-0.021070972
166	0xbba5a570	-0.005055122
167	0xbba2cc80	-0.004968226
168	0xbc5cc188	-0.013473876
169	0xbd53f6f6	-0.051749192
170	0xbd76b320	-0.06022942
171	0xbc3fc200	-0.011703968
172	0x3b79e960	0.0038133487
173	0x3ce5022c	0.027955137
174	0xbae6ee40	-0.0017618611
175	0x3c909108	0.017647281
176	0xbc5217f8	-0.012823097
177	0x3c507de8	0.012725331
178	0xbd2f6068	-0.04281655
179	0xbd6d8832	-0.057991214
180	0xbc0cadb0	-0.008586332
181	0xbd78ae48	-0.060713083
182	0xbc2ae6b0	-0.010430977
183	0xbc62e638	-0.013848834
184	0xbc091180	-0.008365989
185	0x3ced4154	0.028961815
186	0x3d2251a6	0.039628647
187	0xbd2b3eac	-0.041807815
188	0xbcac0da4	-0.021002598
189	0xbc891f38	-0.01673852
190	0x3d1d4622	0.038396962
191	0xbcda9a7c	-0.026684992
192	0x3bfe3bc0	0.0077585876
193	0x3ca35004	0.019935615
194	0xbd005936	-0.03133508
195	0xbd7ef1c8	-0.0622423
196	0x3b55c660	0.0032619461
197	0xbd4d70f8	-0.050156564
198	0xbc8ab450	-0.016931683
199	0x3d110f1e	0.035414807
200	0xbd3ca4c4	-0.04605557
201	0xbbc5e3a0	-0.006039098
202	0x3d6777b6	0.05651065
203	0xbc611fd0	-0.013740495
204	0x3c9fe0b0	0.019516319
205	0xbc9b0c50	-0.01892677
206	0x3d1d86a8	0.038458496
207	0xbb172440	-0.0023062378
208	0xbd7d9e78	-0.061918706
209	0x3d22e6b4	0.039770797
210	0xbd29cc54	-0.041454628
211	0x3c687a58	0.014189325
212	0x3cda4d0c	0.026648067
213	0xbd5b1bdc	-0.053493366
214	0xbd712de6	-0.058881663
215	0xbd6155c0	-0.05501342
216	0x3c684760	0.014177173
217	0x3d210a4e	0.039316468
218	0xbd4526c8	-0.048132688
219	0x3d76a8a6	0.06021943
220	0x3d44f642	0.048086412
221	0xbd67d2ea	-0.056597628
222	0xbc96567c	-0.018351786
223	0x3c47cf20	0.012195379
224	0x3d26071a	0.040534116
225	0xbd6dca38	-0.05805418
226	0xbd25c810	-0.040473998
227	0xbcc54138	-0.02407895
228	0x3c3f62e8	0.011681296
229	0x3d3aec20	0.045635343
230	0x3c9b87e4	0.018985696
231	0x3a535d00	0.00080628693
232	0xbd711228	-0.058855206
233	0x3c3104b0	0.01080434
234	0x3d283ce8	0.04107371
235	0x3b56de40	0.003278628
236	0xbd0fd0f2	-0.035111375
237	0x3d79bca4	0.060970917
238	0xbd28b9ae	-0.041192703
239	0xbc817344	-0.015802033
240	0xbd5ef9ea	-0.054437555
241	0x3cf65570	0.030070037
242	0xbb1463e0	-0.0022642538
243	0x3d4bc654	0.049749687
244	0xbd5d834a	-0.054080285
245	0xbce24224	-0.027619429
246	0x3d5b0b6c	0.05347769
247	0x3d149566	0.03627529
248	0x3c87983c	0.016552083
249	0x3bb61050	0.005556144
250	0xbd52a766	-0.051429175
251	0x3c1b1e38	0.009467654
252	0xbc0dde20	-0.008658916
253	0xbd3cf984	-0.046136394
254	0xbd4fe8ba	-0.050759055
255	0xbd148fd4	-0.036269978

actor_layer.2.bias f4 [83]
0	0xbd0bafde	-0.034103267
1	0x3c98c930	0.018650621
2	0xbb4a73c0	-0.0030891746
3	0x3d7c23b6	0.061557494
4	0xbd653062	-0.055954345
5	0x3d4ef792	0.05052907
6	0xbc182f08	-0.009288557
7	0x3cad9c38	0.021192655
8	0x3c99435c	0.018708877
9	0xbd5f19c0	-0.054467916
10	0xbcf50788	-0.029910818
11	0xbc41cff8	-0.011829369
12	0xbd349722	-0.044089444
13	0xbd279386	-0.040912174
14	0xbcc981e8	-0.024598077
15	0x3d57b0fa	0.052659012
16	0x3d709b44	0.058741823
17	0x3cb83fdc	0.022491388
18	0xbd0dfad0	-0.03466302
19	0xbcdc910c	-0.026924632
20	0xbd2e9854	-0.04262574
21	0x3cd67f14	0.026183642
22	0x3bcf0c90	0.0063186362
23	0x3bca5fa0	0.00617595
24	0x3d67263c	0.056432948
25	0x3d643ac6	0.055720113
26	0x3d2df65e	0.042471282
27	0x3cfe7724	0.03106267
28	0x3caf0c78	0.02136825
29	0xbd12e66c	-0.03586428
30	0xbd721f3e	-0.059111826
31	0xbbe7e480	-0.0070768
32	0x3d365b8c	0.0445209
33	0xbd60fe5c	-0.054930076
34	0xbccacee8	-0.024756864
35	0xbd50676a	-0.050879873
36	0xb9639e00	-0.00021707267
37	0xbd18c296	-0.037294947
38	0x3cc83890	0.024441034
39	0xbd2b50e0	-0.041825175
40	0x3c8b5d4c	0.01701226
41	0xbd507182	-0.0508895
42	0x3c48f5e8	0.01226566
43	0xbbb23770	-0.0054387376
44	0x3d2a91d0	0.041642964
45	0x3cf08f68	0.029365256
46	0x3cdf775c	0.027278595
47	0xbd790246	-0.060793184
48	0x3d19e5d4	0.037572697
49	0xbcc52708	-0.024066463
50	0x3d58d786	0.052939914
51	0xbc8b4880	-0.017002344
52	0x3d198258	0.03747782
53	0xbd7afa7a	-0.06127403
54	0x3d777930	0.060418308
55	0xbd660e7e	-0.056166165
56	0x3b296b60	0.0025851354
57	0x3c803f44	0.015655167
58	0x3c97fdac	0.018553577
59	0x3b93ad70	0.0045067593
60	0xbd16022a	-0.036623158
61	0xb8c67000	-9.462237e-05
62	0x3a5b2c00	0.00083607435
63	0x3d6af5ae	0.057363205
64	0x3d4f7156	0.050645195
65	0x3cc9c7d0	0.02463141
66	0xbd54e75c	-0.051978454
67	0xbce532ac	-0.027978264
68	0xbcdeefb8	-0.027213916
69	0x3d7de0ae	0.06198185
70	0x3d29a1d2	0.04141409
71	0xbd26fcbe	-0.040768377
72	0x3d644b2a	0.055735745
73	0xbbda7380	-0.0066666007
74	0x3b4f0320	0.0031587556
75	0xbd20e87a	-0.039284207
76	0x3d6d081e	0.05786907
77	0xbb053a20	-0.0020328835
78	0xbc1a79c0	-0.0094284415
79	0x3c8ddbb0	0.01731667
80	0xbcb5d248	-0.022194996
81	0x3d06f676	0.032949887
82	0xbc5c0388	-0.013428576
