model/ckpt/Dense_DatabaseTechnologyAndApplication_binn_policy.pt (torch, 538358 bytes, 6 tensors)

obs_layer.weight f4 [256, 132]
0	0x3d81a4e5	0.06330279
1	0x3b5dad7e	0.0033825333
2	0xbd39a323	-0.045321595
3	0xbcff028a	-0.03112914
4	0xbd2e5edb	-0.04257093
5	0x3c02bede	0.007980077
6	0xbd72c1b7	-0.059266772
7	0x3d818312	0.06323828
8	0xbceae90b	-0.028675577
9	0x3ca9b78b	0.020717403
10	0xbd2456e7	-0.04012194
11	0x3dabcd4b	0.08388766
12	0xbd358212	-0.044313498
13	0xbd0700e6	-0.03295984
14	0x3cabbb4b	0.020963332
15	0x3d0ea1a3	0.034822118
16	0x3ccee7fb	0.025257101
17	0xbcccb002	-0.02498627
18	0xbd8b3373	-0.067969225
19	0xbd8324bb	-0.0640349
20	0x3cf41efd	0.029799933
21	0xbcac6f92	-0.021049295
22	0x3da222a0	0.079167604
23	0xbd9dcd1f	-0.07705139
24	0xbd9cdd6d	-0.07659421
25	0xbda056ad	-0.07829032
26	0xbc5eae41	-0.01359135
27	0xbdac1b7e	-0.08403681
28	0x3d963e48	0.07336098
29	0x3d196286	0.037447475
30	0x3badbd04	0.0053020734
31	0xbd9229f0	-0.07136905
32	0x3d04360a	0.0322781
33	0xbc8819b5	-0.01661382
34	0x3d85b4ce	0.065286264
35	0x3c81d146	0.01584686
36	0x3d41838b	0.04724459
37	0xbdaaffa7	-0.08349543
38	0xbd834351	-0.06409324
39	0xbda3cbff	-0.079978935
40	0x3d1f6e6c	0.038923666
41	0x3d26c95b	0.04071937
42	0xbd33dedf	-0.04391372
43	0xbd85a6fe	-0.06525992
44	0xbd641832	-0.055687137
45	0xbd872e77	-0.06600659
46	0xbb9f1fbd	-0.0048560784
47	0x3cfe10e0	0.031013906
48	0x3d360717	0.044440355
49	0x3d3f9018	0.046768278
50	0xbd635f0b	-0.055510562
51	0x3d1a663f	0.037695166
52	0x3cd0a814	0.02547077
53	0xbd9f4864	-0.07777479
54	0x3d96daf0	0.07365978
55	0xbc422c02	-0.011851313
56	0x3c17ceed	0.009265644
57	0xbc26f9f2	-0.010191428
58	0xbd512e37	-0.051069465
59	0x3d67f261	0.056627635
60	0xbd132aee	-0.035929613
61	0xbd675c74	-0.056484655
62	0x3d73fcf8	0.05956742
63	0xbb13ec55	-0.0022571285
64	0xbd6f6d0f	-0.058453616
65	0xbd2ef1c9	-0.042711053
66	0x3d8a3225	0.067478456
67	0xbc01a6d2	-0.007913308
68	0xbcc6fbff	-0.024290083
69	0xbd8390d7	-0.064241104
70	0xbd0d2a2f	-0.034464058
71	0xbd54abf1	-0.05192179
72	0xbd335250	-0.04377967
73	0x3d9ba8d4	0.07600561
74	0x3d73a83f	0.059486624
75	0x3d5ccdbc	0.05390714
76	0x3cc1a1f1	0.02363679
77	0xbd02da2d	-0.03194635
78	0x3d359cb2	0.04433889
79	0xbc929fb7	-0.017898424
80	0xbd816355	-0.06317774
81	0x3dabe87c	0.08393952
82	0xbda1c62f	-0.07899129
83	0x3d60581b	0.054771524
84	0x3d05e892	0.0326925
85	0xbda16bd3	-0.07881894
86	0xbd01f1c9	-0.031724725
87	0x3d12002f	0.035644706
88	0x3d819611	0.06327451
89	0xbcb3bf46	-0.021941792
90	0x3d4f0702	0.050543793
91	0xbd65e6f0	-0.056128442
92	0x3bb8bc8c	0.005637711
93	0x3d46f57e	0.048573963
94	0xbd5e4887	-0.054268386
95	0x3dadb0b6	0.084809706
96	0x3d6dab87	0.05802491
97	0x3c8d3e1b	0.017241528
98	0x3b088993	0.0020833954
99	0x3d5b0bc4	0.053478017
100	0x3d110fbd	0.0354154
101	0x3d9507d4	0.07276884
102	0x3c1b1933	0.009466457
103	0xbda4a6a4	-0.08039597
104	0x3c3a50f9	0.011371844
105	0x3da20541	0.07911158
106	0xbacbb6e2	-0.0015542174
107	0x3da03c85	0.07824043
108	0xbd172baf	-0.036906894
109	0x3b2d4ea7	0.0026444586
110	0x3d867a58	0.06566304
111	0x3a169e34	0.000574562
112	0xbdb1b196	-0.0867645
113	0x3d9674be	0.073464856
114	0x3d82c4cb	0.063851915
115	0x3dadd97d	0.08488748
116	0xbd158061	-0.036499385
117	0x3d9d102d	0.07669101
118	0xbd951dea	-0.07281096
119	0x3d3729fc	0.044717774
120	0xbb52b72f	-0.0032152643
121	0x3d6e4163	0.058167826
122	0x3c0e3657	0.008679948
123	0x3c5a904d	0.013340068
124	0xbdadab80	-0.08479977
125	0x3d88e72d	0.06684718
126	0xbb3737a9	-0.002795676
127	0xbc273eec	-0.010207873
128	0xbbdbb3e2	-0.0067047933
129	0xbd552b9b	-0.05204354
130	0x3ac166d2	0.0014755374
131	0xbd408418	-0.047000974
132	0x3dae9382	0.08524229
133	0xbcb37055	-0.02190415
134	0x3c2b711d	0.01046398
135	0x3d6f634a	0.0584443
136	0xbcfb1d8d	-0.03065374
137	0x3d61fed2	0.055174656
138	0xbc3022ba	-0.010750467
139	0x3d4552e9	0.048174772
140	0xbd973dc3	-0.07384827
141	0x3c6d2d8c	0.014476191
142	0xbd67d2c9	-0.056597505
143	0x3d09195d	0.033471454
144	0x3d1b6706	0.037940048
145	0xbd6a140f	-0.057148036
146	0xbd520753	-0.051276516
147	0x3ce783f0	0.028261155
148	0xbd20e170	-0.039277494
149	0xbd6f3184	-0.05839683
150	0xbd98a9ad	-0.07454238
151	0xbd025c57	-0.031826343
152	0x3d528f42	0.051406153
153	0xbbf53be4	-0.007483946
154	0x3c267f91	0.01016225
155	0xbda31507	-0.07962995
156	0xbd9d4d77	-0.07680791
157	0xbc9ad8a3	-0.018902129
158	0x3d7790fd	0.060441006
159	0xbd7dc90f	-0.061959323
160	0x3c551f98	0.013008021
161	0x3caf428f	0.021394042
162	0xbd0f1cc1	-0.03493953
163	0x3c9b09c0	0.018925548
164	0xbd6a0dfa	-0.057142235
165	0x3d428306	0.047488235
166	0xbccc89cc	-0.02496805
167	0x3d485b94	0.04891546
168	0xbcce307b	-0.025169602
169	0xbd34ee93	-0.044172835
170	0x3d25f752	0.040519066
171	0xbd81d444	-0.063393146
172	0xbd3830cc	-0.04496841
173	0x3cf37929	0.02972086
174	0x3d861914	0.06547752
175	0x3d8aa195	0.067691006
176	0x3d8c8475	0.06861202
177	0xbda8e3a6	-0.082465455
178	0x3db1f62f	0.08689534
179	0xbc471f29	-0.012153425
180	0xbc8933a1	-0.016748251
181	0xbd9ea7f0	-0.07746875
182	0x3d901ea0	0.07037091
183	0x3c6339f7	0.0138688
184	0x3db20c7d	0.08693788
185	0xbd8e01cf	-0.06933939
186	0x3cf04b8b	0.029332897
187	0xbd1f05e3	-0.038823973
188	0xbd272295	-0.040804464
189	0x3cec9a1b	0.028882077
190	0x3d8ca90b	0.0686818
191	0x3d206ee2	0.039168246
192	0xbb9fbed9	-0.0048750457
193	0xbb8d3445	-0.0043092095
194	0xbcef647a	-0.029222716
195	0x3d8e3bd4	0.06945005
196	0xbd4c4008	-0.049865752
197	0xbb7f8ee9	-0.0038995093
198	0x3d4fa972	0.050698705
199	0xbd72f21b	-0.05931292
200	0x3cf062b7	0.029343946
201	0xbd706b31	-0.058695976
202	0x3d228745	0.039679784
203	0xbc0a7ca8	-0.008452572
204	0x3d53a2a0	0.051668763
205	0x3d1a8b88	0.037730724
206	0xbd530cb3	-0.051525783
207	0x3cf2b415	0.029626885
208	0x3c9eca92	0.019383702
209	0xbb86fef1	-0.004119747
210	0xbd7953d9	-0.06087098
211	0x3d2ac847	0.041694906
212	0x3c35f67c	0.01110613
213	0x3cebec3e	0.028799172
214	0x3d00108c	0.03126578
215	0x3d074bf0	0.033031404
216	0x3d393a97	0.04522189
217	0xbd9fb5ae	-0.077983245
218	0xbcb9a6fd	-0.022662634
219	0x3d9d746f	0.076882236
220	0xbcab3145	-0.020897517
221	0xbd7227a8	-0.05911985
222	0x3dab1179	0.08352942
223	0xbd003ec9	-0.031309877
224	0xbcb8b57a	-0.022547472
225	0xbc8e7a57	-0.01739232
226	0x3d6046d9	0.054755066
227	0x3cd12ac4	0.025533088
228	0xbb16131d	-0.0022899576
229	0x3d16afb8	0.036788672
230	0xbd284613	-0.041082453
231	0xbcdf2fec	-0.02724453
232	0x3b992635	0.004673744
233	0x3d0894e1	0.033345107
234	0xbce65521	-0.028116765
235	0x3cb2efbb	0.021842828
236	0xbd0cd877	-0.034386124
237	0xbd96466b	-0.0733765
238	0x3da48209	0.08032615
239	0x3cca1339	0.02466737
240	0x3d95bb4d	0.073111154
241	0x3d7477cd	0.059684563
242	0xbcf581e4	-0.029969163
243	0x3bcfa9ed	0.0063373954
244	0xbda3dce7	-0.08001118
245	0x3da0b76c	0.07847485
246	0x3cfed257	0.031106157
247	0xbb683358	-0.0035430994
248	0x3d2b1e1f	0.041776773
249	0xbd3ca834	-0.04605885
250	0x3d455649	0.04817799
251	0x3d1e4a07	0.038644817
252	0x3cdac444	0.026704915
253	0x3ba05bdd	0.0048937635
254	0x3d04696d	0.032327104
255	0xbda44666	-0.0802124

obs_layer.bias f4 [256]
0	0x3c10dd55	0.008841832
1	0xbd97c52a	-0.07410653
2	0xbd975676	-0.07389538
3	0x3d697492	0.056995936
4	0x3d32011d	0.043458093
5	0x3d74f5e3	0.05980481
6	0x3c2c7c04	0.0105276145
7	0xbbe2994b	-0.0069152466
8	0x3c28e1ab	0.01030771
9	0x3d2bb5d4	0.04192145
10	0x3b50022f	0.0031739583
11	0x3dad4055	0.08459536
12	0xbd2a8ea9	-0.041639958
13	0xbd067268	-0.03282395
14	0x3da9992d	0.08281169
15	0x3d4da116	0.05020245
16	0xbcd82bca	-0.026388068
17	0x3d50feff	0.051024433
18	0xbc95ed5c	-0.018301658
19	0x3d389a73	0.04506917
20	0x3d9a9911	0.07548726
21	0x3d939547	0.07206207
22	0x3daaade1	0.08333946
23	0xbd6b1012	-0.057388373
24	0xbd735ac3	-0.05941273
25	0x3d19f553	0.037587475
26	0xbda7fd8a	-0.082026556
27	0x3d648810	0.05579382
28	0xbd5e9127	-0.054337647
29	0x3d3d75a9	0.046254788
30	0x3d3a1c2a	0.045437016
31	0x3d38c527	0.045109894
32	0x3d6b302a	0.05741898
33	0x3ce270cc	0.027641676
34	0x3b918e05	0.004441979
35	0x3ab4f855	0.0013806919
36	0xbd957400	-0.07297516
37	0x3d2bc0b3	0.04193182
38	0xbc9acadd	-0.01889556
39	0xbd2573f2	-0.040393777
40	0xbd4d23f7	-0.050083127
41	0xbd6a8ee4	-0.057265177
42	0xbc1af958	-0.009458862
43	0x3d81f023	0.063446306
44	0x3d9dd99c	0.07707521
45	0x3cf47344	0.02984012
46	0xbd8f7842	-0.07005359
47	0x3d401b98	0.046901315
48	0xbc400b9f	-0.011721521
49	0x3b17bfb1	0.0023155028
50	0xbda5ce37	-0.08095973
51	0x3db0d5d1	0.08634532
52	0xbcca46bb	-0.02469193
53	0x3c3682a9	0.01113955
54	0x3d7ef8f1	0.062249128
55	0xbcc8828a	-0.024476308
56	0x3d0087bf	0.031379458
57	0x3d4fbb29	0.0507156
58	0x3d4433e6	0.047901057
59	0xbd2f1186	-0.04274132
60	0x3c638077	0.013885609
61	0xbd1c19c2	-0.038110502
62	0xbd5e412d	-0.054261375
63	0x3d6115b2	0.05495233
64	0xbd8fa990	-0.07014763
65	0x3bd1d194	0.0064031575
66	0xbda6acd8	-0.08138436
67	0x3d894ba5	0.06703881
68	0xbda708da	-0.08155985
69	0xbd99a9b9	-0.07503075
70	0x3dac2df7	0.084072046
71	0x3d0d8868	0.034553915
72	0x3dad7e47	0.08471351
73	0xbcc8630e	-0.024461295
74	0xbbae88dc	-0.0053263735
75	0x3cc450c9	0.023964303
76	0xbcad7c0b	-0.021177312
77	0xbd9b35de	-0.07578634
78	0xbd765890	-0.060143054
79	0xbd318aa5	-0.043345112
80	0xbc7bd50d	-0.0153706195
81	0x3da63271	0.0811509
82	0xbd386822	-0.045021184
83	0x3cce9e96	0.025222104
84	0x3d5a80cf	0.053345498
85	0xbd88bfa6	-0.06677179
86	0x3da8acd3	0.082360886
87	0x3d337849	0.043815885
88	0xbcc0b6b8	-0.023524627
89	0xbd7e9773	-0.062156152
90	0x3d0bffad	0.03417938
91	0xbd738b33	-0.059458923
92	0x3d9671c9	0.073459215
93	0xbc778e04	-0.015109543
94	0x3dac8ab7	0.08424895
95	0x3d25a224	0.040437832
96	0xbcf38fe6	-0.029731702
97	0x3d288291	0.041140143
98	0xbd43e1e0	-0.047822833
99	0xbcce300c	-0.025169395
100	0x3d48c544	0.049016252
101	0x3ccbc549	0.024874346
102	0x3ce91167	0.02845068
103	0x3d436b3e	0.047709696
104	0x3d8aca99	0.06776924
105	0x3d9918d3	0.07475438
106	0xbd5a4e22	-0.05329717
107	0xbd5de76d	-0.054175783
108	0x3cb01426	0.021493983
109	0xbd847ac2	-0.06468727
110	0x3cc9cf71	0.024635049
111	0x3bb2c23b	0.005455283
112	0x3d33f137	0.043931212
113	0xbd461bdf	-0.048366424
114	0x3d9b1015	0.07571427
115	0x3d7bd247	0.061479833
116	0xb61022e5	-2.1477983e-06
117	0xbd4e9b18	-0.050440878
118	0x3c14d4e6	0.009083962
119	0x3d85cfbf	0.06533765
120	0xbd97adb4	-0.07406178
121	0x3daba24a	0.083805636
122	0xbcbad193	-0.02280501
123	0x3d88cfad	0.06680236
124	0xbca27f9f	-0.019836245
125	0xbd2ecab8	-0.042673796
126	0x3cb1cddf	0.021704612
127	0x3c84b74d	0.016200686
128	0xbda0c22b	-0.078495346
129	0xbcf42ea3	-0.029807394
130	0xbc043a24	-0.008070502
131	0xbcd4b974	-0.025967337
132	0x3da0e396	0.078559086
133	0xbbcd0427	-0.0062565985
134	0xbc22e6b2	-0.009942697
135	0xbc129fe3	-0.008949253
136	0xbcce6218	-0.02519326
137	0xbca03280	-0.01955533
138	0xbd5aae63	-0.053388964
139	0xbd451631	-0.048116866
140	0xbce1487f	-0.02750039
141	0xbd2670c8	-0.0406349
142	0xbcb5c882	-0.022190336
143	0xbd137a9e	-0.03600561
144	0xba89c370	-0.0010510515
145	0xbd0607c9	-0.03272227
146	0x3d1363e9	0.035983954
147	0xbcc66f9b	-0.02422314
148	0x3cf87df6	0.0303335
149	0xbcfe91e4	-0.031075425
150	0x3d3af21e	0.045641057
151	0x3b08e287	0.0020886974
152	0xbc151e89	-0.009101518
153	0xbda56833	-0.08076515
154	0xbd3789a6	-0.044809006
155	0xbca20598	-0.019778058
156	0xbd0c36db	-0.034232
157	0x3dad1e00	0.08452988
158	0xba468be4	-0.0007573946
159	0x3d07b011	0.033126894
160	0x3c862cda	0.016378809
161	0x3d8331c8	0.064059794
162	0xbc0b5f91	-0.0085066715
163	0x3d37425d	0.044741023
164	0xbd5dfc21	-0.054195527
165	0x3cc4eeea	0.024039704
166	0xbc91f339	-0.017816173
167	0xbd1fa47c	-0.038975224
168	0x3db1b82c	0.08677706
169	0x3d66f7dc	0.05638872
170	0xbcaf129a	-0.021371175
171	0xbcdc2b90	-0.026876241
172	0xbd6e1473	-0.05812497
173	0xbccf88f5	-0.02533386
174	0xbcd48a20	-0.02594477
175	0x3d8905c3	0.06690552
176	0x3d3c2e27	0.04594245
177	0xbb0e4acb	-0.002171206
178	0x3c9b0efe	0.018928047
179	0x3aea965b	0.0017897593
180	0xbd7dd262	-0.061968215
181	0x3c9f4990	0.019444257
182	0x3d31bfcd	0.043395806
183	0x3a52f7f1	0.00080478104
184	0xbd86e8ca	-0.0658737
185	0x3c50d9dd	0.012747255
186	0x3d81b215	0.063327946
187	0xbcc2f090	-0.02379635
188	0x3d1de82f	0.038551506
189	0xbcd6f6ee	-0.026240792
190	0x3cfc6847	0.030811442
191	0x3c82a7c8	0.015949145
192	0x3d21356b	0.039357584
193	0x3c6da39e	0.014504341
194	0xbda06fd0	-0.078338265
195	0x3c882a12	0.016621623
196	0x3d8ced5f	0.068812124
197	0xbd5e0112	-0.05420024
198	0x3c692c25	0.014231716
199	0x3d300993	0.04297788
200	0xbb9ff808	-0.0048818626
201	0x3ce3e780	0.027820349
202	0xbc0d1026	-0.008609807
203	0x3d95d009	0.0731507
204	0xbce20cf1	-0.027594062
205	0xbd9fa91e	-0.077959284
206	0xbd48f025	-0.049057145
207	0xbd68c676	-0.056829892
208	0x3bfad41d	0.0076546804
209	0x3d0d65d1	0.034520928
210	0xb992f018	-0.00028026174
211	0x3d3ce06c	0.046112463
212	0x3d945585	0.07242874
213	0xbcf25199	-0.029579924
214	0xbd733298	-0.05937442
215	0xbc9a7944	-0.018856652
216	0x3d610b19	0.054942224
217	0xbd4973bc	-0.04918264
218	0x3d8a8a6f	0.06764685
219	0x3d4728e3	0.048622977
220	0x3d6d7da8	0.057981163
221	0xbda0a621	-0.078441866
222	0xbcd2065e	-0.025637802
223	0x3d635752	0.055503197
224	0x3d45e964	0.04831828
225	0x3d1fdf87	0.03903153
226	0x3ce0d23b	0.027443996
227	0x3d247753	0.04015286
228	0x3da1a096	0.078919575
229	0xbd74b200	-0.059740067
230	0x3d3a24e4	0.045445338
231	0xbcef9369	-0.029245095
232	0xbd8c8cc1	-0.06862784
233	0x3d489d5f	0.048978206
234	0x3d9e11e7	0.07718258
235	0x3d6b8ff9	0.05751035
236	0xbc9a660d	-0.01884749
237	0x3d9bbebd	0.0760474
238	0xbc8ad174	-0.016945578
239	0x3c375d2c	0.0111916475
240	0x3da35690	0.07975495
241	0x3d2df15c	0.042466506
242	0x3c8f1f47	0.017470969
243	0x3d6aa1c2	0.05728317
244	0xbd463766	-0.048392676
245	0xbcc9540b	-0.024576208
246	0xbbdbc097	-0.006706308
247	0x3d8b2674	0.06794444
248	0x3d00a65a	0.031408645
249	0xbd6bd29f	-0.05757391
250	0x3d6bdd35	0.057584006
251	0xbdaf5206	-0.085605666
252	0x3da46361	0.080267675
253	0xbd700999	-0.058602903
254	0xbda314ee	-0.079629764
255	0xbc8e0fd9	-0.017341541

actor_layer.0.weight f4 [256, 256]
0	0xbd504ce8	-0.050854594
1	0x3d7a1a24	0.061060086
2	0xbd03671e	-0.032080762
3	0x3d733098	0.059372514
4	0xbac459c0	-0.0014980361
5	0xbd0b239a	-0.0339695
6	0xba2c3a80	-0.00065699965
7	0x3c811e24	0.015761442
8	0x3d736d08	0.059430152
9	0x3d7c6470	0.061619222
10	0xbd1c68c2	-0.038185842
11	0xbbcc37e0	-0.0062322468
12	0x3d7de0aa	0.061981834
13	0x3d588d64	0.052869216
14	0xbd57edcc	-0.052717015
15	0xbd70f4f8	-0.05882737
16	0x3b844d80	0.004037559
17	0x3d67da0c	0.05660443
18	0xbceb91e4	-0.02875609
19	0xbd31f71c	-0.043448552
20	0x3d613f54	0.054992035
21	0x3c225c40	0.009909689
22	0x3d4d5566	0.05013027
23	0xbd03080e	-0.031990103
24	0x3d66284e	0.05619078
25	0xbbaabdf0	-0.0052106306
26	0xbd7a7636	-0.06114789
27	0x3c538208	0.01290942
28	0x3d7bb61c	0.06145297
29	0xbd3f464a	-0.046697892
30	0xbc5908b8	-0.013246708
31	0x3d6963be	0.056979887
32	0xbd6298dc	-0.05532156
33	0xbc9a8784	-0.018863447
34	0xbd0c73b8	-0.034290045
35	0x3d580b5e	0.052745216
36	0xbd0fe282	-0.035128124
37	0xbcb34754	-0.021884598
38	0xbd19e96e	-0.03757613
39	0xbaa5cfc0	-0.0012650415
40	0x3ca56490	0.020189553
41	0x3d30affc	0.04313658
42	0xbd076f9a	-0.033065416
43	0xbc7e8cf0	-0.015536532
44	0xbceab228	-0.028649405
45	0xbd2f0184	-0.042726055
46	0xbb62ede0	-0.0034626648
47	0x3c851e18	0.016249701
48	0x3b952c80	0.004552424
49	0x3c934050	0.017975003
50	0xbcf57b34	-0.029965974
51	0x3d6ba294	0.057528093
52	0xbcff0ec8	-0.031134978
53	0xbd18f90a	-0.037346877
54	0xbcc65478	-0.0242102
55	0xbc9c9214	-0.019112624
56	0x3d7b8742	0.06140829
57	0xbb901ee0	-0.004398212
58	0xbd41199c	-0.047143564
59	0x3d409c7a	0.047024228
60	0x3d76c7e4	0.060249224
61	0x3d0d1916	0.034447752
62	0x3d2b90b2	0.04188604
63	0xbc938cdc	-0.018011503
64	0xbbf21090	-0.0073872283
65	0xbc608458	-0.013703428
66	0x3d710022	0.058838017
67	0xbd21335c	-0.03935562
68	0x3cd6b594	0.02620963
69	0xbd1abb2a	-0.03777615
70	0xbd5f6ede	-0.05454909
71	0xbc94c600	-0.01816082
72	0xbd581d58	-0.05276236
73	0xbd2b1fb4	-0.04177828
74	0x3d7f0e86	0.06226971
75	0xbcfa6700	-0.030566692
76	0xbd1f1c0a	-0.0388451
77	0xbd2579b4	-0.04039927
78	0x3cf5e7b4	0.030017711
79	0xbca169f0	-0.019703835
80	0x3d1246dc	0.035712108
81	0xbb89ea40	-0.004208833
82	0x3d399764	0.045310393
83	0xbd2f7738	-0.042838305
84	0x3d18febe	0.037352316
85	0xbd169766	-0.03676548
86	0xbd19d5b2	-0.03755731
87	0xbcb3aa48	-0.021931782
88	0x3d2508e4	0.040291682
89	0x3c6d5900	0.014486551
90	0x3cb445d0	0.022005945
91	0x3cbc7fc4	0.023010142
92	0x3cadee64	0.021231838
93	0x3b1869a0	0.0023256317
94	0xbd461186	-0.048356555
95	0x3d662bb4	0.056194022
96	0x3d6ecd8a	0.058301486
97	0x3cbebbfc	0.023282997
98	0xbd3b9694	-0.0457979
99	0x3d118734	0.03552933
100	0xbd0ab7c0	-0.033866644
101	0x3b996150	0.00468079
102	0xbd54b52a	-0.051930584
103	0x3cd05844	0.025432713
104	0xbd387dce	-0.04504185
105	0x3c2ac670	0.010423288
106	0x3d4c9d1e	0.049954526
107	0x3c52a498	0.012856625
108	0xbd0524b2	-0.0325057
109	0x3d58c7bc	0.052924857
110	0x3d79022a	0.06079308
111	0x3d62c7fc	0.0553665
112	0xbd54bb80	-0.051936626
113	0x3cdf2bd0	0.027242571
114	0xbc83e5b8	-0.01610075
115	0xbd0db2de	-0.03459441
116	0x3ca6fa64	0.020383067
117	0xbc332c38	-0.010935836
118	0xbca9446c	-0.020662509
119	0xbd6a32d2	-0.057177372
120	0xbc9ce800	-0.019153595
121	0x3d2fa84c	0.04288511
122	0xbb370d40	-0.0027931482
123	0x3d6abe02	0.05731011
124	0xbc02e5c8	-0.007989354
125	0xbc89caa0	-0.016820252
126	0x3d462a1a	0.048379995
127	0x3c2202f0	0.009888396
128	0x3d5e164a	0.054220475
129	0x3cd14644	0.0255462
130	0x3ba5d4e0	0.005060777
131	0x3d3ec588	0.0465751
132	0x3d5c5e58	0.05380091
133	0x3d3c93f2	0.04603953
134	0xbc8fecbc	-0.017568938
135	0xbd5caca4	-0.05387558
136	0x3c5d9a30	0.013525531
137	0xbb55dba0	-0.0032632127
138	0x3ceae63c	0.028674237
139	0x3ba79b20	0.005114928
140	0x3c896248	0.016770497
141	0x3d5ad314	0.053423956
142	0xbc55abf0	-0.013041481
143	0x3bc558f0	0.006022565
144	0x3c1ce3b0	0.009575769
145	0xbce3af28	-0.027793482
146	0x3d12888a	0.035774745
147	0x3cfa0f38	0.030524835
148	0xbc77f908	-0.015135057
149	0x3d65e6ea	0.05612842
150	0x3a6cbe80	0.0009031072
151	0x3d502e86	0.05082562
152	0x3cf5f9e8	0.030026391
153	0x3d180c84	0.03712131
154	0xbd68809c	-0.056763276
155	0x3d1b09d8	0.037851185
156	0xbc71a5f0	-0.014749035
157	0x3b5401a0	0.0032349601
158	0x3cec77cc	0.028865717
159	0x3d69d968	0.0570921
160	0xbafdde80	-0.0019368678
161	0x3ad7a400	0.0016452074
162	0xbc240f90	-0.010013476
163	0xbce246d8	-0.027621672
164	0x3d32f72c	0.043692753
165	0x3d1cc8c6	0.03827741
166	0xbd31b6a0	-0.043387055
167	0x3cb10878	0.021610484
168	0x3c26eb30	0.010187909
169	0x3bee6360	0.00727503
170	0x3cc386c8	0.02386798
171	0x3c769938	0.015051179
172	0x3c4c11c8	0.012455411
173	0xbd5db520	-0.054127812
174	0xbcfa9b40	-0.030591607
175	0x3ca82a2c	0.020527922
176	0xbcd557f0	-0.026042908
177	0xbd086742	-0.0333016
178	0xbc98f318	-0.018670604
179	0xbd095590	-0.033528864
180	0x3ba8cb70	0.0051512048
181	0xbd047794	-0.0323406
182	0x3ce8ee44	0.028433926
183	0x3c04b3c0	0.008099496
184	0x3d5f5832	0.05452747
185	0x3a186b00	0.0005814284
186	0xbd21ee70	-0.039534032
187	0x3ca652f4	0.020303227
188	0xbb96aab0	-0.0045979843
189	0x3d01d4b4	0.03169699
190	0xbd62a22c	-0.05533044
191	0xbd263d42	-0.040585764
192	0x3c8c2d90	0.01711157
193	0xbc9f8110	-0.019470721
194	0xbd2aa73e	-0.0416634
195	0x3d011c14	0.031520918
196	0xbd13114c	-0.035905167
197	0xbd318c34	-0.0433466
198	0xbd78ed6a	-0.06077329
199	0x3c85a250	0.016312748
200	0xbc6c6ed0	-0.014430717
201	0x3d3b8b28	0.045787007
202	0x3d1c3fe6	0.038146876
203	0x3d466c80	0.048443317
204	0x3d126764	0.035743132
205	0xbc0c8df8	-0.00857877
206	0xbcfeb0d8	-0.031090185
207	0xbcb4f938	-0.022091493
208	0x3d370e20	0.044691205
209	0xbd76dd54	-0.06026967
210	0x3bd2eea0	0.0064371377
211	0x3cbe1074	0.023201205
212	0xbc8470d4	-0.016167082
213	0xbd584e3c	-0.052808985
214	0xbb9b5f10	-0.004741557
215	0x3c82d53c	0.015970819
216	0xbcacd9d0	-0.021099955
217	0x3d7e8e4e	0.06214743
218	0x3d29f98e	0.04149776
219	0x3d6d0312	0.057864256
220	0x3d42f9ce	0.047601514
221	0xbd0041e2	-0.03131283
222	0x3d777d08	0.060421973
223	0x3d3850c6	0.044998907
224	0x3cc609a4	0.024174519
225	0x3c425b18	0.011862539
226	0xbce409f8	-0.027836785
227	0x3d2b54c4	0.041828886
228	0x3bd25310	0.006418593
229	0x3a8f43c0	0.0010930225
230	0x3c9a25f8	0.018816933
231	0x3d5341ea	0.051576532
232	0x3b37af20	0.0028027967
233	0xbd58cdf0	-0.052930772
234	0xbc2a9c50	-0.010413244
235	0x3ad4f7c0	0.0016248152
236	0xbce26514	-0.027636088
237	0xbc8b621c	-0.017014556
238	0x3b4d1d00	0.0031297803
239	0xbd3ca830	-0.046058834
240	0x3cda6a30	0.026661962
241	0xbd7d0e92	-0.061781473
242	0x3d230cdc	0.039807186
243	0xbd0de75c	-0.03464447
244	0x3d20f8d2	0.039299794
245	0xbd33c542	-0.04388929
246	0x3bafee40	0.005368978
247	0xbd7e1914	-0.062035635
248	0x3d7ce4b4	0.061741546
249	0x3d57515c	0.052567825
250	0xbc01abb8	-0.007914476
251	0x3d5b6878	0.053566426
252	0x3bca0070	0.006164603
253	0x3cfcf97c	0.030880682
254	0x3d70c48a	0.058781184
255	0x3c993508	0.018702045

actor_layer.0.bias f4 [256]
0	0xbd739d18	-0.05947599
1	0xbd679d28	-0.05654636
2	0x3c9254c8	0.017862692
3	0x3c9021c8	0.017594233
4	0xbced93d4	-0.029001154
5	0x3d4489dc	0.047983035
6	0x3cefebf4	0.029287316
7	0x3c175970	0.009237632
8	0x3d7e46ea	0.062079348
9	0xbcf6eea4	-0.03014309
10	0xbcf1d12c	-0.029518686
11	0x3bbc17d0	0.0057401434
12	0xbd444f40	-0.04792714
13	0xbcec5bc4	-0.028852351
14	0xbd24b714	-0.04021366
15	0x3d57c326	0.052676342
16	0x3c758d30	0.014987275
17	0x3d59236c	0.053012297
18	0xbd77da14	-0.06051071
19	0x3cba4050	0.022735745
20	0x3ccf00ec	0.025268994
21	0xbc327760	-0.010892719
22	0xbd46285e	-0.04837834
23	0xbd5fc4b2	-0.054630943
24	0x3d1fc342	0.03900457
25	0x3c863f34	0.01638756
26	0xbc8aad3c	-0.016928308
27	0x3cc68310	0.024232417
28	0xbcad1d6c	-0.021132194
29	0x3b93d290	0.004511185
30	0xbd72a182	-0.059236057
31	0x3c3970c0	0.011318386
32	0x3cb243f4	0.021760918
33	0x3c174750	0.009233311
34	0xbd0e5fc0	-0.034759283
35	0x3cc2b244	0.023766644
36	0x3d625cd8	0.055264324
37	0x3d2563ba	0.04037831
38	0x3d24bc2a	0.04021851
39	0xbd1b0ec8	-0.037855893
40	0xbd281114	-0.041031912
41	0x3d42d66e	0.047567777
42	0x3c584958	0.01320108
43	0xbcb84d84	-0.0224979
44	0xbcf29be0	-0.029615343
45	0xbc273af8	-0.01020693
46	0x3cb45f00	0.022017956
47	0x3d1186e8	0.035529047
48	0xbc512928	-0.01276616
49	0xbd37fc1e	-0.044918172
50	0x3d5c95ce	0.053853802
51	0xbcbf6918	-0.023365542
52	0xbc111498	-0.008855008
53	0xbcb97d2c	-0.022642694
54	0xbb7ad760	-0.0038275346
55	0x3bb7f2e0	0.0056136698
56	0x3cc30624	0.023806639
57	0x3d1ee454	0.03879197
58	0xbcf41e84	-0.029799707
59	0x3b907500	0.0044084787
60	0xbd1ed4d8	-0.038777202
61	0x3c9b3290	0.018945009
62	0x3bdd2b70	0.006749563
63	0xbcbf25fc	-0.023333542
64	0xbc993bd8	-0.018705294
65	0x3d04d654	0.03243096
66	0xbccb1eac	-0.024794899
67	0xbca2a18c	-0.019852422
68	0xbcae7780	-0.021297216
69	0x3cd9a05c	0.026565723
70	0xbc945740	-0.01810801
71	0x3cc49194	0.023995198
72	0xbcf40174	-0.02978585
73	0xbd4aa92c	-0.04947774
74	0x3d53355e	0.051564567
75	0x3d0c2c92	0.034222193
76	0xbd3992e2	-0.045306094
77	0x3d335348	0.043780595
78	0x3d282ab8	0.041056365
79	0x3d7d37ea	0.061820902
80	0x3d68042c	0.056644604
81	0x3d4e4662	0.05036009
82	0xbd021b12	-0.031764098
83	0x3c155f10	0.009116903
84	0x3d045036	0.032303058
85	0x3d0d4d80	0.034497738
86	0xbd5778fc	-0.052605614
87	0x3be15f60	0.0068778247
88	0x3d39d698	0.04537067
89	0xbcc3eec4	-0.023917563
90	0xbd76196a	-0.06008283
91	0xbd0261d2	-0.03183157
92	0xbd1eaf8e	-0.03874164
93	0xbb2ae360	-0.0026075467
94	0x3d21e94a	0.039529122
95	0xbcf18100	-0.029480457
96	0xbc190a08	-0.009340771
97	0xbbe6ce50	-0.0070436373
98	0xbd3d34ba	-0.046192862
99	0x3ab51840	0.0013816431
100	0x3d458eda	0.048231937
101	0xbd6a43e2	-0.057193644
102	0x3ca32928	0.019917086
103	0x3d263b18	0.0405837
104	0x3b949d50	0.0045353547
105	0xbd12a580	-0.035802364
106	0xbcfcbdbc	-0.030852191
107	0xbc32c840	-0.010912001
108	0x3c603788	0.013685115
109	0xbc60c1c8	-0.013718076
110	0x3d76e8f4	0.060280755
111	0xbd3c60a0	-0.045990586
112	0x3ccc57e4	0.024944253
113	0x3cf54500	0.029940128
114	0xbd3e7802	-0.046501167
115	0xbd1d264c	-0.0383666
116	0xbc91e4f0	-0.017809361
117	0xbd0525ea	-0.03250686
118	0x3c138b50	0.009005383
119	0x3d3883b8	0.04504749
120	0xbc2ea7a0	-0.010660082
121	0xbd2b299e	-0.041787736
122	0x3d34672a	0.044043697
123	0xbd7fd35e	-0.062457435
124	0xbd16e014	-0.03683479
125	0xbd049e64	-0.032377616
126	0x3bc26190	0.0059320405
127	0xbcc5f908	-0.024166599
128	0xbd31c798	-0.043403238
129	0x3d3216f4	0.04347892
130	0x3d42ae20	0.04752934
131	0x3c82582c	0.015911184
132	0x3be6bc40	0.007041484
133	0x3d7b4162	0.06134165
134	0xbcf9c5d4	-0.03048984
135	0xbc8bfa38	-0.017087087
136	0xbd21c5aa	-0.039495148
137	0x3c109b38	0.0088260695
138	0x3d1c114c	0.038102433
139	0xbcd8351c	-0.026392512
140	0x3d5ac7f2	0.05341334
141	0x3d195cec	0.037442133
142	0xbc39bed8	-0.011337005
143	0x3cd48bb4	0.025945522
144	0xbd469650	-0.048483193
145	0x3b223540	0.0024750978
146	0xbc5ef838	-0.013608985
147	0x3c8db4a4	0.01729805
148	0x3cb6cc78	0.022314295
149	0x3d275fac	0.040862724
150	0x3cb32934	0.021870233
151	0x3c62a708	0.013833769
152	0x3b2da700	0.0026497245
153	0x3cc67f64	0.024230666
154	0xbd36bf82	-0.04461623
155	0x3c8f662c	0.017504774
156	0x3c88c554	0.016695656
157	0x3d3cda02	0.046106346
158	0xbd5dc682	-0.05414439
159	0xbd64bba2	-0.055843003
160	0xbd4de5ac	-0.05026786
161	0xbd2a6f68	-0.04161015
162	0xbd2c321a	-0.042039968
163	0xbd7ef9be	-0.06224989
164	0x3c1ce088	0.009575017
165	0xbc3b50f8	-0.011432879
166	0xbb056d80	-0.0020359457
167	0xbd501bc0	-0.050807714
168	0xbd4a0acc	-0.049326703
169	0xbd7921f6	-0.060823403
170	0xba002a80	-0.00048891455
171	0x3cc50988	0.024052396
172	0x3d5e22a6	0.054232262
173	0x3c2906a8	0.010316528
174	0x3d5e3d20	0.054257512
175	0xbb65fc00	-0.003509283
176	0x3d6600d4	0.056153134
177	0xbd0f6c0c	-0.03501515
178	0xbd55d8ee	-0.052208833
179	0xbd23dc9c	-0.04000531
180	0x3d69333c	0.056933627
181	0xbca03808	-0.019557968
182	0x3cc3c358	0.023896858
183	0xbd2f04f0	-0.04272932
184	0xbcc13fc8	-0.023589984
185	0x3d2091da	0.039201595
186	0x3ca95a44	0.020672925
187	0x3be09400	0.0068535805
188	0xbd2693ac	-0.040668175
189	0xbc0f8178	-0.008758895
190	0xbd4ed034	-0.050491527
191	0xbc22b390	-0.009930506
192	0xbd49c960	-0.04926431
193	0xbcb63e9c	-0.022246651
194	0x3d010502	0.031498916
195	0x3ced46b0	0.02896437
196	0x3d731776	0.059348546
197	0xbc8854dc	-0.016642027
198	0xbc236d58	-0.0099748
199	0x3c0cee60	0.008601755
200	0x3c9f43dc	0.019441538
201	0x3cf788d0	0.030216604
202	0xbca868b8	-0.020557746
203	0xbd195598	-0.037435144
204	0xbb855fe0	-0.004070267
205	0xbcb9ba60	-0.022671878
206	0xbc8bb948	-0.017056122
207	0x3ae54f00	0.0017494857
208	0xbd4a4896	-0.04938563
209	0xbd3b1498	-0.045673937
210	0x3b6e7020	0.003638275
211	0x3d3062a4	0.04306282
212	0x3d71ac08	0.059001952
213	0x3cecd678	0.02891086
214	0x3d74e54e	0.059788994
215	0x3d6a273c	0.057166323
216	0x3d4a18e6	0.04934015
217	0xbb580540	-0.0032962114
218	0x3d3050ac	0.043045685
219	0x3ca03c4c	0.019560002
220	0xbd0b56fc	-0.0340185
221	0xbadd87c0	-0.0016901419
222	0x3bc91e10	0.006137617
223	0xbd0622de	-0.032748096
224	0x3cc2e2c8	0.023789778
225	0x3cfbd32c	0.030740343
226	0xbd771524	-0.060322896
227	0x3d197fa8	0.037475258
228	0xbd7f8990	-0.06238705
229	0xbbb9f5a0	-0.0056750327
230	0x3d376c26	0.044780873
231	0xbb6bd160	-0.0035982952
232	0xbd7dff4c	-0.06201105
233	0xbd1134ca	-0.035450734
234	0x3bc79960	0.006091282
235	0x3d7096a0	0.058737397
236	0xbd4cbc16	-0.04998406
237	0xbd7f8834	-0.062385753
238	0xbd2dd7ec	-0.042442247
239	0xbd05e4b0	-0.032688797
240	0xbd2ebdac	-0.042661354
241	0xbd4a3cf6	-0.049374543
242	0x3c8a2b0c	0.01686623
243	0xbc81c5cc	-0.015841387
244	0xbca607cc	-0.02026739
245	0x3d1123cc	0.03543453
246	0xbd7012b8	-0.0586116
247	0xbc297f80	-0.01034534
248	0xbd2cb29a	-0.042162515
249	0x3cc1d9ec	0.023663484
250	0x3b961a00	0.004580736
251	0x3d6a68c4	0.05722882
252	0x3d772210	0.06033522
253	0xbcedf7d4	-0.029048838
254	0x3bfedc60	0.0077777356
255	0x3d4f7afa	0.05065439

actor_layer.2.weight f4 [132, 256]
0	0xbd36f6fc	-0.044669136
1	0x3d6e00d8	0.058106273
2	0xbd451c66	-0.048122786
3	0x3d427ba6	0.0474812
4	0x3d053bac	0.03252761
5	0xba0fb000	-0.0005481243
6	0xbbb13860	-0.0054083318
7	0x3d1c97cc	0.038230702
8	0x3c6c8410	0.014435783
9	0xbbb6d990	-0.0055801347
10	0xbb2c67e0	-0.0026307032
11	0x3c0e2440	0.008675635
12	0x3d3d0df0	0.04615587
13	0xbd64708c	-0.055771396
14	0xbb08eb60	-0.0020892248
15	0xbce69450	-0.028146893
16	0xbcebe804	-0.028797157
17	0xbba8dc80	-0.005153239
18	0x3d7def78	0.061995953
19	0x3d0ed6ca	0.034872808
20	0xba5ae580	-0.0008350238
21	0xbbbb13b0	-0.005709134
22	0x3d0da3f8	0.0345802
23	0x3d1018ea	0.03518001
24	0x3c1bd748	0.009511776
25	0x3b8bb2f0	0.0042632744
26	0xbd7d7c0c	-0.06188588
27	0xbd1d054c	-0.03833513
28	0x3b389440	0.0028164536
29	0x3d0f8194	0.035035685
30	0x3d54d498	0.051960558
31	0xbd2db046	-0.042404436
32	0x3c928e30	0.017890066
33	0x3d26132c	0.040545627
34	0x3b1f8280	0.0024339259
35	0xbd437b3e	-0.047724955
36	0x3bc4acb0	0.0060020313
37	0xbd3e4348	-0.046450883
38	0xbc91e308	-0.017808452
39	0x3cfa55c8	0.030558482
40	0x3d1cfb04	0.038325325
41	0xbd22dc54	-0.039760903
42	0xbd703a86	-0.058649562
43	0xbce97014	-0.028495826
44	0xbd0e65aa	-0.034764923
45	0x3ccd27a0	0.025043309
46	0x3bcd1ab0	0.006259285
47	0xbd008aca	-0.03138236
48	0xbd07823e	-0.033083193
49	0xbb7cd580	-0.0038579404
50	0x3d3d4210	0.04620558
51	0xbd154690	-0.036444247
52	0xbd21caa0	-0.03949988
53	0xbd35d9b4	-0.04439707
54	0x3d66ef30	0.05638045
55	0x3d5b61b0	0.05355996
56	0xbcf915e8	-0.030405954
57	0x3d51384e	0.051079087
58	0x3cb6c20c	0.022309326
59	0x3c8935cc	0.016749285
60	0xbca243c4	-0.019807704
61	0x3d157380	0.036487103
62	0x3cd67d14	0.026182689
63	0xbd0ee580	-0.034886837
64	0xbd46e49a	-0.048557855
65	0xbc857f04	-0.016295917
66	0x3cea8a4c	0.028630398
67	0x3c997c90	0.018736154
68	0x3d7be1e0	0.061494708
69	0x3d6eaa9a	0.058268167
70	0x3cb89b10	0.022534877
71	0xbd10a6b6	-0.035315238
72	0xbce3d78c	-0.027812742
73	0x3c0c57e8	0.00856588
74	0x3c821a38	0.015881643
75	0xbd0580de	-0.0325936
76	0xbb732260	-0.0037099347
77	0xbd6e0526	-0.05811038
78	0x3cdb4f34	0.026771165
79	0xbd54a900	-0.051918983
80	0xbd4725c0	-0.048619986
81	0x3c8ca0d4	0.017166533
82	0x3d40db04	0.04708387
83	0x3cde7808	0.027156845
84	0xbb494dc0	-0.0030716509
85	0x3ca1e754	0.019763626
86	0x3d17510a	0.03694252
87	0x3ae11380	0.0017171949
88	0x3d15181e	0.036399953
89	0x3c286aa0	0.010279328
90	0x3d391758	0.045188278
91	0xbd2bac52	-0.041912384
92	0x3c843e50	0.016142994
93	0xbd63cb9c	-0.0556141
94	0xbd40a29e	-0.047030084
95	0x3c41ab40	0.011820614
96	0x3b1e7700	0.0024179816
97	0x3d51bc4c	0.051204965
98	0x3c80b2a0	0.015710175
99	0x3ce00990	0.02734831
100	0x3d61d726	0.055136822
101	0x3d6bfae4	0.057612315
102	0x3be2f010	0.0069255903
103	0x3be94f10	0.0071200207
104	0x3cd589e0	0.02606672
105	0xbd4f853e	-0.05066418
106	0x3c3faa78	0.011698358
107	0xbd1cf9b4	-0.038324073
108	0x3b33a5e0	0.0027412102
109	0xbc866a5c	-0.016408138
110	0xbcc4a798	-0.024005696
111	0x3b1ca120	0.002389975
112	0xbd6efdfe	-0.058347695
113	0xbd13cd68	-0.036084563
114	0xbc9f4e98	-0.019446656
115	0xb917f200	-0.00014490634
116	0x3cdde63c	0.027087323
117	0x3d5bdb68	0.05367604
118	0xbd265762	-0.04061068
119	0xbbe19820	-0.00688459
120	0x3c833060	0.016014278
121	0xbd636186	-0.055512927
122	0xbca4ca3c	-0.020115964
123	0xbceaa18c	-0.028641485
124	0xbd4dbd5a	-0.050229408
125	0x3d50924a	0.050920762
126	0x3d438ad6	0.047739826
127	0xbd6a0504	-0.05713369
128	0x39cbe500	0.00038889796
129	0xbd0f7750	-0.035025895
130	0xbd209182	-0.039201267
131	0xbc001d38	-0.007819466
132	0xbb8c8060	-0.0042877644
133	0x3ceb00fc	0.028686993
134	0x3b077800	0.002067089
135	0x3d6ea99a	0.058267213
136	0xbd2d4500	-0.04230213
137	0xbc017a50	-0.007902697
138	0xbd36b224	-0.044603482
139	0x3d5bb140	0.053635836
140	0x3d1a0fea	0.037612833
141	0x3d5c7576	0.053822957
142	0x3cf5baa4	0.029996224
143	0xbc492d50	-0.01227887
144	0xbd3a04ca	-0.045414723
145	0xbd4916ac	-0.049093887
146	0xbcd0e864	-0.025501437
147	0x3c489e48	0.012244768
148	0x3cd6ae34	0.026206113
149	0x3d210b3e	0.039317362
150	0xbd632614	-0.055456236
151	0xba486900	-0.0007645041
152	0xbd5deb0a	-0.05417923
153	0xbbfb3e60	-0.007667348
154	0xbd0431be	-0.032274
155	0xbd532f9e	-0.051559083
156	0x3beda200	0.007251978
157	0x3d16d924	0.036828175
158	0xbc8f4870	-0.017490596
159	0x3c8eacd4	0.017416395
160	0x3c455da8	0.012046255
161	0x3cd1598c	0.025555395
162	0xbcc2bf5c	-0.023772888
163	0xbb555300	-0.0032550693
164	0xbd4d1d44	-0.050076738
165	0x3cbe5fe0	0.023239076
166	0x3d729804	0.059227005
167	0x3d1dab6e	0.038493566
168	0x3cdba390	0.026811391
169	0xbc7f3688	-0.015576966
170	0x3d182840	0.03714776
171	0x3c26b530	0.010175034
172	0x3d0ad0b0	0.033890426
173	0x3d593d50	0.053036988
174	0x3d433b4e	0.04766398
175	0xbccb875c	-0.024844818
176	0xbc557900	-0.013029337
177	0x3c396b98	0.011317156
178	0xbcb7af1c	-0.022422366
179	0xbd719594	-0.05898054
180	0xbc2a4950	-0.010393456
181	0x3ca9be38	0.020720586
182	0xbcf6339c	-0.030053906
183	0x3d43ca30	0.047800243
184	0xbd1a51e6	-0.03767576
185	0xbc8f0664	-0.017459102
186	0x3c3797c0	0.011205614
187	0xbc0ee440	-0.008721411
188	0xbcd69f08	-0.026198879
189	0xbd49a9d0	-0.04923421
190	0xbc2dc438	-0.010605864
191	0xbc5e33a8	-0.0135621205
192	0x3b7b2f40	0.0038327724
193	0x3cb57a94	0.022153176
194	0xbceb8ffc	-0.02875518
195	0x3c04fc38	0.008116774
196	0xbd6de90e	-0.058083586
197	0x38342000	4.2945147e-05
198	0xbd1e2300	-0.038607597
199	0x3d6aff74	0.057372525
200	0xbc2c5f28	-0.010520734
201	0xbd1ec346	-0.038760446
202	0x3c8b5ddc	0.01701253
203	0xbc9a7cb4	-0.018858291
204	0xbce5159c	-0.027964406
205	0x3cebb734	0.028773881
206	0xbd4ec0b2	-0.050476737
207	0xbd0b46a8	-0.03400293
208	0xbd5433a0	-0.051807046
209	0xbc51a0f0	-0.012794718
210	0xbd0f14c0	-0.034931898
211	0x3d21b826	0.03948226
212	0x3d57ee42	0.052717455
213	0xbc9dc458	-0.019258663
214	0x3c15e358	0.009148441
215	0xbd282b4c	-0.041056916
216	0x3c7455e0	0.014913052
217	0xbca55f20	-0.02018696
218	0x3d1eb766	0.03874912
219	0x3d3ab0f4	0.045578912
220	0x3c305458	0.010762297
221	0x3c832534	0.01600895
222	0xbcb2dabc	-0.021832816
223	0xbb4932e0	-0.003070049
224	0xbd2d44ea	-0.04230205
225	0xba95acc0	-0.0011419281
226	0x3cfba684	0.03071905
227	0x3ccab00c	0.024742149
228	0xbcf2bed8	-0.029632017
229	0x3d73b470	0.05949825
230	0x3ca8952c	0.020578943
231	0xbd65d432	-0.05611057
232	0xbd610292	-0.054934092
233	0x3d4e1188	0.050309688
234	0xbc076b10	-0.008265272
235	0x3cbb4114	0.02285818
236	0x3caf8150	0.021423966
237	0xbd435c14	-0.047695234
238	0xbd0f6d6c	-0.035016462
239	0xbcead0b0	-0.028663963
240	0x3ce9f8d0	0.028561026
241	0xbce31330	-0.02771911
242	0x3d3a8074	0.04553266
243	0x3ceb54cc	0.028726958
244	0x3cdfeb20	0.027333796
245	0xbd46b25c	-0.04850994
246	0xbd229b42	-0.039698847
247	0xbd6ac7ce	-0.057319455
248	0x3d55b1de	0.05217158
249	0xbd4d0b28	-0.050059468
250	0x3c09bfe8	0.00840757
251	0xbd487608	-0.04894069
252	0x3d782152	0.06057865
253	0xbd16abcc	-0.036784932
254	0xbd271790	-0.040793955
255	0xbc63d8a0	-0.013906628

actor_layer.2.bias f4 [132]
0	0xbcf3e948	-0.029774323
1	0xbcf1da04	-0.029522903
2	0xbc8fcf8c	-0.01755502
3	0x3d0514b4	0.032490447
4	0xbd117630	-0.035513103
5	0xbbb82750	-0.005619921
6	0x3cc99220	0.02460581
7	0xbd0dbd86	-0.03460457
8	0xbcc3ed4c	-0.023916863
9	0xbd18d24e	-0.037309937
10	0x3bf39e30	0.007434629
11	0x3c14c638	0.009080462
12	0xbcb292d8	-0.021798536
13	0x3d66e4e8	0.056370646
14	0xbcdd1ddc	-0.026991777
15	0xbd7460b8	-0.05966255
16	0x3d414eee	0.047194414
17	0x3cb35078	0.021888956
18	0xbbc99290	-0.006151505
19	0x3c7a2970	0.0152686685
20	0xbd4f8a6c	-0.05066912
21	0x3d4de1b4	0.050264075
22	0xbd03b84a	-0.032158174
23	0x3bda4430	0.0066609606
24	0xbd46f488	-0.048573047
25	0x3d6fad32	0.05851478
26	0xbd4f1806	-0.05056002
27	0xbc399990	-0.011328116
28	0xbd7fb892	-0.06243188
29	0x3bf68df0	0.0075242445
30	0xbd581f86	-0.052764438
31	0x3cc37f28	0.023864344
32	0xbadf3f80	-0.0017032474
33	0x3cc981a4	0.02459795
34	0xbd716d76	-0.05894228
35	0x3d701262	0.05861128
36	0x3d585dc4	0.052823797
37	0xbd0b5c44	-0.03402354
38	0xbc6670f0	-0.014065012
39	0xbc29a278	-0.010353677
40	0xbd47e93c	-0.048806414
41	0x3cef4f2c	0.029212557
42	0x3b31a9c0	0.0027109236
43	0xbc0a5400	-0.008442879
44	0x3bb68760	0.005570337
45	0xbd17f5a6	-0.037099503
46	0xbc24b7b0	-0.01005356
47	0x3d75c946	0.060006402
48	0xbd0becfa	-0.034161545
49	0x3c6fa290	0.01462616
50	0x3d37ee18	0.0449048
51	0x3caa1460	0.020761669
52	0xbd692230	-0.05691737
53	0xbca9bf10	-0.020720989
54	0xbcac0e1c	-0.021002822
55	0xbce10108	-0.027466312
56	0x3d788f4a	0.060683526
57	0xbd0e83b8	-0.034793586
58	0xbd2da482	-0.042393215
59	0x3d776fc2	0.060409315
60	0xbd6fd2a2	-0.058550484
61	0x3d26485a	0.040596344
62	0xbce9b378	-0.02852796
63	0x3c8d8dc8	0.01727952
64	0x3ccb16ec	0.024791203
65	0xbc538cf8	-0.012912028
66	0xbccb8408	-0.02484323
67	0xbd3c0ea0	-0.045912385
68	0x3cce93d8	0.025216982
69	0x3d76216c	0.060090467
70	0x3c4f5510	0.012654558
71	0x3c8e05d0	0.017336756
72	0xbc570180	-0.013122916
73	0x3a049780	0.00050579756
74	0x3cb59c48	0.022169247
75	0xbc82a5c4	-0.015948184
76	0x3d4cd5d8	0.050008625
77	0xbcc7d6d8	-0.024394438
78	0xbd4b83b6	-0.049686156
79	0x3d2d29fa	0.04227636
80	0x3d14a906	0.036294006
81	0x3cbd3590	0.02309683
82	0xbd1f8e66	-0.03895416
83	0xbc6f9850	-0.0146237165
84	0x3d7886dc	0.060675487
85	0xbcde1ab8	-0.02711235
86	0xbd52f62a	-0.05150429
87	0x3d7054bc	0.05867456
88	0x3d222fa0	0.0395962
89	0xbc70c9c0	-0.014696538
90	0xbcb53294	-0.022118844
91	0xbbe2e090	-0.0069237426
92	0x3d7a3a04	0.061090484
93	0x3c401940	0.01172477
94	0xbc5121f8	-0.012764446
95	0x3b7ea8a0	0.0038857833
96	0xbcbe00cc	-0.02319374
97	0x3c41b578	0.011823051
98	0x3cb702b4	0.022340156
99	0x3cf97044	0.03044904
100	0xbc39e3c0	-0.011345804
101	0x3d16fcf0	0.036862314
102	0x3b3eb0c0	0.002909705
103	0x3cd00068	0.025390819
104	0x3d5c3480	0.053761005
105	0xbccd6a4c	-0.0250751
106	0xbba58680	-0.005051434
107	0x3d538100	0.051636696
108	0x3d696622	0.056982167
109	0x3c870910	0.016483814
110	0x3d1c93ec	0.038227007
111	0xbc02c748	-0.007982083
112	0xbcb8beec	-0.022551976
113	0x3d23f5a6	0.04002919
114	0x3d53848e	0.051640086
115	0x3b16fc80	0.0023038685
116	0xbd71ab04	-0.059000984
117	0x3d67d072	0.056595273
118	0xbd1770ea	-0.036972918
119	0xbd0bb792	-0.034110613
120	0xbd6e9afa	-0.058253266
121	0xbc801474	-0.015634753
122	0xbb48af20	-0.003062196
123	0x3d4c6622	0.04990209
124	0xbd0039f8	-0.031305283
125	0x3c97bbac	0.018522106
126	0x3d673ce6	0.05645456
127	0x3be91c80	0.007113993
128	0xbd29b020	-0.04142773
129	0x3ce3ac7c	0.027792208
130	0x3d3eaf64	0.046553984
131	0xbc053918	-0.008131288
