model/ckpt/model_NeurIPS2020_train_irt.pt (torch, 13536 bytes, 3 tensors)

theta.weight f4 [2000, 1]
0	0xbf29a787	-0.6627125
1	0xbe439122	-0.19098333
2	0xbf42b337	-0.7605471
3	0x3dd0b8ef	0.10191523
4	0xbee861e2	-0.4538718
5	0x3e585918	0.21127737
6	0xbe88522a	-0.26625186
7	0xbed7a46b	-0.42117628
8	0xbf40fa95	-0.7538236
9	0xbf615b6f	-0.8803014
10	0x3f3f17cd	0.7464569
11	0xbe4c16f0	-0.19930625
12	0x3e876a2f	0.264482
13	0xbf64d21d	-0.8938311
14	0x3b67e2ff	0.0035383103
15	0xbc984d2e	-0.01859149
16	0x3f2bbcfa	0.6708523
17	0xbd083f6b	-0.033263605
18	0x3b20f12e	0.0024557817
19	0x3f209d53	0.6274006
20	0x3f581714	0.84410214
21	0xbea58bd2	-0.32333237
22	0x3f06d4ca	0.5266844
23	0xbecbd5ef	-0.39811656
24	0x3e8feec1	0.28111842
25	0x3b512aef	0.003191646
26	0x3f8698e1	1.0515405
27	0xbf2e792f	-0.6815366
28	0xbd1dadfb	-0.038496
29	0x3f53f4dc	0.827955
30	0x3f042390	0.51616764
31	0x3f065352	0.52470887
32	0x3e8b6310	0.27224016
33	0x3f3d93b3	0.74053496
34	0xc0064cc4	-2.0984354
35	0x3e8011f5	0.250137
36	0xbf8c8302	-1.097748
37	0xbd34fbfb	-0.04418562
38	0xbe06dff2	-0.13171366
39	0x3ef328d8	0.474921
40	0xbda9fbe7	-0.083
41	0x3f9c53a3	1.2213024
42	0xbf5da529	-0.8658014
43	0x3f87aa81	1.0598909
44	0x3e0affb1	0.13574101
45	0x3e407270	0.18793654
46	0x3f87cf13	1.0610069
47	0x3f989482	1.1920321
48	0x3da86897	0.08223074
49	0x3ed87289	0.42274883
50	0xbc2f2787	-0.010690576
51	0x3e8ca4aa	0.2746938
52	0xbcb30ea3	-0.021857565
53	0x3d45a5fe	0.048254006
54	0xbe1eb1a7	-0.15497456
55	0x3fb163d9	1.3858596
56	0xc01f024d	-2.4845154
57	0xbec62a3e	-0.38704103
58	0xbe1c0b87	-0.15238772
59	0x3f4fce59	0.81174237
60	0x3f35aa98	0.7096343
61	0x3ec07689	0.37590435
62	0x3f19358f	0.5984735
63	0xbf7d0eb6	-0.9885057
64	0xbf0887f1	-0.5333243
65	0x3d9cdbe2	0.07659127
66	0x3f8b8ee7	1.0902985
67	0xbb93dcde	-0.0045124134
68	0xbea547c7	-0.32281324
69	0xc01f2487	-2.4866045
70	0x3f4245f9	0.7588802
71	0x3ef707d0	0.48248148
72	0x3f31c834	0.6944611
73	0xbec3f4f8	-0.38272834
74	0x3f80abc9	1.0052425
75	0x3d586127	0.052827027
76	0xbe644a60	-0.22293997
77	0x3f7de5a2	0.99178517
78	0xbf943640	-1.1579056
79	0x3e9877aa	0.29778796
80	0x3d1b12dc	0.037859783
81	0x3edbc814	0.42926085
82	0x3e0625eb	0.13100402
83	0x3e8c36c8	0.27385545
84	0xb975a435	-0.00023426193
85	0x3f12cb22	0.57341206
86	0xbedd9cd7	-0.43283722
87	0xbf9b4907	-1.2131661
88	0x3f26adc6	0.6510891
89	0x3f5b8820	0.85754585
90	0x3cb55d73	0.022139287
91	0xbd034e4d	-0.032057095
92	0x3ecd49f1	0.40095475
93	0xbf4af079	-0.7927318
94	0x3edf0443	0.4355794
95	0xbc9a58d3	-0.018841183
96	0x3faefab8	1.3670263
97	0xbf2ae075	-0.66748744
98	0xbd25ae4c	-0.040449426
99	0xbf13b89f	-0.57703584
100	0x3f724896	0.9464201
101	0x3f0b4f1b	0.5441758
102	0xbdde9af4	-0.10869399
103	0x3ce1b0da	0.02755015
104	0xbf6c8e91	-0.9240504
105	0xbc91dfdb	-0.017806938
106	0xbfffd390	-1.9986439
107	0x3f5ea91d	0.86976796
108	0x3c827e3b	0.015929332
109	0xbf873628	-1.0563402
110	0x3eea6735	0.45781866
111	0xbf2d02c3	-0.6758234
112	0xbf10820d	-0.5644844
113	0x3f9a3272	1.2046645
114	0x3efbcc4e	0.4917931
115	0x3f95bb9a	1.1697876
116	0xbf2c7442	-0.67364895
117	0x3db27c38	0.08715099
118	0x3e93ad94	0.28843367
119	0xbee4b649	-0.44670323
120	0xbceb8cd0	-0.028753668
121	0xbc3a65c0	-0.011376798
122	0xbceeabbb	-0.029134622
123	0xbc733926	-0.014845168
124	0xbe2a964c	-0.16658896
125	0x3e5fea49	0.21866716
126	0xbc2af3c7	-0.010434098
127	0x3f0159d0	0.5052767
128	0x3f3f4db3	0.74727935
129	0xbf0129cf	-0.5045442
130	0xbe5ee5b1	-0.21767308
131	0xbe920d54	-0.28525794
132	0x3f3b2344	0.73100686
133	0xbd8af315	-0.067846455
134	0xbedc7820	-0.43060398
135	0xbf3ea0a3	-0.7446386
136	0x3e63fcab	0.22264354
137	0x3e4cfca8	0.20018256
138	0xc00934ef	-2.1438558
139	0x3f69b207	0.91287273
140	0x3f57d6c8	0.84312105
141	0x3f288d8f	0.65841
142	0xbd51d44f	-0.051227864
143	0xbe845767	-0.25847933
144	0x3eceefa5	0.4041721
145	0xbf1988bb	-0.5997426
146	0x3e23c4b3	0.15993004
147	0x3eeb5b70	0.459682
148	0x3f47b442	0.78009427
149	0x3f5f9346	0.87334096
150	0x3f240484	0.6406939
151	0x3c8cd689	0.017192142
152	0x3ed80e59	0.42198446
153	0xbdc680a5	-0.09692506
154	0xbf0acea9	-0.5422159
155	0xbc79c2c2	-0.015244188
156	0xbf30b958	-0.6903281
157	0xbe92791a	-0.28608018
158	0xbf21f7e0	-0.6326885
159	0x3edbc004	0.42919934
160	0x3da01a42	0.07817508
161	0xbcd4d8f4	-0.025982358
162	0x3f16d18b	0.5891349
163	0xbf867f2f	-1.0507563
164	0x3f5fd656	0.87436426
165	0xbeb6fe26	-0.35740775
166	0x3e813530	0.2523589
167	0x3f95422d	1.166082
168	0xbd6db1a2	-0.058030732
169	0x3c194f9a	0.009357357
170	0xbc0424bd	-0.0080654
171	0xbd004879	-0.031319115
172	0xbed7ce13	-0.4214941
173	0x3f4391f9	0.7639461
174	0x3eca24d8	0.39481235
175	0x3d255103	0.040360462
176	0xbedd1ffe	-0.4318847
177	0xbf67ffdf	-0.90624803
178	0xc02305e4	-2.5472345
179	0xc00590c1	-2.08696
180	0xbd585a7c	-0.052820668
181	0xbddcf434	-0.107887655
182	0x3edaf080	0.42761612
183	0xbebe462e	-0.37162918
184	0x3e9d1309	0.30678585
185	0xbecad9e7	-0.3961937
186	0x3dc73260	0.09726405
187	0x3ec967e7	0.39337084
188	0xbe3bf487	-0.18354999
189	0x3efc891d	0.4932336
190	0xbf813dc8	-1.0096979
191	0xbec246bb	-0.37944588
192	0x3f536f47	0.8259167
193	0x3f12b18f	0.5730218
194	0x3c75d25f	0.01500377
195	0x3f3d73a6	0.7400459
196	0xbc6116e3	-0.013738367
197	0x3f493aec	0.7860553
198	0xbf18d730	-0.5970335
199	0x3dd6df93	0.10491862
200	0x3cc14570	0.02359268
201	0x3cc039bf	0.023465035
202	0x3dac84fc	0.08423802
203	0xbc15a4c6	-0.009133523
204	0xbf02abb7	-0.51043266
205	0x3f21405a	0.6298882
206	0x3cf7fe2a	0.030272562
207	0xbfdacc1d	-1.709354
208	0x3f019c9e	0.50629604
209	0x3f0c75d5	0.548673
210	0x3ef880d3	0.48535785
211	0x3f0f6ad4	0.5602238
212	0x3ef76c84	0.48324978
213	0x3f280b82	0.6564256
214	0xbf1f7836	-0.622928
215	0xbf7dd863	-0.99158305
216	0xbb630100	-0.0034638047
217	0xbc96d7c3	-0.01841343
218	0x3e876a0c	0.26448095
219	0x3d95c564	0.0731304
220	0x3d46c407	0.04852679
221	0x3f0424ee	0.5161885
222	0xbbf47723	-0.0074604913
223	0xbf2a6b1a	-0.66569674
224	0xbfe7ab73	-1.8099197
225	0xbbc72ca5	-0.00607832
226	0xbbb4d8d3	-0.0055190115
227	0xbc8f111a	-0.01746421
228	0x3f3379ba	0.70107615
229	0xbf80da44	-1.0066609
230	0xbc856c48	-0.016286984
231	0xbdfb4b3d	-0.1227021
232	0xbea9386f	-0.33050868
233	0xbd6f62a0	-0.058443666
234	0x3e9a74dd	0.30167285
235	0xbcd6206c	-0.026138507
236	0x3f1976a2	0.59946644
237	0x3df633c5	0.12021593
238	0x3e0a7c4c	0.13523978
239	0xbe97154c	-0.29508436
240	0x3f82f9cc	1.0232482
241	0x3e4be9bb	0.1991338
242	0x3ee96dff	0.45591733
243	0xbee88bb5	-0.45419088
244	0x3dc409b5	0.09572164
245	0xbc8b7466	-0.017023277
246	0x3f33123a	0.69949687
247	0x3ef9b290	0.48769045
248	0x3eabbdcd	0.33543244
249	0x3d27232f	0.040805038
250	0xbe45dd44	-0.19322687
251	0x3d078c5c	0.03309284
252	0x3e466b0b	0.19376771
253	0x3e318b80	0.17338371
254	0xbeed9787	-0.4640467
255	0x3ec9743f	0.393465

alpha.weight f4 [454, 1]
0	0xbfd5503b	-1.6665109
1	0x3edb4bea	0.42831355
2	0xbf63c38b	-0.8897025
3	0xbfaf333b	-1.3687509
4	0xc001df1c	-2.0292425
5	0xbfba65b8	-1.4562292
6	0xbf9d4f53	-1.2289833
7	0xbf080d87	-0.5314564
8	0xbfdc0ca1	-1.7191354
9	0xbf46eefb	-0.77708405
10	0xbe2d28b5	-0.1691006
11	0xbfe50923	-1.7893413
12	0xbfd07b60	-1.6287651
13	0xbf9c0ca6	-1.219136
14	0xbfb1076e	-1.3830392
15	0xbfac546d	-1.3463265
16	0xbf5a54a5	-0.8528541
17	0xbfb420ca	-1.4072506
18	0xbffc3a33	-1.9705261
19	0xbf401cce	-0.7504395
20	0xbfbe5335	-1.4869143
21	0xbece3921	-0.4027796
22	0xc000f9cb	-2.0152462
23	0xbf555987	-0.8333973
24	0xbf1ebca1	-0.62006575
25	0xbf938c46	-1.1527183
26	0xbf9594b9	-1.1686012
27	0xbfbbf1b7	-1.468314
28	0xbfa813f9	-1.3131095
29	0xbe6bdd99	-0.23033752
30	0xbf0e915c	-0.5569055
31	0xbf2d4eb2	-0.67698205
32	0xbeb4ce1c	-0.353135
33	0xbfadf3b6	-1.359
34	0xbf01a7d0	-0.50646687
35	0xc002fb98	-2.046606
36	0xbfa79b7d	-1.3094326
37	0xbf644ce2	-0.89179814
38	0xbfe23c43	-1.767464
39	0xc0160123	-2.3438194
40	0xbf9e08e1	-1.234646
41	0xbf65fd37	-0.898395
42	0xbfb679bd	-1.4255902
43	0xbfca974a	-1.582742
44	0xbfae6aef	-1.3626384
45	0xbf2caf9d	-0.67455465
46	0xbf9a1e5c	-1.2040515
47	0xbf58b3d4	-0.84649396
48	0xbfe73322	-1.806248
49	0xbf8c297f	-1.0950164
50	0xbf1c30b3	-0.6101181
51	0xbf176521	-0.59138685
52	0xbfb0f1c3	-1.382378
53	0xbf11f18d	-0.570092
54	0xbf9bb2c9	-1.2163936
55	0xbf527eda	-0.8222481
56	0xbf0d5c00	-0.55218506
57	0xbfa77d85	-1.308518
58	0xbfbb0b8f	-1.4612902
59	0xc00110e2	-2.0166554
60	0xbf265cd7	-0.6498541
61	0xbfd2fb15	-1.6482874
62	0x3f0c695b	0.5484826
63	0xbe80ed5d	-0.25181094
64	0xbf0cfc71	-0.55072695
65	0xbeebab6f	-0.4602923
66	0xbfc1412c	-1.5098014
67	0x3dbc4433	0.091926955
68	0x3ecb2ba9	0.39681748
69	0xbfd5b572	-1.6695998
70	0xbfb09529	-1.379552
71	0xbfe6e7f5	-1.8039538
72	0xbf9cd57d	-1.2252651
73	0xbedb47e8	-0.42828298
74	0xbf8eb531	-1.1149045
75	0xbde5a722	-0.11213519
76	0xbf3b30a1	-0.73121077
77	0xbe4b122e	-0.19831154
78	0xbf31aeae	-0.69407165
79	0xbf953209	-1.1655895
80	0xbfa7bb64	-1.3104062
81	0xbead25ad	-0.33817807
82	0xbf9f16f0	-1.2428875
83	0xbf7bb809	-0.9832769
84	0xbf6c77e2	-0.92370427
85	0xbfdd8b90	-1.7308216
86	0xbf68ad4d	-0.90889436
87	0xbfe2196c	-1.7664008
88	0xbf0191de	-0.506132
89	0xbfd51c34	-1.6649232
90	0xbfc8232f	-1.5635737
91	0xbf881efd	-1.0634457
92	0xbee2ac81	-0.44272235
93	0xbfa4c950	-1.2873936
94	0xbc0cb3de	-0.008587806
95	0xbfdd6147	-1.7295312
96	0xbfb1d7e2	-1.3894007
97	0xbf8c624a	-1.0967495
98	0xbfc2b224	-1.5210614
99	0xbf35a778	-0.7095866
100	0xbf998880	-1.1994781
101	0xbf51386b	-0.8172671
102	0xbf4043af	-0.75103277
103	0xbf8fdc20	-1.1239052
104	0xbf7a710f	-0.97828764
105	0xbf20d544	-0.6282542
106	0xbfe7a650	-1.809763
107	0xbfaa60cf	-1.3310794
108	0xbf4ace71	-0.79221255
109	0xbe9f5c72	-0.31125218
110	0xbfaf8fe9	-1.3715793
111	0xbf4ce6e9	-0.8003984
112	0xbf6084be	-0.8770255
113	0xbff27f11	-1.8945028
114	0xbfd99f7a	-1.7001793
115	0xbfcaf2d5	-1.5855356
116	0xbf831192	-1.0239737
117	0xbf320af8	-0.69547987
118	0xbfed2da6	-1.8529556
119	0xbf591d92	-0.84810746
120	0xbe5bcd13	-0.21464948
121	0xbff2f333	-1.8980469
122	0xbfd9631c	-1.6983371
123	0xbfaeb86d	-1.3650032
124	0xbfdcb4db	-1.7242693
125	0xbf1b5757	-0.60680145
126	0xbf09d5f3	-0.53842086
127	0xbf465eaf	-0.77488226
128	0xbfa1688a	-1.2610028
129	0xbfa33a6f	-1.2752208
130	0xc00047d7	-2.0043848
131	0xbf759166	-0.95924985
132	0xbce53b06	-0.027982246
133	0xbf8c2388	-1.0948343
134	0xbfac91c3	-1.3481983
135	0xbfe1c63d	-1.7638623
136	0xbee0ec60	-0.4393034
137	0xbec6ffb9	-0.38866976
138	0xbf7455db	-0.95443505
139	0xbf1bb043	-0.6081583
140	0xbfa9340b	-1.3219007
141	0xbf4a8122	-0.7910329
142	0xbf540604	-0.8282168
143	0xbf8eb70c	-1.1149611
144	0xbfb6d2bb	-1.428306
145	0xbea26eda	-0.31725198
146	0xbfb897d9	-1.442134
147	0x3ec1446b	0.3774751
148	0xbeeb1544	-0.45914662
149	0xbfc84df3	-1.5648788
150	0xbf15448f	-0.5830774
151	0xbf96a52d	-1.1769158
152	0xbfbf0b7c	-1.492538
153	0xbf969f58	-1.1767378
154	0xbfa28e71	-1.269972
155	0xbf55b838	-0.8348422
156	0xbf8fd230	-1.1236019
157	0xbfff8d9a	-1.9965088
158	0xbfccb02f	-1.5991267
159	0xbf091ac4	-0.53556466
160	0xbfd48db9	-1.660575
161	0xbed55f94	-0.41674483
162	0xbf732968	-0.94985056
163	0xbf524fc3	-0.82152957
164	0xbeeecd1f	-0.4664087
165	0xbfa96eb9	-1.3236915
166	0xbf627e7c	-0.8847425
167	0xbf3d898a	-0.7403799
168	0xbeeda93f	-0.46418187
169	0xbfd3ae02	-1.6537478
170	0xc00a79e5	-2.1636899
171	0xc0032847	-2.0493333
172	0xbfcf94b1	-1.6217252
173	0xbf3fd97b	-0.74941224
174	0xbfd8ec61	-1.6947137
175	0xbfd04d12	-1.627352
176	0xbfb89fb1	-1.4423734
177	0xbf387689	-0.7205587
178	0xbec4f095	-0.384648
179	0xbd8d75e7	-0.06907254
180	0xbdbce904	-0.09224132
181	0xbf21c25e	-0.63187206
182	0xbeed73ec	-0.46377504
183	0xbf95cee4	-1.1703763
184	0xbf9a8f74	-1.2075028
185	0xbf94ccb0	-1.1624966
186	0xbf7cd1c9	-0.98757607
187	0xbfe6da7a	-1.8035424
188	0xbf90d7e7	-1.1315888
189	0xbf70a2a0	-0.93998146
190	0xbfe6966f	-1.8014659
191	0xbf9bbf04	-1.2167668
192	0xbff38028	-1.9023485
193	0xbee53b50	-0.44771814
194	0xbf8c9c02	-1.098511
195	0xbf9dfdf7	-1.2343129
196	0x3ec7f77f	0.39056012
197	0x3d8bbc38	0.06823009
198	0xbe5e9734	-0.21737367
199	0xbfc157fc	-1.5104976
200	0xbfc2c15e	-1.5215261
201	0xbf4bfc4c	-0.7968185
202	0xbfda5b71	-1.7059156
203	0xbf701f26	-0.9379753
204	0xbf4091ca	-0.75222456
205	0xbf0be950	-0.5465288
206	0xbf892c31	-1.0716611
207	0xbed5fc67	-0.4179413
208	0xbf67d66b	-0.9056155
209	0xbf6c0898	-0.92200613
210	0xbeeba66e	-0.46025413
211	0xbfe1d573	-1.7643265
212	0xbfd0988a	-1.6296551
213	0xbf1da1a7	-0.61574787
214	0xbfeff628	-1.8746996
215	0xbfe59a2e	-1.7937677
216	0xbfc183db	-1.5118364
217	0xbee3804a	-0.44433814
218	0xbf46540d	-0.77472
219	0xbfe5bdf8	-1.7948599
220	0xbf275624	-0.65365815
221	0xbfdcf35f	-1.7261771
222	0xbf82b7fd	-1.0212399
223	0xbff9c74d	-1.9513947
224	0xbf08499e	-0.5323733
225	0xbf87318b	-1.0561994
226	0xbf983374	-1.1890702
227	0xbfde465d	-1.7365223
228	0xbfe3f970	-1.7810497
229	0xbeeebc18	-0.4662788
230	0xbf4d73e3	-0.80254954
231	0xbfd357ef	-1.651121
232	0xbed3a86a	-0.41339427
233	0xbf1208ab	-0.57044476
234	0xbf18022c	-0.59378314
235	0xbffc7d4d	-1.9725739
236	0xbfa5e115	-1.2959315
237	0xbfb0b6d1	-1.3805791
238	0xbf8e337f	-1.1109465
239	0xbf492240	-0.78567886
240	0xbfb3023a	-1.3985054
241	0xbf03358b	-0.51253575
242	0xbf958e3d	-1.1684033
243	0xc006871e	-2.101997
244	0xbfad467b	-1.3537134
245	0xbee2aa65	-0.44270626
246	0xbfd55227	-1.6665696
247	0xbf3c5b19	-0.73576504
248	0xbedf4d94	-0.43613875
249	0xbbe1c441	-0.0068898504
250	0xbfe7cf2b	-1.8110098
251	0xbfa86a36	-1.3157413
252	0xbfa4457c	-1.2833705
253	0xbfc66132	-1.5498412
254	0xbfaa9e80	-1.332962
255	0xbfb91e90	-1.4462452

beta.weight f4 [454, 1]
0	0xbe13be6b	-0.14428107
1	0xbd875057	-0.066071205
2	0xbef8e7bb	-0.48614296
3	0x3fc51cf1	1.5399457
4	0x3e9b340c	0.30313146
5	0xbec57222	-0.3856364
6	0xbf0b5adb	-0.5443551
7	0x3db55d16	0.08855645
8	0x3f1c5864	0.61072373
9	0xbf34026a	-0.70316184
10	0xbf3cec5c	-0.73798156
11	0x3f35e838	0.7105746
12	0x3f3db7d3	0.7410862
13	0x3fb1c7e8	1.3889132
14	0x3eb10d0d	0.3458027
15	0x3d225f7d	0.039641846
16	0xbea38153	-0.31934604
17	0x3f28ed6d	0.65987283
18	0x3f89cfb1	1.0766507
19	0xbea58ab0	-0.32332373
20	0x3e5f0970	0.21780944
21	0xbd8d7858	-0.069077194
22	0x3f46da04	0.77676415
23	0xbf398ee4	-0.7248366
24	0x3f4f0b2e	0.80876434
25	0xbe8c7fdb	-0.27441296
26	0xbe82d27c	-0.25551212
27	0x3ed9369f	0.42424485
28	0xbe63d2c2	-0.22248366
29	0xbf0057b9	-0.50133854
30	0xbeb39f70	-0.3508258
31	0xbeb35ada	-0.35030252
32	0xbf37cc35	-0.7179597
33	0x3fd146c0	1.6349716
34	0xbf0a77c5	-0.54089004
35	0x3e98057d	0.29691687
36	0xbea85796	-0.32879323
37	0x3e4f068e	0.20217344
38	0x3f1e28d2	0.61781037
39	0x3e2f611d	0.1712689
40	0xbf14c1ba	-0.58108103
41	0xbf04866a	-0.517676
42	0x3e800c31	0.250093
43	0x3f6d0226	0.92581403
44	0xbdaa4eb4	-0.08315793
45	0xbf8187a0	-1.0119514
46	0xbedd04f1	-0.43167832
47	0xbd57aae6	-0.052653216
48	0x3f1d2612	0.61386216
49	0x3e183cc0	0.14866924
50	0xbece368a	-0.40275985
51	0xbec6b417	-0.38809273
52	0xbee6d505	-0.45084396
53	0xbf10b7a2	-0.565302
54	0xbf1169f7	-0.56802315
55	0x3b86e51f	0.004116669
56	0xbf26137a	-0.6487347
57	0x3d9ce4a3	0.076607965
58	0xbf1b35bf	-0.60628885
59	0x3f71693a	0.9430119
60	0xbea8da31	-0.32978967
61	0x3f874108	1.0566721
62	0xbe9dd64c	-0.30827558
63	0xbedb482c	-0.428285
64	0xbf71766c	-0.9432132
65	0xbf9594f0	-1.1686077
66	0x3ee3441a	0.44387895
67	0xbf743db0	-0.9540663
68	0x3e352679	0.17690457
69	0x3f7f99b5	0.99843913
70	0xbea59288	-0.32338357
71	0xbf2dedca	-0.6794096
72	0x3f8b8af2	1.0901778
73	0x3f0160a8	0.5053811
74	0x3ed8d9d0	0.42353678
75	0xbf05e383	-0.5230028
76	0xbe93ff2e	-0.28905624
77	0xbf07d763	-0.5306303
78	0xbec987f9	-0.3936155
79	0x3d59b906	0.053154968
80	0x3fd449cc	1.6585021
81	0xbf21aada	-0.63151324
82	0xbf8c71fa	-1.0972283
83	0xbf606a4b	-0.8766219
84	0xbefb48e1	-0.4907904
85	0x3e5a8aad	0.21341963
86	0xbf0ff419	-0.5623184
87	0x3f53f272	0.8279182
88	0xbea779f5	-0.32710233
89	0x3eee8e60	0.46592999
90	0x3faa5693	1.330767
91	0xbf17edc2	-0.59347165
92	0xbde4a204	-0.111637145
93	0xbc46227d	-0.012093184
94	0xbec1f20b	-0.37879977
95	0x3f8c909a	1.0981629
96	0x3f6a48e6	0.91517484
97	0xbebbefd2	-0.36706406
98	0x3f004c63	0.50116557
99	0xbf709e58	-0.93991613
100	0xbdf53473	-0.119728945
101	0x3d3f412b	0.04669301
102	0x3f13e4d6	0.5777105
103	0xbf61037d	-0.8789595
104	0xbd839158	-0.064242065
105	0xbdfaa68b	-0.12238797
106	0x3e2d9bdc	0.16953987
107	0xbe8eb1d2	-0.2787004
108	0xbda87dd9	-0.082271285
109	0xbf006aab	-0.5016276
110	0xbf431634	-0.76205754
111	0xbef6f005	-0.48229995
112	0xbec06daa	-0.37583667
113	0x3fab6c3c	1.3392406
114	0x3f16b779	0.5887371
115	0x3f8745cb	1.0568174
116	0x3f68a26c	0.90872836
117	0x3f03459a	0.5127808
118	0x3ea2e469	0.31814888
119	0x3f53f258	0.8279166
120	0xbf3620f4	-0.7114403
121	0x3f1cbee6	0.6122879
122	0x3f772f04	0.96556115
123	0x3d8b7285	0.06808952
124	0xbbdfc5a1	-0.006828979
125	0xbeab3bb1	-0.33443978
126	0xbf377049	-0.7165571
127	0xbf8056b3	-1.0026459
128	0xbe90f171	-0.28309205
129	0x3eca3f04	0.39501202
130	0x3f520aec	0.82047915
131	0x3f317aba	0.6932789
132	0x3f0f676b	0.5601718
133	0x3da601f1	0.08105839
134	0x3ef0a294	0.46999037
135	0x3ef19100	0.4718094
136	0xbe39aaf9	-0.18131627
137	0xbd5b2f9b	-0.053512197
138	0xbe7abd1c	-0.24486202
139	0xbec23706	-0.37932605
140	0x3eb60f2a	0.35558444
141	0x3d83f021	0.06442285
142	0xbf05229d	-0.5200594
143	0x3dc22fa8	0.09481746
144	0x3fe23a95	1.7674128
145	0xbf4232d2	-0.75858796
146	0x3f55fb26	0.8358635
147	0x3e2ca670	0.16860366
148	0xbe9ac44b	-0.30227885
149	0x3e1e71cb	0.15473096
150	0xbf468a0c	-0.7755439
151	0xbe8363d5	-0.25662103
152	0x3f0b6112	0.5444499
153	0x3e860ed5	0.2618319
154	0xbdcd2dba	-0.10018487
155	0xbd60cf54	-0.054885224
156	0xbd456707	-0.048193958
157	0xbec37dcb	-0.3818191
158	0x3f670072	0.90235054
159	0xbe170975	-0.14749701
160	0x3ec3e2f1	0.3825908
161	0xbf0a0d5e	-0.53926647
162	0x3cff2492	0.031145368
163	0xbe7db142	-0.2477465
164	0xbe10aecf	-0.14129184
165	0xbec26b0a	-0.3797229
166	0xbee00d16	-0.43759984
167	0xbeb5887b	-0.3545569
168	0x3f1afc4b	0.6054122
169	0x3f1acc8d	0.6046837
170	0x3f168802	0.5880128
171	0x3f48aa5b	0.7838494
172	0x3ea66473	0.32498512
173	0x3df4b0c0	0.11947775
174	0x3f737718	0.951036
175	0x3fc96be3	1.573605
176	0xbd79fe6e	-0.06103366
177	0xbc5c722f	-0.013454958
178	0xbe77bff5	-0.2419432
179	0xbe910de4	-0.2833091
180	0xbedf99d9	-0.43672064
181	0xbf7658e1	-0.9622937
182	0x3f036524	0.51326203
183	0x3d0982ab	0.03357188
184	0x3f61144f	0.87921613
185	0xbf006eea	-0.5016924
186	0x3f0b628d	0.5444725
187	0x3f0d00e4	0.55079484
188	0x3fc50d89	1.5394756
189	0x3e0ef6ad	0.13961287
190	0x3e55aa2a	0.20865694
191	0x3fa65eca	1.2997677
192	0x3fad39fb	1.3533319
193	0x3f9fd591	1.248705
194	0xbf8952dc	-1.0728412
195	0xbf642103	-0.8911287
196	0xbe80a8be	-0.2512874
197	0xbf0950b9	-0.536388
198	0xbe78034f	-0.24220012
199	0x3ebdee42	0.3709584
200	0x3f966a3d	1.1751171
201	0xbf13cef5	-0.57737666
202	0x3f538f31	0.8264037
203	0xbf8ef7e6	-1.1169403
204	0x3fc9ee61	1.5775872
205	0xbf29c37a	-0.663139
206	0xbe067de7	-0.13133965
207	0xbe48f5ee	-0.19625065
208	0xbe164126	-0.1467329
209	0xbdf07ffd	-0.11743162
210	0xbd9f9f1c	-0.077940196
211	0xbd9352a3	-0.07193496
212	0x3e2c3251	0.16816069
213	0xbf20a309	-0.6274877
214	0x3fb406f0	1.4064617
215	0x3f91c94f	1.138956
216	0x3dcdfe8e	0.10058318
217	0xbda25e1c	-0.07928106
218	0xbecbeb74	-0.39828074
219	0x3fa6b39b	1.3023561
220	0x3f1ab3be	0.60430515
221	0x3dd71dea	0.105037525
222	0x3fb7fba2	1.4373667
223	0x3f5d928f	0.86551756
224	0xbec9bdc2	-0.39402586
225	0x3f9f3251	1.243723
226	0x3fbc698e	1.4719713
227	0xbe0515c3	-0.12996583
228	0x3e7f9bb5	0.24961741
229	0x3b360644	0.002777473
230	0xbd941514	-0.07230583
231	0x3fa5d72f	1.2956294
232	0xbf462dd1	-0.7741366
233	0x3eb7f38d	0.35928002
234	0xbe8e47f0	-0.2778926
235	0x3f7c9879	0.98670155
236	0xbda86115	-0.08221642
237	0xbdcabb5d	-0.09899018
238	0xbf391d36	-0.723102
239	0xbf548b74	-0.8302529
240	0xbe9261e0	-0.28590298
241	0x3da8ad76	0.0823621
242	0xbfa4c9c9	-1.287408
243	0x3e8198d3	0.25311908
244	0x3f821281	1.0161897
245	0xbed9b074	-0.42517436
246	0x3f228519	0.6348434
247	0x3ec5620a	0.3855136
248	0x3f5ac3a8	0.854548
249	0xbe96e89a	-0.29474336
250	0x3e841584	0.25797665
251	0x3dc66301	0.09686852
252	0xbd2c166e	-0.042013578
253	0x3f3e9372	0.74443734
254	0x3d7de13e	0.061982386
255	0x3f028129	0.5097833
