model/ckpt/model_Dense_Assistment17_train_ncd.pt (torch, 173019 bytes, 8 tensors)

student_emb.weight f4 [120, 102]
0.4408509 0.08279399 1.0971619 1.144601 0.3570308 -1.2214898 0.009126622 0.17499676
-0.8117695 -0.0865822 1.9126241 -1.9242055 -1.0162538 -0.74862784 1.2954043 0.039581567
0.08114896 0.20678683 0.052626844 -0.08049177 0.012226155 0.045718495 -0.06975014 -0.07753967
-0.40709516 -0.3195439 -0.032838967 -0.9174957 -0.032566406 0.78900087 0.9048953 -0.022540323
0.7518213 1.0412395 0.8247053 -0.64139944 0.09812895 0.7442475 1.5151737 0.4406629
1.735277 0.4246243 1.384945 1.3925375 -0.82790905 -1.3810238 1.8677 0.06715144
0.7108421 1.0356569 -0.023848549 0.10306654 0.06814872 -0.19435965 -0.037236277 0.08743966
-0.08969873 0.5714142 0.18850422 -1.0648679 0.01645925 0.105620004 0.75333035 -0.08130019
-0.10837478 0.09702343 -0.001415717 -0.12641372 0.034628447 0.010497731 -0.09073752 -0.08570813
-0.21189971 0.026037207 0.013688369 0.09097873 0.051931344 0.027559953 -0.1379691 0.025168821
0.0006123839 -0.033304535 0.032525603 0.048878435 0.95461607 -0.05967249 -0.6934677 -0.0009965306
-0.115096524 -0.04940802 0.18292677 0.5322849 0.047419786 -0.0009654645 0.13093 -0.20414816
1.1631812 1.0278598 0.05027593 0.038744204 -0.14368136 0.08984749 0.32872066 0.067384146
1.1096226 1.1289271 0.7003147 -0.8578049 0.0931606 -0.63629055 -0.729787 -0.03699008
0.26959854 -1.2272549 -1.2043847 -1.2669816 -1.2479835 0.00045401376 -0.14503902 0.04181482
-0.025714768 0.08567145 0.120829694 -0.90894383 -0.16960755 -0.03144321 -0.5220194 -0.5886021
-0.0025641234 -1.0962226 0.042600885 -1.1109735 -0.9595341 -0.10082015 0.8748265 1.7747363
0.66791284 0.9960535 -0.057865657 0.91211915 1.5590928 0.41796944 1.5800335 0.65401006
-0.66749877 1.2333045 0.9472075 -1.7857704 1.6974359 0.10208479 0.5262163 -1.0231743
0.034669023 -0.15080087 0.07197382 -0.052852936 0.09978928 0.13127819 -0.08342573 1.1862098
0.16183914 1.9689399 -0.031053236 0.08545652 0.60512507 -0.06336732 0.11091606 0.04309291
-0.05938834 -0.10620142 -0.19065021 -0.0015908204 0.0848635 -0.05117569 0.027710952 -0.17129529
-0.059517544 0.027300475 -0.10906599 -0.05498148 0.077586524 0.019878957 0.016376054 0.06992969
-0.12772405 0.12758756 -1.1205213 -0.03011698 -0.6906116 -0.19041178 0.1572861 -0.06755297
0.11903624 0.5828591 -0.027517756 0.014345208 0.05034794 -0.107115366 -0.41925153 0.86219156
-0.036694895 0.10441411 0.13136977 0.17389238 -2.0729604 0.18077374 -0.12298673 0.6401773
0.61558133 -0.12053149 0.13458528 -2.505982 1.4268482 0.114094995 0.47818297 -0.32361385
-0.63090605 1.1208338 -0.11844048 0.03520019 -0.010469787 -0.017401388 -0.01907202 -0.09100651
0.010951743 0.02121979 -0.06305446 -0.09160617 -1.5448947 -0.027924687 -0.2488478 -1.0585501
0.014398559 0.98504704 1.1364245 0.08365043 -0.9934588 1.6836025 0.75770897 -0.8102369
0.09005385 1.1791394 0.6783616 -0.3236559 1.4440225 0.44516167 -0.83594286 1.4273367
-1.0924345 0.8265422 -1.8589886 -0.0118314 0.5791665 0.9491953 -0.06569747 0.16154362
00000000: 36b7 e13e e58f a93d cd6f 8c3f 4982 923f
00000010: becc b63e c759 9cbf d487 153c 5a32 333e
00000020: 20d0 4fbf 0252 b1bd ded0 f43f 5e4c f6bf
00000030: 9b14 82bf 13a6 3fbf cfcf a53f 4820 223d
00000040: 6d31 a63d edbf 533e 3f8f 573d ded8 a4bd
00000050: 3650 483c 5143 3b3d 29d9 8ebd 1ecd 9ebd
00000060: c76e d0be 429b a3be 2782 06bd 00e1 6abf
00000070: 5a64 05bd f6fb 493f 38a7 673f 7ca6 b8bc
00000080: 5c77 403f 5647 853f e31f 533f c132 24bf
00000090: d5f7 c83d 0187 3e3f 36f1 c13f 919e e13e
000000a0: 8f1d de3f 5b68 d93e e145 b13f ab3e b23f
000000b0: d9f1 53bf 63c5 b0bf cb10 ef3f b286 893d
000000c0: bff9 353f 6890 843f 085e c3bc 8d14 d33d
000000d0: 8e91 8b3d 3706 47be 1185 18bd 9113 b33d
000000e0: f8b3 b7bd 3348 123f 4007 413e 974d 88bf
000000f0: 8dd5 863c 4d4f d83d 42da 403f b780 a6bd
00000100: 99f3 ddbd 38b4 c63d 948f b9ba 9972 01be
00000110: 8fd6 0d3d adfe 2b3c 98d4 b9bd be87 afbd
00000120: 3dfc 58be fb4b d53c 2e45 603c 0e53 ba3d
00000130: f6b5 543d 69c5 e13c c647 0dbe d82e ce3c
00000140: 6388 203a 566a 08bd 9139 053d c134 483d
00000150: b861 743f 246b 74bd 1987 31bf 059e 82ba
00000160: bab7 ebbd 1060 4abd 2851 3b3e d343 083f
00000170: 403b 423d 3a17 7dba 8412 063e 370c 51be
00000180: 1fe3 943f e990 833f 22ee 4d3d 3eb2 1e3d
00000190: 3521 13be f601 b83d 134e a83e b300 8a3d
000001a0: 1d08 8e3f af80 903f d347 333f 1a99 5bbf
000001b0: fcca be3d f0e3 22bf 52d3 3abf e982 17bd
000001c0: d208 8a3e b016 9dbf 4729 9abf 742c a2bf
000001d0: ecbd 9fbf b208 ee39 1c85 14be 0446 2b3d
000001e0: c7a7 d2bc 8374 af3d 8f75 f73d 8bb0 68bf
000001f0: 9aad 2dbe 98ca 00bd 10a3 05bf a1ae 16bf
00000200: da0a 28bb 0651 8cbf 447e 2e3d 6134 8ebf
00000210: 07a4 75bf cb7a cebd a1f4 5f3f 8f2a e33f
00000220: 56fc 2a3f 5dfd 7e3f 8a04 6dbd a480 693f
00000230: 5a90 c73f 1700 d63e 8a3e ca3f 346d 273f
00000240: 33e1 2abf ecdc 9d3f 317c 723f 2094 e4bf
00000250: 9445 d93f d511 d13d 1db6 063f 60f7 82bf
00000260: 1b01 0e3d 8b6b 1abe 0367 933d 527c 58bd
00000270: 525e cc3d ca6d 063e 1cdb aabd b9d5 973f
00000280: 29b9 253e 3906 fc3f 5b63 febc d403 af3d
00000290: 7ae9 1a3f bac6 81bd f627 e33d 3182 303d
000002a0: 3041 73bd 2180 d9bd cf39 43be 1383 d0ba
000002b0: eacc ad3d 9a9d 51bd 1402 e33c 0868 2fbe
000002c0: abc8 73bd 3fa5 df3c fd5d dfbd 4334 61bd
000002d0: afe5 9e3d 32d9 a23c 1327 863c 4c37 8f3d
000002e0: 18ca 02be 50a6 023e 3e6d 8fbf e3b7 f6bc
000002f0: eccb 30bf 4efb 42be 9b0f 213e 3659 8abd
00000300: 46c9 f33d 4136 153f eb6c e1bc 2a08 6b3c
00000310: a439 4e3d 4d5f dbbd 23a8 d6be 96b8 5c3f
00000320: 634d 16bd 11d7 d53d cc85 063e d810 323e
00000330: 62ab 04c0 c01c 393e 77e0 fbbd a9e2 233f
00000340: bd96 1d3f 37d9 f6bd b9d0 093e 0262 20c0
00000350: f6a2 b63f a3aa e93d 66d4 f43e b7b0 a5be
00000360: 0f83 21bf 7b77 8f3f ec90 f2bd 132e 103d
00000370: 7889 2bbc 5b8d 8ebc ed3c 9cbc 9f61 babd
00000380: f16e 333c 20d5 ad3c b222 81bd 049c bbbd
00000390: 1cbf c5bf 50c2 e4bc f5d1 7ebe 927e 87bf
000003a0: efe7 6b3c 0b2c 7c3f 5c76 913f eb50 ab3d
000003b0: 5153 7ebf 4980 d73f 37f9 413f af6b 4fbf
000003c0: 276e b83d 0aee 963f 1ba9 2d3f 3ab6 a5be
000003d0: bbd5 b83f 3bec e33e 5a00 56bf f8b2 b63f
000003e0: e5d4 8bbf 4598 533f 57f3 edbf 7dd8 41bc
000003f0: 4144 143f 77fe 723f 658c 86bd b16b 253e

k_difficulty.weight f4 [83, 102]
0.6366698 0.014908525 0.009327391 -0.062115695 -0.037555214 0.02126196 -0.1526368 -0.05076653
-0.08642876 0.19429685 -0.054012064 0.08075973 -0.123463616 0.0069858967 -0.122836046 0.05075494
-0.0060777892 -0.0053225667 0.015256847 0.036915522 0.03178013 -0.18067028 -0.07119563 -0.0024667368
-0.14828043 0.04558575 -0.004407084 -0.123728655 -0.07043978 0.101736136 -0.043529734 0.07371664
-0.017956378 -0.071304545 0.10605481 0.08193553 -0.15361734 -0.04329279 0.20947134 0.124027744
-0.19954683 0.021178832 0.05531384 0.018769113 -0.13482465 0.10611821 -0.13692808 -0.012787292
0.14969802 0.00874013 -0.008725663 -0.029112933 0.015252517 -0.0067909467 0.13789323 -0.10880033
-0.019125793 0.102134265 -0.045597613 0.14345704 0.07333808 0.125667 -0.0985515 -0.03909251
-0.053321764 -0.18730778 0.061180703 -0.015597623 -0.09490749 0.028744616 -0.18692859 0.12623246
-0.0016990353 0.019594472 -0.12001469 -0.17965606 -0.10418513 -0.060795363 -0.08810949 0.049991112
-0.006437058 0.027521916 -0.09312894 -0.034334593 -0.018266708 0.112273745 0.15049498 -0.07894385
-0.041034333 0.05932493 0.1446621 0.28351143 -0.04875086 0.09186855 -0.06300313 0.048035238
0.097663626 -0.23090349 0.047595736 0.052219134 -0.13864246 0.011564511 -0.03148035 0.011819141
0.69482476 0.20866959 0.005893612 0.023935111 -0.052345984 -0.07922194 0.15036714 -0.119960934
0.111760505 -0.20350118 -0.08071975 -0.07013378 0.008910675 0.11969709 0.12850368 -0.18654503
0.031979278 -0.10234796 -0.15888162 0.03986449 0.018426437 -0.055581152 -0.16757971 0.1710052
-0.053503875 0.09558174 -0.15287453 -0.04815024 0.011103027 -0.163673 -0.065834716 -0.13876787
0.23663422 0.037212703 0.09209029 -0.009684172 -0.10089939 -0.006023463 -0.09851564 -0.06802259
-0.055318303 0.042688485 -0.019164741 0.03465745 0.0076276744 -0.017922238 0.12548402 -0.039323345
-0.011166837 0.042510636 -0.10807623 0.080112696 0.03473395 -0.018512085 -0.1665906 0.14518307
0.18526 -0.21920839 -0.006627424 0.1721451 -0.07053854 0.044372212 -0.035607316 -0.07531084
-0.22866021 0.116195075 -0.22371766 0.025328793 -0.16559537 0.0068604066 0.028838618 0.042393733
-0.06844422 0.015507149 -0.013908146 0.08454866 0.107922584 0.038931217 0.06450871 -0.10837182
0.2465717 -0.09349476 0.13286614 -0.08410662 0.48323676 -0.008236912 0.011830546 -0.16474766
-0.047441717 -0.09557991 0.007638203 0.10329512 0.00572771 -0.008383281 -0.05958935 0.14748146
-0.037681628 0.0010754722 0.08473366 0.02845455 0.0043624444 0.034085494 -0.08455198 -0.166887
0.19232085 0.1202278 0.04670287 0.11555424 0.12427572 0.16825533 0.010578836 -0.11587162
-0.035435654 0.06029568 0.02029178 -0.02300927 0.059057985 0.048043422 0.017825851 0.0344937
0.11651641 -0.033896115 0.008065878 -0.088659585 -0.1474525 0.0064095464 0.04885499 -0.11455792
0.01910734 -0.05609153 0.09677251 0.01303519 -0.16898516 -0.03653072 -0.045784485 -0.019293545
-0.17111759 -0.058122717 -0.2580151 0.017371606 -0.060035024 -0.008161332 0.26015222 0.046859104
0.14376543 -0.02515027 0.101897635 -0.051707417 -0.06641539 -0.10887379 -0.14434172 -0.11837512
00000000: cbfc 223f e342 743c ead1 183c 076d 7ebd
00000010: 7fd3 19bd 902d ae3c d24c 1cbe 91f0 4fbd
00000020: 9001 b1bd c1f5 463e c13b 5dbd 5b65 a53d
00000030: 7eda fcbd f3e9 e43b 7791 fbbd 69e4 4f3d
00000040: 3128 c7bb ed68 aebb dbf7 793c bb34 173d
00000050: e22b 023d a101 39be 04cf 91bd faa8 21bb
00000060: d3d6 17be 20b8 3a3d 4d69 90bb 7365 fdbd
00000070: bb42 90bd 095b d03d 3c4c 32bd c0f8 963d
00000080: 4119 93bc 1e08 92bd 4433 d93d d1cd a73d
00000090: dd4d 1dbe c853 31bd a87f 563e 4202 fe3d
000000a0: 0156 4cbe 3b7f ad3c c490 623d afc1 993c
000000b0: 790f 0abe 8154 d93d e036 0cbe ca81 51bc
000000c0: 704a 193e c332 0f3c 15f6 0ebc 3f7e eebc
000000d0: b1e5 793c 9786 debb e233 0d3e b5d2 debd
000000e0: b2ad 9cbc c52b d13d 90c4 3abd 67e6 123e
000000f0: 4632 963d daae 003e 5ed5 c9bd 781f 20bd
00000100: ec67 5abd 9ccd 3fbe 9e98 7a3d 2c8d 7fbc
00000110: dc5e c2bd d479 eb3c 356a 3fbe 1543 013e
00000120: 2ab2 deba 9684 a03c 43ca f5bd c2f7 37be
00000130: 035f d5bd 8f04 79bd c072 b4bd 7bc3 4c3d
00000140: f5ed d2bb a475 e13c 63ba bebd 6ea2 0cbd
00000150: 10a4 95bc c7ef e53d 5b1b 1a3e 50ad a1bd
00000160: 9e13 28bd b3fe 723d 4d22 143e 6928 913e
00000170: fbae 47bd 9425 bc3d c907 81bd 99c0 443d
00000180: de03 c83d f771 6cbe bff3 423d bbe3 553d
00000190: 4af8 0dbe 1379 3d3c 8af1 00bd 12a5 413c
000001a0: 09e0 313f 7bad 553e 331f c13b 9113 c43c
000001b0: be68 56bd 1d3f a2bd d8f9 193e 14ae f5bd
000001c0: b1e2 e43d 9d62 50be 6550 a5bd 4da2 8fbd
000001d0: 14fe 113c bf23 f53d 7896 033e a905 3fbe
000001e0: b4fc 023d cf9b d1bd ddb1 22be f348 233d
000001f0: 0af3 963c 10a9 63bd 049a 2bbe fd1b 2f3e
00000200: e126 5bbd 5cc0 c33d 248b 1cbe 3039 45bd
00000210: 78e9 353c e599 27be 5ad4 86bd 2a19 0ebe
00000220: 3e50 723e 596c 183d d599 bc3d 5daa 1ebc
00000230: 57a4 cebd 7860 c5bb 91c2 c9bd 6d4f 8bbd
00000240: 7295 62bd 1fda 2e3d 60ff 9cbc f8f4 0d3d
00000250: 92f1 f93b a8d1 92bc e27e 003e 8411 21bd
00000260: 1cf5 36bc a21f 2e3d 1257 ddbd 2012 a43d
00000270: 3045 0e3d a8a6 97bc ba96 2abe dfaa 143e
00000280: ccb4 3d3e 2a78 60be dd2a d9bb ce46 303e
00000290: 8376 90bd a3bf 353d fad8 11bd 923c 9abd
000002a0: e725 6abe aff7 ed3d 3e16 65be 547e cf3c
000002b0: d591 29be 43cd e03b f73e ec3c 0da5 2d3d
000002c0: 7c2c 8cbd b211 7e3c fede 63bc d927 ad3d
000002d0: 8406 dd3d 5776 1f3d 241d 843d 0bf2 ddbd
000002e0: 4b7d 7c3e 2e7a bfbd 100e 083e 1740 acbd
000002f0: cf6a f73e 1df4 06bc e8d4 413c 9cb3 28be
00000300: 3f52 42bd 66bf c3bd e449 fa3b 648c d33d
00000310: 84af bb3b 075a 09bc f613 74bd 6105 173e
00000320: 0d58 1abd dcf6 8c3a d788 ad3d 8419 e93c
00000330: d6f2 8e3b 3b9d 0b3d 9729 adbd 6de4 2abe
00000340: c2ef 443e fe39 f63d 824b 3f3d b4a7 ec3d
00000350: 4584 fe3d 204b 2c3e db52 2d3c 1a4e edbd
00000360: fa24 11bd 9af8 763d f23a a63c f07d bcbc
00000370: c9e6 713d 2ec9 443d 8507 923c 4449 0d3d
00000380: 28a0 ee3d a7d6 0abd bf26 043c 2893 b5bd
00000390: cafd 16be 2c07 d23b 2c1c 483d 589d eabd
000003a0: ff86 9c3c 3bc0 65bd aa30 c63d 8d91 553c
000003b0: 720a 2dbe 3ca1 15bd 8388 3bbd 7f0d 9ebc
000003c0: 7339 2fbe 1612 6ebd 8e1a 84be e64e 8e3c
000003d0: 49e7 75bd 1cb7 05bc ac32 853e 55ef 3f3d
000003e0: 3f37 133e f007 cebc b5af d03d 28cb 53bd
000003f0: cb04 88bd 39f9 debd 51ce 13be a86e f2bd

e_discrimination.weight f4 [83, 1]
1.4320145 2.0395157 1.9179906 1.58542 3.0837066 2.105286 3.4240587 1.292181
2.0608783 2.1697505 0.85465944 1.0487695 2.4614305 1.603278 1.97713 2.0546687
2.395144 2.206187 2.9215348 0.87570554 2.7173882 2.2215843 1.8835571 1.3985828
2.198762 2.6905293 0.43483743 1.6867706 1.5161284 1.9519082 1.8781996 1.3338121
1.584012 2.2422602 2.0710073 1.5433238 1.9622413 2.539982 1.3052033 2.0160458
2.0576286 1.8942803 1.4819946 1.6799185 1.9788402 1.8389119 2.0101714 2.0279837
2.3036547 1.6285788 2.0398211 1.9963717 2.1481204 0.79696685 1.3748834 3.228583
0.8641258 0.90651137 2.3572416 1.3126891 2.7387767 1.7908216 0.6511972 1.8156297
1.1851078 2.3391113 3.5391667 2.037822 0.43786156 2.2389927 2.3653913 1.070593
2.1431527 2.4653158 2.2546334 1.6387153 2.0010903 1.7069602 0.9887813 0.68753713
2.4477022 1.8661239 2.5434775
00000000: 404c b73f 6d87 0240 b780 f53f 0bef ca3f
00000010: 735b 4540 01bd 0640 c723 5b40 3066 a53f
00000020: 6ee5 0340 31dd 0a40 f6ca 5a3f 143e 863f
00000030: 1488 1d40 3738 cd3f 9912 fd3f b17f 0340
00000040: 0a4a 1940 2b32 0d40 6dfa 3a40 3d2e 603f
00000050: b0e9 2d40 702e 0e40 6618 f13f c304 b33f
00000060: 84b8 0c40 a231 2c40 03a3 de3e 19e8 d73f
00000070: 7f10 c23f 21d8 f93f d868 f03f 5bba aa3f
00000080: e8c0 ca3f 3181 0f40 628b 0440 a28b c53f
00000090: b92a fb3f 118f 2240 e710 a73f e506 0140
000000a0: 30b0 0340 c777 f23f 00b2 bd3f 9207 d73f
000000b0: a34a fd3f 7761 eb3f a6a6 0040 7cca 0140
000000c0: 146f 1340 4575 d03f 6e8c 0240 1c89 ff3f
000000d0: ce7a 0940 0506 4c3f 2efc af3f 1ba1 4e40
000000e0: 5937 5d3f 2111 683f 0cdd 1640 3206 a83f
000000f0: 1e48 2f40 a439 e53f dcb4 263f 8e66 e83f
00000100: 9db1 973f 00b4 1540 b581 6240 ad6b 0240
00000110: 642f e03e a84b 0f40 9262 1740 3109 893f
00000120: 6a29 0940 bcc7 1d40 ea4b 1040 6cc1 d13f
00000130: dd11 0040 ac7d da3f c520 7d3f 6f02 303f
00000140: 27a7 1c40 26dd ee3f 56c8 2240

prednet_full1.weight f4 [128, 102]
0.912929 0.0 1.8117001 2.3986619 1.1058719 1.2930211 0.0 0.58245736
2.0910347 0.08166185 1.4499873 1.9519801 1.7110696 2.1253643 2.5672252 0.25496954
0.0 0.0 0.08436409 0.05685042 0.0 2.3548162 0.0 0.0
1.7936137 2.0059767 0.14469837 1.4681722 0.0 2.5023057 1.7974113 0.014915565
2.265958 0.82764846 1.6143819 2.500955 0.0 2.176702 1.9144704 2.493691
1.8913227 1.488616 1.2954589 2.3741033 2.628449 1.8976258 1.4815875 0.09546305
1.6143011 1.8870537 0.0 0.10894672 0.07492698 0.024184985 0.089974016 0.0034005505
0.0 1.8228804 0.0 2.0524664 0.0011422143 0.0 2.2077606 0.0
0.03690869 0.13745843 0.0 0.0 0.0 3.5788052 0.0 0.01252533
0.03025173 0.0489664 0.0 0.003208062 0.0 0.0 0.09979946 0.054257333
0.094631635 0.0 0.0 0.1663406 1.8829052 0.15060084 2.307591 0.0
0.0 0.0 0.13385727 2.487249 0.0 0.0 0.06812221 0.020264026
2.4394588 1.5564761 0.0 0.0 0.032768138 0.14209981 1.4187998 0.02039485
1.0891366 1.9199427 1.1226065 0.9598523 0.008458681 2.033892 1.5218343 0.13165365
2.0209503 2.4844375 1.2668545 1.2690065 2.354624 0.032772794 0.0 0.14255364
0.0 0.12371818 0.046026666 2.042491 0.0 0.0 1.7031906 1.4777899
0.0 1.3623523 0.0 2.583695 1.3448985 0.03260492 1.6478289 1.4540584
1.2116718 1.8134649 0.015961546 1.5672817 2.3520296 2.6082482 1.4382962 1.09822
2.3662837 1.8370886 1.872015 1.4543501 1.6377767 0.043239575 1.0400085 1.8769953
0.0 0.018123858 0.0 0.0 0.0 0.0 0.0 1.0036728
0.0 1.439668 0.08581935 0.0 1.6316535 0.0 0.0 0.022053959
0.0 0.0 0.0 3.1103215 0.051795684 0.0 0.0 0.036292717
0.10500437 0.0 0.0 0.0 0.0 0.0 0.0 0.122381024
0.07932766 0.09903006 1.0173215 0.0 1.7306988 0.0 0.02385933 0.030575616
0.0 1.6307479 0.0 0.115382396 0.05081275 0.003136904 1.3533088 0.92166835
0.0 0.0 0.021682361 0.0 1.1553147 0.0 1.8119938 2.7479177
0.9457728 1.2772877 0.21585064 2.4268436 2.3426917 0.0 2.1207347 1.8040434
1.4395362 1.6688029 2.4390986 0.0 0.0 0.16947117 0.0908904 0.0
0.0 2.292587 0.0 0.0 1.2394779 1.695719 0.092114106 1.6862165
0.0 2.6777945 1.8099989 0.17286034 1.7234111 2.285625 1.245789 2.2621064
0.08426582 2.047218 1.7417008 2.300983 1.9974288 1.6218486 1.7572957 1.9134899
1.6190484 2.7855213 1.078966 0.0 1.2147107 2.2218273 0.0013114602 0.005141962
00000000: b7b5 693f 0000 0000 cae5 e73f ad83 1940
00000010: 368d 8d3f b781 a53f 0000 0000 ed1b 153f
00000020: 83d3 0540 543e a73d 2f99 b93f 7cda f93f
00000030: 5404 db3f f805 0840 6b4d 2440 5e8b 823e
00000040: 0000 0000 0000 0000 14c7 ac3d fcdb 683d
00000050: 0000 0000 4fb5 1640 0000 0000 0000 0000
00000060: 2295 e53f ec61 0040 cf2b 143e 11ed bb3f
00000070: 0000 0000 c725 2040 9311 e63f 6a60 743c
00000080: 7505 1140 c5e0 533f 11a4 ce3f a60f 2040
00000090: 0000 0000 164f 0b40 5e0d f53f a298 1f40
000000a0: dd16 f23f f88a be3f 99d1 a53f 4ff1 1740
000000b0: 8238 2840 67e5 f23f a9a4 bd3f 2282 c33d
000000c0: 6ba1 ce3f fa8a f13f 0000 0000 751f df3d
000000d0: 5173 993d 971f c63c 4c44 b83d c5db 5e3b
000000e0: 0000 0000 2554 e93f 0000 0000 9c5b 0340
000000f0: 5ab6 953a 0000 0000 f34b 0d40 0000 0000
00000100: 912d 173d e7c1 0c3e 0000 0000 0000 0000
00000110: 0000 0000 250b 6540 0000 0000 0b37 4d3c
00000120: 7ad2 f73c fe90 483d 0000 0000 593e 523b
00000130: 0000 0000 0000 0000 a963 cc3d f03c 5e3d
00000140: 3bce c13d 0000 0000 0000 0000 3155 2a3e
00000150: 0a03 f13f 1b37 1a3e 92af 1340 0000 0000
00000160: 0000 0000 0000 0000 e111 093e 162f 1f40
00000170: 0000 0000 0000 0000 a883 8b3d be00 a63c
00000180: 1820 1c40 9c3a c73f 0000 0000 0000 0000
00000190: e237 063d 9d82 113e 3b9b b53f 1a13 a73c
000001a0: d468 8b3f afc0 f53f 92b1 8f3f e1b8 753f
000001b0: 4896 0a3c 492b 0240 77cb c23f 37d0 063e
000001c0: 4057 0140 0601 1f40 4a28 a23f ce6e a23f
000001d0: 29b2 1640 c43c 063d 0000 0000 95f9 113e
000001e0: 0000 0000 f55f fd3d 7586 3c3d 2cb8 0240
000001f0: 0000 0000 0000 0000 2602 da3f 3828 bd3f
00000200: 0000 0000 8f61 ae3f 0000 0000 425b 2540
00000210: a225 ac3f bd8c 053d 0fec d23f 961e ba3f
00000220: 1018 9b3f 9e1f e83f cac1 823c b09c c83f
00000230: a787 1640 8aed 2640 171a b83f 7992 8c3f
00000240: 3171 1740 b825 eb3f 309e ef3f 2528 ba3f
00000250: aba2 d13f fb1b 313d 001f 853f 6241 f03f
00000260: 0000 0000 7c78 943c 0000 0000 0000 0000
00000270: 0000 0000 0000 0000 0000 0000 5a78 803f
00000280: 0000 0000 0b47 b83f 0ec2 af3d 0000 0000
00000290: 06da d03f 0000 0000 0000 0000 81aa b43c
000002a0: 0000 0000 0000 0000 0000 0000 820f 4740
000002b0: b627 543d 0000 0000 0000 0000 aca7 143d
000002c0: 880c d73d 0000 0000 0000 0000 0000 0000
000002d0: 0000 0000 0000 0000 0000 0000 e7a2 fa3d
000002e0: 8a76 a23d 46d0 ca3d 9737 823f 0000 0000
000002f0: 8a87 dd3f 0000 0000 a474 c33c b779 fa3c
00000300: 0000 0000 59bc d03f 0000 0000 9b4d ec3d
00000310: 0821 503d 8494 4d3b 3939 ad3f 75f2 6b3f
00000320: 0000 0000 0000 0000 359f b13c 0000 0000
00000330: 5ae1 933f 0000 0000 6aef e73f e2dd 2f40
00000340: 2b1e 723f 2a7e a33f f307 5d3e 6851 1b40
00000350: a9ee 1540 0000 0000 1eba 0740 e5ea e63f
00000360: b942 b83f 559b d53f 311a 1c40 0000 0000
00000370: 0000 0000 da89 2d3e bf24 ba3d 0000 0000
00000380: 0000 0000 bfb9 1240 0000 0000 0000 0000
00000390: 36a7 9e3f 520d d93f 52a6 bc3d f1d5 d73f
000003a0: 0000 0000 fc60 2b40 0bae e73f 4d02 313e
000003b0: bc98 dc3f ae47 1240 0476 9f3f 5ac6 1040
000003c0: 8f93 ac3d 9f05 0340 0df0 de3f 4e43 1340
000003d0: bfab ff3f bc98 cf3f 11ef e03f 3ded f43f
000003e0: fa3c cf3f fb45 3240 8f1b 8a3f 0000 0000
000003f0: a47b 9b3f 6b32 0e40 4de5 ab3a e77d a83b

prednet_full1.bias f4 [128]
-1.266911 -0.49879313 -0.9150858 -1.5216784 -0.5552159 -0.61131656 -1.3153924 -0.93077886
-0.16650906 -1.0450373 -0.9227783 -0.7533217 -0.77074564 0.2530926 -0.4001401 -1.0489688
-1.550337 -1.0173898 -0.481403 -1.1089945 0.25137898 -0.68371665 -0.74855125 -1.3293166
-1.1173571 -0.4029008 -1.1121653 -1.3774627 -1.1776675 0.07010239 -0.6842616 -1.1510302
-1.1500394 -0.39911672 -0.46218497 -1.7622534 -1.2310263 -0.8589799 -0.9888995 -0.08277623
-0.735699 -0.56523 -0.45893764 -1.378457 -1.2163421 -1.3871208 -0.007014448 -0.74826777
-0.96808356 -1.5796151 -0.84479725 -0.8990077 -0.99465865 -0.99913186 -1.159433 -1.2972002
-0.6228191 -1.0472589 -0.7705373 -1.0291332 -0.7736338 -0.73924065 -0.9587629 -1.0639102
-0.58916104 -0.98974437 -1.2968371 -0.23356609 -1.5317245 -1.1834701 -0.50580084 -0.66999865
-0.97553635 0.06859032 0.014185094 -0.8520953 -0.8402926 -1.1971949 0.06971844 -0.7300734
-0.7350275 -1.2749376 -0.76775223 -1.2983968 -1.0163183 -0.77144647 -0.7104812 -0.93292296
-1.6268824 0.30209577 -0.88045955 -0.9397165 -1.1874729 -0.32305914 -0.44924316 -0.21876405
-0.5701103 -1.3128654 -1.0579098 -1.1189734 -0.9827904 -1.1409122 -1.216004 -1.4754047
-1.1889716 -1.1006961 -0.37236133 -0.7401215 -0.10551038 -1.6125989 -1.5756721 -1.4042273
-1.0135236 -0.82615584 -0.63988 -0.19196883 -0.26616475 -1.431612 -0.18265375 0.088020146
-0.08737557 -0.6263285 -0.7078761 -1.050694 -0.80945987 -1.3061773 -0.67196274 -0.08452063
00000000: 242a a2bf d061 ffbe 1043 6abf 5cc6 c2bf
00000010: a122 0ebf 3e7f 1cbf c75e a8bf 8647 6ebf
00000020: 5a81 2abe c8c3 85bf 333b 6cbf b1d9 40bf
00000030: 964f 45bf 5a95 813e 2adf ccbe 9c44 86bf
00000040: 7171 c6bf d439 82bf 747a f6be 88f3 8dbf
00000050: bfb4 803e 0e08 2fbf 0ea1 3fbf 0c27 aabf
00000060: 8f05 8fbf 0349 cebe 6f5b 8ebf b350 b0bf
00000070: cfbd 96bf d891 8f3d c52b 2fbf f554 93bf
00000080: 7e34 93bf 0759 ccbe 82a3 ecbe 8591 e1bf
00000090: 4592 9dbf 1be6 5bbf 8528 7dbf 9686 a9bd
000000a0: c556 3cbf eab2 10bf e0f9 eabe 4771 b0bf
000000b0: 19b1 9bbf 2d8d b1bf 74d9 e5bb 7a8e 3fbf
000000c0: 53d4 77bf d430 cabf a244 58bf 5e25 66bf
000000d0: f3a1 7ebf 1bc7 7fbf 4d68 94bf a80a a6bf
000000e0: 1371 1fbf 940c 86bf ef41 45bf a3ba 83bf
000000f0: dd0c 46bf e03e 3dbf 7c71 75bf 362e 88bf
00000100: 42d3 16bf e35f 7dbf c2fe a5bf f32b 6fbe
00000110: 8c0f c4bf f37b 97bf 2a7c 01bf 0885 2bbf
00000120: c0bc 79bf 1579 8c3d 9968 683c eb22 5abf
00000130: 6a1d 57bf af3d 99bf 8bc8 8e3d 17e6 3abf
00000140: c32a 3cbf 2831 a3bf 698b 44bf de31 a6bf
00000150: b816 82bf 847d 45bf 19e2 35bf 0ad4 6ebf
00000160: af3d d0bf 4cac 9a3e cc65 61bf 4391 70bf
00000170: 1dff 97bf 0268 a5be 3303 e6be af03 60be
00000180: c0f2 11bf f90b a8bf 9769 87bf 853a 8fbf
00000190: 2798 7bbf 6909 92bf 05a6 9bbf 10da bcbf
000001a0: 3930 98bf 9ce3 8cbf 25a6 bebe 9a78 3dbf
000001b0: d315 d8bd a469 cebf a0af c9bf b8bd b3bf
000001c0: 24bb 81bf f37e 53bf 2dcf 23bf 7a93 44be
000001d0: bf46 88be 103f b7bf 9609 3bbe e843 b43d
000001e0: f6f1 b2bd 1157 20bf 5e37 35bf 247d 86bf
000001f0: c338 4fbf d130 a7bf c005 2cbf 2719 adbd

prednet_full2.weight f4 [64, 128]
0.49230024 0.14342946 0.34733164 0.2494579 0.077311546 0.14497791 0.48951668 0.0112974495
0.26936063 0.015516092 0.013793078 0.21979013 0.044841062 0.0 0.97633165 0.3915332
0.30909812 0.5410614 0.18238589 0.15959057 0.044343576 0.20262764 0.038080487 0.23216794
0.5612979 0.17119779 0.20155782 0.10839166 0.0819149 0.011031368 0.02371661 0.3143786
0.350927 0.0006220213 0.28685725 0.5894616 0.012372263 0.03651971 0.011828808 0.02185404
0.2090483 0.3604523 0.02917638 0.35048556 0.4554182 0.33812684 0.00072344806 0.3745523
0.23073637 0.6162664 0.26782387 0.17685197 0.06891199 0.5801535 0.3039234 0.27188095
0.14332177 0.46670043 0.12930687 0.10077017 0.92361027 0.24993888 0.48424968 0.018278895
0.2598512 0.50607914 0.36474434 0.028482636 0.7450315 0.6070935 0.015072736 0.07630484
0.69650203 0.0 0.0 0.00047451587 0.14812747 0.0 0.004913129 0.2683866
0.098907836 0.09326889 0.30990353 0.39255586 0.502964 0.5938508 0.053731218 0.17287323
0.37223852 0.00025964863 0.18586053 0.0 0.21548341 0.0 0.02708072 0.0
0.2219079 0.14411882 0.30328456 0.5151434 0.68376374 0.25616065 0.010341858 0.29840425
0.19812992 0.10250618 0.008115234 0.048789997 0.042591546 0.1794761 0.38937995 0.0012602695
0.286419 0.16257282 0.26692373 0.0008651647 0.6094506 0.21194057 0.011305788 0.0
0.0 0.15836458 0.012947672 0.18684931 0.054877013 0.5832252 0.559057 0.018358147
0.0 0.0 0.0 0.0 0.0 0.0 0.0 0.0
0.0 0.0 0.0 0.0 0.0 0.0 0.0 0.0
0.0 0.0 0.0 0.0 0.0 0.0 0.0 0.0
0.0 0.0 0.0 0.0 0.0 0.0 0.0 0.0
0.0 0.0 0.0 0.0 0.0 0.0 0.0 0.0
0.0 0.0 0.0 0.0 0.0 0.0 0.0 0.0
0.0 0.0 0.0 0.0 0.0 0.0 0.0 0.0
0.0 0.0 0.0 0.0 0.0 0.0 0.0 0.0
0.0 0.0 0.0 0.0 0.0 0.0 0.0 0.0
0.0 0.0 0.0 0.0 0.0 0.0 0.0 0.0
0.0 0.0 0.0 0.0 0.0 0.0 0.0 0.0
0.0 0.0 0.0 0.0 0.0 0.0 0.0 0.0
0.0 0.0 0.0 0.0 0.0 0.0 0.0 0.0
0.0 0.0 0.0 0.0 0.0 0.0 0.0 0.0
0.0 0.0 0.0 0.0 0.0 0.0 0.0 0.0
0.0 0.0 0.0 0.0 0.0 0.0 0.0 0.0
00000000: c70e fc3e 2cdf 123e 74d5 b13e e471 7f3e
00000010: 8455 9e3d 1775 143e eea1 fa3e f018 393c
00000020: a3e9 893e 3537 7e3c 5dfc 613c aa10 613e
00000030: 43ab 373d 0000 0000 dff0 793f 0a77 c83e
00000040: 1c42 9e3e 0083 0a3f 5ec3 3a3e b66b 233e
00000050: 9ca1 353d 9f7d 4f3e 49fa 1b3d 6fbd 6d3e
00000060: 38b1 0f3f 794e 2f3e 2c65 4e3e 72fc dd3d
00000070: 00c3 a73d e9bc 343c 5649 c23c 3bf6 a03e
00000080: b4ac b33e 250f 233a f4de 923e f5e6 163f
00000090: 08b5 4a3c b195 153d 9ecd 413c 3e07 b33c
000000a0: c210 563e 348d b83e 4e03 ef3c d872 b33e
000000b0: 932c e93e f61e ad3e c7a5 3d3a 52c5 bf3e
000000c0: 2846 6c3e a3c3 1d3f 3620 893e af18 353e
000000d0: bb21 8d3d f184 143f d99b 9b3e fb33 8b3e
000000e0: f1c2 123e 5cf3 ee3e 0569 043e 9760 ce3d
000000f0: b971 6c3f faef 7f3e 93ef f73e 9fbd 953c
00000100: 370b 853e 678e 013f c5bf ba3e 6b54 e93c
00000110: 62ba 3e3f 7b6a 1b3f a3f3 763c b645 9c3d
00000120: f54d 323f 0000 0000 0000 0000 71c8 f839
00000130: baae 173e 0000 0000 50fe a03b f869 893e
00000140: 3190 ca3d c303 bf3d adab 9e3e 15fd c83e
00000150: 40c2 003f 9b06 183f 4415 5c3d ae05 313e
00000160: 0c96 be3e 7321 8839 3952 3e3e 0000 0000
00000170: afa7 5c3e 0000 0000 63d8 dd3c 0000 0000
00000180: d33b 633e e293 133e 1d48 9b3e 70e0 033f
00000190: 240b 2f3f 7d27 833e e570 293c 71c8 983e
000001a0: 92e2 4a3e c3ee d13d c2f5 043c 05d8 473d
000001b0: 7974 2e3d 95c8 373e cf5c c73e a12f a53a
000001c0: 83a5 923e 7d79 263e 3aaa 883e 38cc 623a
000001d0: f404 1c3f f306 593e e93b 393c 0000 0000
000001e0: 0000 0000 532a 223e 7922 543c 6d55 3f3e
000001f0: b8c6 603d 3f4e 153f 5c1e 0f3f d363 963c
00000200: 0000 0000 0000 0000 0000 0000 0000 0000
00000210: 0000 0000 0000 0000 0000 0000 0000 0000
00000220: 0000 0000 0000 0000 0000 0000 0000 0000
00000230: 0000 0000 0000 0000 0000 0000 0000 0000
00000240: 0000 0000 0000 0000 0000 0000 0000 0000
00000250: 0000 0000 0000 0000 0000 0000 0000 0000
00000260: 0000 0000 0000 0000 0000 0000 0000 0000
00000270: 0000 0000 0000 0000 0000 0000 0000 0000
00000280: 0000 0000 0000 0000 0000 0000 0000 0000
00000290: 0000 0000 0000 0000 0000 0000 0000 0000
000002a0: 0000 0000 0000 0000 0000 0000 0000 0000
000002b0: 0000 0000 0000 0000 0000 0000 0000 0000
000002c0: 0000 0000 0000 0000 0000 0000 0000 0000
000002d0: 0000 0000 0000 0000 0000 0000 0000 0000
000002e0: 0000 0000 0000 0000 0000 0000 0000 0000
000002f0: 0000 0000 0000 0000 0000 0000 0000 0000
00000300: 0000 0000 0000 0000 0000 0000 0000 0000
00000310: 0000 0000 0000 0000 0000 0000 0000 0000
00000320: 0000 0000 0000 0000 0000 0000 0000 0000
00000330: 0000 0000 0000 0000 0000 0000 0000 0000
00000340: 0000 0000 0000 0000 0000 0000 0000 0000
00000350: 0000 0000 0000 0000 0000 0000 0000 0000
00000360: 0000 0000 0000 0000 0000 0000 0000 0000
00000370: 0000 0000 0000 0000 0000 0000 0000 0000
00000380: 0000 0000 0000 0000 0000 0000 0000 0000
00000390: 0000 0000 0000 0000 0000 0000 0000 0000
000003a0: 0000 0000 0000 0000 0000 0000 0000 0000
000003b0: 0000 0000 0000 0000 0000 0000 0000 0000
000003c0: 0000 0000 0000 0000 0000 0000 0000 0000
000003d0: 0000 0000 0000 0000 0000 0000 0000 0000
000003e0: 0000 0000 0000 0000 0000 0000 0000 0000
000003f0: 0000 0000 0000 0000 0000 0000 0000 0000

prednet_full2.bias f4 [64]
-4.8849983 -0.88165766 -3.9457653 -0.5368181 -4.284615 -1.0613214 -4.2386384 0.34701815
-4.2527657 -0.6152392 0.36326405 -0.46574965 0.29463848 -4.042171 0.3097902 -1.1560512
-0.40975395 0.27589384 -0.51994467 0.22549081 -4.6085114 -0.7138341 0.293014 -0.48904926
-4.189756 0.3306169 -3.1835597 -0.72885424 0.2562692 0.27792928 0.237152 -0.61517024
-0.5794909 -3.6882071 -4.062205 0.24803588 0.26333082 0.37264857 -0.4904048 -0.533708
-0.37010357 -4.3899465 -4.187138 -4.7177734 0.28958508 -4.21215 -2.0214868 -4.6597824
-0.58089834 -0.9645464 0.37412107 -1.1646507 -3.9319456 0.30316898 0.3098565 -0.56914437
-4.477834 0.24839276 -3.8066256 -0.491572 -0.98688793 -4.0537047 0.2499663 0.342032
00000000: e851 9cc0 51b4 61bf 6b87 7cc0 e96c 09bf
00000010: 911b 89c0 61d9 87bf eda2 87c0 5dac b13e
00000020: a816 88c0 5180 1dbf bffd b93e bd76 eebe
00000030: dbda 963e 7759 81c0 d29c 9e3e 7cf9 93bf
00000040: 45cb d1be f541 8d3e 181b 05bf 10e7 663e
00000050: ed78 93c0 d5bd 36bf ee05 963e aa64 fabe
00000060: 7b12 86c0 9e46 a93e 71bf 4bc0 3196 3abf
00000070: b735 833e bf4c 8e3e f9d7 723e cc7b 1dbf
00000080: 8459 14bf 960b 6cc0 95fd 81c0 1efd 7d3e
00000090: 4cd3 863e cbcb be3e 5716 fbbe 16a1 08bf
000000a0: 377e bdbe 717a 8cc0 09fd 85c0 00f8 96c0
000000b0: 7f44 943e efc9 86c0 0a60 01c0 f01c 95c0
000000c0: c1b5 14bf 83ec 76bf cc8c bf3e 4613 95bf
000000d0: ffa4 7bc0 f738 9b3e 83a5 9e3e 72b3 11bf
000000e0: 6b4a 8fc0 ac5a 7e3e c19f 73c0 53af fbbe
000000f0: b0a4 7cbf f3b7 81c0 2af7 7f3e d11e af3e

prednet_full3.weight f4 [1, 64]
0.4401255 0.0 0.40365154 0.0 0.51572496 0.022533197 0.41955316 0.0
0.3564331 0.0 0.0 0.0 0.0 0.3632452 0.0 0.0
0.0 0.0 0.0 0.0 0.4309166 0.0 0.0 0.0
0.45041552 0.0 0.3259336 0.0 0.0 0.0 0.0 0.014127096
0.0 0.3551721 0.37609336 0.0 0.0 0.0 0.0 0.0
0.0 0.37317333 0.42377335 0.5765362 0.0 0.38404757 0.15470159 0.36734432
0.0 0.040633064 0.0 0.077424355 0.33989584 0.0 0.0 0.0
0.4865957 0.0 0.3079368 0.0 0.0 0.47823477 0.0 0.0
00000000: 2158 e13e 0000 0000 6aab ce3e 0000 0000
00000010: 8d06 043f 8a97 b83c accf d63e 0000 0000
00000020: 667e b63e 0000 0000 0000 0000 0000 0000
00000030: 0000 0000 46fb b93e 0000 0000 0000 0000
00000040: 0000 0000 0000 0000 0000 0000 0000 0000
00000050: 1aa1 dc3e 0000 0000 0000 0000 0000 0000
00000060: dd9c e63e 0000 0000 c5e0 a63e 0000 0000
00000070: 0000 0000 0000 0000 0000 0000 5675 673c
00000080: 0000 0000 1ed9 b53e 4f8f c03e 0000 0000
00000090: 0000 0000 0000 0000 0000 0000 0000 0000
000000a0: 0000 0000 9310 bf3e d2f8 d83e e097 133f
000000b0: 0000 0000 e2a1 c43e 186a 1e3e 8e14 bc3e
000000c0: 0000 0000 db6e 263d 0000 0000 a990 9e3d
000000d0: d406 ae3e 0000 0000 0000 0000 0000 0000
000000e0: 1223 f93e 0000 0000 e4a9 9d3e 0000 0000
000000f0: 0000 0000 30db f43e 0000 0000 0000 0000
