model/ckpt/model_Dense_MOOCRadar_train_irt.pt (torch, 8316 bytes, 3 tensors)

theta.weight f4 [1230, 1]
00000000: 7c5a 3140 1d5a 3140 6cbc a03f 71bd 3640
00000010: e253 bf3f 0f7b bd3e abf1 483c d6bf 523f
00000020: 0e45 3340 f995 c73f ef02 3340 8805 cc3f
00000030: 8925 0540 a81d 79bd f680 bf3f 5acb 253d
00000040: 298e 963f 08d8 943f f0d2 eebb 1b56 963f
00000050: 4cb1 823f 7414 503e 0624 3440 3bbe 2f40
00000060: 411f 3140 f73e 2e40 69eb 3140 df31 57bb
00000070: 2a0c d03c 4c6b 98be 3d1b 4b3f 50f1 d13f
00000080: 222f 0f3f 9d8c c53f ba81 a43f a55d 3040
00000090: b5a3 07bd 65f7 073d bd4f 7c3c 3e99 3340
000000a0: 1078 953f 0cf9 e93b e3ee aa3d 2c63 e43e
000000b0: 605c ea3f d3ca e33f bfe4 b73f b256 2e40
000000c0: f169 3240 0c34 df3a 3da7 b93f d714 823c
000000d0: 68ae 9d3b c02f 3040 ce68 be3f aeb2 2d40
000000e0: a9dd 3340 650d 3440 0bf1 043e 793f 3540
000000f0: e589 d73f d542 3140 991b 2f40 c5b7 e23f
00000100: fc84 3440 9b06 583d e363 dc3f cae0 503c
00000110: d3b1 fa3f d3a0 033f a858 a53f 1390 3040
00000120: 40d5 733f 472a 3540 774a 2f40 b1b3 3340
00000130: 8046 3240 073b 753f e173 213d 5d47 3140
00000140: abef f63f c656 3240 47c3 3740 1156 f83f
00000150: 0c9e 073d fedb 3340 5d36 dd3f 2db9 3440
00000160: 86d1 f43f 1608 923d f1de ed3c da30 af3f
00000170: a864 103c fd00 3240 5f07 3640 1167 c23f
00000180: cfdc 323c c641 203f c74f a2be beb5 3240
00000190: f089 093c fa98 3140 a66e 3140 9ff8 8c3c
000001a0: ee67 3340 09e8 09bd 0e53 65be 6420 9e3d
000001b0: 3d71 77bb 8fcb e93f 965d 3040 ea2f 3440
000001c0: 621a 863d 3c05 423f 82b9 f73f 58cd 3440
000001d0: c751 2d40 dd83 3340 27fd 2a3f fae3 3140
000001e0: 28a7 88bc 9572 3240 f2a9 d43d 39f4 3240
000001f0: c704 e93f f8e1 853f bff5 04bc 8998 b63f
00000200: b7b6 9bbf efa5 ea3f 8de9 3140 99b6 3640
00000210: be6b 3240 10a6 3640 c51c 7d3f 0584 833f
00000220: ae7b 3640 247c 2e40 3d64 79bd 934c 3140
00000230: b8c4 2a40 9142 a93f 91f4 f03f 5a9f 983f
00000240: 9d31 713f ab68 e23f 1a1f 8c3f 4b52 3340
00000250: 23e3 133f 93e9 113f 3b3a bc3f 7f08 b03f
00000260: 4486 3040 a7b2 e33f 6ef5 3640 016c 1540
00000270: fa02 3340 c02e e63f ccb2 4ebc b1d0 3540
00000280: 9ac5 df3f 61e0 873f 365e 3540 c457 3140
00000290: 00b4 3540 2e5b 3240 149a 3540 9a66 5ebe
000002a0: e051 1f3f a916 21bc df58 f93f d012 3240
000002b0: f484 3340 7787 843f 7c8d 3540 7ed6 9d3f
000002c0: 32ea 6f3d e728 ad3f ace3 3340 6bcb 703c
000002d0: 7613 a63f a745 3640 ed77 fb3f 5d0f 3140
000002e0: 1289 3140 edbd 3040 d766 dd3f e603 583f
000002f0: 4fbb 743c 29a7 2fbd 93de c4be 4fd0 c5be
00000300: 4a66 79be 99b3 eb3f 6d0b 3940 390f 3440
00000310: 7094 ad3f 0083 bb3f 266b 2f40 1ef8 1040
00000320: 2cbb 193f cd83 8d3f 2726 673d 4507 c83f
00000330: 2b8e b3be 1da5 9e3f 0bf5 b93f 3e7d 3740
00000340: 64c7 e73f 0e2c b4bc 3178 3440 47d8 3140
00000350: 10a5 3140 1186 9fbe a130 2f40 8491 a73b
00000360: 50c9 95be 13fa 6abc b015 a03f 1cdf df3f
00000370: cfef 0bbd 7d66 7e3c 12d2 933f 4391 9b3f
00000380: cc54 903f d88e 3c3b 2202 60be 973a 3340
00000390: 002b 8ebd 2cae 7c3f f0fc 3140 b398 c83e
000003a0: 08ab 3abd ab0b c53f af10 d83f 5743 3440
000003b0: 3626 b13f e716 f53f 3d68 e2bd 4143 3340
000003c0: f948 3740 6a63 b43f b41f 2f40 0bc6 f53f
000003d0: 6a7e 413f 39cb 8abc b991 193f 44c9 3640
000003e0: a83f 3040 440d 863e c3de b53f 3376 c13f
000003f0: b5ad 3440 5a1f ba3f 9f79 82bc 77c6 7e3f
2.7711477 2.771125 1.2557502 2.8553126 1.4947474 0.3700795 0.012264649 0.8232397
2.8010898 1.5592643 2.797054 1.5939188 2.080416 -0.060819298 1.4961231 0.040477134
1.1762134 1.1628428 -0.0072883293 1.1745027 1.0210357 0.20320302 2.8146987 2.7459857
2.7675326 2.722593 2.7799933 -0.0032836122 0.025396425 -0.2976936 0.7933844 1.6401768
0.55931294 1.5433537 1.285209 2.7557156 -0.033115108 0.03319492 0.01539987 2.8062282
1.1677265 0.0071402844 0.08346345 0.44606912 1.8309441 1.7796272 1.4366683 2.7240415
2.7877162 0.0017029061 1.4504162 0.015879078 0.0048120506 2.7529144 1.4875734 2.7140307
2.810404 2.8133175 0.12982576 2.831999 1.6838957 2.769704 2.7360594 1.7712332
2.8206167 0.052740674 1.7217983 0.012748906 1.9585518 0.51417273 1.2917681 2.7587936
0.9524727 2.8307054 2.73892 2.8078425 2.785553 0.95793194 0.03941715 2.7699807
1.9291891 2.7865462 2.8712938 1.9401265 0.03310971 2.8103023 1.7282215 2.8238022
1.9126441 0.071304485 0.02903697 1.3686783 0.008813061 2.7813103 2.8442 1.5187703
0.010916903 0.6260036 -0.3170149 2.7923427 0.008394703 2.774962 2.7723784 0.017208396
2.8032184 -0.03366855 -0.22394964 0.07721022 -0.0037756704 1.8265246 2.755712 2.8154244
0.06548001 0.7578924 1.9353487 2.8250332 2.7081163 2.8049233 0.6679253 2.7795396
-0.016681269 2.7882435 0.10383977 2.7961562 1.8204583 1.0459585 -0.008115231 1.42653
-1.2165135 1.8331889 2.7798798 2.8548949 2.787826 2.8538857 0.98872024 1.0274664
2.8512988 2.726327 -0.06088661 2.7702987 2.6682568 1.322344 1.8824636 1.192363
0.9421633 1.7688192 1.0946991 2.8018978 0.5776846 0.5699703 1.470527 1.3752593
2.758195 1.7788895 2.8587298 2.334717 2.7970567 1.7983017 -0.012615871 2.8408625
1.7482178 1.061535 2.8338752 2.7709818 2.8391113 2.7868152 2.8375292 -0.21718827
0.62234306 -0.009832063 1.9480246 2.7823982 2.8049898 1.035384 2.8367605 1.2331083
0.058572955 1.3528107 2.810771 0.014696936 1.2974689 2.8480012 1.9645973 2.7665627
2.773991 2.7615921 1.7297009 0.8438095 0.014937236 -0.042884026 -0.3845106 -0.3863549
-0.24355426 1.8414184 2.8913224 2.813429 1.3560925 1.4649353 2.7409148 2.2651439
0.60051227 1.1055847 0.05643287 1.5627218 -0.35069403 1.2394139 1.4527906 2.8670192
1.8107724 -0.021993663 2.819836 2.7788255 2.7756996 -0.31156972 2.737343 0.0051137824
-0.29255152 -0.014341849 1.2506618 1.7489963 -0.034164246 0.015527365 1.1548483 1.2153705
1.1275878 0.0028771665 -0.21875814 2.800451 -0.06941795 0.98703265 2.781063 0.39179
-0.045573264 1.5394186 1.6880091 2.81661 1.3839786 1.9147614 -0.11055038 2.8009799
2.863829 1.4092839 2.73631 1.9201063 0.7558352 -0.016942607 0.5998798 2.8560343
2.7538853 0.26181996 1.4208606 1.5114197 2.8231022 1.4540818 -0.015927134 0.99521583

alpha.weight f4 [181, 1]
00000000: 6803 5240 fc53 1e40 f9d8 4540 74de c03f
00000010: fb1d 3b40 fb3f 0a40 5888 1b40 0a9c 5240
00000020: 49d9 2040 0174 1a40 d472 6940 e123 0c40
00000030: 0c8c fb3f afc6 cc3f 554a 5340 d1d9 6040
00000040: 1f50 3440 40cb 2440 2d86 0440 e0ad 3f40
00000050: 424e 3540 1359 4340 c849 5e40 63e9 3040
00000060: f352 2040 5bc0 1840 7298 0d40 52bb 1940
00000070: 1e1b 1540 f0cc 2540 5aa9 4740 518d 9c3f
00000080: b1e8 3b40 9594 cb3f b865 d53f fb7d 2540
00000090: f55a 0240 6ae3 1e40 767f 1440 fd75 1e40
000000a0: 4b22 5f40 f57b 8140 e146 a23f 19db 0440
000000b0: 00e7 4c40 cb5d 1b40 2cea 5540 5563 6a40
000000c0: 1348 c33f 2b16 3b40 42ec 1040 9c2b 5d40
000000d0: c649 5440 0d22 2840 ae20 f93f 0fcd 3740
000000e0: 8cf2 1f40 ca21 0940 7d0a 2e40 0d4a 6940
000000f0: ec6d 4740 2f91 2040 4743 ff3f 9338 c53f
00000100: 5bb5 4040 4e7f 0840 77f5 3d40 35a0 2c40
00000110: bd4b 1140 7f69 3e3f 8235 4640 b6bb 3640
00000120: f764 0e40 6c86 2f40 452d 1d40 794f 4340
00000130: c707 ee3f 4d7d 1e40 2398 0a40 8e00 e73f
00000140: 67f4 0240 42f2 1540 f523 6240 f6e5 3f40
00000150: 7199 5040 9b62 3640 4fb1 1e40 8b1d 3340
00000160: 0e18 f33f c19c c83f 8567 3340 426b 3440
00000170: e77e 0440 4d64 d13f b4cc 3e40 82a6 0640
00000180: 25dc 0c40 1fcb 2740 6e1e e43f 4283 3a40
00000190: 03af 1a40 df6b 5040 f001 ee3f d59f db3f
000001a0: ff0f 0e40 b88e 3540 5b00 3b40 f7f3 2040
000001b0: 636f 6440 c9ad 0640 a5f8 0c40 f794 0540
000001c0: 8114 8240 35dd 6540 62ea f53f bc53 f63f
000001d0: 1d3d 2a40 50c8 5040 6d25 1540 1f09 5840
000001e0: 8295 2740 6169 f83f 2130 d53f b0d3 0940
000001f0: f82e 0740 c618 0b40 4c3b 5b40 ac61 0d40
00000200: 61ed 1540 cc1c de3f 5b2f 2840 62fa f53f
00000210: e52f 0c40 2289 2c40 1fdb 2940 475f e63f
00000220: 6180 2540 72d9 0c40 7d14 d03f 5246 1140
00000230: 55f3 0140 b07b 3b40 1ae9 0140 c550 0b40
00000240: 4f4d ed3f 3db2 8640 25a3 0440 69c0 0a40
00000250: dc15 3940 ff08 0a40 acef 7040 6bc3 9f3f
00000260: 2705 6c40 31a6 1b40 23e7 3440 0e6e 5f40
00000270: c0df 2440 7b9c e23f 6687 1340 ad51 4440
00000280: 970c d53f 6dfb 3440 f231 4340 9b7a 2040
00000290: 375b 5b40 2d15 2740 032d 3040 01cb 2540
000002a0: a893 d63f 3375 c93f 2a8f 4940 54f6 953f
000002b0: 1790 1540 cc2e 4540 07e2 2640 eb9b ec3f
000002c0: 9a74 1a40 7db2 3140 7d09 2b40 af35 6240
000002d0: b283 da3f
3.281458 2.473876 3.091368 1.5067887 2.9237049 2.160155 2.4301968 3.2907739
2.513262 2.4133303 3.6476336 2.1896899 1.9652114 1.5998133 3.3014119 3.5132945
2.8173902 2.5749054 2.0706894 2.9949875 2.8329015 3.0523117 3.4732533 2.7642448
2.5050628 2.3867404 2.2124295 2.4020581 2.32978 2.5906334 3.1197114 1.2230626
2.9360774 1.5904719 1.6671667 2.5858142 2.0368016 2.4826303 2.3202796 2.4759514
3.486468 4.0463815 1.267788 2.0758727 3.2015991 2.4275997 3.3424177 3.6623127
1.525637 2.923228 2.26442 3.4557867 3.3170028 2.6270783 1.9463098 2.8718908
2.499179 2.1426873 2.7193902 3.6451447 3.116084 2.5088613 1.9942406 1.540789
3.011069 2.13277 2.968107 2.6972783 2.2702477 0.74379724 3.0970159 2.855207
2.2249124 2.7425795 2.455888 3.0517256 1.8596123 2.4763978 2.1655357 1.8047044
2.0461671 2.3429112 3.5334446 2.9984107 3.2593653 2.8497684 2.479572 2.7986782
1.8991716 1.5672837 2.8031933 2.8190465 2.0702455 1.6358734 2.981244 2.1039128
2.2009366 2.6217725 1.7821786 2.9142613 2.4169319 3.256584 1.8594341 1.7158152
2.2197263 2.8368359 2.9218967 2.5148904 3.5692985 2.104357 2.202676 2.087217
4.065003 3.5916264 1.9212153 1.9244304 2.65998 3.262226 2.3304093 3.3755567
2.6185002 1.9407159 1.6655313 2.1535454 2.1122417 2.173387 3.4254942 2.2090864
2.3426135 1.7352538 2.6278903 1.9217036 2.1904233 2.69587 2.653999 1.7997826
2.5859606 2.2007718 1.6256253 2.269917 2.0304768 2.9294243 2.0298524 2.1768048
1.8539218 4.2092576 2.0724576 2.1679938 2.8919592 2.156799 3.7646284 1.2481512
3.6878145 2.4320185 2.8266075 3.4910922 2.5761566 1.7704004 2.305139 3.067485
1.6644467 2.8278458 3.0499234 2.5074832 3.4274423 2.6106675 2.7527473 2.5905154
1.6763811 1.5738891 3.149363 1.1715798 2.3369195 3.0809813 2.6075456 1.8485082
2.4133668 2.776519 2.672454 3.5345266 1.707144

beta.weight f4 [181, 1]
00000000: eea7 d9bd 02c6 0540 e326 f8bc a901 db3f
00000010: bb55 a0bf cfaa 0840 20f7 0d40 73b7 cb3f
00000020: e940 3b3f 22bd 6b3f 9380 6cbd 3432 b03f
00000030: 3c97 81be 62ca 0e3f 0aae 3f3f a619 ae3e
00000040: f9f4 8e3f 3ed0 893e 5b87 253f e4fd d1be
00000050: 4273 1040 ff86 94be 6bf8 823f 64fb c43f
00000060: ed16 dc3f fd81 763f 6293 ad3f 7134 8c3f
00000070: d954 abbe e5cd f03f cae8 633f d3ea bc3f
00000080: 1dfc f03f e1e4 2740 ecec ef3f 6724 d73f
00000090: 6795 dd3f 2fb6 c73f 6281 f83f 8dce e53f
000000a0: 16ac ea3f d3a8 f93f eb8e cd3f d43b 1640
000000b0: 31b3 68be a89a 1b40 a1f6 1bbf f35b bf3f
000000c0: 3c1c 993c 49b9 b2be 7cee c53f 030a 0740
000000d0: c716 ec3e 6b08 0740 43d6 1040 70f7 0240
000000e0: 7ece 2840 0f36 ba3f ae6c e73f 88bc 38bf
000000f0: dc28 a83e fc08 6a3e 9a60 1c40 3d79 3dbe
00000100: 2502 a83f e6e3 dd3f fb09 1a3f e6af 4d3e
00000110: e78f 0f40 b560 603f f1ab f13e 076e f33f
00000120: d0a8 c53f b0b9 cf3e c568 c93f 55d6 043f
00000130: b75b f83f 6a26 eb3f 9b06 fa3e b1fa 1140
00000140: fe8d e03e 298d f53e 2297 36bf f3c4 42be
00000150: e148 7f3f b23b be3f 4f1d a63f 42b1 703f
00000160: 8797 b43f e46c 923f 956b d63f ecab 1140
00000170: df3a b43f 9da4 2fbf 61bf 9e3e 3348 1a40
00000180: 3c8c 0f40 a30a 543f 896e bb3f 94e3 a4be
00000190: d73f bc3f 5efe 60bf 0d61 8c3f 0d27 da3f
000001a0: 1065 2440 43e3 a93f a19d 603f d6bc fe3f
000001b0: bfe7 93be 81e5 9a3f 559f 783f 9dd0 1a40
000001c0: bb1b 1b3f 9c75 8c3f adff b43f f906 1640
000001d0: c54f 0140 3b11 903f 418e 9c3f 7504 243f
000001e0: 221f 0a40 2b1b 5e3f c03a a33e 91a2 97be
000001f0: 91a5 9d3f fa52 963f ebca 923f 2d85 c13f
00000200: 0ab9 1340 842e 0340 69be e63f ba2b 5d3f
00000210: d993 2740 cc1c 493f 874f 963f d71b 563f
00000220: 80a9 2840 9317 c03f f0a1 fa3f 6d72 ed3f
00000230: a721 0640 0d45 bcbf 7b73 ad3f fefb f53f
00000240: 5e4c f53f 00e7 693e 5f09 ebbe fe9e 5ebb
00000250: 48a2 893f 90da 223f 7df9 133e 62f1 0d40
00000260: f998 123f 0a46 19be cf1b c83f c6ee 70be
00000270: 715d f63e 42e1 ec3f 8879 493f 0830 0f3f
00000280: f80a d63f ea51 0f40 f2a0 ff3f 4802 ed3f
00000290: 8ec3 953e 7dbc f63f 9c48 de3f 583c 0c40
000002a0: efb5 cc3f 2927 fe3f e195 a23f a8e8 a93f
000002b0: c2d3 0840 bba1 923e de58 f73f 1a53 0140
000002c0: 06f6 933f 49ac 8e3f c85e 0f40 520b 71bf
000002d0: 3a53 ae3f
-0.10627733 2.0902104 -0.03029198 1.7109882 -1.2526163 2.1354253 2.2182083 1.5915359
0.7314592 0.9208547 -0.057739805 1.3765321 -0.25310695 0.5577756 0.7487494 0.34003943
1.116851 0.2691669 0.6465966 -0.41014016 2.2570348 -0.29009244 1.0232061 1.5389218
1.7194496 0.96292096 1.3560603 1.0953504 -0.3346317 1.8812834 0.8902708 1.4759163
1.8826939 2.6233447 1.8744178 1.6807984 1.7311219 1.5602473 1.9414485 1.7953659
1.8333766 1.9504646 1.605924 2.3474016 -0.22724606 2.4313145 -0.609232 1.4949936
0.018690221 -0.34906986 1.5463405 2.109986 0.46111128 2.1098888 2.2630775 2.0463524
2.6376033 1.4547747 1.8080041 -0.72162676 0.32843673 0.2285499 2.443396 -0.1850328
1.3125654 1.7335174 0.6017148 0.20086631 2.243158 0.87647563 0.47201493 1.9017953
1.5442142 0.40571356 1.5735098 0.51889545 1.9402989 1.8371098 0.48833165 2.280926
0.4385833 0.4795926 -0.7132436 -0.19020443 0.9972058 1.4861968 1.2977694 0.94020474
1.4108742 1.1439481 1.6751581 2.2761183 1.4080466 -0.68610555 0.31005386 2.4106567
2.2429342 0.8282873 1.4643108 -0.32204878 1.4706982 -0.87888134 1.0967118 1.7043167
2.5686684 1.327248 0.8774052 1.9901378 -0.28887746 1.2101289 0.9711812 2.4189827
0.6058919 1.0973392 1.4140526 2.3441756 2.0204937 1.1255258 1.2230912 0.640693
2.1581502 0.86760205 0.3188076 -0.29616216 1.2316152 1.1744072 1.1468176 1.5118767
2.308169 2.049714 1.8026859 0.86394846 2.618399 0.78559566 1.174302 0.8363623
2.6353455 1.5007194 1.9580669 1.8550545 2.095804 -1.4708573 1.3550867 1.9217527
1.916393 0.22842026 -0.45905587 -0.0033969278 1.0752649 0.6361475 0.14450641 2.2178578
0.5726467 -0.14968124 1.5633487 -0.23528585 0.48118165 1.8506243 0.78701067 0.55932665
1.6722097 2.2393746 1.9970992 1.8516321 0.2925076 1.9276272 1.7365909 2.191183
1.5993022 1.9855701 1.270199 1.3274126 2.1379247 0.28639016 1.9323995 2.020697
1.1559455 1.1146327 2.24016 -0.941579 1.3619149
