model/ckpt/model_MOOCRadar_train_irt.pt (torch, 17234 bytes, 3 tensors)

theta.weight f4 [2000, 1]
000000 51 06 02 40 06 0d ed 3f 96 85 00 40 f6 21 17 bf
       2.0316355 1.85196 2.0081534 -0.59036195
000010 e7 8e e9 be 81 22 18 40 58 2f 2f 40 8c 12 1b 40
       -0.45616838 2.377106 2.7372646 2.423007
000020 08 07 15 40 b1 4f ce 3f b6 dc e5 3f 56 8c a4 3f
       2.3285542 1.611807 1.7957981 1.2855327
000030 48 82 97 3f 93 23 23 40 ed 44 80 bb 93 fd e6 3c
       1.1836634 2.5490463 -0.0039144666 0.028197085
000040 48 a6 0f 40 37 3f 24 bd 33 27 45 3c 1e f5 bb 3f
       2.244524 -0.04009935 0.012033272 1.4684179
000050 5b fb f0 3f b6 16 e8 3f 16 4c d4 3f d5 6a d3 3f
       1.8826708 1.8131931 1.658572 1.6516978
000060 1c 2b 8c be 8e 8b e0 3c 53 7a 05 40 a7 aa c0 3f
       -0.2737664 0.027410295 2.085591 1.5052079
000070 cc d3 82 ba 8b 1b c9 3f 67 59 05 40 6e ad 2f 3f
       -0.0009981333 1.571153 2.0835817 0.6862401
000080 9d bc b3 3f f1 a0 e3 3f e4 e3 86 3f 5f f8 9a 3f
       1.4041935 1.778349 1.0538297 1.2107047
000090 ce cc bd 3f 69 a1 ce 3f db 3f fb 3f 0a ef 92 3f
       1.4828126 1.6143008 1.9628862 1.1479199
0000a0 7a ad 01 40 e8 d2 9b 3f cf b9 fe 3f d1 f7 86 3c
       2.0262132 1.2173738 1.9900454 0.01647559
0000b0 63 4e b1 3f 60 11 18 40 51 ad 9a 3f a4 a8 06 40
       1.3852047 2.3760605 1.2084142 2.104043
0000c0 74 0e 0a bd a1 73 b8 3e a1 1c 55 3c ed 89 c4 3f
       -0.03370519 0.36025718 0.013007314 1.5354592
0000d0 cd 6a 63 bc 1a 06 fc 3f 51 06 4e 3f 6d 59 84 3f
       -0.013880444 1.9689362 0.8047839 1.033979
0000e0 23 45 68 3f 30 af b5 3f 79 0c f2 3f 21 aa 96 3f
       0.90730494 1.4194088 1.8910056 1.1770669
0000f0 91 f2 20 3f cd 4f ef 3f 9e 22 01 40 3a ed cd 3f
       0.62870127 1.8696228 2.0177379 1.6088021
000100 20 7b 57 3f c5 c5 b9 3f 9a 05 16 3f 77 c7 16 40
       0.8417225 1.451348 0.586023 2.3559244
000110 f4 91 53 3f e3 2a 00 bf 17 96 73 3e 98 c2 c7 3f
       0.8264458 -0.5006544 0.23787723 1.560626
000120 b5 0e c4 3f 82 ca bc 3f f2 4a 89 3e c0 73 88 3f
       1.5316988 1.47493 0.2681499 1.0660324
000130 5d 68 24 bd fc 3d c0 3f 8e 71 b4 3f 19 2e 86 3e
       -0.04013859 1.5018916 1.4097154 0.26207045
000140 f4 37 f4 bc 01 c9 40 bf 07 11 ee 3f c4 d2 8f be
       -0.029811837 -0.7530671 1.8598946 -0.2809049
000150 cc e6 78 3c 53 30 bd 3f 2a e3 92 3f d8 6f 88 3f
       0.015191745 1.4780372 1.1475575 1.0659132
000160 96 e1 d7 3e 29 09 ae 3f ab a3 14 3c 9b 60 46 3f
       0.42164296 1.3596545 0.009072225 0.7749116
000170 ae ec c8 3f c2 79 0d 40 07 f3 9e 3f 81 d1 dd 3e
       1.5697229 2.2105565 1.2417916 0.433239
000180 55 00 15 40 65 8d 72 3f 8a 28 12 3b ae 84 da 3f
       2.3281453 0.94747 0.0022301995 1.7071741
000190 4b 3d 9c 3e 43 38 99 3f ed 8d de 3f a1 33 2e 3c
       0.30515513 1.1970295 1.7387062 0.0106324265
0001a0 21 4f fa 3f 25 36 19 3d 51 5b ee 3f b9 d6 57 3f
       1.9555398 0.037405152 1.8621618 0.84312016
0001b0 04 93 4a 3c 3f 5a f0 3f 07 d4 fd 3f 17 c9 f6 3f
       0.012364153 1.8777541 1.9830331 1.9280118
0001c0 ca 20 86 3f 9b 75 1e 40 d7 3e 51 3f 7e ec 97 3f
       1.0478756 2.475928 0.8173651 1.1869047
0001d0 14 8d ba 3f ab c6 ea 3f ea 82 91 3f 65 5e 92 3f
       1.4574304 1.8341879 1.1368077 1.1435057
0001e0 ef f3 36 3d 40 ee 2b bd 9f 9f 1f 3f 7c d4 f5 bc
       0.044666227 -0.04197526 0.6235294 -0.030008547
0001f0 61 e9 81 3f 97 8c 32 3f 5c 7e 23 bd ef 5b c1 3f
       1.0149347 0.69745773 -0.039915428 1.5106181
000200 c7 3e b9 3f cf e8 a1 3f 73 63 24 3f 94 71 ef 3f
       1.4472283 1.2649173 0.6421425 1.8706536
000210 e2 84 cd 3f 5f c7 42 bd 32 25 9d 3f ff c0 9a 3f
       1.6056178 -0.047553416 1.2276976 1.2090148
000220 71 56 b7 3f f6 83 63 3f ce a3 29 bf ed d6 57 3f
       1.4323255 0.8887323 -0.6626557 0.84312326
000230 03 26 f2 3f a4 50 6c 3f dd 6e 9a 3c 99 18 c2 3f
       1.891785 0.9231055 0.018851692 1.5163757
000240 82 ba 17 40 cc f4 e2 3f d0 d9 ba 3f 72 c0 7f 3f
       2.3707585 1.7730956 1.4597721 0.99903023
000250 bf 6d 50 3f 87 4f 4b 3f f9 dc 7f 3f 31 7c ac bc
       0.8141746 0.79418224 0.9994655 -0.021055313
000260 cf d1 ed 3f 2a 96 c3 3f 49 ec 58 3f c8 bd fd 3c
       1.8579654 1.5280201 0.8473554 0.030974284
000270 97 a9 09 40 85 18 6c 3f d9 56 06 40 be 5f 03 40
       2.150976 0.92224914 2.0990508 2.0527186
000280 0a 31 bc 3f 99 93 72 bf 85 d9 99 bf 33 16 66 bf
       1.4702466 -0.94756466 -1.2019507 -0.89877623
000290 b1 30 9d 3e c0 f8 52 bd 2f d1 a7 3d 83 29 d2 3f
       0.3070121 -0.051506758 0.081941955 1.6418918
0002a0 74 0b fd 3f a0 ea c4 bc ae 64 84 3c 78 1d 2c 3d
       1.976912 -0.02403766 0.016161289 0.04202029
0002b0 a0 cc 79 3f d2 e5 85 3f 92 03 d2 3f ca 55 16 3d
       0.9757786 1.046076 1.640734 0.03670291
0002c0 2e ac b4 3f ba 07 99 be 01 ea 8f 3f 06 46 3d be
       1.4115045 -0.29888707 1.1243287 -0.18483743
0002d0 c3 c1 32 bf 9e aa 4c bf 46 b8 64 bb 16 3f d0 bf
       -0.69826907 -0.7994784 -0.0034899875 -1.6269252
0002e0 6c df 64 bf 4a d5 9b bf 31 06 c1 bd 71 07 8f 3f
       -0.89403415 -1.2174466 -0.09425009 1.1174146
0002f0 fa a2 62 3f 0a 70 c1 3f ad 92 19 c0 77 85 20 c0
       0.8852993 1.5112317 -2.3995774 -2.508146
000300 eb 2d f9 be 7a 26 0d bf 4d b7 2a bb 86 e6 a9 bf
       -0.48667845 -0.55136836 -0.0026049197 -1.3273475
000310 79 b3 24 bc 6c 5e da bf 01 32 d0 bf ae bb 1e 3e
       -0.010052555 -1.7060065 -1.626526 0.15501282
000320 2f 01 a1 3c f9 9a 86 3c e0 ff 07 c0 04 de 45 3d
       0.019653885 0.016431319 -2.1249924 0.048307434
000330 04 16 19 c0 b2 d6 9a 3e 79 55 86 3d c8 1c fe 3e
       -2.3919687 0.30241925 0.06559271 0.49631333
000340 1b 6f 65 bf 8f 83 1a be d9 2b 81 bf 5d c5 0c 3e
       -0.8962266 -0.15089248 -1.0091506 0.13747163
000350 f2 d1 74 3d 39 12 ed bf fe cb da bf 18 87 21 c0
       0.059770532 -1.8521186 -1.7093503 -2.5238705
000360 c7 97 96 ba 61 a8 cd 3c 18 1a 2d c0 56 3f 6a be
       -0.0011489325 0.025104703 -2.7047176 -0.22875723
000370 17 29 39 bd 0d 3a 8d be 80 57 4a bc c2 f4 bd bf
       -0.045205202 -0.27583352 -0.012349963 -1.4840319
000380 c0 80 00 c0 96 67 6b bd a0 66 b3 bc 41 e2 78 3c
       -2.0078583 -0.057471834 -0.021899521 0.015190662
000390 86 1c b7 be cd 77 c6 ba 9e af d8 bd 98 42 17 be
       -0.3576395 -0.0015141905 -0.10580371 -0.14771497
0003a0 cc 8a d8 be a6 ef 78 3e 82 ae 85 bf 4a 20 51 bc
       -0.42293394 0.24310169 -1.044388 -0.012764046
0003b0 e5 fe d4 3e 26 75 b5 3e fa 5e ff bf 78 a1 0d 3e
       0.4160072 0.3544094 -1.995086 0.13831127
0003c0 af 9f 49 3e 7a 26 7c bf 76 82 01 3e 0f 1c 2d c0
       0.1968982 -0.9849621 0.12647423 -2.7048376
0003d0 a0 31 ba be b1 5f 1f bd 9a ac 03 bf 2c d5 2c c0
       -0.36365986 -0.038909618 -0.51435244 -2.700511
0003e0 e2 9d b0 be a0 eb 4f bd ed ac 7d bf 18 f9 c8 bc
       -0.34495455 -0.05076182 -0.9909199 -0.02453284
0003f0 2d 5c 30 bf 98 8b 33 bf 1f 13 a4 bf a9 29 0d c0
       -0.6889065 -0.7013488 -1.2818335 -2.2056677

alpha.weight f4 [915, 1]
000000 5f 42 91 be 92 7a c8 bf 37 aa 81 bf e5 87 86 3f
       -0.2837095 -1.5662405 -1.013007 1.0510222
000010 2c 2c 84 3e 8f 58 02 40 bf 34 28 c0 ec 0d 0a c0
       0.2581495 2.0366552 -2.6282194 -2.1570997
000020 07 36 b2 3f de fa 89 bf fe 7c a9 bb 65 d9 56 bf
       1.3922738 -1.0779684 -0.005172371 -0.8392547
000030 7a 7e d2 bf ff 0b 32 3f 99 c4 db bd a2 18 22 bf
       -1.6444848 0.69549555 -0.107308574 -0.63318837
000040 87 f4 68 bf 33 64 25 c0 ef 23 05 40 b6 4c 99 3f
       -0.9099812 -2.5842407 2.0803182 1.1976535
000050 41 58 6f 3f f9 a7 86 3f b1 ff eb bf 53 e9 01 c0
       0.9349404 1.0520011 -1.8437406 -2.029866
000060 33 3b 15 c0 87 73 7d 3f 06 71 03 3f 6a 8b 19 c0
       -2.3317382 0.99004406 0.51344335 -2.3991342
000070 9a 3b a6 3f eb e2 61 3e 61 3e cc bf a8 17 10 c0
       1.2986939 0.22059219 -1.5956537 -2.2514439
000080 62 26 2a c0 7e 12 6e 3e d5 c0 b8 3e 60 56 5f 3e
       -2.6585927 0.23249242 0.3608462 0.21810293
000090 34 0e 1b c0 61 83 ae bf 4b e0 a2 3f 97 1d 17 3e
       -2.422742 -1.3633844 1.2724699 0.14757381
0000a0 7b 4d bd bf 1d de fb 3d ad 74 06 be b8 6c 1b c0
       -1.478927 0.12298224 -0.13130446 -2.4285107
0000b0 dd 3e e1 3f ed 42 9c 3f 07 70 08 3f 63 57 7e 3f
       1.7597309 1.2207924 0.5329594 0.9935209
0000c0 66 c3 22 3f 98 7a a2 3f b0 56 b6 3f 40 90 90 3f
       0.63579404 1.2693663 1.4245205 1.1294022
0000d0 ca 57 86 3f ce bd 01 3f 4f 6a 9c bf 9c 54 2b c0
       1.0495541 0.50680244 -1.2219943 -2.6770391
0000e0 18 63 8f 3f c6 3f 1e 3f 3f 04 cf 3f 62 b0 33 3f
       1.1202116 0.6181606 1.6173171 0.70191014
0000f0 84 9a e7 bf eb 90 0a c0 94 e5 d0 3e 1a c0 34 3f
       -1.809403 -2.165095 0.40800154 0.70605624
000100 ad 55 6f 3f 63 89 47 be 8f 19 02 40 30 83 db 3f
       0.93490106 -0.19486003 2.03281 1.714941
000110 1c 32 19 c0 4a 71 d2 bf 66 e8 11 c0 1d 61 7d 3f
       -2.3936834 -1.6440823 -2.2798095 0.9897631
000120 af 0a 5a bf 28 ba 17 c0 2a 16 0a 40 c9 58 23 3f
       -0.8517255 -2.370737 2.1576028 0.6380735
000130 f2 24 d1 bf 4c 78 31 c0 16 da 2c c0 e0 4b fd bf
       -1.63394 -2.7729673 -2.700811 -1.978878
000140 4d ee 0c c0 22 40 02 c0 9d 5d 82 3f aa 9c 8e 3e
       -2.2020447 -2.0351644 1.0184819 0.278539
000150 34 57 df bf da f6 1e c0 bc eb d5 3f 41 c8 9c 3f
       -1.7448487 -2.4838166 1.6712565 1.2248613
000160 d0 b9 aa 3d bc b3 a6 bf 77 d8 bc 3f f8 7f 35 3f
       0.08336222 -1.30236 1.475356 0.7089839
000170 a2 cf a5 bf 9a a9 c6 bd 26 6d 4d bf c6 67 23 3e
       -1.295399 -0.09700318 -0.8024467 0.15957555
000180 d3 57 a8 3f 3d e5 13 c0 9e c0 09 c0 1d 3e 4a 3e
       1.3151802 -2.3108666 -2.1523814 0.19750257
000190 e2 27 78 3d 60 1b 0c 3f ae 52 0e c0 6e d8 e9 3e
       0.06058491 0.5472927 -2.2237964 0.45672935
0001a0 70 da 34 be f0 95 12 3f ad 9b 74 3e 80 60 1e c0
       -0.17661452 0.57260036 0.2388751 -2.47464
0001b0 70 ed 18 c0 41 8d 1b c0 81 9c 4a bf e5 d1 9e 3f
       -2.389492 -2.4304965 -0.79145056 1.2407805
0001c0 1b 20 1f be 66 21 f7 bf 5f a9 31 bf b9 0a dd 3e
       -0.15539591 -1.9307067 -0.69399065 0.43172243
0001d0 d2 a9 99 3e 0c 5e fe bf 8b 49 2f c0 67 79 1b c0
       0.30012375 -1.9872451 -2.7388637 -2.4292848
0001e0 b7 ba 26 c0 2b a8 14 c0 59 ee 55 bf c8 d7 0f c0
       -2.6051462 -2.3227642 -0.83566815 -2.2475452
0001f0 91 ce e7 bf f6 64 15 c0 b5 f3 db be ee f7 f5 3f
       -1.8109914 -2.3342872 -0.4295937 1.9216287
000200 b6 69 00 c0 84 b7 18 3f b5 7a a2 3f 1e 4a 17 3f
       -2.006452 0.5965502 1.2693697 0.5909747
000210 7b 70 ee 3f 36 75 ca bf bf 60 02 c0 00 2c 07 c0
       1.8628076 -1.581702 -2.037155 -2.1120605
000220 9b 76 1e c0 f8 df ee bf 41 d6 9c 3f d1 82 59 3f
       -2.475989 -1.86621 1.2252885 0.84965235
000230 96 1f 2f c0 f1 aa ae 3f 60 51 1e 3e ba d2 14 3c
       -2.7363029 1.3645917 0.1546073 0.009083444
000240 5f a0 04 40 03 38 b1 bf b7 fa ba bf 3a 4b f5 3f
       2.0722883 -1.3845218 -1.4607762 1.9163582
000250 9c bd 7a bf 0e 6a b9 bf 80 8b 97 bf 20 c1 06 c0
       -0.9794557 -1.448549 -1.1839447 -2.1055374
000260 32 bf 20 c0 54 98 84 3f 86 87 74 3f 74 eb 1e 3f
       -2.5116696 1.0358987 0.9551929 0.6207802
000270 1a 5e a6 3f 26 20 31 3f f0 b7 9c 3f 9a 8b a5 3e
       1.2997468 0.6918968 1.2243633 0.3233307
000280 4e 83 75 3e 79 cf f8 bf d9 c8 7c 3e 64 4c ca bd
       0.2397587 -1.9438316 0.24685992 -0.098778516
000290 31 f4 72 bf 01 e1 e4 3b c8 ca 0b c0 7f 75 92 3f
       -0.94903857 0.0069848304 -2.1842518 1.1442107
0002a0 2a 44 39 3f 2c d5 ec bf e7 26 c9 3f 3e 12 16 40
       0.72369635 -1.8502555 1.5714997 2.3448634
0002b0 75 75 fe 3e cb 86 aa 3c ee 51 3a 3f 5b d5 f2 bf
       0.49698988 0.020816227 0.72781265 -1.8971361
0002c0 b4 19 07 c0 1f 86 a6 3f 51 b5 9f 3f 83 5f 19 c0
       -2.1109438 1.300968 1.2477208 -2.3964546
0002d0 9d 18 10 bf 20 78 a1 3f 55 41 a5 3f 30 0a 55 3f
       -0.56287557 1.2614784 1.2910563 0.8321867
0002e0 8c f2 af bf cf 47 0a c0 28 76 18 c0 de 0d af 3f
       -1.3745894 -2.1606328 -2.3822117 1.3676107
0002f0 84 14 f7 bf e1 47 fe 3d 37 23 bc bf 2b 0c 0e c0
       -1.9303136 0.124160536 -1.4698247 -2.2194927
000300 81 fa 1a c0 80 18 32 c0 36 e8 b4 3f 6d 68 32 c0
       -2.4215395 -2.7827454 1.4133365 -2.7876236
000310 d4 b5 0e 3f ad bb 2f c0 8c 1a cf bf 3b 07 0f c0
       0.557462 -2.7458298 -1.6179976 -2.2348163
000320 c2 38 6a 3f f3 49 85 3f 00 bf 23 c0 b6 c8 06 c0
       0.91492856 1.0413193 -2.5585327 -2.1060004
000330 d5 45 51 3f 84 68 2f 3f dc 9f 41 3f 2b 9a 3d 3f
       0.8174718 0.68518853 0.7563455 0.74063367
000340 a6 f1 3b c0 85 30 df bf 8b 1f 1e c0 b6 66 e4 3f
       -2.936624 -1.7436682 -2.4706752 1.7843845
000350 28 5a 96 3f 76 24 03 bf 6c 79 84 be a5 eb 71 3e
       1.1746264 -0.5122751 -0.25873888 0.23625048
000360 49 d0 c7 3e d6 74 80 be c2 7d 2b be bd c2 cd bf
       0.39026096 -0.2508914 -0.16747192 -1.6075054
000370 1e 8a 38 c0 49 fe a7 bf 40 6d e9 3f 6b ab c2 3f
       -2.88343 -1.3124477 1.8236465 1.5208563
000380 94 47 c0 bf bf 8b b8 bf 01 7b 99 3e 6f de ad 3f
       -1.5021844 -1.4417647 0.29976657 1.3583506
000390 ab 80 91 3f 45 df f2 bf ac b0 1d c0 7f a4 4c 3e
       1.1367391 -1.8974386 -2.4639082 0.19984625
0003a0 c8 52 a5 3f 65 c2 6c 3f ee eb b2 3f 34 da 3f 3f
       1.2915888 0.9248412 1.397825 0.74942327
0003b0 56 11 7a 3f 3c 2c 6d 3e ab f1 e7 3f bd 3d 17 c0
       0.976827 0.23161405 1.8120626 -2.3631432
0003c0 c7 ae 94 be 89 5b 54 3f ca fe 92 3e a0 56 26 c0
       -0.29039595 0.8295217 0.28710014 -2.5990372
0003d0 6d 08 70 3f 45 46 af bf d0 67 2a 3d 7b c0 d2 bf
       0.93762857 -1.369332 0.04160291 -1.646499
0003e0 69 36 90 3f dc f8 2d 3f d3 a9 78 3e fe b0 b1 3f
       1.1266605 0.67957854 0.24283533 1.3882139
0003f0 71 c6 30 c0 c1 7a 79 3f 54 9a b6 3f 58 fc 1d c0
       -2.762112 0.9745293 1.4265847 -2.4685268

beta.weight f4 [915, 1]
000000 8c 9a f3 be 53 a1 c4 be 27 44 8d be 66 8a c5 bc
       -0.47578847 -0.3840433 -0.2759106 -0.024113845
000010 d1 6c 65 be e9 a2 04 3f de aa 34 3e 7b be d2 3f
       -0.22404791 0.5181108 0.17643306 1.646438
000020 62 bd a8 3f 75 08 4e bf 30 fb 4f be e4 a2 9b be
       1.3182795 -0.80481654 -0.20310664 -0.30397713
000030 ce 6a dc 3f 4e ce 68 3f 03 3c f9 be 87 25 26 be
       1.7220094 0.90939796 -0.48678598 -0.16225253
000040 ab c4 44 3f cb e8 9c 3e 6d 18 53 3f 38 e5 3b 3f
       0.7686259 0.30646357 0.82459146 0.73396635
000050 18 f7 3d 3f b3 be f4 3e 8b 77 a9 3f 96 55 9c be
       0.7420516 0.47801742 1.3239607 -0.30534047
000060 56 8f c1 3f f8 8c ee 3e d9 02 ba be 55 02 d0 3f
       1.5121868 0.46591926 -0.36330298 1.6250712
000070 ff 81 b1 3f 7c bb cb be 3e ac 08 40 65 25 96 bf
       1.3867797 -0.39791477 2.1355128 -1.1730162
000080 bf a7 98 3f 02 46 ae 3e 70 28 c4 be 8f f4 a9 be
       1.1926192 0.34037787 -0.383121 -0.33194396
000090 01 1d 07 3f 48 33 f6 3e 0b 09 84 3f e7 c4 1a be
       0.5277863 0.48086 1.031526 -0.15114175
0000a0 33 d2 01 40 20 70 1c bf 23 40 0a bf 70 60 6f 3f
       2.0284545 -0.6110859 -0.54004115 0.93506527
0000b0 e8 cb 97 3e cb 92 7e 3f ae 9f eb 3d 05 3a 5d 3f
       0.29647756 0.9944274 0.11505066 0.86416656
0000c0 c4 5c 4e be 4b 5e 92 3f be 43 f5 3e 33 22 41 3f
       -0.20152575 1.1435026 0.47903246 0.7544281
0000d0 8f 2a b7 3e 1d 9d 02 3e 22 6f 5c bf 3e 12 62 3e
       0.35774657 0.12755246 -0.86107075 0.22077271
0000e0 9b 0e 30 3f 34 d8 cc be 46 ea 8a 3f 62 2e 9d 3e
       0.68772286 -0.400087 1.0852745 0.3069945
0000f0 84 72 8b be 22 62 8c 3f fb 97 46 be b4 9c 7c 3e
       -0.27235806 1.0967448 -0.19393913 0.24669152
000100 a1 36 17 3f 50 fa b1 be 5f c3 ae 3f d8 cd b4 3f
       0.5906773 -0.34761286 1.3653373 1.4125319
000110 bd c0 ef 3e 91 09 bd bc 76 ef 9c 3d d6 a5 62 3f
       0.46826735 -0.02307585 0.07662861 0.88534296
000120 db a7 bc 3f 58 d2 89 3e 25 79 d0 3f 93 31 37 3d
       1.4738725 0.26918292 1.628697 0.044725012
000130 f0 82 21 3f 43 6f 1d 3f ac bf 01 3f 32 43 0d 40
       0.6309042 0.61497897 0.50683093 2.2072263
000140 27 a1 83 be 74 7b 6d bf 7c c6 d5 3e b5 f1 c5 be
       -0.25708887 -0.927665 0.41752994 -0.3866097
000150 be 24 b2 3f 5d a1 7d 3f 9e b7 7e 3f 2b 0e 88 3f
       1.3917463 0.99074346 0.9949893 1.0629324
000160 e5 61 a9 be 99 4f b8 3f 23 94 58 3e 8e a1 cc bb
       -0.330825 1.4399291 0.2115026 -0.0062448448
000170 78 e2 50 3f 73 80 61 be e6 1a 94 bf cf eb a5 be
       0.81595564 -0.22021656 -1.1570709 -0.3240647
000180 30 70 dd 3e eb 01 07 3f 2c 09 3b 3f 90 e1 66 be
       0.43249655 0.527373 0.7306087 -0.22546983
000190 b1 3f 2d 3e 50 5f 4e 3e 5a 8d 49 bc 44 db e6 3e
       0.16918828 0.20153546 -0.012301767 0.4508916
0001a0 3d da 26 be 7a 6c c3 bd 9f b0 50 be 5d 2c 2f 3e
       -0.16294189 -0.09542175 -0.20379876 0.17106767
0001b0 a5 94 ce 3f 18 90 4f 3e ac a4 8e bf 09 8a 7f 3f
       1.6139113 0.20269811 -1.1144004 0.9982
0001c0 c5 10 44 bf 18 cf 46 bf 66 3d 50 bf c8 75 c8 bd
       -0.7658809 -0.7765975 -0.81343687 -0.0978809
0001d0 dc b9 09 3f 71 4d 0c 40 76 2a 7b 3f e4 e3 9b 3f
       0.53799224 2.1922266 0.98111665 1.2178922
0001e0 bf 86 a4 3f 79 67 73 3f bc c7 54 bf 98 41 9a 3f
       1.2853621 0.9507976 -0.8311727 1.2051268
0001f0 9f 5c c9 3f 60 ab 8e 3f 7f 4f a8 be 54 e2 8a 3f
       1.5731391 1.114605 -0.3287315 1.085032
000200 19 a4 01 3e fa 17 da bd 03 c5 6b bd d2 36 72 3f
       0.12660255 -0.106491044 -0.057560932 0.946149
000210 a2 0f a0 3f a5 b3 36 3f 7d 42 c8 3e f4 be d3 bf
       1.2504771 0.71367866 0.39113227 -1.6542649
000220 76 2d c3 3f 4c b4 03 bf 25 55 b6 3e 03 83 93 3d
       1.5248249 -0.51446986 0.35611835 0.07202723
000230 f2 e0 4a 3f 18 8b 05 3f 4c 87 ca be 1d 70 01 3f
       0.7924949 0.52165365 -0.39556348 0.50561696
000240 4b 5c cd 3f b5 9b 1e 3e 35 37 91 3f a9 9c 4c 3f
       1.604379 0.15489085 1.1344973 0.79926544
000250 de 64 76 bf c7 0f d0 3f cf e7 bd 3f fd 2a c9 3f
       -0.9624766 1.6254815 1.4836367 1.5716244
000260 11 ce ae 3f b9 29 8b 3f be 7f 8b 3c 06 d8 68 3f
       1.3656636 1.0872108 0.017028686 0.90954626
000270 b5 4d b7 3d 12 c0 c0 3e 9a cc 55 3f 5c 7a 93 3e
       0.08950368 0.37646538 0.8351532 0.2880429
000280 fd 18 45 3e c2 db e5 3f de fc 03 3b 84 55 98 be
       0.19247814 1.795769 0.0020139734 -0.29752743
000290 1e 03 b1 3f e3 ef f8 be 68 67 18 40 93 00 c7 3e
       1.3829076 -0.4862052 2.3813114 0.38867626
0002a0 e2 d0 44 3e 71 78 6a bf be 34 c6 3f 96 ca 6f 3f
       0.19220307 -0.9159003 1.5484846 0.93668497
0002b0 0e fd c1 bb 93 19 c9 be fa 44 49 3e 45 31 b5 3f
       -0.005920059 -0.39277324 0.19655219 1.4155661
0002c0 aa 85 0f 40 ac 57 13 3f fd 75 41 3f 08 ac ac 3f
       2.2425332 0.5755565 0.7557066 1.349
0002d0 a1 ca 33 bf 5c 71 2d 3f c7 99 d0 3e 9f 51 e3 3e
       -0.7023106 0.677511 0.40742323 0.4439821
0002e0 ea dc 23 be aa b6 ab 3f 14 95 ac 3f 71 c1 7a 3f
       -0.16002241 1.341512 1.3482995 0.9795142
0002f0 81 59 16 40 bf 45 c1 be eb 8e 2d 3f 85 a7 c1 3f
       2.349213 -0.37748525 0.677962 1.5129248
000300 b0 d2 ab 3f c5 f2 a1 3f d0 7c 8a 3f 55 b6 a4 3f
       1.3423672 1.2652212 1.081934 1.2868143
000310 c4 7d 9b 3e 52 f6 08 3f 23 e5 92 3f ee f1 ca 3f
       0.3036939 0.53500855 1.1476177 1.5855081
000320 4c e1 3b 3e bf b4 db 3e 44 3f 17 3e ed dd db 3f
       0.18347663 0.42911336 0.14770228 1.7177101
000330 00 ab 4c 3e 1e 52 2a 3e e1 7a 0b 3e 92 5f 6d 3e
       0.19987106 0.16632888 0.13621093 0.23180988
000340 76 d5 80 3f 9c 6e e8 3e 29 08 55 bd d8 64 81 3f
       1.0065143 0.45396888 -0.052009735 1.01089
000350 fd 03 90 3e c1 30 42 bf 46 04 35 bf 06 43 29 3f
       0.28128043 -0.7585564 -0.70709646 0.66117895
000360 cc b4 7d be 22 11 27 bf d8 cf 9c 3c 76 71 c2 bf
       -0.24776 -0.6526052 0.019142076 -1.5190876
000370 8a 5d 8b 3f 0f e4 4a bf 50 92 99 3f d1 8e 4a 3f
       1.0887921 -0.7925424 1.1997776 0.7912417
000380 77 0d 71 3f f8 e4 9f 3e 29 ea e0 bd 2c b1 7e 3e
       0.9416117 0.31229377 -0.109821625 0.24872273
000390 79 e4 44 3f 92 44 12 3e 11 6b 31 3e af fa a4 3e
       0.7691112 0.1428397 0.17325999 0.32222506
0003a0 15 57 f2 3e fb 0b cd 3e 12 ad 97 3f 5f 2e c9 3e
       0.47332063 0.40048203 1.1849692 0.3929319
0003b0 79 b7 9b 3d 15 1e b3 be 6f 7b 99 3f a6 6d a6 3f
       0.07603354 -0.34983888 1.1990794 1.3002212
0003c0 e3 71 72 bf 45 2c 19 3e 0a d6 fa be b0 4b b1 3f
       -0.9470503 0.14958294 -0.48991424 1.3851223
0003d0 5c 93 41 3f 57 24 36 bf f9 3d a2 bd 40 29 05 40
       0.7561548 -0.711492 -0.079219766 2.0806427
0003e0 d0 00 23 3f 49 86 a4 be 18 c9 f3 3d 7d 5c a1 3f
       0.63673115 -0.321337 0.1190359 1.260635
0003f0 79 e2 1c 3f 8c c5 46 3f 7d cb 81 3f 1a ad 36 bf
       0.6128307 0.7764518 1.0140225 -0.7135788
