model/ckpt/model_NeurIPS2020_all_ncd.pt (torch, 431782 bytes, 8 tensors)

student_emb.weight f4 [2000, 38]
00000000: b06b 14bf b733 74bc 5506 03bf 0903 a5bd
00000010: 549c 983e 0d5e 0b3f ebad e63e c8d9 ba3e
00000020: d587 b23e e251 53bd 9be7 213f 86f0 0c3f
00000030: 57ed 193d f2af 513c 376e b03e 3020 9a3d
00000040: 52b0 a2be f2a9 a5bd 66ca 86be fdca c53e
00000050: 9b87 023f a139 9bbc 78c4 8bbc 759e 3f3d
00000060: 5d9f 0ebf acae 8bbc f783 013f f4fb 5ebd
00000070: 2aa6 9b3f 0c1c 88bb 530a 10bf 0961 123f
00000080: 9d1f 53bf 9fd1 4f3e 0e9a ef3e 011e 843f
00000090: 0dd1 e73f d96b ba3d 443b b63e d4ce c43a
000000a0: d8ef cf3d 0271 7bbc 42cd 453f 5406 ee3e
000000b0: 6cad 003f 0e4a 82bb 4acb 813e 702b b93a
000000c0: f24b 15bd 11bc d23e 9668 c93d 0be4 163f
000000d0: 312d f4be 0323 f63d 7e23 15bf 0231 cd3c
000000e0: 3a4e f8be f4f0 fa3e 65ab 8dbf f5f1 ebbc
000000f0: 202b c23e d220 fabc 1e36 1a3f 92d9 083d
00000100: f96f 233f 797d 1ebc 0d9a b33c 50e6 e5bc
00000110: f5e5 0bbf 45ab 66be b6b0 21bf 7f23 b43f
00000120: 9ae4 c93e 5427 8f3f 97b6 983e a657 63bc
00000130: 5681 07bc 0610 05bc d83f 8c3c 00c3 123a
00000140: 2778 b03f 0f9d 683b 4b8b 0e3f 5ad9 a3bc
00000150: a9a0 a3bc 2ea2 8cbd d187 373f c595 bdbc
00000160: a263 963c aa66 c53b b8e5 ef3b 8094 ed3e
00000170: 8fa4 013d 2805 973a 3774 273f 30b1 b2bd
00000180: c53c 8e3f 4001 13bc aa7b b23c 9fd6 1dbd
00000190: 806f 023f 0fb3 0e3c 7dbd e63c 6971 193d
000001a0: 8d86 1f3d e0c3 fd3c d499 433d 94e6 8a3c
000001b0: 489a 933e 60f5 ab3f d734 45bb e8af 25bd
000001c0: 9364 cfbc 9eb8 663b 15b8 1abf 7f17 11bd
000001d0: 8afc 243f 3060 89bc 3b8c 9b3e fec0 073f
000001e0: 1ac1 b2bc f398 a73e e61f 1a3f 52e9 0dbd
000001f0: a851 32bf 7afb 3e3e d82d 03bf a498 993c
00000200: 1638 e6be 63c8 883d 4b3b 043e 3a5b 033c
00000210: f60b 49be 277e a83e a473 4bbf d7c3 80bd
00000220: c8e2 c83e a379 9d3e 41bf 10bf a4ad 273c
00000230: 6e8b dc3e 70de 513c 4f7a 45be f04e c3bb
00000240: 8b19 c8be a597 a2bd 1174 27bf b8d0 1abd
00000250: b488 0e3f f7e1 8ebf c3ee 4e3f 3c4e 3c3c
00000260: f834 373b f345 9b3c f084 8e3d 0f14 963c
00000270: cbfb 953e 4514 3cbd 96bb 173f d13c 5bbc
00000280: f440 b03f dd6e ad3a d4b7 f8bb 765b 3c3f
00000290: fff3 79bc 4845 153f 7a52 783b cf95 8b3e
000002a0: b241 7c3c ec0e 02bc 6aca 643c 02a9 303f
000002b0: 214f ad3c 5af7 debc a7db 623d 4fe4 293f
000002c0: eb69 a83d 8e71 ec3c f38e d23e c697 2bbc
000002d0: 728f 4fbf 4b3e 18bc c74a 853c f2c8 953e
000002e0: 1187 83bd 0c86 273f 53d9 863c 5b20 1fbe
000002f0: 34b6 013f 9de7 3c3d 46a1 933c 9897 43bf
00000300: 7181 8dba f567 853f 7b3d e4bc 982c c63c
00000310: 87d9 833f 1ba6 86bc e41c 6a3f a51d acbd
00000320: 8ec2 c9be d913 3f3f 70d0 1cbc 893b ce3c
00000330: c361 1cbf 8226 8bbf b82c 66bd 7961 d4be
00000340: e46e 34bf 04b9 c43e 0fdb 5bbf 4f84 33bf
00000350: 6011 81bc dbf9 26bd f587 113d a3c8 43bf
00000360: aec4 0d3c e6c9 9bbb 1b2c 4ebe c871 853c
00000370: 640d acbc d0e0 bb3e 5169 ebbe 6acc 6e3c
00000380: e1cf f83e e569 3dbf 773a 76bf 27c1 313e
00000390: 8219 e2bc dcf2 54bd 7643 163f 86b2 0f3c
000003a0: 21f8 253f 3430 c63c 32d8 bd3d dd7c 21bc
000003b0: 19a9 4d3d ffbf 08bc cdd8 133c 1990 c23e
000003c0: 89b1 6cbc aa9b 183f db09 11bd 6f6c 633f
000003d0: 9372 f33c 8307 2fbd 8f34 c43b 22d2 223f
000003e0: 63b2 4c3c 2ce1 52bd 4958 6f3c 0662 b43e
000003f0: b81f 593e b628 083d 91d7 1a3d d512 d2ba
-0.5797682 -0.014904908 -0.51181537 -0.080572195 0.2980677 0.54440385 0.45054564 0.3649428
0.34869257 -0.05159176 0.63244027 0.5505451 0.03757986 0.012798296 0.34459087 0.075256705
-0.31775147 -0.08089055 -0.26326293 0.3863143 0.5098817 -0.018948378 -0.017061457 0.046781976
-0.5571192 -0.017051063 0.5059199 -0.0544395 1.2160084 -0.004153734 -0.56265754 0.57179314
-0.82470113 0.20294808 0.46797222 1.0321656 1.8110672 0.091026016 0.3559209 0.0015015253
0.101531684 -0.015346767 0.77266324 0.46489203 0.5026462 -0.003976113 0.2535041 0.0014127325
-0.03644938 0.41159108 0.09834401 0.58941716 -0.47690728 0.12018397 -0.5825728 0.025047783
-0.48497182 0.49011958 -1.106793 -0.028801898 0.37923527 -0.030533228 0.60238826 0.033410616
0.6384273 -0.00967347 0.021924043 -0.028063923 -0.5464776 -0.22526272 -0.63160264 1.4073333
0.39432222 1.1183877 0.29826805 -0.0138758775 -0.008270582 -0.008121496 0.017120287 0.0005598515
1.3786668 0.0035494005 0.55681294 -0.020001102 -0.01997407 -0.06866871 0.71691614 -0.023142705
0.018358056 0.0060242014 0.007321086 0.4640236 0.031651076 0.0011521922 0.65411705 -0.08725202
1.1112295 -0.008972466 0.021787483 -0.038534757 0.50951385 0.008709683 0.028166527 0.037461672
0.038946677 0.03097719 0.047754124 0.016955651 0.28828645 1.3434258 -0.003009131 -0.04045096
-0.025316512 0.0035205255 -0.60437137 -0.0354228 0.64447844 -0.016769499 0.30380425 0.5302886
-0.021820594 0.32733878 0.60204923 -0.03464634 -0.6965585 0.18650618 -0.51241827 0.018749543
-0.44964665 0.06678846 0.12913243 0.008017356 -0.19633469 0.32908747 -0.7947333 -0.062873535
0.3923552 0.30756864 -0.5654183 0.01023427 0.43075126 0.012809381 -0.19284938 -0.005960338
-0.39081988 -0.0793908 -0.6541148 -0.037796706 0.5567734 -1.1162709 0.8083307 0.011493262
0.0027955156 0.018954253 0.069589496 0.018320112 0.29293665 -0.045917768 0.5927061 -0.013381199
1.3769822 0.0013231892 -0.0075902734 0.7357706 -0.015255927 0.5830884 0.0037890957 0.27262732
0.015396522 -0.007938128 0.013964275 0.69007885 0.021155896 -0.027217556 0.055385258 0.66363996
0.08223327 0.02886274 0.41124687 -0.010473197 -0.81078255 -0.009292196 0.016271008 0.29254872
-0.06422246 0.65438914 0.01646105 -0.15539686 0.50668645 0.04611932 0.018021237 -0.7640319
-0.0010796023 1.042235 -0.027861347 0.024191186 1.0300759 -0.016436627 0.91450334 -0.08404092
-0.39406246 0.7463966 -0.00957118 0.025174873 -0.6108667 -1.0871127 -0.05619499 -0.41480616
-0.70481706 0.38422406 -0.8588113 -0.7012376 -0.015755355 -0.040765624 0.03553005 -0.7647802
0.008652849 -0.004754293 -0.20134012 0.016289607 -0.021002479 0.36694956 -0.45978788 0.014575103
0.485961 -0.7398971 -0.9618296 0.17358838 -0.027600054 -0.05198942 0.5869669 0.008770591
0.6483174 0.024192907 0.092697516 -0.00985643 0.050210092 -0.008346557 0.009023857 0.38000563
-0.014446625 0.59612525 -0.03540979 0.8883733 0.02971772 -0.042731773 0.005987711 0.6360189
0.012493703 -0.051484272 0.014608451 0.35231036 0.21203506 0.03324195 0.037803236 -0.0016027341

k_difficulty.weight f4 [454, 38]
00000000: 979d 013d 7fa8 42bc 594a c3bd d6c2 d7bd
00000010: 954a a63d fc2c 1bbe c88e 69bd d8bd 283d
00000020: 5f46 9739 0eda d1bc 93bb 093d c2aa 293d
00000030: 1ffc 50bd 2ece 9f3d 7260 8f3c d76b 8b3c
00000040: 6f71 b13d 1709 84bd 670d 9c3c a1dd a33c
00000050: c71f ffbc e41c a4bd 6743 ce3c 02f4 c23c
00000060: bdeb d23d 657c 9c3b 7856 253f 6723 29bd
00000070: 457d af3d 7b16 053d 25d9 2a3c ac1e f4bc
00000080: 8ff3 fe3d db49 ecbc e0fd 733d b10a 943d
00000090: 8ba7 9dbd 6fb0 c3bd 06f1 41bd cf6c 723c
000000a0: f644 c1bd 74e8 3a3d 15d1 f33c 10b1 c2bc
000000b0: 5c72 673c deda 09be 8820 2c3d 01ba a8ba
000000c0: 9e51 b4bd f08a a23c 7d5a 75bc 67f9 cb3d
000000d0: cf13 cbbc efff d73b 27f4 573d 1337 593d
000000e0: 743b 643d fd6d 34bd ae93 4eba 1c7c dabd
000000f0: 1701 2dbd 0c2b 51bc 9267 05bd 6370 a0bc
00000100: a1ce 2c3c 77b2 29bc e2ca 133d 1a26 29bf
00000110: 64db 263d 08d5 8e3c 4a66 13bd a90a 13bd
00000120: b686 dfbd 2d51 2abd 9090 bd3d 2ce8 cbbc
00000130: e590 abbd 6228 8d3d e85b 8c3c ef01 013d
00000140: f056 683d 4a56 7dbd feae 5c3d 0ed5 fe3c
00000150: 037b 8ebd 328d 76bd 3c92 8e3d 69ac 68bd
00000160: 6ff6 623d 186c aabd 169f b13c 7558 683d
00000170: 272a e73c 78da 9b3b d5cc a33d 8d4c 813d
00000180: e21d 4e3c c479 da3c 74ef 5f3d 374c 34bd
00000190: 015c 8fba 264c 183d 8dd2 87bc d160 233d
000001a0: d670 273e f38c cc3b 6266 893d 7236 5e3f
000001b0: 909f 3cbd feec bfbc 3af6 b0bc f24f c43c
000001c0: 39d7 88bd 8aa2 91bd 605b 89bc 67e8 1cbc
000001d0: b115 dfbc 1ea9 453d d0ab 24bd ad29 c7bb
000001e0: ef59 44bc 737c e9bc 3ef3 d03a 429c 96bb
000001f0: d4ab 7d3d 16e4 85be 0605 d2bd 1303 dd3d
00000200: fc55 593d f211 443d 0752 2abe 7fe6 843d
00000210: 77b3 fa3b 5af0 69bd 8b17 88bc 0c81 08be
00000220: 7b5c 753d b10c 0abd 3226 39bd d293 b3bc
00000230: 770c 8dbc e693 453c 2eac 533d 623b 76bc
00000240: 84fb ea3c a40b 053e 240c 42bd 0e5a 8e3d
00000250: bb9b a6bd 6fdf 7dbd b1ff 673d f3bf b5bd
00000260: cfe0 643d b1a2 48bd c23d cabc d845 1dbd
00000270: 4690 b73d f30b 933d 7f7c 843c 326b 1c3e
00000280: f7c0 8bbc abda 96bc d28b a33d b18b 133c
00000290: 3f34 57bc 3d6f a13d 0d05 06bc 2021 103f
000002a0: f801 0f3d 2620 64bc cfaa c1bd 7d62 803d
000002b0: f161 efbd 9e4b 3fbd cf58 87bb e402 01be
000002c0: 126b b33c 0306 f2bc 8c97 da3b 5334 923d
000002d0: a97d a43a 67a8 a23d 74d1 0fba 3f65 703d
000002e0: 5184 073c 0f56 413d 6d41 d6bd a9dd 70bd
000002f0: 3f71 51bd c731 b6bd cad2 41bd 5c86 4e3d
00000300: 779b f9bc 7404 08be 77f6 773f 9c20 0dbe
00000310: 1528 8c3d 5012 b0bd 6bdb 35bd eb5c 2dbc
00000320: a4ad a43d f298 603d d323 a8bc f4e1 28bd
00000330: 81fd 33be 7c13 ef3d cb74 5e3d b287 893d
00000340: f201 3db9 461a 233d 3dcd bbbc 830e 6cbd
00000350: 16a2 36bd 8eb2 823d 839c d83c 2b31 d33c
00000360: 90af 26bd 760e 7a3a ff7f 943c aebe 85bc
00000370: c359 d6bd 5ea3 a3bc 467d c53c c074 20be
00000380: defa abbc b723 473c e2e8 a6bc 049a bb3d
00000390: f353 58bd f989 72bc d0c7 29bd ba86 febc
000003a0: 25e0 ccbd b66e 483d f82e 18ba 1a25 523c
000003b0: 596a 83bc b01f e3bd 991d 0dbd 38df f73c
000003c0: 1208 c63d 631e bdbc 1856 613d 87bf a7bc
000003d0: 8aaa 82bd 1a84 26bd f164 52bc 9d7e f2bc
000003e0: e5aa 6cbc 86f2 3bbd b465 c53b d51b 6cbb
000003f0: d589 a13d 9469 a4bd 954c 533d a5aa 653d
0.03164443 -0.011880993 -0.09535665 -0.10535209 0.08119694 -0.15153879 -0.057020932 0.041196674
0.00028853395 -0.025616672 0.03362615 0.041422613 -0.05102169 0.078029975 0.017502043 0.017019195
0.08664214 -0.06447046 0.01904936 0.020003142 -0.031143082 -0.08013323 0.025178624 0.023797993
0.1029887 0.004775571 0.64585066 -0.041293528 0.08568815 0.032492142 0.010427748 -0.029799782
0.12448799 -0.02884381 0.059568286 0.07228602 -0.07697972 -0.095551364 -0.047349 0.01479645
-0.094369814 0.04563184 0.029762784 -0.02376607 0.0141263865 -0.13462397 0.04202321 -0.0012872816
-0.0880463 0.019841641 -0.014975187 0.09959679 -0.024789719 0.006591789 0.052723076 0.05303104
0.05572076 -0.044050205 -0.00078802824 -0.10668203 -0.042237367 -0.012766611 -0.032569475 -0.01958484
0.010547311 -0.010357491 0.036082156 -0.66073763 0.04073657 0.017435566 -0.035986222 -0.03589884
-0.10914366 -0.04158132 0.09256089 -0.024890982 -0.08377246 0.06892468 0.017133668 0.031495985
0.056723535 -0.06184987 0.053877823 0.031107452 -0.069570564 -0.060193248 0.06961486 -0.05680505
0.0554108 -0.083213985 0.021682303 0.056724984 0.028218342 0.004756268 0.07998053 0.06313429
0.012580367 0.02666939 0.05467172 -0.044017997 -0.0010937453 0.037181996 -0.01657989 0.039887253
0.16351637 0.0062423884 0.06708981 0.86801827 -0.04605061 -0.023428436 -0.021601785 0.023963902
-0.066816755 -0.0711108 -0.016767204 -0.009576893 -0.027232023 0.048256986 -0.040202916 -0.006077966
-0.011984332 -0.028501725 0.0015941632 -0.004596264 0.061931446 -0.26150578 -0.102548644 0.10791602
0.053060517 0.047868676 -0.16632853 0.06489276 0.0076507884 -0.057113983 -0.016612789 -0.13330477
0.05990265 -0.03370351 -0.04520244 -0.021921072 -0.017217858 0.0120591875 0.051677875 -0.015028806
0.028684385 0.12992722 -0.04737486 0.0695077 -0.08135172 -0.06198066 0.05664033 -0.08874502
0.055878457 -0.04898328 -0.024687652 -0.038396686 0.08963065 0.071800135 0.016172646 0.15275267
-0.017059786 -0.018414816 0.07985653 0.009005473 -0.013135015 0.07882545 -0.008179915 0.56300545
0.034913987 -0.01392368 -0.09456407 0.06268785 -0.11688603 -0.046702974 -0.00413046 -0.12598759
0.021901641 -0.029543882 0.006670898 0.07138886 0.0012549657 0.079422764 -0.0005486228 0.058690306
0.008271293 0.047201212 -0.10461698 -0.05880514 -0.05113339 -0.08896213 -0.047320165 0.050421104
-0.03046964 -0.13282949 0.9686045 -0.1378197 0.068435825 -0.08597243 -0.044398706 -0.010581235
0.08040932 0.05483336 -0.020524895 -0.04123111 -0.17577173 0.11673638 0.0543106 0.06715335
-0.00018025169 0.03981998 -0.022925014 -0.057631027 -0.04458817 0.06381713 0.026441818 0.025780281
-0.040694773 0.0009538898 0.01812744 -0.016326275 -0.104663394 -0.01997536 0.024107587 -0.15669537
-0.020993646 0.012154511 -0.020374719 0.091602355 -0.052814435 -0.014803403 -0.04145032 -0.031070102
-0.1000369 0.048933707 -0.0005805339 0.0128262285 -0.016041921 -0.11090028 -0.034452055 0.030257806
0.09669508 -0.023085779 0.055013746 -0.02047707 -0.06380184 -0.040653326 -0.012841449 -0.02960139
-0.014445041 -0.045885585 0.006024087 -0.0036027331 0.078876175 -0.0802795 0.051586706 0.056070942

e_discrimination.weight f4 [454, 1]
00000000: 9523 7c40 bab2 b83f 5b23 b93d 4d72 fc3f
00000010: 5d4b ca3f a825 4240 d226 6b40 9c80 c43e
00000020: 81d3 2d40 b47b 733f 559b 9b3f cc78 fa3f
00000030: 9b8a 363f 98ef 073e 59e0 3a40 028f 6f40
00000040: e667 433f 37de ff3f 7678 5c40 c4ad a13f
00000050: 0c2e 333e f705 7ebe bb1c 9340 a81b 90bf
00000060: dcfd da3f cff0 ca3f e2fa 7e40 196f 8a40
00000070: b5f5 3240 cf07 cb3f 3448 da3f b6cb 2d40
00000080: 15d1 ea3f 86ea 4d40 fc24 0540 422c 2040
00000090: 14d3 0940 df0d 0c40 2368 bbbe 39ef 3740
000000a0: 6fed ed3f 3f09 d43f 42be 0c3f 74e9 8440
000000b0: c5d8 5c40 d14f 5440 cd3c 0940 05cc 9f3f
000000c0: 6d3a 4940 c216 8540 2217 5c3f 2f35 063e
000000d0: 8124 0940 4bb5 643d ef52 0340 c920 fc3f
000000e0: 8e96 813e 77da df3e 679f 8140 6720 1740
000000f0: b5ee a13f 7dd1 d43f 0872 903c d658 01bf
00000100: 37e9 8540 30cd 3640 20f6 993f 0248 bf3f
00000110: d9a3 683f 820a 7fbf 676c 843f d84a 5840
00000120: 9bda be3f 74ee 4abf c6d3 c9be 34e5 a23f
00000130: bc2a 6f40 e138 e03f 28ae d13f c98c 3fbf
00000140: 48cf 4e40 02ae fb3f fd31 c23f 5b0c 9540
00000150: 51a6 763f f25b 6040 98b3 e13f 2030 533f
00000160: ecb2 c83f 3f3b 8440 33eb 2b40 6d99 7040
00000170: 9f38 b5bd 9e05 473f 01cf 963f a932 b53e
00000180: 24a9 9abf 2d5b 0b40 b708 18bf afb5 5b40
00000190: 17d9 733f e0bd 0540 bdb2 fabf ce15 2340
000001a0: 2209 0140 c918 f6bd 6b7d ff3d a6e4 ac3e
000001b0: e189 8b3f 1602 aa3f 63d6 8340 b951 25bd
000001c0: 5c91 923e ec65 213f e1d6 d03f 2600 523e
000001d0: 497e 09c0 a9f0 1040 fd8f 8440 77d3 cc3f
000001e0: dd35 1240 41d3 d13f 0eef 003f 7a3d 8b40
000001f0: cd68 2440 8399 0bbf 675e b03f 5145 8f40
00000200: 4fb2 1340 cc88 88bf dc47 8240 375c 7cbf
00000210: 4f53 903f a814 8340 4794 1e3e 9641 a03f
00000220: a40d 493f ff10 febe da9d 8a3f 0ff3 f53f
00000230: 787c ab3e 528b 1840 37c6 193e 52ca e03e
00000240: 7922 8540 97ee 923f 2311 fcbe bd12 4d3f
00000250: 16fd df3f 2494 1d40 7c98 bb3f ab2e 683f
00000260: 2389 7340 9f79 40bf 3fcd 933f 50f1 943f
00000270: 248a 5940 299f 9940 f889 293d 6187 933f
00000280: f0bf 563f 7512 1d40 0fca 29bf 81e3 923f
00000290: 3384 ab3f 166a ad3f 78b2 6e40 9f81 3c40
000002a0: 28d9 5d3f 9728 3e40 ae50 5840 b670 353e
000002b0: 622c 1a3f 4659 f93f 9a9b 5c40 9bf8 7540
000002c0: e606 2f40 e7b1 8f3f 76c3 943f 1f6f 743f
000002d0: 87c8 623f ce68 913f 9e3b af3f 78d9 82bd
000002e0: f3e5 0740 e65c 853e 2548 4d40 dc45 1340
000002f0: 655d 943e 6132 923f 1ee4 0540 ef5a 0540
00000300: a695 8640 e43e 2240 0317 bf3f 1c6b d33f
00000310: d2bd 8e3c 17fa 713f 3fc9 ce3c 6214 9fbf
00000320: 68e4 f33f c7f3 da3f 4b9d ec3e 544b 8840
00000330: 6d1f 6240 bd37 bb3f 5633 853f cbf8 d1bd
00000340: 7e7f 6c3d 54e2 06bf 8dfa 9e3d dbf6 5840
00000350: 98c8 0140 665f 0240 1d78 7d40 72ad 6f40
00000360: 5fd2 7440 d221 1d3e 8902 4d40 ec8e 0f40
00000370: 01be 2b3e fb2a 933f 1b92 83be f9a5 f53f
00000380: 7d9a 0240 5a33 04bf fbd8 693f e5f1 f6bd
00000390: acf4 0340 6c50 72be a8ca c33f 809d 8b3f
000003a0: fa37 c83f 2b35 49bf 4f57 7240 143f 7f40
000003b0: 6261 6940 385c 7840 d981 1b40 a3cd 5640
000003c0: 7af6 6a40 3fa8 833f 444e ae40 5f47 5b40
000003d0: fb17 e7bf ebe2 0340 ff27 2a40 ffbc bebf
000003e0: 7623 8d3f 2b57 fa3f d7c3 983e 1e99 80bf
000003f0: d89f 1140 205b 20bf 81ec c73f 6d54 ef3d
3.9396718 1.4429543 0.09039947 1.9722382 1.5804249 3.0335484 3.6742444 0.3837937
2.7160342 0.9511063 1.2156779 1.9568114 0.71305245 0.13274992 2.919943 3.7431035
0.7633041 1.998969 3.4448524 1.2631154 0.17498034 -0.24806963 4.597257 -1.125844
1.7108722 1.5854739 3.9840627 4.3260617 2.7962468 1.5861758 1.7053285 2.7155585
1.8345057 3.2174392 2.0803823 2.5027013 2.1535082 2.1883466 -0.36602888 2.873976
1.8588084 1.6565322 0.5497781 4.1534977 3.4507306 3.3173716 2.144336 1.2484137
3.144191 4.159028 0.859728 0.13106225 2.142853 0.055836957 2.0519369 1.9697505
0.25310177 0.43721363 4.0507083 2.3613527 1.2650973 1.6626431 0.0176325 -0.5052618
4.1847186 2.8562737 1.2028236 1.494385 0.9087501 -0.9962541 1.0345582 3.379568
1.4910463 -0.792701 -0.39419383 1.2726197 3.7369833 1.7517358 1.6381273 -0.74824196
3.2314014 1.9662478 1.5171505 4.657758 0.9634753 3.505612 1.7632933 0.8249531
1.5679603 4.132232 2.6862304 3.7593644 -0.0884869 0.77742946 1.1781923 0.35390213
-1.2082868 2.17744 -0.593883 3.432964 0.9525313 2.089714 -1.9585797 2.5482059
2.0161824 -0.12016446 0.124750935 0.33768195 1.0901452 1.3281887 4.1199203 -0.04036114
0.28626525 0.63046145 1.6315576 0.20507869 -2.1483328 2.2646887 4.1425767 1.6002034
2.2845376 1.6392595 0.5036477 4.3512545 2.5688965 -0.54531115 1.3778809 4.4772115
2.307758 -1.0666747 4.071272 -0.9857821 1.1275424 4.0962715 0.15486251 1.2520015
0.7853644 -0.49622342 1.0829422 1.9214801 0.334934 2.3835034 0.15017019 0.43904358
4.160458 1.1479062 -0.49231824 0.8010672 1.7499111 2.4621668 1.465591 0.9069621
3.8052452 -0.7518558 1.1547011 1.1636143 3.3990564 4.8006787 0.041391343 1.1525689
0.83886623 2.4542515 -0.6632394 1.1475679 1.3399719 1.3548 3.7296429 2.9454114
0.8665948 2.9712274 3.3799243 0.17718777 0.6022397 1.9480369 3.4469972 3.8432987
2.734796 1.1226166 1.162215 0.9548206 0.8858723 1.1360109 1.3690069 -0.06389135
2.12341 0.26047438 3.2075284 2.3011389 0.28977504 1.1421624 2.0920482 2.0836751
4.2057676 2.5350885 1.4928898 1.6517062 0.017424498 0.9452223 0.025242446 -1.2428095
1.9054079 1.7105645 0.46213755 4.2591953 3.533168 1.4626385 1.0406291 -0.102525316
0.057738774 -0.526891 0.077626325 3.3900669 2.0278683 2.0370727 3.9604561 3.7449613
3.82534 0.15344933 3.2032797 2.2430983 0.167717 1.1497492 -0.25697407 1.9191276
2.0406792 -0.51640856 0.9134671 -0.120578565 2.0618086 -0.23663491 1.5296221 1.090744
1.5642083 -0.7859675 3.786579 3.988225 3.6465688 3.8806286 2.4298003 3.356301
3.6712937 1.028572 5.447054 3.4262311 -1.8054193 2.060725 2.6586912 -1.4901427
1.1026447 1.9557852 0.29836914 -1.0046728 2.275381 -0.62639046 1.561905 0.11686025

prednet_full1.weight f4 [128, 38]
00000000: f029 7040 33c6 0f40 5650 6540 64d6 0940
00000010: 7312 5e40 e441 1a40 e3b8 5240 c694 6f40
00000020: 1b28 a640 049f 2340 8e4a 2640 7f31 1e40
00000030: aedb 4e40 bef1 7340 718e 6c40 e91b 1040
00000040: 11f2 4f40 8fbf 5840 44f0 6a40 0e17 a640
00000050: cea0 4240 69f9 3340 c5d3 9a40 a950 5240
00000060: 6f5e 8d40 7060 e63f 26e9 d040 e343 8d3f
00000070: f3b8 b140 af5a f53f 9d65 3340 8b6f 0540
00000080: ef51 9940 79e9 ad40 1352 7740 b341 8940
00000090: d880 1e40 2015 2240 8f06 bc40 db33 4c40
000000a0: ff53 cf40 3dd2 4540 a667 703f 7a26 9040
000000b0: 24a2 0a3f d94e c040 09e3 c73e cdca f23f
000000c0: 0fd8 0140 549d e73e 01ad a640 fde4 d840
000000d0: ef5a ab40 0200 803f 1375 b640 b41b cb3f
000000e0: 7aee 8940 48d6 0841 51ed 5040 f187 2340
000000f0: d9a8 c340 b350 4540 e7a4 6640 9014 3540
00000100: e3fc 8f40 959a a33f 7f9c f040 05e6 3240
00000110: fbcd 9740 e9bf 493f 3f50 db40 4978 023f
00000120: fe63 d140 859f 8a40 3c7a 6e3f 0753 5e40
00000130: 4d0a 6940 8c61 0940 6903 6440 cb33 0e40
00000140: 23fd 3a40 2916 1440 f742 6a40 710f 7040
00000150: 54a0 a640 afea 2240 f8b5 6e40 42cc 1e40
00000160: c885 4b40 3039 8340 9292 7b40 82f5 f93f
00000170: 8026 4a40 a6da 3240 1a42 7c40 9eec a840
00000180: 3501 3440 5d32 4440 acd5 aa40 2587 5640
00000190: 202c 9240 d724 db3f 80e3 c540 6385 823f
000001a0: 4d6a b940 38ed 0f40 149b 2a40 52b2 1340
000001b0: 0856 8c40 d37f 9740 c483 6b40 ee6b a140
000001c0: 8ed7 fd3f b8d2 2540 6fe5 9c40 7964 3b40
000001d0: 9621 a740 ce33 3e40 6133 9b3f 34c9 6240
000001e0: 4175 2e3f d8c0 9b40 5b7a ea3f 29f0 1540
000001f0: daa6 2740 4d8b 2f3f 6484 8b40 5702 b840
00000200: 7c6e a340 0478 6a3f 03c4 9240 d77b 3d40
00000210: fef3 9040 0efd fc40 cd44 5b40 a5b9 4340
00000220: 9234 c640 12c1 5140 f3f1 5840 0e2d 2540
00000230: 0e21 1340 f359 983f 9e7f e640 8d4c 2940
00000240: 3628 7240 4390 823f c992 c340 c640 f93e
00000250: f923 b740 5969 7540 5950 793f 46c1 5a40
00000260: d36b 9d40 7039 3740 1ca7 a440 0d2a 4140
00000270: d390 933f 868d 6040 37ee 473f 870d a040
00000280: 6adf 5040 6391 2040 83be 2f40 4033 6f3f
00000290: d2cc 8b40 b292 b540 a5e3 a340 e0d2 823f
000002a0: 4c1a 9340 ea90 4040 bf35 9240 fb9b f740
000002b0: c525 3f40 2c91 6540 5f44 ce40 2e3e 6040
000002c0: 0142 7640 363b 1840 bd27 8f40 30a6 a23f
000002d0: 1a87 e240 6231 3140 d422 7f40 aa55 593f
000002e0: 97fa c040 8e54 2140 0869 b740 f32c 9f40
000002f0: 5ac8 5f3f 7cee 4b40 3a6d b640 6a7d 2b40
00000300: 9a5f c540 38a3 3e40 65d4 4a3f 9bc2 8740
00000310: cecd 013f d835 c840 cff8 913e 41a0 0640
00000320: 0dc5 b03f b707 993e d133 a840 cdd7 d840
00000330: 42de bb40 2531 213f c451 b140 2456 b73f
00000340: 2c04 9740 28cc fc40 3ca4 5c40 287b 5240
00000350: 6eaf d440 0982 4f40 338f 2c40 45d9 3740
00000360: 4537 c63d e696 b13f fa8e d040 2ace 3140
00000370: 68e8 9f40 4633 153f 82c6 cf40 8510 0c3f
00000380: 3f7d c740 a54c 8240 9eb8 553f c62b 5d40
00000390: 62bf ae40 cee4 3040 dfa3 c840 035b 3740
000003a0: b674 293f 357b 8f40 d8f7 e23e 2e65 c340
000003b0: d5e8 af3e 48f9 1840 62de ec3f 2eef 073f
000003c0: bc93 a040 fd52 d240 4bf9 ac40 cebd 5c3f
000003d0: f5bc ac40 e59f f73f b2b3 9e40 9fcb fa40
000003e0: 598a 5840 f41e 3d40 d364 c240 ae54 5840
000003f0: d5c7 3840 bb4e 3240 05ee 5040 8b40 ae3f
3.7525597 2.2464721 3.5830283 2.1537104 3.469876 2.4102716 3.2925346 3.7434554
5.1923957 2.5565805 2.5983005 2.471771 3.2321582 3.8116298 3.696194 2.2517035
3.2491496 3.3866918 3.6709146 5.1903143 3.0410647 2.8120978 4.838351 3.286173
4.4177775 1.799818 6.5284605 1.1036342 5.553827 1.91683 2.803077 2.084933
4.7912517 5.43475 3.8643844 4.28927 2.476614 2.5325394 5.8758006 3.190665
6.4790034 3.090957 0.93908155 4.504697 0.54153657 6.009625 0.39040402 1.896814
2.0288122 0.4523722 5.2086186 6.7779527 5.3548503 1.0000002 5.7017913 1.5867829
4.310361 8.552315 3.2644846 2.5551722 6.1143613 3.0830505 3.6038148 2.82938
4.49962 1.278155 7.5191035 2.7952893 4.743894 0.78808457 6.8535457 0.5096479
6.543456 4.3319726 0.93155265 3.4738176 3.6412537 2.1465788 3.5627081 2.2219112
2.9217002 2.3138525 3.6603372 3.7509425 5.2070713 2.545574 3.7298565 2.481217
3.1800404 4.100731 3.930821 1.9528048 3.1585999 2.7945952 3.9415345 5.278884
2.8125737 3.065574 5.338583 3.3519986 4.5678864 1.7120618 6.184021 1.0196956
5.794226 2.2488537 2.6657152 2.3077588 4.385502 4.7343535 3.6799173 5.044425
1.9831407 2.5909863 4.903007 2.9280074 5.22285 2.971912 1.2125055 3.5435305
0.68147665 4.8672905 1.831859 2.3427832 2.6195588 0.6857193 4.359911 5.7502856
5.107237 0.9158938 4.586427 2.9606836 4.529784 7.9058905 3.4260743 3.0582058
6.1939173 3.277409 3.3897674 2.580875 2.2988925 1.190245 7.2030783 2.6452973
3.7837043 1.0200275 6.111668 0.4868223 5.723141 3.834555 0.97388226 3.4180465
4.919412 2.8628807 5.145399 3.0181916 1.1528572 3.508638 0.7809786 5.0016513
3.263636 2.5088737 2.746003 0.93437576 4.3687525 5.674157 5.1215386 1.0220604
4.59696 3.0088449 4.569061 7.7377906 2.9866803 3.5869856 6.445846 3.5037951
3.8477786 2.378614 4.473601 1.2706966 7.078992 2.768639 3.9865007 0.8489634
6.0305896 2.5207858 5.731571 4.974237 0.8741509 3.186431 5.7008333 2.6795297
6.16792 2.978712 0.7923034 4.2425056 0.5070466 6.2565727 0.28510138 2.1035311
1.3810135 0.29888698 5.2563252 6.776343 5.870881 0.62965614 5.541231 1.4323163
4.7192593 7.8999214 3.447524 3.2887669 6.6464148 3.2423117 2.6962402 2.872636
0.096785106 1.3874176 6.517453 2.7782083 4.99712 0.5828136 6.492982 0.54712707
6.234039 4.071856 0.8348483 3.4557967 5.460862 2.7639651 6.270004 2.86493
0.6619371 4.48379 0.44329715 6.106101 0.34357324 2.390215 1.8505366 0.53099334
5.018034 6.5726304 5.4054313 0.8622712 5.398066 1.9345671 4.9594355 7.837356
3.383444 2.9550142 6.0748076 3.3801684 2.8871968 2.7860553 3.2645276 1.3613447

prednet_full1.bias f4 [128]
00000000: bebb edbf 5160 9bbf 34d8 d4bf 6e2a 9cbf
00000010: 197a b1bf 8538 84bf a7be 9dbf 273f d6bf
00000020: 2c7a f3bf e387 a5bf 1b2e cabf cbac 8abf
00000030: 9f7b a1bf 775f aabf d5a0 bfbf 9927 b9bf
00000040: 48c8 9dbf 35be a0bf 90a8 d4bf 036d f9bf
00000050: 7333 a5bf 8ea4 e6bf 8768 70bf 71a2 e2bf
00000060: 2e55 81bf 35e1 c5bf 9fe7 dfbf 2971 dfbf
00000070: dce0 c3bf d1b7 c9bf f2a8 9ebf 6320 93bf
00000080: f8f6 c2bf 506f e0bf b53b 93bf e69d b5bf
00000090: 8edf e4bf d5fd 3fbf e4e5 b1bf 1b5c d2bf
000000a0: f794 94bf 583d 80bf 324e cfbf cc3e aabf
000000b0: ab2f c4bf bdd3 afbf 4562 cdbf 8848 ecbf
000000c0: 915a bcbf 685b 9fbf e6fe d6bf d9b0 acbf
000000d0: 73f3 d7bf dff5 bcbf 9fde 90bf 71c9 c2bf
000000e0: a268 a0bf 0734 babf 7d7d a0bf 7047 93bf
000000f0: a243 9abf 3f88 efbf 7ac7 61bf c4b1 cfbf
00000100: 65f2 acbf 68aa c4bf e6d3 f5bf d95c b8bf
00000110: 4475 93bf 5022 a4bf ead8 9cbf bb74 a8bf
00000120: e818 bcbf c8d0 c9bf ea12 c1bf 0482 a9bf
00000130: 64b1 9bbf f5bf bfbf 9f55 c8bf 5eff dcbf
00000140: fa41 d2bf fde2 b2bf 72a4 e0bf 6c22 cdbf
00000150: b886 c2bf a391 d4bf de77 7dbf d386 bdbf
00000160: 7640 86bf acb6 94bf 8769 dabf 6fd1 cdbf
00000170: aa32 d3bf 0782 c0bf 34ef a5bf 4e6e adbf
00000180: f965 bebf c0d9 8abf f86e d4bf 54d8 95bf
00000190: b890 b1bf 0edf c1bf 7f4d dabf ed29 9ebf
000001a0: 0b4c dcbf 2b80 d0bf abc2 d1bf 3105 95bf
000001b0: d0db 7ebf e0ba 87bf 9bd9 a7bf fcb0 cebf
000001c0: 6dc4 d4bf 694b c8bf 061e b0bf 908d ddbf
000001d0: 13d9 b3bf 0d0c b2bf 6957 90bf 7c95 e5bf
000001e0: 26f9 afbf 1387 dcbf 9221 bfbf fbd1 ebbf
000001f0: 7212 82bf 9ddf 99bf d1b4 d3bf 1b9e cabf
-1.8572919 -1.2138768 -1.662848 -1.2200449 -1.3865386 -1.0329748 -1.2323807 -1.6738023
-1.9021659 -1.2932094 -1.579532 -1.0833982 -1.2615851 -1.3310384 -1.4970957 -1.4465209
-1.2326746 -1.2558047 -1.6613941 -1.9486393 -1.2906326 -1.8018968 -0.93909496 -1.7705823
-1.010412 -1.5459353 -1.749256 -1.7456409 -1.5302997 -1.5759221 -1.2395308 -1.1494259
-1.5231619 -1.753397 -1.1502596 -1.4188812 -1.7880723 -0.7499669 -1.3898282 -1.6434358
-1.160796 -1.0018721 -1.6195738 -1.3300414 -1.5327047 -1.3736492 -1.6045614 -1.8459635
-1.4715139 -1.244977 -1.6796539 -1.349147 -1.687117 -1.4762534 -1.1317939 -1.5217725
-1.2531931 -1.4547127 -1.2538296 -1.1506176 -1.205189 -1.8713454 -0.88195 -1.6226125
-1.3511473 -1.5364504 -1.9205291 -1.4403335 -1.1520162 -1.2822971 -1.2253697 -1.3160623
-1.4695101 -1.576684 -1.5083897 -1.3242803 -1.216351 -1.4980456 -1.565113 -1.7265432
-1.6426384 -1.3975521 -1.7550185 -1.602613 -1.5197363 -1.6606945 -0.9901103 -1.480677
-1.0488422 -1.1618247 -1.7063454 -1.6079539 -1.6499836 -1.5039681 -1.2963624 -1.3549287
-1.487487 -1.0847702 -1.6596365 -1.1706643 -1.387229 -1.5146196 -1.70549 -1.2356545
-1.7210706 -1.6289114 -1.6387533 -1.1642209 -0.9955416 -1.0603905 -1.3113283 -1.6147761
-1.6622444 -1.5648013 -1.3759162 -1.7308826 -1.4050621 -1.3909928 -1.1276675 -1.7936244
-1.3747909 -1.7228721 -1.493212 -1.8423456 -1.0161879 -1.2021366 -1.6539556 -1.58295

prednet_full2.weight f4 [64, 128]
00000000: 60b3 083e dfef da3d 73c4 a73e 64d8 3c3e
00000010: 8411 813d 383c 8c3d 738e 813d 3754 fd3d
00000020: 7df7 893e cfe9 e03c fd80 363e 3ca4 2f3d
00000030: c925 643e fbe3 cd3d 4cdf 4a3e bb39 043f
00000040: 9070 7e3e 0d6d 883c 228a 863e 8e23 583e
00000050: 4058 243d 4882 ae3e c1e7 b43c de06 d13e
00000060: 0000 0000 3793 a33e 0689 aa3e bf65 103e
00000070: c226 963d c7c2 bc3e 1b8a 363d fea7 eb3c
00000080: da78 9b3e 5b4e ac3e 6b88 e13c a19d 013e
00000090: 2e51 b03e 73a5 193d 7ef9 5b3c b80b fe3d
000000a0: 18e3 b63c f282 3d3d b674 163e 191f 723e
000000b0: 6144 4e3e 4387 353c 8a76 043e 0c5c bf3e
000000c0: ba82 f33d 6ddd 333c fe00 c83e efe8 973d
000000d0: def7 543e 40a3 233e 034b 2a3b c57a 673e
000000e0: 5d62 b93a 3d47 ef3c 0000 0000 d862 403d
000000f0: 8b5a 4b3d 56eb 263e 8c6e 513c 0d88 933e
00000100: f875 743e 8b9e 703e cf56 4f3e ef0e 6d3e
00000110: 0000 0000 cab3 a63d 69cc 933e 4ff9 153d
00000120: 5a4f 9e3e 0ec7 903e 542e c53e eaea 9e3d
00000130: cbfe b23a 5dbb 0e3e 9bbc a23e f5d4 0a3e
00000140: 9a69 9a3e 3e51 e73d 3356 7d3e a357 893e
00000150: c039 d03d 26b7 b63e 0000 0000 ab38 943d
00000160: d7ec 583d d0ea 3c3c efb5 1d3e 82a7 8a3e
00000170: 5fc2 c63e f7f8 243e 0000 0000 f903 8a3d
00000180: 4bb3 753e 3497 683b 894a 273e a3f1 bc3c
00000190: 78d3 6b3c 09e2 623e a6bf 943e 30e9 553d
000001a0: 974a 8b3c 96cb da3e a974 f03e 4614 a63d
000001b0: 3c06 593d ffcc 063c 6f59 063c 9d1b 643e
000001c0: 851e 233d d9e1 1a3d 0000 0000 9b9f e23e
000001d0: ff2e 273e 7f79 663d 5b8b de3c 221f fe3e
000001e0: a1db 2639 83e6 b03e f67c 413e 8a88 7b3e
000001f0: aec9 d53c a5b8 8b3e 71e7 123e 9af8 d93d
00000200: 0000 0000 efc9 f13e 0000 0000 b0cc 9c3e
00000210: c6d9 c63e 57df 313f 6908 073f 0000 0000
00000220: 0000 0000 f914 113f 0000 0000 b717 233f
00000230: 8e8e 0d3f 6949 ab3e 8e29 c23e 0708 903e
00000240: 3ec9 d33e d5c3 043f 3e9f 4a39 0000 0000
00000250: 1544 e13e 0000 0000 da09 093f 0000 0000
00000260: f1f8 283f 62b2 de3c 8b11 943b 0000 0000
00000270: 1088 b23e 0000 0000 7cb9 2b3f 707a ec3e
00000280: 3963 053e 0000 0000 7f41 263f 8f95 ae3e
00000290: 0000 0000 f6c6 3c3f 00e2 123f ad77 e43b
000002a0: 3bcc f13e cb0e 3c3f bdeb 0c3d 5d7f cb3e
000002b0: ccbd 123e 8ec3 b63e 0000 0000 0000 0000
000002c0: 54d1 903e 279f 233f 0000 0000 bea9 ce3e
000002d0: 4aea 023e 1cf4 3b3e fc65 f73e a1ce d13e
000002e0: 3a70 f33e a7ab c33e e6ca e13e f351 ea3e
000002f0: da33 183f 0000 0000 d440 333f 0000 0000
00000300: d3ca 5d3e b17f 2c3e 5d95 203d 7205 2d3e
00000310: 1071 0c3f a2b7 a73e f69a c13e 83b6 b53e
00000320: bf24 ad3e 0000 0000 0000 0000 4e61 e53e
00000330: ce27 b63e 18b2 af3d db2b ca3a 1a2d 283c
00000340: c5d9 7138 96cb e73e 0000 0000 c031 093e
00000350: d661 103e 7cb0 9e38 41f2 2a3f fe1b ee3d
00000360: c89d 063f 137e 203f 0000 0000 3f8f a83c
00000370: 7967 6b3b a6bd 9f3e e28d e63e 456c a43e
00000380: a9cd 0d3e a2d4 183f 0000 0000 052b ef3e
00000390: 0c04 dd3e 16a9 143c 0000 0000 dbe2 0e3f
000003a0: 0000 0000 65a4 753c a10b d93c 87e6 ee3e
000003b0: 3d45 503f d23c 4f3f 362a 0a3f 38ec 1b3e
000003c0: 2d9a c238 5b86 403e 333b 0a3f 0000 0000
000003d0: ba10 1d3e 4984 083f 4424 f23e 0000 0000
000003e0: 06fc b03e 0000 0000 f28d 6f3e 0000 0000
000003f0: 8acf 383f c47e a43e 0000 0000 0000 0000
0.13349676 0.10690283 0.32767066 0.18441921 0.06302169 0.06847423 0.06325998 0.12369578
0.2694663 0.027455239 0.17822643 0.042881235 0.22280039 0.100532494 0.19811743 0.5165059
0.24847627 0.016653562 0.26277262 0.21107313 0.040123224 0.34083772 0.022083165 0.40825552
0.0 0.31948254 0.33307666 0.14101313 0.07331611 0.36867353 0.0445653 0.028766628
0.3036564 0.3365353 0.02753087 0.12657787 0.34436935 0.0375113 0.013426183 0.12404579
0.022325084 0.046267457 0.14692959 0.23644675 0.20143272 0.011079612 0.12935844 0.37374914
0.118901685 0.010978085 0.39063257 0.074174754 0.20797679 0.15980244 0.0025984652 0.22605427
0.0014143694 0.029208774 0.0 0.046969265 0.049646895 0.16300711 0.012782704 0.28814736
0.23873127 0.2349798 0.20247959 0.23150228 0.0 0.08139761 0.2886689 0.036614712
0.30919915 0.28276867 0.38511908 0.0775965 0.0013656256 0.13938661 0.3178452 0.13557799
0.30158693 0.112947926 0.24739914 0.26824674 0.10167265 0.35686606 0.0 0.07237371
0.052960243 0.011530593 0.15401433 0.27080923 0.38820168 0.16110598 0.0 0.06739039
0.23994176 0.0035490515 0.16337027 0.02306444 0.01439368 0.22156538 0.29052466 0.052224338
0.01700334 0.4273345 0.46964005 0.081093356 0.05298446 0.008227586 0.008200034 0.22276159
0.039824028 0.03781304 0.0 0.44262394 0.16326521 0.05626821 0.02716606 0.49633127
0.00015912812 0.34550866 0.18895325 0.24563804 0.026097145 0.2728931 0.143461 0.1064312
0.0 0.47224376 0.0 0.30624914 0.38838023 0.69481415 0.5274721 0.0
0.0 0.56672627 0.0 0.6370806 0.55295646 0.33454445 0.3792233 0.28131124
0.41364473 0.51861316 0.00019323544 0.0 0.43997255 0.0 0.5353066 0.0
0.66004854 0.027184669 0.004518693 0.0 0.34869432 0.0 0.670799 0.46187162
0.13026132 0.0 0.6494369 0.3409848 0.0 0.7374109 0.573761 0.0069722743
0.47226128 0.7346007 0.034404505 0.39745608 0.14330214 0.3569607 0.0 0.0
0.28284705 0.6391472 0.0 0.40363878 0.12784687 0.18354839 0.48319995 0.40977958
0.4754656 0.38216898 0.44100112 0.45765647 0.5945412 0.0 0.70020795 0.0
0.21659403 0.16845585 0.039204944 0.16896608 0.5486002 0.32757288 0.37813538 0.35490808
0.33817098 0.0 0.0 0.448008 0.35577244 0.085788906 0.0015424447 0.010264659
5.766169e-05 0.4527251 0.0 0.13397884 0.14099821 7.5669e-05 0.667759 0.11626433
0.52584505 0.62692374 0.0 0.020576118 0.0035919829 0.31199378 0.45030123 0.32113853
0.13847984 0.5969945 0.0 0.4671251 0.4316715 0.009073516 0.0 0.55814904
0.0 0.014992808 0.026494803 0.46660253 0.8135565 0.8095218 0.5397066 0.15226829
9.279358e-05 0.18801253 0.5399658 0.0 0.15338412 0.5332685 0.47293293 0.0
0.3456728 0.0 0.23393992 0.0 0.7219168 0.32127964 0.0 0.0

prednet_full2.bias f4 [64]
00000000: b0d6 6ac0 cdd4 38c0 7f64 58c0 3319 72c0
00000010: 78c5 34c0 d8f6 33c0 773a 85c0 9d41 83c0
00000020: ddbd 84c0 dc37 85c0 b620 63c0 09a9 4ac0
00000030: d64c 92c0 9051 2bc0 146c 88c0 84ce 1bc0
00000040: 9c53 8bc0 6399 83c0 d841 30c0 274c 82c0
00000050: f03b 8ac0 04f5 19c0 ecd8 07c0 80f9 8dc0
00000060: ab74 39c0 dc1e 36c0 2dc3 40c0 3987 8dc0
00000070: cffc 7ec0 ac31 3cc0 2289 81c0 3948 d9bf
00000080: da0b 23c0 708f 89c0 13be 8ac0 bfb4 13c0
00000090: 4a20 86c0 608e 63c0 88e1 89c0 8ef7 3dc0
000000a0: 4589 57c0 025d 21c0 590d 7fc0 897e 8fc0
000000b0: 006b 7fc0 346d 49c0 41bf 81c0 2458 3cc0
000000c0: fc7b 36c0 8c2d 23c0 c5fe 12c0 8432 85c0
000000d0: e137 09c0 bca9 82c0 25b0 7ec0 485a 09c0
000000e0: e702 57c0 6052 8ec0 f999 f4bf 48c1 83c0
000000f0: f713 14c0 1e25 11c0 b886 14c0 c113 91c0
-3.6693535 -2.8879883 -3.3811338 -3.782788 -2.8245525 -2.8119411 -4.163387 -4.1017594
-4.1481767 -4.163069 -3.5488715 -3.166567 -4.5718794 -2.6768532 -4.263193 -2.4344797
-4.353956 -4.112474 -2.7540188 -4.071796 -4.3198166 -2.4055796 -2.1226149 -4.4367065
-2.8977458 -2.8456335 -3.0119126 -4.4227567 -3.9841802 -2.9405317 -4.04799 -1.6975166
-2.5475984 -4.2987595 -4.3357024 -2.3079069 -4.1914415 -3.5555649 -4.3087807 -2.9682345
-3.3677533 -2.5213017 -3.9851897 -4.484196 -3.9909058 -3.1472902 -4.0545964 -2.9428797
-2.8513174 -2.549655 -2.2968 -4.1624165 -2.1440356 -4.0832195 -3.979501 -2.1461353
-3.3595521 -4.4475555 -1.9109489 -4.117344 -2.3137186 -2.2678905 -2.3207226 -4.5336614

prednet_full3.weight f4 [1, 64]
00000000: 4e6f c53d a5cf 3a3d 58bc b43d f414 b63d
00000010: d5c2 683d bacd 483d ea37 bd3d b545 ed3d
00000020: c13f da3d abbc b23d 8860 6d3d 9ec7 bc3d
00000030: 1ad1 fc3d fa62 3f3d 7f6c cb3d 3cb0 883d
00000040: 154c e83d e383 d13d 0d1d 103d 784d ea3d
00000050: 42b3 493e 7064 6e3d 4907 7d3d e800 fe3d
00000060: c956 873d 9e6a 7c3c c884 443d a7cf e43d
00000070: 36f0 c73d 96ad 223d 5949 ec3d b189 373d
00000080: f025 ae3d fa81 3c3e a6a2 883d a0ec f43c
00000090: 669d b03d 6a15 d93d bf6e 2c3e 1207 b23d
000000a0: 038f 9e3d 2f47 903d ca82 133e 65ff b93d
000000b0: d0ef ca3d 4bde a23d 9b2b d03d 7de3 3a3d
000000c0: f80c 533d 3965 153d eade 7b3d beb8 ee3d
000000d0: 9afb 863d c5f5 993d 31e8 bb3d 9939 473d
000000e0: 0b52 ad3d 74bd bb3d b9f3 713d 8aa7 043e
000000f0: ba14 883d adf8 883d 9921 873d 9d17 b83d
0.0964037 0.04560818 0.08824986 0.08890715 0.05682643 0.04902432 0.092391804 0.11585561
0.10656691 0.08727392 0.057953387 0.092177615 0.123445705 0.04672525 0.09932803 0.06674239
0.113426365 0.102302335 0.035183955 0.11440557 0.19697288 0.058201253 0.061774526 0.124025166
0.0660835 0.015406279 0.047978193 0.11172419 0.097626135 0.039716326 0.115374275 0.044809047
0.0850333 0.18408957 0.06671648 0.029897988 0.08623771 0.105997875 0.16839121 0.08692755
0.07742121 0.07044827 0.14405361 0.09081916 0.09909022 0.07952555 0.10164567 0.045627106
0.05152604 0.036473487 0.061491884 0.116563305 0.06590958 0.0751758 0.09175146 0.048638914
0.08462914 0.09166995 0.059070323 0.12954536 0.06644578 0.06688056 0.06598205 0.08988879
