model/ckpt/model_Dense_LinuxSystem_train_ncd.pt (torch, 642318 bytes, 8 tensors)

student_emb.weight f4 [323, 284]
0	0xbca69196	-0.020333093
1	0xbda86c98	-0.082238376
2	0xbd805d23	-0.062677644
3	0x3cf363bb	0.029710641
4	0xbc2eafd6	-0.01066204
5	0x3e1359ec	0.14389771
6	0x3cfc91bf	0.030831216
7	0x3c3b0220	0.011414081
8	0x3c63a044	0.013893191
9	0xb9b77004	-0.00034987938
10	0x3d5988a9	0.053108845
11	0x3dc50c1c	0.0962145
12	0xbd1edb6c	-0.038783476
13	0x3cc13be3	0.023588127
14	0x3dad48ca	0.08461149
15	0x3d985424	0.074379236
16	0xbd6bc2e1	-0.057558898
17	0x3cd4e948	0.025990143
18	0xbca40d97	-0.020026011
19	0xbcba77e6	-0.02276225
20	0xbcff3b33	-0.031156158
21	0x3d099a16	0.033594213
22	0x3d637910	0.055535376
23	0xbdfc62f9	-0.12323565
24	0x3d43b3b8	0.047778815
25	0xbdc70e81	-0.09719563
26	0xbc35b495	-0.011090417
27	0x3dd24a99	0.102681346
28	0x3c2c90a5	0.010532533
29	0xbc92885d	-0.017887289
30	0x3d0a260a	0.033727683
31	0x3cf818f4	0.030285336
32	0xbd854dac	-0.06508955
33	0xbd90d587	-0.07071977
34	0x3da2e102	0.07953073
35	0x3c9ff3f5	0.019525507
36	0x3ce477e7	0.027889205
37	0x3cfad6d0	0.030620009
38	0xbe05e1f2	-0.13074473
39	0xbde12c47	-0.10994773
40	0xbd31065c	-0.043218955
41	0x3b8dc38c	0.0043262895
42	0xbd124fbb	-0.03572057
43	0x3f30e017	0.69091934
44	0xbdcefb9f	-0.10106587
45	0xbca14405	-0.019685755
46	0xbd1a64e4	-0.037693873
47	0xbbc982f0	-0.006149642
48	0x3ccfd29e	0.025368985
49	0x3d3aceb5	0.045607287
50	0xbcc9cdf8	-0.024634346
51	0x3d21465a	0.039373733
52	0x3d5a65e0	0.05331981
53	0x3cfed8c4	0.031109221
54	0xbd8522f7	-0.0650081
55	0xbd9e6ddf	-0.077358
56	0x3e54c505	0.20778282
57	0x3c8c8059	0.017151045
58	0x3f49b666	0.7879394
59	0x3b84f0bd	0.0040570186
60	0x3b34d638	0.0027593505
61	0xbd947955	-0.07249705
62	0xbcdf7b8a	-0.027280588
63	0x3c68b5ab	0.014203469
64	0xbd0c356b	-0.03423063
65	0x3b8d260d	0.0043075145
66	0x3d7cde70	0.06173557
67	0x3c9037a6	0.01760466
68	0xbd69a1a1	-0.057038907
69	0xbd98af0e	-0.07455264
70	0xbcb6637e	-0.022264238
71	0x3c3c01ec	0.011475068
72	0x3dc99f3f	0.09844827
73	0xbc31b578	-0.010846488
74	0xbd095adf	-0.033533927
75	0xbe135d33	-0.14391021
76	0xbdacd574	-0.084391505
77	0xbd21cab5	-0.039499957
78	0x3e9bf882	0.30463034
79	0x3dab75fd	0.08372114
80	0x3da1c232	0.07898368
81	0xbdd3baa4	-0.10338333
82	0xbbf3cf9c	-0.0074405205
83	0xbc2e0fe3	-0.010623905
84	0xbdfbca89	-0.1229449
85	0x3d377233	0.044786643
86	0x3c26024c	0.010132384
87	0xbd117873	-0.03551526
88	0x3d6185da	0.05505929
89	0x3d20590f	0.039147433
90	0xbc7e5b43	-0.015524688
91	0x3d6dd446	0.058063768
92	0xbdacce97	-0.084378414
93	0xbc86959a	-0.016428757
94	0xbdf6e004	-0.12054446
95	0x3c892bbc	0.016744487
96	0xbc341785	-0.010991936
97	0x3d0ebfc7	0.034850862
98	0xbd0e8439	-0.034794066
99	0x3de7ed23	0.11324527
100	0xbded4452	-0.11585297
101	0xbc14037b	-0.009034033
102	0x3d6eba18	0.05828294
103	0x3cb1f776	0.021724444
104	0x3d044cb5	0.032299716
105	0x3d0fe3e7	0.035129454
106	0x3cc5d628	0.02414997
107	0x3d3ecd8e	0.04658275
108	0xbce7f155	-0.028313318
109	0x3d208a47	0.03919437
110	0x3d8494d3	0.064736985
111	0xbdb34062	-0.087525144
112	0xbd02cd31	-0.031933967
113	0x3cc4f52d	0.02404269
114	0xbd363e9b	-0.0444933
115	0x3d51f460	0.051258445
116	0xbd82abb8	-0.06380409
117	0x3ba4a771	0.0050248434
118	0x3bc2e252	0.0059473896
119	0xbdb6b4fa	-0.08921237
120	0xbd1dc27a	-0.038515545
121	0x3bb5df91	0.005550333
122	0xbe06820b	-0.13135545
123	0x3d9ef568	0.07761651
124	0x3d4882f9	0.04895303
125	0x3d1da5e3	0.03848828
126	0xbd627a46	-0.05529239
127	0x3f787626	0.9705528
128	0xbe05a856	-0.13052496
129	0x3bccfcd6	0.0062557263
130	0x3ce3c1ea	0.027802426
131	0xbd45b233	-0.048265647
132	0xbd713b77	-0.0588946
133	0xbc7ef4a9	-0.015561261
134	0xbbc966d0	-0.0061462894
135	0xbcb9fe9a	-0.022704411
136	0xbce8ed59	-0.028433489
137	0x3bc748b0	0.006081663
138	0x3c87740e	0.016534831
139	0x3b090340	0.0020906478
140	0x3b1151e1	0.0022174048
141	0x3c9f5e27	0.019454075
142	0x3c9dafad	0.019248808
143	0x3b8928ea	0.0041857855
144	0x3c285108	0.010273226
145	0xbc0783bf	-0.008271157
146	0x3cec372c	0.028834902
147	0x3dda5d06	0.10662274
148	0x3c8ca8a9	0.017170267
149	0x3c690a41	0.014223636
150	0x3c6f0f58	0.014591061
151	0xbe057d65	-0.13036115
152	0xbc55595d	-0.013021794
153	0x3d27f6b8	0.041006774
154	0xbc0a2e32	-0.008433865
155	0xbe02030d	-0.12696476
156	0xbd50193c	-0.050805315
157	0xbc8c4572	-0.017122958
158	0x3e0eaa3a	0.13932124
159	0xbd09fcfc	-0.03368853
160	0x3d28ace4	0.041180506
161	0x3d5282fd	0.05139445
162	0xbd8f75a8	-0.07004863
163	0x3f264069	0.6494203
164	0x3d7051b3	0.058671664
165	0x3c283527	0.010266579
166	0xbc9542a1	-0.018220248
167	0xbd4e9824	-0.05043806
168	0xbdc7d9ef	-0.097583644
169	0x3d23ae07	0.039960887
170	0xbde6b40e	-0.112648115
171	0xbd7c909d	-0.06166135
172	0x3cc11d1e	0.023573454
173	0xbd80df83	-0.062926315
174	0xbc4b9aa2	-0.012427004
175	0xbdb11674	-0.08646861
176	0x3c5078ca	0.012724111
177	0x3e021153	0.12701921
178	0xbd93f238	-0.07223934
179	0xbcf1927e	-0.029488798
180	0x3d1e21ef	0.03860658
181	0xbcb7d339	-0.022439586
182	0xbd1ec247	-0.038759496
183	0xbc926286	-0.017869245
184	0xbdc7a5ba	-0.09748407
185	0x3d7f7594	0.06236799
186	0xbd88b098	-0.066743076
187	0x3d0e4676	0.034735166
188	0xbcf80b79	-0.030278908
189	0x3c9c187e	0.019054648
190	0xbc07cf71	-0.008289204
191	0xbd9ac06f	-0.07556235
192	0xbca1c7e2	-0.019748632
193	0x3d7b25a0	0.06131518
194	0x3f821dd3	1.0165352
195	0xbc3b1345	-0.011418168
196	0x3c7e6c75	0.015528788
197	0x39585dde	0.00020634333
198	0xbcc12f86	-0.023582231
199	0xbdab971d	-0.08378432
200	0xbcbfd1c8	-0.023415461
201	0x3dad81d9	0.08472032
202	0x3cb679b3	0.022274828
203	0x3d7b6f55	0.06138547
204	0x3db67f50	0.08911002
205	0xbd6d5749	-0.05794457
206	0xbd9af459	-0.07566137
207	0xbdc55e95	-0.09637181
208	0xbd056adf	-0.032572623
209	0xbc35c858	-0.011095129
210	0xbceecaa8	-0.029149368
211	0xbc5abeec	-0.013351183
212	0xbd972fdd	-0.07382176
213	0xbd85f882	-0.0654154
214	0x3d01f7ab	0.031730335
215	0x3c975067	0.018470956
216	0xbcaff58d	-0.021479392
217	0x3d57e1c4	0.05270554
218	0xbc8f5bb7	-0.017499788
219	0x3df84572	0.12122621
220	0x3dde7dd9	0.10863847
221	0xbd160093	-0.03662164
222	0x3d1c540e	0.0381661
223	0xbd480f71	-0.04884285
224	0x3cb49122	0.022041861
225	0x3f8fe0b2	1.1240447
226	0x3c99b11c	0.01876121
227	0x3cdf48ac	0.027256332
228	0x3db753aa	0.089515045
229	0xbbb3c5f7	-0.0054862457
230	0x3d80133f	0.06253671
231	0x3ce92db2	0.028464172
232	0xbdf130d0	-0.11776888
233	0xbd669f64	-0.05630435
234	0xbb466b87	-0.0030276494
235	0xbc07fee9	-0.008300521
236	0x3d26ba36	0.04070493
237	0x3ceaafef	0.028648345
238	0xbd460a2e	-0.04834955
239	0xbe3ef79e	-0.18649146
240	0x3ae64735	0.0017568829
241	0x3d4c0aa8	0.04981485
242	0x3cac88a0	0.021061242
243	0x3da08e7b	0.07839676
244	0x3d190aa3	0.03736366
245	0x3beaa3f9	0.0071606603
246	0x3d7e239d	0.062045682
247	0xbc8b2e14	-0.016989745
248	0x3bbc5ec8	0.0057486035
249	0x3f5e390e	0.8680581
250	0x3d7255c6	0.05916383
251	0x3da9c332	0.08289184
252	0x3db962d1	0.09052051
253	0x3f478bb4	0.77947545
254	0x3d328706	0.0435858
255	0xbd3492de	-0.044085376

k_difficulty.weight f4 [81, 284]
0	0xbd402c1f	-0.046917077
1	0xbe2e5c9b	-0.17027514
2	0xbd0568a6	-0.032570504
3	0xbc0e5aae	-0.008688612
4	0xbc9e794c	-0.019344948
5	0xbd9a7095	-0.075410046
6	0x3d871f6e	0.065977916
7	0x3d67fbfa	0.056636788
8	0x3cfd569e	0.030925091
9	0x3d87ae42	0.06625034
10	0xbc3440e5	-0.0110018
11	0xbd7f0723	-0.062262665
12	0x3d72046f	0.05908626
13	0x3dfa20ab	0.12213262
14	0x3d879677	0.06620496
15	0x3cd05d64	0.025435157
16	0x3b8962b0	0.0041926727
17	0x3e082eac	0.13299054
18	0x3bf42ec5	0.0074518644
19	0x3c252ef7	0.010081998
20	0xbd773c72	-0.06036038
21	0x3d6e1e24	0.058134213
22	0x3e188885	0.14895828
23	0xbc79e66d	-0.015252692
24	0x3bbccea9	0.0057619405
25	0xbc0cd8eb	-0.008596639
26	0xbcbbebec	-0.022939645
27	0xbc3be182	-0.0114673395
28	0x3d3af781	0.045646194
29	0xbe245d0e	-0.16051123
30	0x3d903b9f	0.07042622
31	0xbda0503b	-0.07827803
32	0x3d25a6f0	0.040442407
33	0x3d526590	0.05136639
34	0xbd66412a	-0.05621449
35	0xbdcd9f4a	-0.100401476
36	0xbdcbbd3e	-0.099482045
37	0xbdd417f2	-0.1035613
38	0xbd744c24	-0.059642926
39	0x3cbbf1d9	0.02294247
40	0xbe58748b	-0.21138208
41	0xbe258ed9	-0.16167773
42	0xbdb00b1d	-0.0859587
43	0xbc89d0c6	-0.016823184
44	0xbd75e6ad	-0.060034443
45	0x3c37aa8a	0.011210093
46	0x3ccd93f9	0.025094973
47	0x3d0e2bf8	0.0347099
48	0xbd9aa3d0	-0.07550776
49	0x3dc87b54	0.09789148
50	0xbcaa3e64	-0.020781703
51	0x3da43379	0.0801763
52	0xbd989090	-0.07449448
53	0x3d9cb382	0.07651426
54	0xbd4a0e83	-0.049330246
55	0x3d3d30cc	0.046189114
56	0xbc9d8019	-0.01922612
57	0xbc747870	-0.014921293
58	0x3ec3e40c	0.38259923
59	0x3c0c4049	0.008560249
60	0x3dc72606	0.09724049
61	0x3e20ce44	0.15703684
62	0xbcbf1d6d	-0.023329461
63	0xbd72fab8	-0.059321135
64	0x3c4a7ebf	0.01235932
65	0xbbb9b42c	-0.00566723
66	0xbd02b7ee	-0.03191369
67	0xbc01f678	-0.007932298
68	0xbda6e3aa	-0.08148892
69	0xbcd22ef7	-0.02565716
70	0xbdc50285	-0.09619621
71	0xbd55afe9	-0.052169714
72	0x3daaff0d	0.08349428
73	0xbce972ca	-0.028497119
74	0xbdd3fa6c	-0.103504986
75	0xbde4619b	-0.11151429
76	0xbc2a3c6c	-0.010390382
77	0x3d0a3671	0.033743326
78	0x3de9925d	0.1140487
79	0xbd88c2d4	-0.066777855
80	0x3e5f470e	0.21804449
81	0xbdc36697	-0.09541052
82	0xbda4b030	-0.080414176
83	0x3d529bfd	0.051418293
84	0xbdebabc6	-0.115073726
85	0xbb9f7c41	-0.004867107
86	0x3d606cd3	0.054791283
87	0xbd33845c	-0.0438274
88	0xbd9723f3	-0.07379904
89	0x3dd28a08	0.102802336
90	0xbb47e532	-0.0030501601
91	0x3dddb625	0.10825757
92	0xbb89db6a	-0.0042070644
93	0xbd224598	-0.03961715
94	0xbddc8d4d	-0.107691385
95	0x3c520726	0.012819087
96	0xbd5f57f8	-0.054527253
97	0x3e0e4dbf	0.13896845
98	0xbcdd4b00	-0.027013302
99	0xbd8bef39	-0.068327375
100	0xbb65679c	-0.0035004383
101	0xbcc26c32	-0.023733232
102	0xbe61ba6e	-0.22043774
103	0xbb71dbea	-0.003690476
104	0xbe0853b6	-0.13313183
105	0xbd755e08	-0.05990413
106	0x3d719f79	0.058989976
107	0xbb6f8e91	-0.0036553482
108	0xbdcf2b5e	-0.101156935
109	0xbc866570	-0.016405791
110	0xbc898ada	-0.016789842
111	0x3bfe3b84	0.0077585597
112	0xbdaa5a9d	-0.08318064
113	0xbd175d62	-0.03695429
114	0x3d87d0cd	0.066316225
115	0xbe10daa3	-0.14145903
116	0xbda370ea	-0.07980521
117	0xb8fc4e63	-0.00012030897
118	0xbce49090	-0.027900964
119	0x3d1f1479	0.038837884
120	0x3d870393	0.065924786
121	0xbddbe766	-0.10737495
122	0xbc1e2774	-0.009652961
123	0x3d9e5b43	0.077322505
124	0x3d914503	0.07093241
125	0xbbece0d0	-0.007228948
126	0x3dcfe7a7	0.10151606
127	0x3d8cd94b	0.06877383
128	0xbdc61ecd	-0.096738435
129	0xbd0e41b0	-0.034730613
130	0x3e1284ce	0.14308473
131	0x3d38b619	0.045095537
132	0xbc9341ad	-0.017975653
133	0x3cf30475	0.029665211
134	0xbd1aae4d	-0.037763882
135	0xbe0b9271	-0.13630082
136	0x3d92035f	0.07129549
137	0x3da87013	0.082245015
138	0xbe00bcef	-0.12572072
139	0xbd12269f	-0.035681363
140	0x3d957f6e	0.07299696
141	0xbe523dc6	-0.20531377
142	0xbc8b2949	-0.01698746
143	0x3d06c53d	0.032902945
144	0x3c9ce0d9	0.019150184
145	0x3ddd47b1	0.1080469
146	0x3d4511d8	0.04811272
147	0x3db5995d	0.08867142
148	0xbbf190ea	-0.0073720114
149	0xbcea94f7	-0.028635485
150	0xbd5562a0	-0.05209601
151	0xbd76d152	-0.060258217
152	0xbde25343	-0.11051037
153	0xbbb8b9de	-0.0056373915
154	0xbe0da150	-0.13831067
155	0x3dede5ba	0.116160825
156	0xbaad9ee3	-0.0013246204
157	0xbc404228	-0.011734523
158	0x3cf570dc	0.029961042
159	0xbd493e46	-0.049131654
160	0x3d8c11cd	0.06839333
161	0xbd6263c0	-0.05527091
162	0x3de8238e	0.113349065
163	0x3d48218a	0.04886011
164	0xbd6cd571	-0.05782074
165	0xbdc2723b	-0.09494444
166	0x3c7f872e	0.015596194
167	0x3c9a7f37	0.018859489
168	0xbcb0f922	-0.02160317
169	0x3c2ef466	0.010678386
170	0xbd86cee2	-0.065824285
171	0xbc8167eb	-0.015796622
172	0x3cb7cf60	0.022437751
173	0x3ccf73eb	0.025323829
174	0xbcc536fb	-0.024074068
175	0xbdc4bffb	-0.0960693
176	0xbdbf60dd	-0.09344647
177	0xbe323f17	-0.1740688
178	0xbd009fad	-0.03140228
179	0x3d4dbfb7	0.05023166
180	0x3cdc8855	0.026920477
181	0xbe52d65e	-0.20589587
182	0x3dba2952	0.090899125
183	0xbdc8435c	-0.09778473
184	0x3cbc2ac4	0.022969611
185	0x3c99f1a8	0.018791988
186	0x3c545dbe	0.012961803
187	0xbda4f04e	-0.08053647
188	0xbd6f5418	-0.058429807
189	0x3d3b386c	0.045708105
190	0xbdf9399b	-0.121691905
191	0x3db47af8	0.08812517
192	0xbe4421e6	-0.19153556
193	0xbbc8416e	-0.0061113155
194	0x3de75d4a	0.1129709
195	0xbb57a09b	-0.0032902125
196	0x39c9b5e4	0.00038473227
197	0x3d5adf4b	0.053435605
198	0xbd64d620	-0.055868268
199	0x3ce9c06d	0.028534139
200	0x3c239f01	0.00998664
201	0xbd88eee0	-0.06686187
202	0x3da6a40c	0.08136758
203	0xbd8d75c6	-0.06907229
204	0xbe105d6e	-0.1409814
205	0x3d6f601c	0.058441266
206	0xbb88c5ed	-0.004173985
207	0x3d87915f	0.06619524
208	0xbd1249e9	-0.035715017
209	0xbcd5fecd	-0.026122475
210	0x3d9e19bb	0.077197514
211	0xbc98f232	-0.018670175
212	0xbd40baf2	-0.047053285
213	0x3c95c729	0.018283444
214	0x3de2b621	0.110698946
215	0xbc0f896b	-0.00876079
216	0x3c37ca79	0.011217707
217	0x3caaaa69	0.020833211
218	0xbd559e7b	-0.052153092
219	0xbdad8b78	-0.08473867
220	0xbd98d089	-0.0746165
221	0xbdf0925f	-0.11746668
222	0xbc18de9d	-0.009330419
223	0x3da581d8	0.08081406
224	0x3d179a49	0.037012372
225	0xbc6406f2	-0.0139176715
226	0x3a6a6707	0.0008941744
227	0x3c9a29d4	0.018818773
228	0xbd0dfa57	-0.03466257
229	0xbd2c4180	-0.042054653
230	0xbd467f12	-0.048461027
231	0xbdb631ae	-0.088961944
232	0xbdbfec57	-0.0937125
233	0x3e0aeac7	0.13566123
234	0x3dd5fe43	0.10448887
235	0x3cacd04d	0.02109542
236	0x3dbbcd3c	0.09170005
237	0x3d8796a2	0.06620528
238	0x3c74947a	0.014927978
239	0x3dabc5fe	0.083873734
240	0xbc9ece24	-0.019385405
241	0xbc2451cc	-0.0100292675
242	0xbd370108	-0.044678718
243	0x3d873398	0.066016376
244	0xbba8344f	-0.005133189
245	0x3d91deda	0.07122584
246	0x3c74357e	0.014905332
247	0x3e08043a	0.13282862
248	0xbdc5a0a8	-0.096497834
249	0xbdd909b8	-0.10597557
250	0xbdb2128f	-0.08694946
251	0x3cfe3d4a	0.031035084
252	0xbca551d2	-0.020180617
253	0x3d2aa047	0.04165676
254	0x3ce59a90	0.028027803
255	0x3dd8db42	0.10588695

e_discrimination.weight f4 [81, 1]
0	0x3fe6e0e0	1.8037376
1	0x3f869bb9	1.0516273
2	0x3ff39d5e	1.90324
3	0x3f7788d1	0.9669314
4	0x3fd0e42d	1.6319634
5	0x40070739	2.1098158
6	0x3ff5012a	1.914098
7	0x3fbf7ec0	1.4960556
8	0x3ff125bc	1.8839641
9	0x3fdd6e83	1.729935
10	0x3fd9f671	1.7028333
11	0x3fae26f9	1.3605644
12	0x3fe17ba7	1.7615861
13	0x3fb7a1b8	1.4346228
14	0x3fe42bde	1.7825887
15	0x3f8b0cb0	1.0863247
16	0x3f509712	0.81480515
17	0x3feec3a1	1.8653451
18	0x3fdfb5a0	1.7477303
19	0x3fa89605	1.3170782
20	0x40112ac0	2.2682343
21	0x3fe04371	1.7520581
22	0x3fe07541	1.7535783
23	0x3fb675ad	1.4254662
24	0x3f7ab244	0.9792826
25	0x3f964816	1.1740749
26	0x3f42596e	0.7591771
27	0x3fecd8a9	1.850362
28	0x3ffcae78	1.9740744
29	0x3fab95bc	1.340507
30	0x40188833	2.383313
31	0x3fafddbb	1.3739542
32	0x3f459b18	0.7718978
33	0x3fabacf0	1.3412151
34	0x3fc09766	1.5046203
35	0x3fcd2050	1.6025486
36	0x3fb0eb18	1.3821745
37	0x3fd41aa3	1.6570629
38	0x3fd64173	1.6738724
39	0x3fb3812b	1.4023794
40	0x3ff52f12	1.915499
41	0x3fde237d	1.735458
42	0x3fad29eb	1.3528417
43	0x40003b4c	2.0036192
44	0x3f9d707f	1.2299956
45	0x400c5cbb	2.1931598
46	0x3fe6818f	1.8008288
47	0x3fb2dd4a	1.3973782
48	0x3faa3778	1.3298178
49	0x3fae1cfd	1.3602597
50	0x3fb7f46e	1.4371469
51	0x3faac69d	1.3341862
52	0x3fb9a1de	1.4502523
53	0x3fadcc10	1.35779
54	0x3f95393c	1.1658092
55	0x3fe569b0	1.7922878
56	0x3ffa5eb3	1.956015
57	0x4003a7f7	2.0571268
58	0x3f98bc14	1.1932397
59	0x3fdcf188	1.726121
60	0x3fb8d898	1.4441099
61	0x4010c217	2.2618463
62	0x3f816dd6	1.0111644
63	0x3fccc765	1.599835
64	0x3fb19749	1.3874294
65	0x3f8f952e	1.1217401
66	0x3fb105c3	1.3829883
67	0x40072712	2.1117597
68	0x3ff90aed	1.9456459
69	0x3fbea0dc	1.489284
70	0x4005aeab	2.088786
71	0x3f7baf6d	0.98314553
72	0x400b270b	2.174258
73	0x3ff65d35	1.9247195
74	0x3f9d9869	1.2312137
75	0x3fa8311f	1.313999
76	0x3fef6872	1.8703749
77	0x3ff8c7be	1.9435956
78	0x3fdf5ef2	1.745085
79	0x3f8907c8	1.07055
80	0x3fdcdc71	1.7254773

prednet_full1.weight f4 [128, 284]
0	0x3c99527a	0.018716086
1	0x00000000	0.0
2	0x3c9e383b	0.019313922
3	0x3d23f09a	0.040024377
4	0x3c919f85	0.01777626
5	0x3fbecb8b	1.4905866
6	0x00000000	0.0
7	0x3d301c85	0.04299595
8	0x3c0223b8	0.007943086
9	0x00000000	0.0
10	0x3d3126e6	0.043249987
11	0x3cf90b2e	0.030400839
12	0x3d09169b	0.033468824
13	0x3e434119	0.19067802
14	0x00000000	0.0
15	0x3d5cb7e4	0.05388631
16	0x00000000	0.0
17	0x00000000	0.0
18	0x3d3244b6	0.04352256
19	0x3dca3950	0.09874213
20	0x00000000	0.0
21	0x3b05f6c6	0.0020441278
22	0x3db8ef64	0.09030035
23	0x00000000	0.0
24	0x3cc65317	0.024209542
25	0x00000000	0.0
26	0x00000000	0.0
27	0x3cfcb9ab	0.030850252
28	0x00000000	0.0
29	0x00000000	0.0
30	0x3d952536	0.07282488
31	0x00000000	0.0
32	0x3ae99120	0.001781974
33	0x3e083a47	0.13303481
34	0x3df57a0c	0.11986169
35	0x00000000	0.0
36	0x3dc55e97	0.09637182
37	0x3d407f36	0.046996318
38	0x00000000	0.0
39	0x3db14092	0.08654894
40	0x3cb9d5d2	0.022684965
41	0x3cb12eaa	0.021628696
42	0x00000000	0.0
43	0x3fa96d3e	1.3236463
44	0x3d3fcccf	0.04682618
45	0x3cefc045	0.029266486
46	0x3d9ca2e6	0.07648258
47	0x00000000	0.0
48	0x3d7c4d8a	0.061597385
49	0x00000000	0.0
50	0x3d15ebd8	0.03660187
51	0x3da07fea	0.07836898
52	0x3d86e527	0.06586676
53	0x3c2a985a	0.0104123
54	0x3d7c0751	0.061530415
55	0x3b463581	0.0030244293
56	0x3fbd2bd6	1.4779003
57	0x3cabe829	0.020984726
58	0x3faa28ae	1.3293664
59	0x00000000	0.0
60	0x3bf6c3bd	0.007530658
61	0x00000000	0.0
62	0x3db17e6a	0.0866669
63	0x3dacfb90	0.08446419
64	0x00000000	0.0
65	0x3ddfded4	0.10931173
66	0x00000000	0.0
67	0x00000000	0.0
68	0x00000000	0.0
69	0x3d449d09	0.048001323
70	0x3d922eb9	0.07137818
71	0x3d0788eb	0.03308956
72	0x00000000	0.0
73	0x00000000	0.0
74	0x00000000	0.0
75	0x3c799f04	0.015235666
76	0x3d41a4c7	0.047276285
77	0x00000000	0.0
78	0x3fb834a1	1.4391061
79	0x00000000	0.0
80	0x00000000	0.0
81	0x3fa33e15	1.2753321
82	0x3d51cd1c	0.051221
83	0x00000000	0.0
84	0x00000000	0.0
85	0x00000000	0.0
86	0x3dd609a2	0.10451056
87	0x3d32aa9b	0.043619733
88	0x00000000	0.0
89	0x3e33b676	0.17550072
90	0x3d6fc9c1	0.058542017
91	0x3cd6594e	0.02616563
92	0x00000000	0.0
93	0x00000000	0.0
94	0x00000000	0.0
95	0x00000000	0.0
96	0x00000000	0.0
97	0x3dac0b6a	0.084006146
98	0x00000000	0.0
99	0x00000000	0.0
100	0x00000000	0.0
101	0x3dc6b422	0.09702326
102	0x3e4521da	0.19251195
103	0x00000000	0.0
104	0x00000000	0.0
105	0x00000000	0.0
106	0x3d9aa986	0.07551865
107	0x00000000	0.0
108	0x00000000	0.0
109	0x00000000	0.0
110	0x00000000	0.0
111	0x00000000	0.0
112	0x3dce2871	0.10066307
113	0x3cedc7e4	0.02902598
114	0x00000000	0.0
115	0x3e2ed5a1	0.1707368
116	0x3dab4d95	0.08364407
117	0x00000000	0.0
118	0x00000000	0.0
119	0x00000000	0.0
120	0x3ce1b983	0.02755428
121	0x00000000	0.0
122	0x3faf756c	1.3707709
123	0x3d826b21	0.063680895
124	0x3d50cc3b	0.05097602
125	0x3d108429	0.035282288
126	0x00000000	0.0
127	0x3fc3abcb	1.5286802
128	0x3dd56029	0.10418732
129	0x00000000	0.0
130	0x3d58525e	0.052812926
131	0x3d300387	0.042972114
132	0x3c8c7321	0.017144741
133	0x00000000	0.0
134	0x00000000	0.0
135	0x3b8a64fb	0.0042234636
136	0x00000000	0.0
137	0x00000000	0.0
138	0x00000000	0.0
139	0x3c25045f	0.010071843
140	0x3d96c7d5	0.07362334
141	0x3d4cdee6	0.05001726
142	0x00000000	0.0
143	0x00000000	0.0
144	0x00000000	0.0
145	0x3c661a35	0.014044334
146	0x3db516a9	0.08842213
147	0x3b7ce003	0.003858567
148	0x3d40cafb	0.047068577
149	0x00000000	0.0
150	0x00000000	0.0
151	0x00000000	0.0
152	0x00000000	0.0
153	0x00000000	0.0
154	0x00000000	0.0
155	0x00000000	0.0
156	0x3ddc546d	0.107582904
157	0x3ce54a3b	0.027989497
158	0x3cbfc925	0.023411343
159	0x3d5c29c4	0.05375077
160	0x3d7a8531	0.061162177
161	0x3cbc7115	0.02300314
162	0x00000000	0.0
163	0x3f7cf277	0.9880747
164	0x3dc588ca	0.09645231
165	0x39d66c94	0.00040898158
166	0x00000000	0.0
167	0x3d3f1e7d	0.046659935
168	0x00000000	0.0
169	0x00000000	0.0
170	0x00000000	0.0
171	0x00000000	0.0
172	0x3e06d588	0.13167393
173	0x3b028fc1	0.001992211
174	0x00000000	0.0
175	0x3d55defa	0.0522146
176	0x00000000	0.0
177	0x3dbfff8d	0.09374914
178	0x00000000	0.0
179	0x3d0c6c06	0.034282707
180	0x00000000	0.0
181	0x3d94b963	0.07261922
182	0x3dd2bd4f	0.10290014
183	0x00000000	0.0
184	0x00000000	0.0
185	0x3c4dec44	0.012568537
186	0x00000000	0.0
187	0x3c7ebadc	0.01554748
188	0x00000000	0.0
189	0x3db69ffe	0.08917235
190	0x00000000	0.0
191	0x00000000	0.0
192	0x00000000	0.0
193	0x3cf3d3f7	0.029764159
194	0x3fa7d110	1.3110676
195	0x3d2d41b1	0.042298976
196	0x00000000	0.0
197	0x3d3303c6	0.04370477
198	0x3bc42275	0.005985553
199	0x3db4b8d3	0.08824315
200	0x00000000	0.0
201	0x3d9e4a9a	0.07729073
202	0x00000000	0.0
203	0x3db68efc	0.08913991
204	0x00000000	0.0
205	0x3e0fca98	0.14042127
206	0x3e0ad303	0.13557057
207	0x3fbb1b77	1.4617757
208	0x00000000	0.0
209	0x00000000	0.0
210	0x3dc59a7e	0.09648608
211	0x00000000	0.0
212	0x3ddc1d4c	0.107477754
213	0x00000000	0.0
214	0x00000000	0.0
215	0x3d5975d2	0.053090878
216	0x3d8844d7	0.06653755
217	0x00000000	0.0
218	0x00000000	0.0
219	0x00000000	0.0
220	0x00000000	0.0
221	0x3e1b0bed	0.15141268
222	0x00000000	0.0
223	0x00000000	0.0
224	0x00000000	0.0
225	0x3fbc310a	1.4702466
226	0x00000000	0.0
227	0x00000000	0.0
228	0x3d148598	0.036260217
229	0x00000000	0.0
230	0x00000000	0.0
231	0x3cc0654d	0.023485804
232	0x00000000	0.0
233	0x00000000	0.0
234	0x00000000	0.0
235	0x3d112bbb	0.035442095
236	0x00000000	0.0
237	0x00000000	0.0
238	0x00000000	0.0
239	0x3fb22591	1.3917714
240	0x00000000	0.0
241	0x3d61b962	0.055108435
242	0x3cb7b764	0.022426315
243	0x3cf65452	0.030069504
244	0x3dc685cd	0.09693489
245	0x3d1d9212	0.03846938
246	0x00000000	0.0
247	0x3bfaa0a8	0.0076485462
248	0x3d33d96c	0.04390852
249	0x3fb485dc	1.4103351
250	0x00000000	0.0
251	0x00000000	0.0
252	0x00000000	0.0
253	0x3faa6897	1.3313168
254	0x3b648eb2	0.0034875092
255	0x3d655d01	0.0559969

prednet_full1.bias f4 [128]
0	0xbeac9271	-0.33705476
1	0xbf11d098	-0.56958914
2	0xbf39f6ae	-0.7264203
3	0xbf31aefa	-0.6940762
4	0xbf3811a9	-0.7190195
5	0xbeb9e473	-0.36307105
6	0xbe5693b3	-0.2095478
7	0xbeaaafed	-0.33337346
8	0xbef2915d	-0.47376528
9	0xbef9029b	-0.486348
10	0xbf1b7b52	-0.60735047
11	0xbf0567b6	-0.52111375
12	0xbf0cf060	-0.55054283
13	0xbf2639ad	-0.64931756
14	0xbe6121c8	-0.21985543
15	0xbe82ee0c	-0.2557224
16	0xbec81589	-0.3907893
17	0xbf05ac97	-0.52216476
18	0xbe62a0bf	-0.22131632
19	0xbe73950d	-0.23787327
20	0xbee60cb3	-0.44931564
21	0xbf0ff562	-0.562338
22	0xbea26981	-0.31721118
23	0xbf1d907f	-0.6154861
24	0xbf1a40e3	-0.6025526
25	0xbeb5874b	-0.35454783
26	0xbea89b78	-0.32931113
27	0xbf1d3118	-0.61403036
28	0xbe8e3064	-0.27771294
29	0xbf11fc33	-0.5702545
30	0xbe412217	-0.1886066
31	0xbf29fc81	-0.66400915
32	0xbed0a061	-0.4074736
33	0xbf09f8b6	-0.5389513
34	0xbed0fb51	-0.4081674
35	0xbe8ba221	-0.27272132
36	0xbec85a79	-0.39131525
37	0xbf14956a	-0.5804049
38	0xbe51b61a	-0.20479622
39	0xbf0fc650	-0.56161976
40	0xbf08761d	-0.53305227
41	0xbe8ee694	-0.27910292
42	0xbf28893e	-0.65834415
43	0xbe596c7f	-0.21232794
44	0xbed538d7	-0.41644928
45	0xbe8dff20	-0.27733707
46	0xbecfa205	-0.405533
47	0xbf2812d2	-0.6565372
48	0xbee2dee9	-0.44310692
49	0xbeb289a2	-0.3487063
50	0xbf2b0961	-0.66811186
51	0xbf0e84d7	-0.5567145
52	0xbf14f627	-0.581881
53	0xbf0872c4	-0.5330012
54	0xbe86b24a	-0.263079
55	0xbea4f6db	-0.32219586
56	0xbf19c66a	-0.6006838
57	0xbf07bd82	-0.5302354
58	0xbf0f100e	-0.5588387
59	0xbf1f6008	-0.6225591
60	0xbe8bc929	-0.2730191
61	0xbf098857	-0.53723663
62	0xbeb3620c	-0.3503574
63	0xbe91ba34	-0.28462374
64	0xbe93525c	-0.28773773
65	0xbedbeb20	-0.42952824
66	0xbf1222f5	-0.5708459
67	0xbf078556	-0.5293783
68	0xbecd47c9	-0.4009383
69	0xbe9cdbaa	-0.3063634
70	0xbf19e127	-0.6010918
71	0xbe7113ed	-0.23542757
72	0xbee4f43c	-0.44717586
73	0xbf0124a5	-0.5044654
74	0xbecc4c67	-0.3990204
75	0xbf21802a	-0.6308619
76	0xbe58e5c4	-0.21181399
77	0xbe762d61	-0.24040748
78	0xbe032456	-0.1280683
79	0xbe065eee	-0.1312215
80	0xbee1fdaf	-0.44138858
81	0xbf0a1d5c	-0.5395105
82	0xbe7d9a47	-0.24765883
83	0xbf2bbe75	-0.6708749
84	0xbea47fbd	-0.32128707
85	0xbee4d43e	-0.44693178
86	0xbf067422	-0.52520955
87	0xbf3038d2	-0.688367
88	0xbe7e1bf4	-0.24815351
89	0xbedf6c07	-0.43637106
90	0xbf266fec	-0.6501453
91	0xbf059ce5	-0.5219253
92	0xbf05843b	-0.5215489
93	0xbee5560d	-0.44792214
94	0xbeec7a4a	-0.4618705
95	0xbe2b5224	-0.16730553
96	0xbf152440	-0.5825844
97	0xbf12c4c3	-0.57331485
98	0xbedd8a8d	-0.43269768
99	0xbe93d569	-0.28873757
100	0xbf3c69e1	-0.7359906
101	0xbf195733	-0.5989868
102	0xbee1e37d	-0.44118872
103	0xbe3aa83e	-0.18228242
104	0xbf02bfe1	-0.51074034
105	0xbf037f32	-0.5136596
106	0xbf09a7f9	-0.5377193
107	0xbf2819cb	-0.65664357
108	0xbf01d78d	-0.5071953
109	0xbebf0c3c	-0.37314022
110	0xbecb1091	-0.39661077
111	0xbee64791	-0.44976476
112	0xbe78f74a	-0.24313083
113	0xbef931b3	-0.4867073
114	0xbf1e51e1	-0.6184369
115	0xbe582360	-0.21107244
116	0xbee0fe1d	-0.43943873
117	0xbf261041	-0.6486855
118	0xbf0765ae	-0.52889526
119	0xbf2e47fd	-0.68078595
120	0xbe5a2487	-0.21302997
121	0xbf33e3a1	-0.7026921
122	0xbea454f5	-0.32096067
123	0xbf01ac4b	-0.50653523
124	0xbf15901d	-0.58423024
125	0xbf07bd4f	-0.53023237
126	0xbee3829d	-0.44435588
127	0xbedd6b79	-0.43246058

prednet_full2.weight f4 [64, 128]
0	0x3b5b7aea	0.003349001
1	0x3c91be73	0.017791009
2	0x3d56bd1a	0.052426435
3	0x3ca219c9	0.019787686
4	0x3d0d4a32	0.034494586
5	0x3bae1b13	0.005313286
6	0x00000000	0.0
7	0x3b9c6a33	0.004773402
8	0x3bd66f37	0.0065440196
9	0x3c9197dd	0.01777261
10	0x3ce95c2d	0.028486336
11	0x3c25bec6	0.010116285
12	0x3d027bec	0.031856462
13	0x3d0c5ee5	0.034270186
14	0x00000000	0.0
15	0x3b3fdc42	0.002927557
16	0x3bdaf86d	0.0066824467
17	0x3c990a63	0.01868171
18	0x00000000	0.0
19	0x00000000	0.0
20	0x3c5cf2f8	0.013485663
21	0x3cbcd1d3	0.02304927
22	0x3bce2abc	0.0062917154
23	0x3cb1baea	0.021695573
24	0x3ce8c88f	0.028415946
25	0x3dddedb8	0.10836357
26	0x3b0e887d	0.0021748834
27	0x3e3c0ae6	0.18363532
28	0x3b5092ea	0.003182585
29	0x3cec8bb1	0.028875204
30	0x00000000	0.0
31	0x3cf104dd	0.029421264
32	0x3c3152f0	0.0108229965
33	0x3d7094fb	0.05873583
34	0x3d803a9a	0.06261177
35	0x3d30abed	0.04313271
36	0x3c5c0309	0.013428458
37	0x3cd2ff8a	0.025756616
38	0x00000000	0.0
39	0x3c58b7cd	0.013227415
40	0x3d0e6744	0.03476645
41	0x3d4943f0	0.049137056
42	0x3ccd04f8	0.025026783
43	0x00000000	0.0
44	0x3c5981c4	0.013275567
45	0x3e3454de	0.176105
46	0x3cf9528d	0.030434871
47	0x3dc4968c	0.09599027
48	0x3c952767	0.018207265
49	0x3b8816f0	0.004153125
50	0x3d19d1f7	0.037553754
51	0x3d7672fe	0.06016826
52	0x3cb6594a	0.022259373
53	0x3dc5fce3	0.09667375
54	0x3bc75625	0.0060832673
55	0x3bf110ad	0.0073567242
56	0x3cae39c6	0.021267783
57	0x3e072530	0.1319778
58	0x3da27055	0.07931582
59	0x3cad0c2f	0.021123974
60	0x3d62e565	0.05539455
61	0x3cc4ec5a	0.024038482
62	0x3da8be30	0.082394004
63	0x3bff6cf8	0.0077949725
64	0x3b45aa87	0.0030161457
65	0x3c3f19df	0.011663883
66	0x3d7c1d33	0.061551284
67	0x3caeb154	0.021324791
68	0x3c916414	0.017747916
69	0x3b465c02	0.0030267243
70	0x3d4f0454	0.050541237
71	0x3d006288	0.031343967
72	0x3c870ec2	0.01648653
73	0x3ca906ae	0.020633068
74	0x3c27b9f1	0.010237203
75	0x3dae2280	0.08502674
76	0x00000000	0.0
77	0x39cb6d2c	0.00038800517
78	0x00000000	0.0
79	0x00000000	0.0
80	0x3ca9bf38	0.020721063
81	0x3d4b03a7	0.04956403
82	0x00000000	0.0
83	0x3db19ee2	0.086728826
84	0x3bd0f3c6	0.0063767163
85	0x3c4c3b63	0.012465331
86	0x3e2c9a55	0.16855748
87	0x3e4edf26	0.20202312
88	0x00000000	0.0
89	0x3c848060	0.016174495
90	0x3dd90086	0.10595803
91	0x3d4f48cb	0.05060653
92	0x3cf4ecb1	0.02989802
93	0x3e0189c0	0.12650204
94	0x3e07ed29	0.13274063
95	0x3cf0c551	0.029390963
96	0x3cad36c0	0.02114427
97	0x3deb2ff0	0.11483753
98	0x3c10e970	0.008844718
99	0x3db0dfef	0.08636462
100	0x3d790689	0.060797248
101	0x3ca605a6	0.020266365
102	0x3dce584d	0.10075436
103	0x00000000	0.0
104	0x3d03ac6a	0.03214685
105	0x3c8c440e	0.017122295
106	0x3cfdae9b	0.030967047
107	0x3d06f1fa	0.03294561
108	0x3e016831	0.12637402
109	0x3dc576c0	0.096417904
110	0x3c674d03	0.014117482
111	0x3c763490	0.01502718
112	0x00000000	0.0
113	0x3c9bc5f6	0.019015294
114	0x3cf338a0	0.029690087
115	0x00000000	0.0
116	0x3c8dff71	0.017333718
117	0x3dab581a	0.083664134
118	0x3dc4ff33	0.09618988
119	0x3db54f69	0.08853037
120	0x39286c00	0.00016061962
121	0x3dfc75e5	0.12327174
122	0x3d539e81	0.051664833
123	0x3cb1db31	0.021710964
124	0x3ca28b8e	0.019841935
125	0x3cad4316	0.021150153
126	0x3c8c3921	0.017117085
127	0x3c36c4a4	0.011155281
128	0x00000000	0.0
129	0x3e0a2c24	0.13493401
130	0x3ebb8e2c	0.36631906
131	0x3e2cb13c	0.16864485
132	0x3ec4a18a	0.38404495
133	0x00000000	0.0
134	0x00000000	0.0
135	0x00000000	0.0
136	0x3dac08c3	0.08400109
137	0x3e036dbc	0.12834829
138	0x3ea17faa	0.31542712
139	0x3d30208c	0.04299979
140	0x3eccd696	0.40007466
141	0x3eccb6b5	0.39983144
142	0x00000000	0.0
143	0x00000000	0.0
144	0x3d237e3f	0.03991532
145	0x3e62a39f	0.22132729
146	0x00000000	0.0
147	0x00000000	0.0
148	0x00000000	0.0
149	0x3e725d00	0.23668289
150	0x00000000	0.0
151	0x3e73f3a4	0.2382341
152	0x3ebe107d	0.37121955
153	0x00000000	0.0
154	0x39b036da	0.00033610204
155	0x3e423ca7	0.1896845
156	0x00000000	0.0
157	0x3eb7dd28	0.35910916
158	0x393a176d	0.00017747069
159	0x3ec5f9ea	0.38667232
160	0x3da2df72	0.07952775
161	0x3e2de30f	0.16981147
162	0x3e594a39	0.2121972
163	0x3975fa66	0.00023458301
164	0x3deeab45	0.11653761
165	0x3e60e39f	0.2196183
166	0x00000000	0.0
167	0x3e5bd045	0.21466167
168	0x3ec8106c	0.3907503
169	0x00000000	0.0
170	0x3e0dcf90	0.1384871
171	0x00000000	0.0
172	0x3e620a03	0.22074132
173	0x00000000	0.0
174	0x00000000	0.0
175	0x3e4bb83b	0.19894497
176	0x3ce1aef7	0.02754925
177	0x3a42d942	0.00074328866
178	0x3ed0335e	0.4066419
179	0x3e48836b	0.19581382
180	0x3e81b170	0.25330687
181	0x3e927116	0.28601903
182	0x00000000	0.0
183	0x00000000	0.0
184	0x3e6fe701	0.23427965
185	0x3e8d9bfd	0.27658072
186	0x3e02031d	0.126965
187	0x3e9b7523	0.30362806
188	0x00000000	0.0
189	0x3e034df0	0.128227
190	0x00000000	0.0
191	0x3c5ef619	0.013608479
192	0x00000000	0.0
193	0x00000000	0.0
194	0x3e577756	0.21041617
195	0x3a3eeacd	0.0007282913
196	0x3e364b03	0.17802052
197	0x3a422e53	0.00074074155
198	0x3e211d93	0.15733938
199	0x00000000	0.0
200	0x3d331e0c	0.043729827
201	0x3e079331	0.13239743
202	0x37cf745c	2.4730507e-05
203	0x3e6096fb	0.21932594
204	0x3a9ed17c	0.0012116875
205	0x00000000	0.0
206	0x00000000	0.0
207	0x00000000	0.0
208	0x3e3c0f06	0.18365106
209	0x3e54772f	0.2074859
210	0x00000000	0.0
211	0x3eb46091	0.35229924
212	0x3a6212d5	0.0008624022
213	0x3dd36fb3	0.10324039
214	0x3b4e3780	0.0031466186
215	0x3efce688	0.4939463
216	0x00000000	0.0
217	0x3b165558	0.0022939052
218	0x3e7f1840	0.24911594
219	0x3e41fa2e	0.18943092
220	0x3e82b0f5	0.25525633
221	0x3e5e7a82	0.2172642
222	0x3e042bc2	0.12907317
223	0x00000000	0.0
224	0x3e70f4d1	0.2353089
225	0x3ddabdee	0.106807575
226	0x00000000	0.0
227	0x00000000	0.0
228	0x3eff79dd	0.49897662
229	0x3e6937c6	0.22775182
230	0x3ddaf941	0.10692073
231	0x00000000	0.0
232	0x3dc656bb	0.09684511
233	0x3e542b08	0.2071954
234	0x3edc5946	0.4303686
235	0x3edbb226	0.42909354
236	0x3e413d4d	0.1887104
237	0x00000000	0.0
238	0x00000000	0.0
239	0x3e7fe13e	0.24988267
240	0x00000000	0.0
241	0x3e40c66b	0.1882569
242	0x3dc1f64d	0.09470806
243	0x00000000	0.0
244	0x3cd139d4	0.02554027
245	0x3e62abca	0.22135845
246	0x3e639270	0.2222383
247	0x3ee18fac	0.44054925
248	0x386ccd59	5.645803e-05
249	0x3eb6e977	0.35724995
250	0x00000000	0.0
251	0x3e6f8348	0.23389924
252	0x3dac3d94	0.084101826
253	0x3e82b2c9	0.25527027
254	0x00000000	0.0
255	0x3b5da7f3	0.003382203

prednet_full2.bias f4 [64]
0	0xbec1e35b	-0.3786877
1	0xc02d0706	-2.7035537
2	0xbf7015d2	-0.93783295
3	0xbfaa07ab	-1.328359
4	0xc016b120	-2.3545609
5	0xbfb2a68d	-1.3957077
6	0xc0081637	-2.126356
7	0xbfa64dc3	-1.2992481
8	0xbf8aeee2	-1.0854151
9	0xba807986	-0.0009801842
10	0xbe89e01f	-0.26928803
11	0xbee9a93e	-0.45636934
12	0xbef74061	-0.48291305
13	0xbe5d347c	-0.21602052
14	0xbeee12ab	-0.46498618
15	0xbf991507	-1.1959542
16	0xc02119a8	-2.517191
17	0xc01e679e	-2.4750743
18	0xbfbda4d3	-1.4815925
19	0xbf89d134	-1.0766969
20	0xbe3d4573	-0.18483524
21	0xc0045d9a	-2.068213
22	0xc027f515	-2.6243336
23	0xbf7a0401	-0.9766236
24	0xc0113b1a	-2.2692323
25	0xbff552cf	-1.9165896
26	0xc01ca1c4	-2.4473734
27	0xbf874c33	-1.0570129
28	0xc02158ef	-2.521053
29	0xbe9baed3	-0.30406818
30	0xbf847b4b	-1.0350126
31	0xc027b6c4	-2.6205301
32	0xbdc2ad27	-0.095056824
33	0xbedf6e8c	-0.43639028
34	0xc024c3e3	-2.574456
35	0xbfb6fe20	-1.4296303
36	0xbf15c763	-0.58507365
37	0xbffa78bf	-1.9568099
38	0xc00f4c21	-2.2390215
39	0xc022373d	-2.5346215
40	0xbeb1426c	-0.34620988
41	0xbdfbdb96	-0.12297742
42	0xbf3a94cd	-0.728833
43	0xbf8758d1	-1.057398
44	0xc01c56fd	-2.4428093
45	0xbf59dcc9	-0.85102516
46	0xbf8e64ba	-1.1124489
47	0xc01fd555	-2.4973958
48	0xbd8ee0c3	-0.06976464
49	0xc026a2d1	-2.6036875
50	0xbf049233	-0.5178558
51	0xc0099e1b	-2.150275
52	0xbfedc7b9	-1.8576576
53	0xbf50d1fb	-0.81570405
54	0xbf31d76c	-0.6946933
55	0xbdb7461a	-0.08948918
56	0xbc3ead36	-0.011637976
57	0xbfc5f994	-1.546679
58	0xbec93508	-0.39298272
59	0xbfcce732	-1.6008055
60	0xc01e7735	-2.4760258
61	0xc018ca2e	-2.38734
62	0xbf2bb65d	-0.6707514
63	0xc013963f	-2.3060453

prednet_full3.weight f4 [1, 64]
0	0x00000000	0.0
1	0x3e7d7e22	0.24755147
2	0x00000000	0.0
3	0x3dfeb8fd	0.124376275
4	0x3e38315c	0.17987579
5	0x3d562607	0.05228236
6	0x3e10b1fc	0.14130396
7	0x3d667ba7	0.056270268
8	0x3c6d109b	0.014469291
9	0x00000000	0.0
10	0x00000000	0.0
11	0x00000000	0.0
12	0x00000000	0.0
13	0x00000000	0.0
14	0x00000000	0.0
15	0x3d7a21e3	0.061067473
16	0x3e428370	0.18995452
17	0x3e3da188	0.1851865
18	0x3d485b34	0.048915103
19	0x3d584748	0.052802354
20	0x00000000	0.0
21	0x3e100c5b	0.14067213
22	0x3e665ad8	0.22495592
23	0x3c92bf46	0.017913472
24	0x3e1a9531	0.15095975
25	0x3dddc2b6	0.10828154
26	0x3e4f5e4b	0.20250814
27	0x3c4fca20	0.012682468
28	0x3e5b4bf3	0.21415691
29	0x00000000	0.0
30	0x3c8b1d30	0.016981691
31	0x3e65cf8d	0.22442456
32	0x00000000	0.0
33	0x00000000	0.0
34	0x3e4e1b30	0.20127559
35	0x3d3770df	0.044785377
36	0x00000000	0.0
37	0x3dd01c07	0.10161596
38	0x3e1a7720	0.15084505
39	0x3e486eb1	0.19573475
40	0x00000000	0.0
41	0x00000000	0.0
42	0x00000000	0.0
43	0x3ca2fdce	0.019896414
44	0x3e50a80f	0.2037661
45	0x00000000	0.0
46	0x3d82c89a	0.06385918
47	0x3e429028	0.19000304
48	0x00000000	0.0
49	0x3e662af0	0.22477317
50	0x00000000	0.0
51	0x3e1a926e	0.15094921
52	0x3da66f76	0.08126728
53	0x3ba27858	0.0049581937
54	0x00000000	0.0
55	0x00000000	0.0
56	0x00000000	0.0
57	0x3d785f8f	0.060638007
58	0x00000000	0.0
59	0x3d699f0f	0.057036456
60	0x3e6f7986	0.23386201
61	0x3e41412c	0.18872517
62	0x00000000	0.0
63	0x3e1af29a	0.15131608
