model/ckpt/model_Dense_Assistment17_train_irt.pt (torch, 3089 bytes, 3 tensors)

theta.weight f4 [120, 1]
-0.3970038 -0.0974965 -0.12706234 0.11017516 -0.30328318 -0.3805943 0.012449207 -0.33180517
-0.2522306 -0.057719 -0.35672602 -0.25206408 -0.45273536 -0.5676174 0.12919815 -0.36739168
-0.39606637 -0.08245503 -0.28446522 -0.39438853 -0.012561909 -0.8444665 -0.57620364 -0.47893834
-0.5350363 -0.5310653 -0.46114495 -0.036932457 -0.4246344 -0.31156388 -0.27737907 -0.6717819
-0.64150137 0.15682465 -0.32807276 -0.3318844 -0.49789542 -0.14355445 -0.46903694 -0.16070788
-0.4482853 -0.06055407 -0.517162 -0.10575371 -0.05854987 0.3012313 -0.28300393 -0.26743352
-0.3074071 0.08649797 -0.49821672 -0.22976372 -0.018536236 -0.14841236 0.16028595 -0.5097451
-0.58123124 -0.65000874 -0.41401958 -0.02265638 -0.0730461 0.03937546 -0.51432097 0.012044916
-0.5181274 0.20820367 -0.3884609 -0.25545594 -0.23669042 -0.44805324 -0.55435485 -0.64438194
-0.6016321 0.030209308 -0.13773696 -0.2014925 -0.26953518 -0.5314946 -0.51872426 -0.7013092
-0.4398536 -0.23899531 -0.10567737 0.07944742 0.056059796 -0.6290824 -0.5310687 -0.60198355
0.16873255 0.09149728 -0.02330557 0.11480587 0.07125127 0.038907647 -0.19914305 -0.48871827
-0.13863112 -0.25957748 -0.41317314 -0.34069204 -0.38193774 -0.1739381 -0.2231117 -0.75260955
-0.6604089 -0.5541221 -0.20110896 -0.14285314 -0.4765831 0.07402559 -0.17015332 -0.0065017496
-0.60700464 0.033090394 0.043676097 -0.12674692 -0.07968458 -0.3306961 -0.62818265 -0.47676384
00000000: 1544 cbbe 3fac c7bd a11c 02be 84a3 e13d
00000010: ef47 9bbe 42dd c2be c2f7 4b3c 5ee2 a9be
00000020: 5f24 81be c26a 6cbd cba4 b6be 8b0e 81be
00000030: eecc e7be 604f 11bf 854c 043e c31a bcbe
00000040: 36c9 cabe 2fde a8bd 6da5 91be 4bed c9be
00000050: 77d0 4dbc f52e 58bf 1582 13bf 6837 f5be
00000060: 24f8 08bf e5f3 07bf 311b ecbe 7d46 17bd
00000070: ae69 d9be 4d85 9fbe a104 8ebe e6f9 2bbf
00000080: 6f39 24bf a496 203e 27f9 a7be c1ec a9be
00000090: 26ec febe f0ff 12be 9c25 f0be 9b90 24be
000000a0: a785 e5be 8b07 78bd bb64 04bf 6795 d8bd
000000b0: fdd1 6fbd fd3a 9a3e e4e5 90be 0ced 88be
000000c0: 7764 9dbe d925 b13d 4316 ffbe 2e47 6bbe
000000d0: 4ed9 97bc 69f9 17be 0022 243e a87e 02bf
000000e0: 92cb 14bf f966 26bf 60fa d3be df99 b9bc
000000f0: 3299 95bd 2a48 213d 8aaa 03bf 0a58 453c
00000100: ffa3 04bf 5833 553e 59e4 c6be 1fcb 82be
00000110: f95e 72be 3c67 e5be 33ea 0dbf 37f6 24bf
00000120: 9004 1abf 8379 f73c eb0a 0dbe 0d54 4ebe
00000130: 8400 8abe 0810 08bf 1dcb 04bf 0089 33bf
00000140: 7e34 e1be 30bb 74be 616d d8bd 54b5 a23d
00000150: f59e 653d 8b0b 21bf 1ef4 07bf 981b 1abf
00000160: 3ac8 2c3e ed62 bb3d 53eb bebc 571f eb3d
00000170: 30ec 913d a05d 1f3d 28ec 4bbe 4839 fabe
00000180: 51f5 0dbe 57e7 84be 6e8b d3be 306f aebe
00000190: 588d c3be d41c 32be 6577 64be 05ab 40bf
000001a0: 8f10 29bf f2da 0dbf 82ef 4dbe 1848 12be
000001b0: b302 f4be bb9a 973d ac3c 2ebe a10c d5bb
000001c0: a864 1bbf cb89 073d b5e5 323d f2c9 01be
000001d0: ab31 a3bd 0051 a9be 94d0 20bf 641a f4be

alpha.weight f4 [83, 1]
0.6730455 -0.32813764 -0.33098647 0.14983657 -0.21573958 0.38524577 0.308475 0.37899062
0.36283985 -0.21773584 -0.14166886 -0.5489662 0.31759673 0.07448063 -0.46114826 0.7117672
0.6435267 -0.71547407 -0.18941626 -0.24924421 -0.34519976 0.24956101 -0.08704282 0.28579715
-0.050799135 0.3989124 -0.9073021 -0.63642424 -0.76007694 -0.5562308 -0.5478227 -0.58304393
-0.58754885 -0.58676094 -0.7837095 -0.80902284 -0.3076301 -0.47558045 -0.5887949 -0.48649555
-0.84603673 -0.7659867 -0.6735481 -0.5426121 -0.46229124 -0.19050002 -0.26558593 0.28914276
0.032162048 -0.5489733 0.29971263 0.13604012 -0.060636334 -0.07752958 -0.03052771 -0.3959415
0.3987479 -0.09463051 -0.18907161 -0.45790148 -0.2526463 -0.41673702 -0.21721488 -0.6530464
-0.6918683 -0.37250754 0.35667166 -0.11885004 -0.5700348 0.11259848 0.68137753 0.83517516
0.2558026 -0.05484578 0.25743014 0.19724923 -0.4996647 -0.018579468 0.6928368 -0.3452557
0.750986 0.17907333 -0.5390668
00000000: b64c 2c3f a801 a8be 0f77 a9be c26e 193e
00000010: d6ea 5cbe ef3e c53e 6ff0 9d3e 0f0b c23e
00000020: 25c6 b93e 25f6 5ebe a411 11be 0d89 0cbf
00000030: 0a9c a23e 4d89 983d a01b ecbe 6036 363f
00000040: 2abe 243f 4f29 37bf 56f6 41be e039 7fbe
00000050: 06be b0be ec8c 7f3e 8243 b2bd 0154 923e
00000060: c112 50bd 3f3e cc3e f344 68bf b3ec 22bf
00000070: 6794 42bf 2465 0ebf 1c3e 0cbf 5e42 15bf
00000080: 9a69 16bf f735 16bf 30a1 48bf 1f1c 4fbf
00000090: b181 9dbe 487f f3be 43bb 16bf f215 f9be
000000a0: dd95 58bf b417 44bf a66d 2cbf a0e8 0abf
000000b0: 70b1 ecbe 7012 43be e1fa 87be 850a 943e
000000c0: 5abc 033d 8489 0cbf ef73 993e 1a4e 0b3e
000000d0: ce5d 78bd d4c7 9ebd 4015 fabc d8b8 cabe
000000e0: af28 cc3e a4cd c1bd fd9b 41be 1072 eabe
000000f0: db5a 81be 8e5e d5be 946d 5ebe 0d2e 27bf
00000100: 481e 31bf 4fb9 bebe ab9d b63e a667 f3bd
00000110: cded 11bf 089a e63d c26e 2e3f 0ace 553f
00000120: 8ff8 823e f8a5 60bd e2cd 833e b4fb 493e
00000130: 0dd4 ffbe f833 98bc c15d 313f 5bc5 b0be
00000140: 9e40 403f 005f 373e 4800 0abf

beta.weight f4 [83, 1]
-0.48011443 0.03154889 0.43300062 -0.5718348 0.1942728 -1.0826827 -0.71478367 -0.50855255
-0.76744837 -0.30585745 0.40005082 0.45794344 -0.3300304 -0.28025642 -0.8470523 -0.59481543
-0.5132208 -0.46821004 0.3635059 0.56323737 0.38446748 0.46953127 -0.6794678 0.3636824
-0.4481758 0.21702078 0.58568627 0.8865443 0.52914476 0.71406776 0.49451494 0.7731831
0.49833247 0.9254137 0.8274022 0.9148871 0.57857025 0.61325616 0.6398303 0.6266898
0.9208979 0.4328803 0.60111046 0.812225 0.7374967 -0.16985147 0.74401695 0.26950416
0.058882512 0.5922111 0.58020186 0.60754615 0.7399835 0.8913732 -0.5610339 -0.7454176
0.79596114 0.39212006 0.13266845 0.8954736 -0.22946072 0.86385506 0.52956 0.5574705
0.45583743 0.69886553 -0.8925487 0.60475844 0.34905967 0.4266478 0.20405962 0.2227108
-0.2205822 0.7577629 -0.14661056 0.49138856 0.75879234 0.3193011 0.22133227 0.76960003
-0.23771743 -0.099939704 0.8351368
00000000: 8fd1 f5be 6939 013d 42b2 dd3e c463 12bf
00000010: 73ef 463e 5995 8abf 10fc 36bf 8030 02bf
00000020: 7f77 44bf 5999 9cbe 76d3 cc3e 9077 ea3e
00000030: bff9 a8be c57d 8fbe 6bd8 58bf d345 18bf
00000040: 7062 03bf 3ab9 efbe 721d ba3e 5330 103f
00000050: ecd8 c43e 6766 f03e 9af1 2dbf 9434 ba3e
00000060: 4c77 e5be b23a 5e3e 89ef 153f 91f4 623f
00000070: 0876 073f 25cd 363f 1031 fd3e 54ef 453f
00000080: 6f25 ff3e eae7 6c3f a1d0 533f 0a36 6a3f
00000090: 2e1d 143f 5bfe 1c3f ebcb 233f be6e 203f
000000a0: f7bf 6b3f 7da2 dd3e 60e2 193f faed 4f3f
000000b0: 95cc 3c3f 8bed 2dbe e577 3e3f 73fc 893e
000000c0: ca2e 713d 269b 173f 1c88 143f 2588 1b3f
000000d0: 8f6f 3d3f 0931 643f eb9f 0fbf b0d3 3ebf
000000e0: 1cc4 4b3f f6c3 c83e 3dda 073e c23d 653f
000000f0: c0f7 6abe 9b25 5d3f 3f91 073f 63b6 0e3f
00000100: 8663 e93e dae8 323f 127e 64bf 73d1 1a3f
00000110: f3b7 b23e 9571 da3e 01f5 503e 4d0e 643e
00000120: 4de0 61be c0fc 413f 1421 16be 4897 fb3e
00000130: 3740 423f 6f7b a33e eda4 623e 8204 453f
00000140: 336c 73be 30ad ccbd 86cb 553f
