model/ckpt/model_Dense_DatabaseTechnologyAndApplication_train_irt.pt (torch, 16285 bytes, 3 tensors)

theta.weight f4 [3249, 1]
0	0xbfef4390	-1.8692493
1	0xbf9dd826	-1.2331588
2	0xbf5c6456	-0.860906
3	0xbf711686	-0.94174993
4	0xbf973ee5	-1.1816069
5	0xbfaa1e7d	-1.3290554
6	0xc03cd2e1	-2.950371
7	0xbf9f937b	-1.2466882
8	0xbdbf19cc	-0.09331092
9	0x3d314d6a	0.04328672
10	0xbff8b71d	-1.9430882
11	0xbf96c84f	-1.1779879
12	0x3c8f0b16	0.01746134
13	0xbf066810	-0.52502537
14	0xbfcc83b5	-1.5977694
15	0xbf7c7d17	-0.9862837
16	0xbe67a6db	-0.22622244
17	0xbe8caff2	-0.27477986
18	0xc0039395	-2.0558827
19	0xbfaf06ee	-1.367399
20	0xbf82b9ba	-1.0212929
21	0xbf018910	-0.50599766
22	0xbbb2093a	-0.005433229
23	0xbfd7bfca	-1.6855404
24	0xbbf0cac3	-0.00734839
25	0xbf4a99af	-0.7914075
26	0xbe8a5ef7	-0.27025577
27	0xbfc2bcf2	-1.5213912
28	0x3df72b59	0.12068815
29	0xbf9e5f9c	-1.2372928
30	0xbf876d0d	-1.0580155
31	0xbc23cee9	-0.009998062
32	0xbe344b15	-0.17606767
33	0x3c3a3d39	0.011367136
34	0xbe59c4fb	-0.21266548
35	0xbfc10165	-1.507855
36	0xbe8a9788	-0.27068734
37	0xb93b655f	-0.00017871473
38	0xbff3937d	-1.9029385
39	0xbf501b05	-0.8129123
40	0xbd105a9a	-0.035242654
41	0xbf6d8ee1	-0.9279614
42	0xbf9af912	-1.210726
43	0x3b8e1979	0.0043365327
44	0xbf2d41c2	-0.67678463
45	0xbf1c62ef	-0.6108846
46	0xbf314d8d	-0.6925896
47	0xbfb005e3	-1.3751796
48	0xbfa1cd75	-1.2640826
49	0xbf267850	-0.6502733
50	0x3bdc0a1f	0.0067150737
51	0xbfe62ef8	-1.7983084
52	0xbc9bdde3	-0.019026702
53	0xbfaada36	-1.3347843
54	0xc03ae1ff	-2.9200437
55	0xbe1f3be2	-0.15550187
56	0xbf0c3146	-0.54762685
57	0xbdb3b041	-0.08773852
58	0xbd3c0392	-0.045901842
59	0x3cfcbc2f	0.030851452
60	0xbc2f4d87	-0.010699636
61	0xc007d0d2	-2.1221204
62	0xbda1dd46	-0.07903533
63	0x3f9e86f3	1.2384933
64	0x3ef19593	0.4718443
65	0xbe11e9d8	-0.1424936
66	0x3c70b75d	0.014692155
67	0xbdad75d7	-0.08469742
68	0xbe15f3e2	-0.14643815
69	0xbc558016	-0.013031026
70	0xc00ae1c5	-2.1700299
71	0xbd9e46f6	-0.077283785
72	0xbfaf1d0d	-1.368074
73	0xbe1c8d72	-0.15288332
74	0x3d133fed	0.035949636
75	0xbdffeedf	-0.12496733
76	0xbcaa31d5	-0.020775715
77	0xbfed7020	-1.8549843
78	0xbfa9e221	-1.3272134
79	0xbe273b82	-0.16331294
80	0x3c9983af	0.01873955
81	0xbcfd393c	-0.03091108
82	0xbfb30101	-1.3984681
83	0xbce39386	-0.027780306
84	0x3e89fae2	0.2694922
85	0xbe88cd4b	-0.26719126
86	0xbfeb7ca2	-1.839741
87	0xbced0102	-0.028931145
88	0xbf848f20	-1.0356178
89	0xbf186514	-0.5952923
90	0x3c1fc3c5	0.009751265
91	0xbe4c1159	-0.19928493
92	0xbf5d9dc3	-0.8656885
93	0xbfdea7b5	-1.739493
94	0xbdc3588e	-0.09538375
95	0x3decf507	0.11570173
96	0xbf847f09	-1.0351268
97	0xbedd9dfa	-0.4328459
98	0xbfba0a52	-1.45344
99	0xbfa6fff0	-1.3046856
100	0xbe509f79	-0.20373334
101	0xbf9f65fb	-1.2452997
102	0xbf68af88	-0.9089284
103	0x3db99033	0.09060707
104	0xbfe4ffdf	-1.7890586
105	0xbfb20e96	-1.3910701
106	0xbed4ee6b	-0.41588148
107	0x3f7bae55	0.98312885
108	0xbe94abbb	-0.2903727
109	0x3f26ccaf	0.6515607
110	0xbebc5555	-0.36783853
111	0xbf349ee7	-0.70554966
112	0xbf5e67d5	-0.86877185
113	0xbff07827	-1.8786668
114	0xbb3874cf	-0.0028145795
115	0x3e859a3a	0.26094228
116	0xbc5a8622	-0.013337644
117	0xbe07ff00	-0.13280869
118	0xb823a8cd	-3.9019436e-05
119	0xbf32b641	-0.6980935
120	0xbed2946d	-0.41128865
121	0xbc9f08c5	-0.019413361
122	0xbeac2858	-0.3362453
123	0x3b4f408d	0.0031624169
124	0xbc4ee32f	-0.012627407
125	0xbfa45f21	-1.2841531
126	0x3f81ab50	1.0130405
127	0xbf2c1ce5	-0.6723159
128	0xbf425694	-0.7591336
129	0xbeff5b09	-0.49874142
130	0xbfa1238f	-1.2588977
131	0xbeb0f24b	-0.34559855
132	0x3c8f9923	0.017529076
133	0xbeae4cf4	-0.34043086
134	0xbf8b9958	-1.0906172
135	0x3cb497f6	0.022045117
136	0x3e929034	0.28625643
137	0xbf775a2b	-0.9662196
138	0xbe33b6e7	-0.1755024
139	0xbf92e590	-1.1476307
140	0xbf801d4b	-1.000894
141	0xbff579ab	-1.9177755
142	0xbd090964	-0.03345622
143	0x3e8a4848	0.2700827
144	0x3e4fd45e	0.20295855
145	0xbe971be8	-0.29513478
146	0xbf110db6	-0.56661546
147	0xbf97716f	-1.1831492
148	0xbf67a582	-0.9048692
149	0xbb2dc341	-0.0026514085
150	0xc02acb13	-2.6686447
151	0x3e996ac6	0.29964274
152	0xbe126cdb	-0.14299338
153	0xbeb735ad	-0.3578314
154	0xc004b9a3	-2.0738304
155	0xbc5188bb	-0.012788947
156	0xbfad83e3	-1.3555874
157	0xbf54df63	-0.8315336
158	0xbf026b76	-0.5094522
159	0xbf5952b7	-0.8489184
160	0xbea16a2f	-0.31526324
161	0x3dc55e0a	0.09637077
162	0xbfe2d766	-1.7721984
163	0xbec54492	-0.38528877
164	0xbf174f47	-0.5910534
165	0x3c92bf1a	0.01791339
166	0xbd976f90	-0.07394326
167	0xbe836e8b	-0.25670275
168	0x3ef1e0d8	0.47241855
169	0x3fe15eef	1.7607096
170	0xbf9c4398	-1.2208128
171	0xbe99cce1	-0.30039123
172	0x3cac8c99	0.021063136
173	0xbef8bebc	-0.4858302
174	0xbf8978d2	-1.0739996
175	0xbe84624d	-0.25856248
176	0xbd67d1f4	-0.05659671
177	0x3f88a3f0	1.067503
178	0x3e004920	0.12527895
179	0x3d2260a0	0.03964293
180	0xc01860d3	-2.3809097
181	0xbf82c39f	-1.0215949
182	0xbed4551b	-0.4147118
183	0xc0632459	-3.5490935
184	0xbd031433	-0.032001685
185	0xbc39489d	-0.011308816
186	0x3cfc2c90	0.030782968
187	0x3dfe2d36	0.12410967
188	0xbf2115be	-0.629238
189	0xbf0f6a0e	-0.560212
190	0xbf31f445	-0.6951335
191	0x3c7f2856	0.015573582
192	0xbaaf9c52	-0.0013398028
193	0xbe259f9f	-0.16174172
194	0xbf5be886	-0.8590168
195	0xbf604386	-0.8760303
196	0xbfc5edd2	-1.5463202
197	0xbeb7ef1b	-0.3592461
198	0xbf81ebe9	-1.0150119
199	0xbfc942cd	-1.5723511
200	0xbfbf1e98	-1.4931211
201	0xbf8fa645	-1.1222616
202	0xbf84e275	-1.0381609
203	0xbfe0dc05	-1.7567145
204	0xbeea802e	-0.45800918
205	0xc010edeb	-2.2645214
206	0xbfa88cb9	-1.3167945
207	0x3c4fa884	0.012674455
208	0x3f6a3938	0.9149356
209	0x3b46ea9e	0.0030352245
210	0xbbb50fd6	-0.0055255694
211	0xbfef4d1d	-1.8695408
212	0x3dd8220d	0.1055337
213	0xbf46cc22	-0.7765523
214	0xbfbe5833	-1.4870666
215	0xbfb81e08	-1.4384165
216	0x3ea2afa4	0.31774628
217	0x3f390d3c	0.7228582
218	0xbc52ab07	-0.012858159
219	0xbead6c50	-0.33871698
220	0xbdc713ea	-0.09720595
221	0xbee58234	-0.448259
222	0xbf98dbe4	-1.1942105
223	0xbf6db24c	-0.92850184
224	0xbff81cbb	-1.9383768
225	0xbde23000	-0.110443115
226	0xbf4a6809	-0.79064995
227	0xbe001739	-0.12508859
228	0xbf55618b	-0.83351964
229	0x3e55941d	0.20857282
230	0xbc85f15d	-0.016350443
231	0xbd2c14d7	-0.042012062
232	0xbf614771	-0.87999636
233	0xc0013b0c	-2.019229
234	0x3c8b3a22	0.016995493
235	0xbfefb56e	-1.8727243
236	0xbeae5679	-0.34050348
237	0xbf06b518	-0.5262008
238	0xbfb3af63	-1.4037899
239	0xbf13d552	-0.57747376
240	0x3d4a58c5	0.049401063
241	0xbf628172	-0.8847877
242	0x3cc5a06b	0.024124345
243	0x3c91a5ae	0.017779198
244	0xbe3b9b2f	-0.18320917
245	0xbf49492c	-0.78627276
246	0x3ee61552	0.4493814
247	0xbf3ec07a	-0.74512446
248	0xbf8e00ab	-1.1093954
249	0xbce20cc5	-0.02759398
250	0xbc832a1d	-0.016011292
251	0xbf87f4b0	-1.0621548
252	0xbfabf6a8	-1.3434649
253	0xbd7678dc	-0.060173854
254	0xbccc9c1e	-0.024976786
255	0xbba8ba02	-0.005149127

alpha.weight f4 [132, 1]
0	0xbf5ba843	-0.8580362
1	0xbf822afc	-1.0169368
2	0xbf94e3d2	-1.1632025
3	0xbf6de06a	-0.92920554
4	0xbf919194	-1.1372552
5	0xc01ed7d8	-2.481924
6	0xbff11e8d	-1.8837448
7	0xbfbdc568	-1.4825869
8	0xbf790bb8	-0.97283506
9	0xbfda4f0e	-1.7055376
10	0xbff545f5	-1.9161974
11	0xbffe4463	-1.986462
12	0xbdc57828	-0.096420586
13	0xbfce1b3a	-1.6102059
14	0xbfc3e2b5	-1.530356
15	0x3d6b96e5	0.05751695
16	0xbfe72574	-1.8058305
17	0xc0004bc4	-2.0046244
18	0xbf5768c4	-0.84144235
19	0xbf1160c9	-0.5678831
20	0xbf50e209	-0.815949
21	0xbefc03b4	-0.49221575
22	0xbf80e80a	-1.0070813
23	0xbf5d9103	-0.86549395
24	0xbf44e71b	-0.7691514
25	0xbf3cc87e	-0.73743427
26	0xbf885468	-1.0650759
27	0x3e10a52e	0.14125511
28	0x3ead2ab8	0.33821654
29	0xbf847393	-1.034777
30	0xbf384d63	-0.7199308
31	0xbf9d3847	-1.22828
32	0xbf7d5c84	-0.9896929
33	0xbf9923cc	-1.1964049
34	0xbf5b9c67	-0.85785526
35	0xbf9ed37a	-1.2408288
36	0xbf66c02d	-0.90136987
37	0xbf942965	-1.1575133
38	0xbf73d664	-0.9524901
39	0xbf4a96d2	-0.79136384
40	0xbf422f43	-0.75853366
41	0xbf772415	-0.9653943
42	0xbf8b12b6	-1.0865085
43	0xbf6b49ee	-0.9190968
44	0xbe807de0	-0.25096035
45	0xc00e36fe	-2.2221065
46	0xbf32c612	-0.6983348
47	0xbd4c083f	-0.04981255
48	0xbfb43dae	-1.4081323
49	0xbfb05ef6	-1.377898
50	0xbeaf3aab	-0.34224448
51	0xbf0ff6b1	-0.56235796
52	0xbfdbffdf	-1.7187461
53	0xbfe14224	-1.759831
54	0xbf59ed5a	-0.85127795
55	0xbfc3d2a6	-1.529866
56	0xbfc5d912	-1.545687
57	0xbfdad272	-1.7095473
58	0xbf9dbdfd	-1.2323605
59	0xbfc0f612	-1.5075095
60	0xbfb5de6a	-1.42085
61	0xbfd3d31a	-1.6548798
62	0xbf14fb02	-0.5819551
63	0xbfbcbdad	-1.4745384
64	0xbf845db4	-1.0341096
65	0xbf2a9791	-0.6663752
66	0xbfa1eb6b	-1.2649969
67	0x3edc9fef	0.4309077
68	0xbfd3b365	-1.6539122
69	0x3d1c7842	0.038200624
70	0xbf761068	-0.96118784
71	0xbdd0f628	-0.102032006
72	0x3ec6eb7d	0.38851538
73	0xbfb7bc18	-1.4354277
74	0xbfdf06ef	-1.7423991
75	0xbffd53e0	-1.9791222
76	0xbfd3a5af	-1.6534938
77	0xc01877b9	-2.3823073
78	0xc006707b	-2.1006153
79	0xbfc6bcc1	-1.5526353
80	0xc027ca98	-2.6217403
81	0xbeb2699e	-0.34846205
82	0xbfd894ee	-1.692045
83	0xbfb73f65	-1.4316221
84	0xc01cf00d	-2.4521515
85	0xbfb29697	-1.3952206
86	0xbfe01e61	-1.7509271
87	0xc02ae416	-2.6701713
88	0xbfc3f7f0	-1.531004
89	0xc01800d6	-2.375051
90	0xbfd51131	-1.6645871
91	0xbdee777f	-0.11643886
92	0x3e0cf5ca	0.13765636
93	0xbfa552ed	-1.2915932
94	0xbfdf5b69	-1.7449771
95	0xbfd64387	-1.6739358
96	0xbfb2b283	-1.3960727
97	0xc0214286	-2.5196853
98	0xbfca82f1	-1.582121
99	0xbff02f71	-1.8764478
100	0xbffbe69f	-1.9679755
101	0xbfdb9e8c	-1.715776
102	0xbc71ab9c	-0.0147503875
103	0xbf9b0538	-1.2110968
104	0xc014b31f	-2.3234327
105	0xbfbf13d9	-1.4927932
106	0xbfa4145b	-1.2818712
107	0xbff09f21	-1.8798562
108	0xbfe44103	-1.783234
109	0xc002f5a2	-2.0462422
110	0xbfb648a5	-1.4240919
111	0xbf9c41b2	-1.2207549
112	0xbfad2697	-1.3527402
113	0xbfe9a2d3	-1.8252815
114	0xbf40ead6	-0.7535833
115	0xbfb625c8	-1.423028
116	0xbee7d043	-0.4527608
117	0xbffeca47	-1.990548
118	0xc01bfcf3	-2.4373138
119	0xbfebc215	-1.8418604
120	0xc01899e2	-2.3843923
121	0xbfd4c809	-1.6623546
122	0xc00cda86	-2.2008376
123	0xbfca94c5	-1.5826651
124	0xc01dac18	-2.4636288
125	0xc00d4902	-2.207581
126	0xbfe7a89a	-1.8098328
127	0xc017ce97	-2.3719842
128	0xbfbc0c26	-1.4691207
129	0xbfed6c23	-1.8548626
130	0xbfe4d433	-1.7877258
131	0xc00edc59	-2.232199

beta.weight f4 [132, 1]
0	0xbe1e68aa	-0.15469614
1	0x3fb4c1da	1.4121659
2	0x3fb89419	1.4420196
3	0x400b0124	2.1719446
4	0x3f0c6c74	0.54852986
5	0x3f8d2320	1.1026344
6	0x400ec73c	2.2309103
7	0x3e8079b7	0.2509286
8	0x3fec0045	1.8437582
9	0x3febadff	1.8412474
10	0x3ff0785c	1.8786731
11	0xbd933344	-0.071875125
12	0x3e9c6621	0.30546668
13	0x3f918a6b	1.1370367
14	0x3ed31caa	0.41232806
15	0x3f2498a9	0.6429544
16	0x4000a417	2.0100152
17	0x3d041d64	0.03225459
18	0x3fdda1a1	1.731495
19	0xbf4e5156	-0.8059286
20	0x40282ad3	2.6276138
21	0xbf3eb8e8	-0.74500895
22	0x40056dca	2.084826
23	0x40189e83	2.3846748
24	0x40038b39	2.0553725
25	0x3f4cb26e	0.7995976
26	0x40286aa4	2.6315088
27	0x3f7f3722	0.996935
28	0x3f64595d	0.8919886
29	0x3ff29ea8	1.8954668
30	0x3fef3a0b	1.8689588
31	0x3f5a2a97	0.85221237
32	0xbd22e221	-0.039766435
33	0x401ebace	2.4801517
34	0x3e0e5681	0.13900186
35	0x3fe46229	1.7842456
36	0xbe13e49f	-0.14442681
37	0x3fc94f40	1.572731
38	0x3fe662ad	1.7998863
39	0x400e0228	2.2188816
40	0x3f90d2fb	1.1314386
41	0x400358db	2.0522983
42	0x3fa4085b	1.281505
43	0x40192376	2.3927894
44	0xbed73f8d	-0.42040673
45	0x3fb4b31f	1.4117163
46	0x3ea4793e	0.3212375
47	0x3eea3e35	0.45750585
48	0x400a198b	2.157809
49	0x3fabf3fa	1.3433831
50	0xbf6a30e6	-0.91480863
51	0xbf9143f2	-1.134886
52	0xbebb2d7c	-0.3655814
53	0x401a9e86	2.4159255
54	0x40089075	2.133817
55	0xbfb0ff2e	-1.3827875
56	0x3fa0c3bc	1.2559733
57	0x3f3b323e	0.7312354
58	0x3f9932aa	1.1968586
59	0x3fc5dc06	1.5457771
60	0xbf55599f	-0.83339876
61	0x3efde8cc	0.49591672
62	0xbf0b1049	-0.54321724
63	0xbf763a38	-0.96182585
64	0xbfcfbd27	-1.62296
65	0xbf365a69	-0.71231705
66	0xc0174ea8	-2.3641758
67	0x3fae0b5d	1.3597218
68	0x3fe63e1b	1.7987703
69	0x3f236bbf	0.6383628
70	0x3fb5740f	1.4176043
71	0x3ec20249	0.37892368
72	0x3f9d59fc	1.2293086
73	0x40010200	2.015747
74	0x3fd68ff4	1.6762681
75	0xbd54419f	-0.051820394
76	0xbf163ead	-0.58689386
77	0x3f8cb712	1.0993369
78	0x3fb1ec4a	1.3900235
79	0x4001255e	2.0179057
80	0x3fee86a8	1.8634844
81	0xbd13954a	-0.036031045
82	0x3f216cee	0.6305684
83	0x3fb8b3f1	1.4429914
84	0x40001894	2.0015001
85	0x3fc0c8a4	1.5061231
86	0x3fb4038e	1.4063585
87	0x3dc29252	0.09500565
88	0x3f7dc019	0.9912124
89	0x3fff8e7c	1.9965358
90	0x3f89cfc9	1.0766536
91	0x3e677716	0.22604021
92	0x3f346622	0.7046834
93	0x3fd24dd2	1.6429999
94	0x3fc81623	1.5631756
95	0x3fb8e74d	1.4445587
96	0x3f36f683	0.714699
97	0x40039101	2.0557253
98	0x3f40cea8	0.7531533
99	0x3fa92e5f	1.3217276
100	0x3fee8b56	1.8636272
101	0x3ec1d747	0.37859556
102	0x3e5a8458	0.21339548
103	0x3fdb500b	1.7133802
104	0x40153fb5	2.3320134
105	0xbf2ef87f	-0.68347925
106	0x3fb741ab	1.4316915
107	0x3fc1a89c	1.512958
108	0x3fd6faf8	1.679534
109	0x3fafa5c0	1.3722458
110	0x3f5c232c	0.8599117
111	0x3f8f0483	1.1173252
112	0x3fb145c5	1.3849417
113	0x3fddc91c	1.7326999
114	0x3f2a4c1a	0.6652237
115	0x3f5ae433	0.85504454
116	0x3eba70c5	0.3641416
117	0x3ffa9b23	1.9578594
118	0x3f63451b	0.8877732
119	0x3c6c838c	0.01443566
120	0x4015ccfb	2.340636
121	0x3fec8bfe	1.8480222
122	0x40165f90	2.3495827
123	0x3fe3f4c5	1.7809073
124	0x4024d400	2.5754395
125	0x400b7846	2.179216
126	0x3f8755e1	1.0573083
127	0x3fc937fb	1.5720209
128	0x3f3ea7d9	0.74474865
129	0x3fad08c8	1.3518305
130	0x3f2c5d38	0.6732974
131	0x3ff45559	1.9088546
