model/ckpt/model_Dense_ProbabilityAndStatistic_all_ncd.pt (torch, 528848 bytes, 8 tensors)

student_emb.weight f4 [105, 247]
0	0x3f6c6969	0.92348343
1	0x4046b449	3.1047537
2	0x3da90977	0.082537584
3	0xc00d745c	-2.210227
4	0x3d9ba7f7	0.07600396
5	0x3d66e756	0.056372963
6	0x3d267b01	0.04064465
7	0x3fc13aeb	1.5096105
8	0x3cc8349e	0.024439152
9	0x3d67ea8d	0.05662017
10	0x3c921fc9	0.017837422
11	0xbf9a2be2	-1.2044642
12	0x3d20661c	0.03915988
13	0x3b4a2d99	0.0030849932
14	0x3fd3ffc4	1.6562428
15	0x3f73846e	0.95123947
16	0x3f94b4c4	1.1617665
17	0x3ec155c9	0.3776076
18	0x3dab63d6	0.083686516
19	0xbe1fa5bf	-0.15590571
20	0x3fe15e43	1.7606891
21	0xbd776d97	-0.060407247
22	0xbcb95cff	-0.022627352
23	0xbd207e93	-0.03918321
24	0x3db69904	0.08915904
25	0x3ff7a694	1.9347711
26	0x3c192cf8	0.0093491
27	0x3cb483d1	0.022035511
28	0xbd6e3ce4	-0.05816354
29	0x404abf4f	3.1679265
30	0x3a84235f	0.0010081342
31	0x3d92afeb	0.0716246
32	0x3fbc1235	1.4693056
33	0x3d83b885	0.06431679
34	0x3d842df6	0.06454079
35	0x3d377989	0.04479364
36	0x3e3a24cb	0.18178098
37	0x3f980917	1.1877774
38	0x3c7ce375	0.015435089
39	0x4007cf67	2.1220338
40	0x3f7a6b0c	0.9781959
41	0xbdf55a40	-0.119801044
42	0xbd2aba41	-0.04168153
43	0x3d9d5565	0.07682303
44	0xbfa9fae9	-1.3279697
45	0x3f7a2986	0.9771961
46	0x3d341c87	0.04397252
47	0xbcf7b58f	-0.030237941
48	0x3f46a1ec	0.77590823
49	0xbcc13bed	-0.023588145
50	0x3c461521	0.012089998
51	0x3e0561a3	0.13025527
52	0x3e319333	0.17341308
53	0x3d9085bd	0.070567586
54	0xbd11ebe9	-0.035625372
55	0xbfbfa626	-1.497258
56	0xbf88952b	-1.0670522
57	0x3c658899	0.014009618
58	0xbc78a220	-0.015175372
59	0xbdc0a959	-0.094073005
60	0x3de6514b	0.11245974
61	0x3d26ddef	0.040738996
62	0xbd842087	-0.064515166
63	0xbc92ca36	-0.017918687
64	0x3e05692a	0.13028398
65	0xbd8d1549	-0.068888254
66	0xbd94e7c6	-0.0727077
67	0x404d8905	3.211488
68	0xbdf58a4f	-0.11989271
69	0x3f84e67e	1.0382841
70	0x3d83c560	0.06434131
71	0x3febebc9	1.8431331
72	0x3d5e933a	0.054339625
73	0x3d3731f4	0.044725373
74	0xbe172c3a	-0.14762965
75	0xbbea455c	-0.0071493816
76	0x3d82c5f4	0.06385413
77	0x3d173b91	0.03692204
78	0xbe0938dc	-0.13400596
79	0xbd321d9f	-0.04348528
80	0x3f5cb14f	0.8620805
81	0xbc037529	-0.008023539
82	0x3c9dd344	0.019265778
83	0xbd55451d	-0.052067865
84	0x3df239d9	0.1182744
85	0xbdd9c09d	-0.10632441
86	0xbfb6d0f0	-1.4282513
87	0x3d949119	0.07254238
88	0x3d4f2625	0.050573487
89	0xbd6a4eb8	-0.05720398
90	0x3d485bf7	0.04891583
91	0x3d96c676	0.07362072
92	0xbf779954	-0.96718335
93	0x3c15e22a	0.00914816
94	0xbe13a720	-0.14419222
95	0xbc26f393	-0.010189909
96	0xbf63c161	-0.8896695
97	0x3ce903aa	0.02844413
98	0xbda7eccf	-0.081994645
99	0xbde505c0	-0.11182737
100	0x3e08cabd	0.13358589
101	0x3d0ba619	0.03409395
102	0xbd8eaa0c	-0.069660276
103	0x3db1afa5	0.0867608
104	0xc013513f	-2.3018339
105	0xbd633957	-0.055474605
106	0x3bce592d	0.0062972517
107	0xbc9a7512	-0.018854652
108	0x400d556d	2.208339
109	0xbd5e55f9	-0.05428121
110	0xbc210c76	-0.009829631
111	0x3c2a74d9	0.010403835
112	0x3dc6863a	0.096935704
113	0x403a996b	2.915614
114	0xbdd6f0a5	-0.10495118
115	0x3dcda339	0.10040898
116	0xbcf55b52	-0.029950771
117	0xbd74ab4c	-0.059733674
118	0x3b48f4c9	0.0030663481
119	0x3d550a8c	0.05201201
120	0xbe0b7ca4	-0.13621765
121	0x3fd0010a	1.6250317
122	0x3d85655c	0.065134734
123	0x3d0ab875	0.03386732
124	0x3e02bc1d	0.12767072
125	0x3c82328c	0.015893243
126	0xbf23ae70	-0.63938046
127	0x3e735397	0.23762356
128	0xbc6b13f4	-0.014348019
129	0x3d14fd4e	0.036374383
130	0x3f68669a	0.9078156
131	0x3d366265	0.04452743
132	0x3ce50fef	0.0279617
133	0xbc49b30c	-0.0123107545
134	0xbce38e6c	-0.027777873
135	0xbd8a45e2	-0.0675161
136	0xbd3a4a41	-0.04548097
137	0x3ccb7295	0.02483491
138	0x3fc54599	1.5411865
139	0xbd8cf37d	-0.06882379
140	0x3ce6d8d4	0.028179564
141	0xbca57a6d	-0.020199979
142	0xbf8f5a9c	-1.1199527
143	0xbd8bcc7a	-0.0682611
144	0x3cdbf741	0.026851298
145	0xbb81345b	-0.003943009
146	0x3d0ac054	0.033874825
147	0x3d50a74c	0.050940797
148	0x3c22355e	0.009900419
149	0x3f96bdd0	1.1776676
150	0xbd41c2bd	-0.047304858
151	0x3c92f6db	0.017939975
152	0x3c960788	0.018314138
153	0x401de568	2.4671268
154	0x3fd75731	1.6823484
155	0xbfdf2cde	-1.7435567
156	0xbd8364aa	-0.064156845
157	0xbcf75095	-0.030189792
158	0xbf71e75c	-0.9449365
159	0x3b27ecaa	0.002562324
160	0x3dc6e86e	0.09712301
161	0xbd550806	-0.052009605
162	0xbdf77941	-0.12083674
163	0xbfe456f8	-1.7839041
164	0xbd7052cd	-0.058672715
165	0x3db6293e	0.08894585
166	0xbca692d6	-0.020333689
167	0x3ff8a964	1.9426694
168	0x3f8f0a72	1.1175063
169	0xbb309f66	-0.0026950478
170	0xbcda3b24	-0.026639529
171	0x3ff6eed4	1.9291635
172	0x3e2aa07e	0.16662785
173	0xbc061750	-0.008184269
174	0xbfadd03f	-1.3579177
175	0x3e1837d8	0.14865053
176	0xbcb942a7	-0.02261479
177	0x3f83fd17	1.0311612
178	0xbe0ace1e	-0.1355519
179	0x3f7bf32f	0.98417944
180	0x3da139e8	0.07872373
181	0x3d4d7b04	0.050166145
182	0x3d629bf2	0.055324502
183	0x3e1a8ff5	0.15093978
184	0x3f80bc74	1.0057511
185	0x3dd14a05	0.10219196
186	0xbd15b04d	-0.036545087
187	0xbc04d9fd	-0.008108613
188	0x3c431c5d	0.011908618
189	0xbe0575f7	-0.13033281
190	0xc02a1493	-2.6575058
191	0xbca79e13	-0.020461118
192	0xbdad2b8b	-0.08455571
193	0x3d8c94dd	0.06864331
194	0xbdbebe6f	-0.09313666
195	0xbd821701	-0.06352044
196	0xbd2b2ba2	-0.04178966
197	0x3fbea473	1.4893936
198	0x3aabe018	0.001311305
199	0xbf8fdcfe	-1.1239316
200	0xbe3dc9fa	-0.18534079
201	0xbd254da4	-0.040357247
202	0x3e3075a0	0.1723237
203	0xbdd72dd5	-0.10506789
204	0xbf4c47a7	-0.7979683
205	0x3cff6a7e	0.03117871
206	0x3cb70114	0.022339381
207	0x3e14bc08	0.14524853
208	0xbd8177bc	-0.06321666
209	0x4039364a	2.8939385
210	0x3f8b7970	1.0896435
211	0xbdc3f108	-0.095674574
212	0x3f900644	1.1251912
213	0x3d75d257	0.06001505
214	0xbd134792	-0.035956927
215	0x4041f5f0	3.0306358
216	0x3ca695e3	0.020335143
217	0x3e1f86a0	0.15578699
218	0x3d361929	0.04445759
219	0xc0140b99	-2.3132079
220	0x3ca81f11	0.020522626
221	0x3f777ecc	0.9667785
222	0x3d273f5c	0.04083191
223	0x3f8d6527	1.1046494
224	0x3dbc278d	0.09187231
225	0x3d69e589	0.057103667
226	0xbd1dfdba	-0.03857205
227	0x3c324733	0.010881233
228	0x3d13b97d	0.036065567
229	0x3dc9ce77	0.09853833
230	0x3d973db2	0.07384814
231	0x3fbf6468	1.4952517
232	0xbc1e929d	-0.00967851
233	0x3c759914	0.01499011
234	0xbcd1e14e	-0.025620129
235	0x3de1ffcb	0.11035117
236	0xbd006dfb	-0.031354886
237	0x4035d7af	2.8412893
238	0x3d165fc5	0.036712427
239	0xbe67f759	-0.2265295
240	0xbd2883aa	-0.04114119
241	0x3ee44a40	0.44587898
242	0x3dc8dc2d	0.0980762
243	0xbd0f35d9	-0.034963463
244	0x3e2d42ea	0.16920057
245	0xbcb6254c	-0.022234581
246	0x3d51393d	0.051079977
247	0xbf938e0b	-1.1527723
248	0x3e711c10	0.23545861
249	0xbdb61959	-0.088915534
250	0xbea26538	-0.3171785
251	0xbd976cdd	-0.07393811
252	0xbcf35a55	-0.02970616
253	0x3d19a718	0.03751287
254	0x3f927f6b	1.1445135
255	0x3c5c8845	0.013460224

k_difficulty.weight f4 [263, 247]
0	0x3abbe57c	0.001433536
1	0xbd91d7de	-0.071212515
2	0x3d52540b	0.05134968
3	0xbd47ecbf	-0.048809763
4	0x3c98305d	0.018577749
5	0xbdffebcb	-0.12496146
6	0x3d295781	0.041343216
7	0xbe0bbe3a	-0.13646784
8	0xbd9efeb9	-0.07763428
9	0x3dd5d237	0.10440486
10	0x3c451559	0.012029015
11	0xbbb16959	-0.0054141697
12	0xbd92eb4e	-0.07173787
13	0x3d357828	0.044304043
14	0x3d398892	0.04529626
15	0xbdbae820	-0.091263056
16	0xbcdeb875	-0.027187565
17	0x3e1b1226	0.15143642
18	0xbb6b154d	-0.003587085
19	0x3bc0fbad	0.005889377
20	0x3da64c71	0.08120049
21	0x39109bfd	0.0001379102
22	0xbd6b46dc	-0.057440624
23	0xbc419085	-0.011814241
24	0x3e1bf3f3	0.15229778
25	0xbd8f0d10	-0.06984913
26	0xbc3f80be	-0.011688409
27	0x3de50044	0.11181691
28	0x3e372d05	0.17888267
29	0x3c47e208	0.012199886
30	0x3d10e5f1	0.03537554
31	0x3b5c1185	0.0033579778
32	0x3deae9cf	0.11470377
33	0x3c04de6b	0.008109669
34	0x3d396534	0.04526253
35	0x3caeffea	0.021362264
36	0xbba69d68	-0.0050846823
37	0xbd21d545	-0.03951003
38	0x3cf853c8	0.030313388
39	0x3d78ac58	0.060711235
40	0x3da5e7a8	0.081008255
41	0xbcd2c6f6	-0.025729638
42	0xbdd16fee	-0.10226427
43	0xbcb73da5	-0.022368262
44	0x3c3b48ba	0.011430914
45	0xbdda65d7	-0.10663956
46	0x3c8ef44f	0.01745048
47	0x3cecab35	0.028890232
48	0x3af052a1	0.0018335172
49	0x3d5d5869	0.054039393
50	0xbd3f3fa0	-0.046691537
51	0x3d219c79	0.039455865
52	0x3c546704	0.012964014
53	0x3daacad7	0.0833947
54	0xbbce2e24	-0.0062921215
55	0xbb844bfc	-0.0040373784
56	0xbc23b837	-0.009992651
57	0x3d88dde6	0.06682949
58	0xbd734467	-0.059391405
59	0xbc54ffb8	-0.013000421
60	0xbcce406f	-0.025177209
61	0xbce89d3c	-0.028395288
62	0x3cef3bd2	0.02920333
63	0x3a4a4923	0.00077165867
64	0x3dd2d8e0	0.10295272
65	0xbc92fc58	-0.017942593
66	0x3db65539	0.08902974
67	0x3d5dee27	0.054182198
68	0xbe072cdc	-0.13200706
69	0x3daae1bc	0.08343837
70	0xbd06afae	-0.032882385
71	0xbe0cf6a2	-0.13765958
72	0xbd3c90a7	-0.04603639
73	0x3ca25003	0.019813543
74	0x3d7f77af	0.06237
75	0x3ba8ca91	0.005151101
76	0xbab0e8d6	-0.0013497125
77	0xbd20d510	-0.039265692
78	0xbdbbd5bd	-0.09171627
79	0xbdc3f248	-0.09567696
80	0x3d34bf8e	0.044127993
81	0x3d7bcf86	0.061477207
82	0x3c31126c	0.010807615
83	0xbd55708e	-0.052109294
84	0xbd0f3ff8	-0.034973115
85	0x3d4b8542	0.04968763
86	0xbd11e9c1	-0.035623316
87	0x3d9f6436	0.077827856
88	0x3ce62e82	0.028098349
89	0x3c4c30fd	0.012462852
90	0xbc3a1be3	-0.011359188
91	0x3d052045	0.032501478
92	0xbb98aeee	-0.004659525
93	0x3d94b308	0.0726071
94	0x3d2dd814	0.042442396
95	0xbda036f1	-0.07822979
96	0x3d13ee4b	0.036115926
97	0xbd3643d0	-0.044498265
98	0x3dc77894	0.09739795
99	0x3d858730	0.065199256
100	0xbc0c3f43	-0.008560005
101	0xbc500e05	-0.012698655
102	0x3d9a2329	0.075262375
103	0xbe115aae	-0.14194748
104	0xbc98fc70	-0.01867506
105	0xbd1d4bf1	-0.0384025
106	0x3cc43a1e	0.023953494
107	0x3d854da8	0.065089524
108	0x3cde9d8d	0.027174735
109	0xbe14d4b8	-0.14534271
110	0x3d320daa	0.043470062
111	0xbd5efee9	-0.05444232
112	0x3da258bc	0.07927081
113	0xbd131374	-0.035907224
114	0x3d1bf334	0.038073733
115	0x3d609cd5	0.054837067
116	0xbd7566eb	-0.059912603
117	0x3d7e882b	0.06214158
118	0x3cc89be6	0.0244884
119	0x3d9bde93	0.07610812
120	0x3c9d8fed	0.019233668
121	0x3da5a3be	0.08087872
122	0xbbf78983	-0.0075542345
123	0x3d93c663	0.07215574
124	0xbd2bb300	-0.041918755
125	0xbca553eb	-0.020181617
126	0xbd311637	-0.043234076
127	0xbb6a5338	-0.0035755169
128	0xbd0a8dc4	-0.033826604
129	0xbd612d36	-0.054974757
130	0xbda29f63	-0.07940557
131	0xbc209c11	-0.009802834
132	0xbc7b4552	-0.0153363515
133	0xbca7b02e	-0.020469751
134	0x3d0c01c1	0.03418136
135	0x3ceb4ce7	0.028723193
136	0xbd9aaacf	-0.075521104
137	0xbc852501	-0.016252996
138	0xbcafb170	-0.021446913
139	0xbd396a2b	-0.045267265
140	0xbbd7d2fa	-0.0065864297
141	0x3de44923	0.11146762
142	0x3b389a2d	0.0028168068
143	0x3bf952fc	0.0076087695
144	0x3dedfd25	0.11620549
145	0x3cf7a5a7	0.030230356
146	0x3becd785	0.0072278404
147	0xbd330cd7	-0.043713417
148	0xbbba1e0f	-0.005679853
149	0xbcef1791	-0.029186042
150	0xbdacd17e	-0.08438395
151	0xbb1da741	-0.002405599
152	0xbe024038	-0.1271981
153	0x3d8bb234	0.06821099
154	0xbd9c0b7b	-0.07619377
155	0x3dc047df	0.09388708
156	0xbdd513fe	-0.10404204
157	0x3d728bb4	0.059215263
158	0x3edfb291	0.43690923
159	0x3d94019f	0.07226872
160	0x3e34d58a	0.17659584
161	0xbd7ae8a6	-0.061257027
162	0x3d197cbf	0.037472483
163	0xbdb3f2bb	-0.087865315
164	0x3d578c0e	0.0526238
165	0x3d54d400	0.05195999
166	0x3c8b3080	0.0169909
167	0xbd5e7caf	-0.054318126
168	0x3cd69f13	0.0261989
169	0x3d0bcbc1	0.03412986
170	0x3d245a14	0.040124968
171	0xbdca998c	-0.09892568
172	0x3d74c856	0.059761368
173	0x3d58ee76	0.05296179
174	0x3aa4a6f7	0.0012561966
175	0x3d18231d	0.03714286
176	0xbdae6bda	-0.08516665
177	0x3d9cc5d3	0.076549195
178	0xbdc50219	-0.09619541
179	0xbd94e1ef	-0.07269656
180	0xbd8037d3	-0.062606476
181	0xbe4d0002	-0.20019534
182	0xbd41da3e	-0.047327273
183	0x3dcf4cc1	0.101220615
184	0xbca65cba	-0.020307887
185	0xbcf374dd	-0.02971881
186	0x3b923604	0.0044620056
187	0xbd2f402b	-0.042785805
188	0x3d15e333	0.036593627
189	0x3c1afdb5	0.0094599025
190	0x3c64d64e	0.01396711
191	0xbd8b6ccb	-0.0680786
192	0xbdb39322	-0.08768298
193	0x3e0b5511	0.13606669
194	0x3e095f5a	0.1341528
195	0xbd939e7d	-0.072079636
196	0x3b788f6e	0.0037927288
197	0xbd79f6df	-0.06102645
198	0x3ca2ff37	0.019897087
199	0xb98ee4c7	-0.00027254803
200	0xbccb9ff9	-0.024856554
201	0xbd01dffa	-0.03170774
202	0xbdca59d2	-0.09880413
203	0x3ceea467	0.029131128
204	0x3dfe2e08	0.124111235
205	0x3d8fdc75	0.07024471
206	0xbd00e85c	-0.031471595
207	0x3d557ea1	0.052122716
208	0x3d4dbfc1	0.0502317
209	0xbd87cc61	-0.06630779
210	0x3d92cc01	0.07167817
211	0xbd32672a	-0.043555416
212	0xbda225c9	-0.07917363
213	0x3cd3e6cf	0.025866894
214	0x3b8a3bdb	0.004218561
215	0x3bed2d67	0.0072380784
216	0xbd47e20e	-0.048799567
217	0x3b1e2c50	0.00241353
218	0xbdc0b938	-0.09410328
219	0x3d0e291c	0.034707174
220	0xbc95938a	-0.018258829
221	0xbd623915	-0.05523022
222	0x3d384360	0.04498613
223	0x3d1dab2b	0.038493317
224	0x3d825411	0.06363691
225	0xbb76757e	-0.0037606652
226	0xbd6de736	-0.058081828
227	0xbbca8273	-0.0061801015
228	0xbb62328b	-0.003451499
229	0x3ceae05a	0.028671432
230	0xbd19c53d	-0.037541617
231	0x3d851c13	0.06499495
232	0x3d449a92	0.047998972
233	0x3d467930	0.048455417
234	0x3dd958f5	0.1061267
235	0x3d2d8036	0.0423586
236	0xbd6db106	-0.05803015
237	0x3de7cd5f	0.11318468
238	0x3d219599	0.039449308
239	0xbe02ba6d	-0.12766428
240	0x3c2aa673	0.010415661
241	0x3d04026b	0.03222887
242	0xbdfa1a05	-0.12211994
243	0xbd6642f5	-0.0562162
244	0xbd6bf2a6	-0.057604454
245	0xbd2dfb09	-0.042475734
246	0x3c8ab38f	0.016931323
247	0x3dc8bae4	0.098012716
248	0x3d891b97	0.066947155
249	0x3ce9f637	0.028559787
250	0x3d9947ef	0.07484423
251	0xbdb61233	-0.0889019
252	0xbd09b460	-0.033619285
253	0x3d38a6bb	0.04508088
254	0x3de30399	0.110846706
255	0xbce354e5	-0.027750442

e_discrimination.weight f4 [263, 1]
0	0x40657c3a	3.5857072
1	0x4080eca2	4.028886
2	0xbfebef57	-1.8432416
3	0x4061c9f3	3.527951
4	0x403e4d0b	2.9734523
5	0xc02dc4cd	-2.7151368
6	0x402c6a9e	2.6940074
7	0xc01a5325	-2.4113247
8	0x409718f9	4.7217984
9	0x40143337	2.315626
10	0x40295427	2.6457613
11	0x40a5f363	5.1859603
12	0x40749604	3.8216562
13	0xbfc2aee1	-1.5209619
14	0x40542bb4	3.3151674
15	0x40254123	2.5821006
16	0xbf8ffa02	-1.1248171
17	0x401319d7	2.2984521
18	0x4055dad2	3.3414807
19	0x405c47f1	3.441891
20	0x4032769f	2.78849
21	0x4072bf52	3.7929273
22	0x403f402d	2.988292
23	0x409bc9bc	4.868376
24	0x405f1ea6	3.4862456
25	0x40153901	2.3316042
26	0x405910ba	3.391646
27	0x403eda8b	2.9820888
28	0x40243e67	2.5663087
29	0x4055c4e6	3.3401427
30	0x3f414bf7	0.7550654
31	0x3fbaadb2	1.4584258
32	0xbf254858	-0.6456351
33	0xbf35c932	-0.71010125
34	0xc01e8d14	-2.4773607
35	0x3fd7dca6	1.6864212
36	0xbffcdd09	-1.9754955
37	0x3eed0ef9	0.46300486
38	0x3e894d3f	0.26816747
39	0x3ff60bee	1.9222391
40	0xbf227d21	-0.6347218
41	0xbfd0d9d1	-1.6316472
42	0xbfdee328	-1.7413073
43	0xbf6187fb	-0.88098115
44	0x4002ee0b	2.045779
45	0x40122389	2.283419
46	0xbf0ad080	-0.54224396
47	0xbc8cfcaf	-0.017210333
48	0x3e8a1df3	0.26975974
49	0xbfb632c0	-1.4234238
50	0x3e204d28	0.15654433
51	0xbe9e4c83	-0.3091775
52	0x407c8b25	3.9459927
53	0x3f822b2a	1.0169423
54	0x3f20240b	0.62555
55	0xbfe6d160	-1.8032646
56	0x404e3502	3.2219853
57	0xbf01c1be	-0.5068625
58	0x402fa28a	2.7442956
59	0x3f381b5f	0.71916765
60	0xbf4ee016	-0.8081068
61	0x4043578b	3.0522182
62	0xba35dc3e	-0.00069374207
63	0xbf1d7ea3	-0.6152136
64	0x407c0a91	3.938145
65	0x40408e51	3.0086863
66	0xbf0fec4e	-0.5621995
67	0x405e89c6	3.477159
68	0xbfdb1de7	-1.71185
69	0xbf871bc2	-1.0555346
70	0xbfa24ccd	-1.2679688
71	0xbfb665d2	-1.4249823
72	0x3df6307a	0.12020965
73	0x3f19c657	0.6006827
74	0x3f84a0e0	1.0361595
75	0x4006e3ba	2.1076493
76	0x3f999c8a	1.2000897
77	0x4018fe5c	2.3905249
78	0x40644256	3.5665488
79	0xbfe8514f	-1.8149813
80	0x402ff456	2.749288
81	0x4068298b	3.6275356
82	0x4037c543	2.871415
83	0x40385a0c	2.880496
84	0x403ebcbd	2.9802697
85	0x405cc59d	3.4495614
86	0x3f85e05b	1.0459093
87	0x4077193d	3.8609154
88	0x404cdfa5	3.2011502
89	0xbfe6662f	-1.7999934
90	0x407e0b18	3.969427
91	0x401356f4	2.3021822
92	0x403c4f4c	2.94234
93	0x40679871	3.6186793
94	0x40356d2b	2.834788
95	0x4047d3cd	3.1223023
96	0x40a6048b	5.1880546
97	0x407bffd7	3.9374902
98	0xbfc90450	-1.5704441
99	0x409c240e	4.879401
100	0x403698a1	2.8530657
101	0x40376811	2.8657267
102	0x40a70cc8	5.22031
103	0xbfce96f9	-1.6139823
104	0x405a8e05	3.4149182
105	0xc00a7d24	-2.163888
106	0x3fd18e98	1.6371641
107	0xbf881769	-1.0632144
108	0x406230e8	3.534235
109	0x4085ceac	4.1814785
110	0xc003b6e7	-2.0580385
111	0xbfb894ee	-1.442045
112	0x40594da3	3.3953636
113	0xc019535e	-2.3957133
114	0xbf169614	-0.5882275
115	0x403c6519	2.9436705
116	0x405f6006	3.4902358
117	0x3fb41e4a	1.4071743
118	0x3c36cfbf	0.011157929
119	0xbfe5071d	-1.7892796
120	0xbf550cdc	-0.83222747
121	0x3e34d313	0.17658643
122	0x3fa4ca0b	1.2874159
123	0x3f5be49b	0.858957
124	0x407b3799	3.9252684
125	0xbf860fc1	-1.0473558
126	0xbfd03514	-1.6266198
127	0x409891cc	4.7677975
128	0x40418429	3.0236914
129	0x40827544	4.0768147
130	0x408bff0c	4.3748837
131	0xc014f691	-2.3275492
132	0x40965d4b	4.6988883
133	0x409ee3fd	4.9653306
134	0xbf7c9369	-0.9866243
135	0xc00bd318	-2.1847591
136	0x3df374cf	0.11887514
137	0x4080866f	4.0164104
138	0x3e2328c2	0.15933517
139	0xc008c2bd	-2.136886
140	0xbff62636	-1.9230411
141	0x409d204f	4.910194
142	0xbff2195c	-1.8913989
143	0x4049e36a	3.1545053
144	0xc021d90b	-2.5288723
145	0xbfb3e62b	-1.4054617
146	0x404da1dd	3.2130044
147	0x402864cb	2.631152
148	0x4076b65f	3.854881
149	0x403d4ac7	2.957689
150	0x40849fde	4.144515
151	0x404f4a5b	3.2389133
152	0x4066b4e5	3.604791
153	0x4012d286	2.2940993
154	0xbf9d4a2c	-1.228826
155	0x40a6af3b	5.2088904
156	0xc01896b4	-2.3841982
157	0x40503c63	3.2536857
158	0x403bc49c	2.933875
159	0x4053c67d	3.3089898
160	0x400f8bab	2.2428997
161	0x400a70b4	2.1631289
162	0x40478b65	3.117883
163	0xbf099072	-0.5373603
164	0x3de24b9d	0.11049578
165	0x3f89e5fd	1.0773312
166	0x3f44d777	0.76891273
167	0xbdede826	-0.116165444
168	0x3ec47dbd	0.3837718
169	0x40869cd4	4.206644
170	0xbf238380	-0.6387253
171	0x40554002	3.3320317
172	0xbe37fa5f	-0.17966603
173	0x40681c01	3.6267092
174	0x40308c7d	2.7585747
175	0xbf934b5c	-1.1507373
176	0xc0189505	-2.3840954
177	0xbf913809	-1.1345226
178	0x3f971d8e	1.1805894
179	0x3f5c7b99	0.86126095
180	0xbff5c153	-1.9199623
181	0x40924519	4.570935
182	0x3fbfcfe9	1.4985324
183	0xc04aab86	-3.166719
184	0xbfa8def2	-1.3193038
185	0xbeafa14a	-0.3430274
186	0xc00d6389	-2.2092001
187	0xbf101301	-0.56279
188	0xbf2906ee	-0.660262
189	0x401019d2	2.251576
190	0xc0249bbb	-2.572005
191	0xbfcdf033	-1.6088928
192	0x401c1b85	2.4391797
193	0x40722ba9	3.7839148
194	0x402ac676	2.668363
195	0x40b4ef55	5.6542153
196	0x3f935437	1.1510075
197	0x3fd60fb6	1.6723545
198	0x40033c6f	2.0505636
199	0x404d26b0	3.2054863
200	0x404f7ce8	3.2419987
201	0x400189ec	2.024043
202	0x4046bbe8	3.105219
203	0x3fc502bd	1.5391461
204	0xbfec7e49	-1.8476039
205	0x3ebcb66e	0.36857933
206	0x4096e333	4.7152343
207	0x40639d89	3.5564902
208	0xbf6b84cf	-0.91999525
209	0xc000baeb	-2.0114086
210	0xbf95746b	-1.1676153
211	0x4085bd30	4.179344
212	0x3fbc9e50	1.4735813
213	0xbe4bacc6	-0.19890127
214	0x400e1905	2.220277
215	0x406bdeb6	3.6854682
216	0x402165e6	2.5218444
217	0x403031c8	2.7530384
218	0xc01d5266	-2.4581542
219	0x40891a4c	4.28446
220	0x4000a1b9	2.0098708
221	0xbf5025d2	-0.8130771
222	0x3fcdd0d3	1.6079353
223	0x405d254a	3.455401
224	0xbf57f7db	-0.8436257
225	0x4060ea6d	3.5143082
226	0x406d8991	3.7115214
227	0x3ffd5246	1.9790733
228	0x404e7797	3.2260492
229	0x40068bf7	2.1022928
230	0x402fb67d	2.7455132
231	0x40758b75	3.8366368
232	0x4016eba0	2.3581314
233	0x40950308	4.65662
234	0x406e6dbf	3.7254484
235	0xbfb30591	-1.3986074
236	0x40780331	3.8751948
237	0x405bea81	3.436188
238	0x4081c770	4.0555954
239	0x400eddc4	2.2322855
240	0x4044efb1	3.0771296
241	0x40817854	4.0459385
242	0x404d1090	3.204136
243	0x405a831e	3.4142528
244	0x4069b6f2	3.651791
245	0x3fc1e6a0	1.5148506
246	0xc00cc972	-2.1997952
247	0x4020511f	2.5049512
248	0x405e5f7a	3.4745774
249	0x404f5339	3.2394545
250	0x4048fb60	3.1403427
251	0xc005c838	-2.0903454
252	0x3fc133ca	1.509393
253	0x404afaf5	3.1715672
254	0x4043eb30	3.0612297
255	0x400b8a6e	2.180324

prednet_full1.weight f4 [128, 247]
0	0x40289744	2.6342325
1	0x408efcad	4.468344
2	0x00000000	0.0
3	0x4023b6e4	2.5580378
4	0x3df1c7e4	0.11805704
5	0x00000000	0.0
6	0x00000000	0.0
7	0x404212f4	3.0324068
8	0x00000000	0.0
9	0x3e3a9525	0.18220957
10	0x3e10bcc4	0.14134508
11	0x4026a90c	2.6040678
12	0x3dc4aa83	0.09602835
13	0x3d51be8a	0.051207103
14	0x404f8481	3.2424624
15	0x40327356	2.7882895
16	0x403e5fb0	2.9745903
17	0x4076dbdf	3.8571699
18	0x3d49b8a7	0.049248364
19	0x3c891c22	0.016737048
20	0x402753c3	2.6144874
21	0x00000000	0.0
22	0x00000000	0.0
23	0x3d6721ce	0.056428723
24	0x00000000	0.0
25	0x405b7cd8	3.4294949
26	0x3dfdc2cf	0.123906724
27	0x3d743061	0.05961645
28	0x3cba4d65	0.022741983
29	0x402167f8	2.5219707
30	0x3c806864	0.015674777
31	0x00000000	0.0
32	0x40400736	3.0004401
33	0x00000000	0.0
34	0x3e19090e	0.1494486
35	0x00000000	0.0
36	0x3d6a2d03	0.057171833
37	0x3eb2b22d	0.34901562
38	0x3d865a52	0.06560196
39	0x407cb106	3.9483047
40	0x4045b58b	3.0892055
41	0x3da021a9	0.0781892
42	0x3d45b841	0.04827142
43	0x3d9d7412	0.07688154
44	0x402fe86b	2.7485607
45	0x403b1418	2.9231014
46	0x00000000	0.0
47	0x3db6bcef	0.08922755
48	0x3f607c8d	0.8769005
49	0x3d2d7385	0.042346496
50	0x3d8d4e14	0.06899658
51	0x3ad7d770	0.0016467404
52	0x00000000	0.0
53	0x3dacd784	0.08439544
54	0x3d917866	0.07103042
55	0x403ab901	2.9175417
56	0x401b15d1	2.4232066
57	0x3dc812f7	0.09769242
58	0x00000000	0.0
59	0x3d1f22de	0.03885161
60	0x00000000	0.0
61	0x00000000	0.0
62	0x00000000	0.0
63	0x3aa7a7cd	0.0012791097
64	0x00000000	0.0
65	0x00000000	0.0
66	0x00000000	0.0
67	0x4093ad19	4.61488
68	0x00000000	0.0
69	0x4006d485	2.1067212
70	0x3e64243e	0.2227945
71	0x4003ef83	2.0614936
72	0x3dae01aa	0.08496411
73	0x3e1319a3	0.14365248
74	0x3d916ae1	0.07100464
75	0x3d7fef9b	0.062484365
76	0x3d56e8aa	0.05246798
77	0x00000000	0.0
78	0x00000000	0.0
79	0x00000000	0.0
80	0x40859f90	4.175728
81	0x3e2952b2	0.16535452
82	0x00000000	0.0
83	0x3d47f2d0	0.04881555
84	0x3b4ad201	0.0030947926
85	0x3e0fadea	0.14031187
86	0x4007aaa9	2.1197913
87	0x00000000	0.0
88	0x3df5fe1c	0.12011358
89	0x00000000	0.0
90	0x00000000	0.0
91	0x3c8b7cf7	0.017027361
92	0x4034fdfc	2.828002
93	0x00000000	0.0
94	0x00000000	0.0
95	0x00000000	0.0
96	0x407e5e9c	3.9745245
97	0x00000000	0.0
98	0x00000000	0.0
99	0x3d683a5f	0.056696292
100	0x3d98cddf	0.07461142
101	0x3dbf0a8b	0.09328183
102	0x00000000	0.0
103	0x3d1e8db2	0.03870935
104	0x3f309cf3	0.68989486
105	0x3c5001c4	0.012695733
106	0x00000000	0.0
107	0x3d592e56	0.053022705
108	0x4054d1b7	3.3253
109	0x3d9b7b16	0.07591836
110	0x00000000	0.0
111	0x00000000	0.0
112	0x00000000	0.0
113	0x40d2d969	6.5890393
114	0x00000000	0.0
115	0x3c922b48	0.017842904
116	0x00000000	0.0
117	0x00000000	0.0
118	0x00000000	0.0
119	0x00000000	0.0
120	0x3db7b069	0.089691944
121	0x4025e280	2.5919495
122	0x3dd8967b	0.10575577
123	0x3dc7bcf3	0.09752836
124	0x00000000	0.0
125	0x00000000	0.0
126	0x408b7b97	4.3588367
127	0x3cc38459	0.02386682
128	0x00000000	0.0
129	0x00000000	0.0
130	0x4029b99b	2.6519535
131	0x00000000	0.0
132	0x3e137a8f	0.14402221
133	0x3d696460	0.05698049
134	0x3bc43564	0.00598781
135	0x00000000	0.0
136	0x3cb31b01	0.021863462
137	0x00000000	0.0
138	0x4000f303	2.0148323
139	0x00000000	0.0
140	0x00000000	0.0
141	0x3d8cde45	0.06878332
142	0x40003a42	2.0035558
143	0x00000000	0.0
144	0x3df1993a	0.11796804
145	0x3daedfbd	0.085387684
146	0x00000000	0.0
147	0x3e192b65	0.1495796
148	0x3d8e5b4e	0.06951009
149	0x404d62f3	3.2091644
150	0x00000000	0.0
151	0x3c35c569	0.0110944295
152	0x3e428955	0.189977
153	0x3fc4cb45	1.5374533
154	0x40abe3af	5.3715434
155	0x40349397	2.8215082
156	0x3d9feb6b	0.07808574
157	0x00000000	0.0
158	0x4006d555	2.1067708
159	0x3d2934d3	0.041310143
160	0x3e2caadc	0.16862053
161	0x3de61026	0.11233549
162	0x3dc5936e	0.096472606
163	0x3fec563b	1.8463815
164	0x00000000	0.0
165	0x3ccd03d6	0.025026243
166	0x3d995705	0.07487301
167	0x40468e5f	3.1024396
168	0x40138d78	2.3055096
169	0x3e2cb3c0	0.16865444
170	0x3e143c18	0.14476049
171	0x40694fea	3.6455026
172	0x00000000	0.0
173	0x3d9b9b48	0.07597977
174	0x408103f3	4.031732
175	0x00000000	0.0
176	0x00000000	0.0
177	0x4033e094	2.8105822
178	0x00000000	0.0
179	0x403581cc	2.8360472
180	0x00000000	0.0
181	0x00000000	0.0
182	0x3db0d945	0.08635191
183	0x00000000	0.0
184	0x402af60b	2.6712673
185	0x3d8748b4	0.06605664
186	0x3c4e8091	0.012603895
187	0x3dfd7fc1	0.12377883
188	0x3db1f513	0.08689322
189	0x00000000	0.0
190	0x401df305	2.4679577
191	0x3d4aac07	0.049480464
192	0x00000000	0.0
193	0x00000000	0.0
194	0x00000000	0.0
195	0x3cdbce7c	0.026831858
196	0x00000000	0.0
197	0x40184354	2.3791094
198	0x00000000	0.0
199	0x402c8c8f	2.696079
200	0x00000000	0.0
201	0x3cd8a71a	0.026446868
202	0x3d9def93	0.07711711
203	0x3c874c3b	0.016515842
204	0x409ef2fa	4.96716
205	0x3c96f7c4	0.01842869
206	0x00000000	0.0
207	0x3e08e50e	0.13368627
208	0x00000000	0.0
209	0x408feef9	4.4979215
210	0x403f3757	2.9877527
211	0x00000000	0.0
212	0x400b512d	2.1768296
213	0x3d6be7b6	0.057594024
214	0x3d0aa061	0.033844355
215	0x3c793f0e	0.015212787
216	0x3cc5176f	0.024059026
217	0x3dbbc9f6	0.0916938
218	0x00000000	0.0
219	0x407c52e5	3.9425595
220	0x00000000	0.0
221	0x3f18f7e1	0.59753233
222	0x00000000	0.0
223	0x401cf4ef	2.4524496
224	0x3d051aa6	0.032496117
225	0x00000000	0.0
226	0x00000000	0.0
227	0x00000000	0.0
228	0x00000000	0.0
229	0x3dbd000a	0.09228523
230	0x00000000	0.0
231	0x4017a743	2.3695838
232	0x00000000	0.0
233	0x00000000	0.0
234	0x00000000	0.0
235	0x00000000	0.0
236	0x00000000	0.0
237	0x40054f6b	2.0829723
238	0x00000000	0.0
239	0x3da970b6	0.08273451
240	0x00000000	0.0
241	0x3fea67b7	1.8312901
242	0x3d81793a	0.0632195
243	0x3e0cc225	0.13745935
244	0x3d463552	0.048390694
245	0x3c30dc97	0.01079478
246	0x3afff7ce	0.0019528808
247	0x4018f756	2.3900962
248	0x406f4458	3.7385464
249	0x00000000	0.0
250	0x408568dd	4.1690507
251	0x00000000	0.0
252	0x00000000	0.0
253	0x00000000	0.0
254	0x400f3bf0	2.2380333
255	0x00000000	0.0

prednet_full1.bias f4 [128]
0	0xc0348d78	-2.8211346
1	0xc02e8af4	-2.727231
2	0xc01337f8	-2.300291
3	0xc0174811	-2.3637736
4	0xc00a14cc	-2.1575193
5	0xbfa74875	-1.3068987
6	0xbff4f6f5	-1.9137865
7	0xc0039515	-2.0559742
8	0xc021f819	-2.5307677
9	0xc0089ead	-2.1346848
10	0xc0179051	-2.3681834
11	0xc01ea6d9	-2.4789336
12	0xbfcbbe9c	-1.5917544
13	0xbfc72cd4	-1.5560555
14	0xc0305a41	-2.7555087
15	0xc018b707	-2.386171
16	0xc021aca9	-2.5261633
17	0xc00369a0	-2.0533218
18	0xc0404ad0	-3.0045662
19	0xc00dc05d	-2.214866
20	0xbfa4a2f4	-1.2862229
21	0xc00acb79	-2.168669
22	0xc03bcb99	-2.9343016
23	0xc0394540	-2.8948517
24	0xc03d6e74	-2.9598665
25	0xc036ed97	-2.8582513
26	0xc01c62b2	-2.443524
27	0xc058f966	-3.390222
28	0xc022dc2b	-2.544688
29	0xbfe9a70f	-1.8254107
30	0xc035a54a	-2.8382134
31	0xbffff98b	-1.999803
32	0xc0134c30	-2.301525
33	0xc02087e3	-2.5082939
34	0xbfe2cac6	-1.7718132
35	0xc05a7047	-3.4131029
36	0xbfba0d7f	-1.4535369
37	0xc021a9ed	-2.5259964
38	0xbfdbc6c7	-1.7170037
39	0xbfe16a53	-1.7610573
40	0xc0249c9f	-2.5720594
41	0xc01cf9c8	-2.4527454
42	0xbfe3480f	-1.7756366
43	0xc03d9fb9	-2.9628737
44	0xc02ad270	-2.669094
45	0xc013ede7	-2.3113954
46	0xc00b69a4	-2.1783228
47	0xc0075889	-2.1147788
48	0xc0228992	-2.5396466
49	0xc03d2915	-2.9556324
50	0xc006413c	-2.0977316
51	0xc02e8296	-2.7267203
52	0xc0382e0c	-2.8778105
53	0xc03888ce	-2.88335
54	0xc0236504	-2.5530405
55	0xbfee37a6	-1.8610733
56	0xc04c6439	-3.193617
57	0xc024d103	-2.575257
58	0xc0028946	-2.0396285
59	0xbff89afe	-1.94223
60	0xbfc0e4e8	-1.5069857
61	0xc0225784	-2.5365915
62	0xc00add5f	-2.1697614
63	0xc03a1cef	-2.908016
64	0xc0019f76	-2.0253577
65	0xc0243a5f	-2.5660627
66	0xc0152a6c	-2.3307142
67	0xc0017831	-2.022961
68	0xc0099bf8	-2.1501446
69	0xc015fe5d	-2.34365
70	0xbfe990f0	-1.8247356
71	0xc05af1a4	-3.4209986
72	0xc00ac9e8	-2.1685734
73	0xbff93e01	-1.9472047
74	0xbfd155b0	-1.6354275
75	0xc030d3c5	-2.7629254
76	0xc0176438	-2.3654919
77	0xc00c40bc	-2.191451
78	0xc047b3e1	-3.120354
79	0xc02f760a	-2.7415795
80	0xbfa92b01	-1.3216249
81	0xbfce01df	-1.6094321
82	0xc02b303d	-2.6748192
83	0xc032f2f1	-2.796078
84	0xc00a2369	-2.1584113
85	0xc006f2bf	-2.108566
86	0xc01b26e7	-2.4242494
87	0xc019bd46	-2.4021773
88	0xc0075b73	-2.1149566
89	0xc0256c54	-2.5847368
90	0xc028b13e	-2.635818
91	0xbf804072	-1.0019667
92	0xc02f9d32	-2.7439694
93	0xc02b0574	-2.6722078
94	0xc021ec13	-2.5300338
95	0xc010a337	-2.2599618
96	0xc0248b03	-2.5709846
97	0xc0086ee1	-2.1317675
98	0xc01d6f53	-2.4599197
99	0xc040fabc	-3.0153036
100	0xbfca08d0	-1.5783939
101	0xc02e0dcb	-2.7195919
102	0xc0058e86	-2.086824
103	0xc021ebbd	-2.5300133
104	0xc0334cde	-2.8015666
105	0xbfe00e95	-1.750445
106	0xbfb8385b	-1.4392198
107	0xc023cee7	-2.5595033
108	0xc01f1992	-2.4859357
109	0xc0024b11	-2.0358317
110	0xc00dc737	-2.215284
111	0xc024507e	-2.5674129
112	0xc042c5c8	-3.0433216
113	0xc01c844c	-2.4455748
114	0xc03e576d	-2.974086
115	0xc006d075	-2.1064732
116	0xc0111d70	-2.2674217
117	0xc0418c0a	-3.0241723
118	0xbfe375b6	-1.7770298
119	0xc0393ba3	-2.894265
120	0xc062d61a	-3.5443177
121	0xc0249cdc	-2.572074
122	0xc04ee4ae	-3.2327075
123	0xc00bffc2	-2.1874852
124	0xc0021e85	-2.0331128
125	0xc00a61e1	-2.162224
126	0xbff631d7	-1.923396
127	0xc006db5e	-2.107139

prednet_full2.weight f4 [64, 128]
0	0x3f0e035e	0.5547389
1	0x3ebceea0	0.36900806
2	0x3e302727	0.17202435
3	0x3e86fe3e	0.26365846
4	0x3f2148b9	0.6300159
5	0x3e8739fa	0.2641142
6	0x3e1ca899	0.1529869
7	0x3e9d7046	0.3074972
8	0x3e0dca63	0.13846736
9	0x3e60c40b	0.21949784
10	0x3e01a91d	0.12662168
11	0x3c72f459	0.014828765
12	0x3e877d14	0.26462615
13	0x3e1086c7	0.14113913
14	0x3d2440c4	0.040100828
15	0x3ebba343	0.36647996
16	0x3e40757d	0.18794818
17	0x3f333a7d	0.7001112
18	0x3d820017	0.063476734
19	0x3e97b00f	0.2962651
20	0x3ecf3e45	0.40477195
21	0x3e2e0be0	0.16996717
22	0x3f32c77d	0.69835645
23	0x3e04c4f8	0.12965763
24	0x3e7b79cd	0.24558182
25	0x3d150dbe	0.03639006
26	0x3d76bd61	0.0602392
27	0x3e8f0e7b	0.27940735
28	0x3ebcfef4	0.36913264
29	0x3e2458c0	0.1604948
30	0x3d49d379	0.04927394
31	0x3f58f863	0.8475401
32	0x3e19b1fe	0.15009305
33	0x3d0f1a81	0.034937385
34	0x3ecb3ce1	0.39694884
35	0x3e5eb346	0.21748075
36	0x3e6b6025	0.22985895
37	0x3e71c6b2	0.23610952
38	0x3e73fab1	0.238261
39	0x3e65c07c	0.22436708
40	0x3e314ea5	0.17315157
41	0x3d9ac5ad	0.07557235
42	0x3e0e31d1	0.13886191
43	0x3cda9c9e	0.026686009
44	0x3eafe59f	0.34354874
45	0x3e88fd7a	0.26755887
46	0x3e92611b	0.2858971
47	0x3e98b703	0.29827127
48	0x3bdad726	0.0066784797
49	0x3d9dbbc7	0.07701831
50	0x3ec2c6aa	0.38042194
51	0x3cb3df83	0.021957165
52	0x3e9fdb95	0.31222215
53	0x3f01af9b	0.5065858
54	0x3e90d606	0.28288287
55	0x3ef30164	0.47461998
56	0x3e17f7f2	0.14840677
57	0x3ec4648b	0.38357958
58	0x3ce4f83d	0.0279504
59	0x3f32bed5	0.69822437
60	0x3e69994f	0.22812389
61	0x3d6b456c	0.057439253
62	0x3e8e61e0	0.27809048
63	0x3f038bb1	0.5138503
64	0x3e7aff47	0.24511443
65	0x3ee954a8	0.455724
66	0x3e8a229d	0.26979533
67	0x3e11e577	0.1424769
68	0x3e2242bd	0.15845771
69	0x3eae9200	0.34095764
70	0x3ea272db	0.31728253
71	0x3dfa7031	0.1222843
72	0x3f6bb43f	0.9207191
73	0x3eb1f02a	0.34753543
74	0x3e4b30e8	0.19842875
75	0x3da699fb	0.08134838
76	0x3d3f600f	0.046722468
77	0x3e060b2d	0.130902
78	0x3ecac510	0.39603472
79	0x3e05eca5	0.13078554
80	0x3de1e0a0	0.11029172
81	0x3dd559bf	0.10417508
82	0x3ef1ebec	0.47250307
83	0x3e914402	0.28372198
84	0x3e4818cd	0.19540711
85	0x3e9fa8d4	0.31183493
86	0x3e1d8211	0.15381648
87	0x3edd2ef2	0.4319988
88	0x3e583358	0.21113336
89	0x3dad4ef3	0.08462324
90	0x3d22a67b	0.03970955
91	0x3e8927f3	0.2678829
92	0x3dd55af7	0.10417741
93	0x3e3e19fe	0.18564603
94	0x3ec65ccf	0.38742682
95	0x3dba91bd	0.091098286
96	0x3d594f9d	0.05305444
97	0x3e8e4411	0.27786306
98	0x3e154c1a	0.14579812
99	0x3dfde720	0.12397599
100	0x3e62c5e5	0.22145803
101	0x3eb0a385	0.34499756
102	0x3e967eb3	0.2939354
103	0x3ef94068	0.4868195
104	0x3d912751	0.07087577
105	0x3eadd5c7	0.33952162
106	0x3e550468	0.20802462
107	0x3f3b2805	0.7310794
108	0x00000000	0.0
109	0x3e088304	0.13331228
110	0x3ed161d3	0.40894946
111	0x3e27f47e	0.1640186
112	0x3e1b53d6	0.151687
113	0x3ea12526	0.31473655
114	0x3d6f55eb	0.058431547
115	0x3eb3b83d	0.351015
116	0x3f037780	0.5135422
117	0x3d3b3c4a	0.045711793
118	0x3c4519e6	0.0120301
119	0x3e7b3677	0.24532495
120	0x3d9bf815	0.07615677
121	0x3dd8806c	0.105713695
122	0x3db8c3dc	0.09021732
123	0x3e9ba66e	0.30400413
124	0x3ed4d507	0.41568777
125	0x3e30ba78	0.17258632
126	0x3e8b0caf	0.27158114
127	0x3da4e04f	0.08050596
128	0x3d132302	0.035922058
129	0x3e304bc5	0.17216404
130	0x3da1f776	0.079085276
131	0x3d9ab00a	0.07553108
132	0x3bba9f56	0.005695264
133	0x3de6be5d	0.11266778
134	0x3d9dc413	0.07703414
135	0x3c4275f2	0.011868941
136	0x3eab8adc	0.3350438
137	0x3e86b654	0.2631098
138	0x3ed84a7d	0.4224433
139	0x3e860dd2	0.2618242
140	0x3d8f253d	0.069895245
141	0x3ed571bc	0.41688335
142	0x3d80ddac	0.062922806
143	0x3d171efa	0.036894776
144	0x3dbbe051	0.09173644
145	0x3b4cf3ba	0.0031273202
146	0x3dd9e37b	0.106390916
147	0x3aa89e15	0.0012864495
148	0x3e1a41d8	0.1506418
149	0x3ecdb0ce	0.40173954
150	0x3e934ba5	0.2876865
151	0x3e1ea971	0.15494324
152	0x3d7d0839	0.06177542
153	0x3ead62e9	0.33864525
154	0x3d5f3427	0.054493096
155	0x3c74c56a	0.014939645
156	0x3e00308d	0.1251852
157	0x3d754090	0.059876025
158	0x3d24cd74	0.040234998
159	0x3d226428	0.039646298
160	0x3b7ebf94	0.0038871514
161	0x3e7cd1fe	0.2468948
162	0x00000000	0.0
163	0x3e1d7413	0.1537631
164	0x3ba4ad27	0.005025524
165	0x3ddd25fe	0.10798262
166	0x3e98c796	0.29839772
167	0x3e6411e7	0.22272454
168	0x3d792b9c	0.060832605
169	0x3d86d53a	0.065836385
170	0x3e7b4e33	0.2454155
171	0x3e27cc02	0.16386417
172	0x3d36eeba	0.04466126
173	0x3ec28a74	0.37996256
174	0x3e5bdbb5	0.2147053
175	0x3ea5e093	0.323979
176	0x3d86e9f4	0.06587592
177	0x3e5ad877	0.21371637
178	0x3e8aa368	0.27077794
179	0x3c566ebb	0.013087924
180	0x3e3b34b3	0.18281822
181	0x00000000	0.0
182	0x3ecfed50	0.40610743
183	0x3e538469	0.20655979
184	0x3d293d93	0.041318487
185	0x3e5ab441	0.21357824
186	0x3f238bb2	0.63885033
187	0x3e73a400	0.2379303
188	0x3ef20454	0.47268927
189	0x3e0c6e5c	0.13713974
190	0x3e3b75a3	0.18306594
191	0x3be99942	0.0071288655
192	0x3d8a0660	0.06739497
193	0x3d386b94	0.04502447
194	0x3e788ac6	0.24271688
195	0x3ed14592	0.4087339
196	0x00000000	0.0
197	0x3c8634cb	0.016382596
198	0x3c467c97	0.0121146655
199	0x3e23aecf	0.15984653
200	0x3e990a2f	0.29890582
201	0x3dd90f54	0.10598627
202	0x3d236fd2	0.039901562
203	0x3da1a677	0.07893079
204	0x3e1a5999	0.15073241
205	0x3db252aa	0.08707173
206	0x3e57e15b	0.2108206
207	0x3e190810	0.14944482
208	0x3de30e8a	0.110867575
209	0x3d62692b	0.055276077
210	0x3e96b97a	0.29438382
211	0x3d787925	0.060662407
212	0x00000000	0.0
213	0x3ecb5851	0.39715818
214	0x3c9e5f57	0.019332571
215	0x3e88ec61	0.26742843
216	0x3eb31f83	0.3498498
217	0x3d6ece27	0.05830207
218	0x3e83a6ee	0.25713295
219	0x3cee1fa6	0.029067826
220	0x3cda03fb	0.026613226
221	0x3df9aea4	0.12191513
222	0x3ce04e8b	0.027381202
223	0x3e8b1e04	0.27171338
224	0x3ed95514	0.42447722
225	0x3ed2d01f	0.4117441
226	0x3c62b20b	0.013836394
227	0x3c4edb40	0.012625515
228	0x3ec5d2fc	0.3863753
229	0x3e63f13c	0.22259992
230	0x3ea625e3	0.3245078
231	0x3ecebfc4	0.4038068
232	0x3ddc271e	0.107496485
233	0x3c06518b	0.008198152
234	0x3e8b93bb	0.27261147
235	0x3ea8cb9f	0.3296785
236	0x3e811118	0.25208354
237	0x3dac43c0	0.0841136
238	0x3e2c19ea	0.1680676
239	0x3e48cd79	0.19609632
240	0x3cc67572	0.024225924
241	0x3ce3ab69	0.027791696
242	0x3d051a83	0.032495987
243	0x3ea8a425	0.32937732
244	0x3da97e49	0.0827604
245	0x3cd17561	0.025568666
246	0x3d9810d0	0.07425082
247	0x3ed6c4b2	0.41946942
248	0x3ed8679f	0.42266557
249	0x3ceb1f1e	0.028701361
250	0x3c93f286	0.01805998
251	0x3ea938bb	0.33051094
252	0x3d658778	0.056037396
253	0x3d46880d	0.048469592
254	0x3e819e27	0.25315973
255	0x3c9f9bf5	0.019483546

prednet_full2.bias f4 [64]
0	0xc0c02cec	-6.0054836
1	0xc063a7b6	-3.5571113
2	0xc00612c4	-2.0948954
3	0xbfe396cf	-1.7780398
4	0xc0a1ad5e	-5.052413
5	0xc091253f	-4.5357966
6	0xc048b3bb	-3.1359699
7	0xc054c568	-3.3245487
8	0xc055cc03	-3.340577
9	0xc0310155	-2.7657063
10	0xc0544fe6	-3.3173766
11	0xc09b21c0	-4.84787
12	0xc05c598e	-3.442966
13	0xbfc486ed	-1.5353676
14	0xc0a019ae	-5.0031347
15	0xc02ed6a8	-2.7318516
16	0xbfd6cb5b	-1.6780809
17	0xc070407b	-3.7539356
18	0xbfd314d7	-1.6490735
19	0xc04086b8	-3.0082226
20	0xc09d3652	-4.912881
21	0xc0281d43	-2.626786
22	0xc08a205c	-4.31645
23	0xc0509080	-3.2588196
24	0xc02dc092	-2.7148786
25	0xc09b29ac	-4.848837
26	0xbf984026	-1.1894577
27	0xc08e32d7	-4.443706
28	0xc0517b1d	-3.2731392
29	0xc0873027	-4.224628
30	0xc005be4d	-2.08974
31	0xc013120d	-2.2979767
32	0xc032f299	-2.796057
33	0xc0367619	-2.850958
34	0xc0503dc6	-3.2537704
35	0xc00d65bc	-2.2093344
36	0xc023aed1	-2.557545
37	0xbfb84344	-1.4395528
38	0xc02dd966	-2.716394
39	0xbf85ab3a	-1.0442879
40	0xbf8f93fd	-1.1217037
41	0xc076378e	-3.8471408
42	0xc0360526	-2.8440642
43	0xc0621d77	-3.5330484
44	0xc0882140	-4.254059
45	0xc022e286	-2.545076
46	0xc077b576	-3.8704505
47	0xc086e296	-4.2151594
48	0xc00647a6	-2.098123
49	0xc011080c	-2.2661161
50	0xc090ebf2	-4.528802
51	0xc07f1be2	-3.9860768
52	0xc03aab7d	-2.9167168
53	0xc06490ca	-3.5713372
54	0xc06d5757	-3.7084558
55	0xc059d323	-3.4035118
56	0xc05b2f80	-3.4247742
57	0xbff1afff	-1.8881835
58	0xc0a06a94	-5.01301
59	0xc09e8f64	-4.9550037
60	0xc084ced0	-4.1502457
61	0xc06f4977	-3.738859
62	0xc0904eaf	-4.509605
63	0xc0a68186	-5.203311

prednet_full3.weight f4 [1, 64]
0	0x3e2b8dda	0.16753331
1	0x3dbdf4e2	0.09275223
2	0x3cfb4419	0.03067212
3	0x3e1d08f8	0.15335453
4	0x3e07ef1e	0.1327481
5	0x3d2d12fd	0.042254437
6	0x3ba9ecc5	0.005185696
7	0x3cf2be11	0.029631646
8	0x3e0e9c88	0.139269
9	0x3d0da81a	0.034584142
10	0x3db47041	0.08810473
11	0x3db56879	0.08857817
12	0x3d366d40	0.044537783
13	0x3db12893	0.08650317
14	0x3e17af3a	0.14812937
15	0x3c322612	0.0108733345
16	0x3da4d702	0.08048822
17	0x00000000	0.0
18	0x3dd62e8d	0.104580976
19	0x3d416648	0.047216684
20	0x3e0340d3	0.12817697
21	0x3d295bb3	0.041347217
22	0x3d9f1ac2	0.077687755
23	0x3d4bd6cf	0.049765404
24	0x3cfb4883	0.030674225
25	0x3e28871e	0.16457793
26	0x00000000	0.0
27	0x3dfccc83	0.12343695
28	0x3c954683	0.0182221
29	0x3d8fbfa3	0.07018974
30	0x3c669d18	0.01407554
31	0x3b36103a	0.0027780668
32	0x3b89e103	0.0042077317
33	0x3e113153	0.14178972
34	0x3e06b178	0.13153636
35	0x3d8a55e7	0.06754666
36	0x3d79bd48	0.06097153
37	0x3e1639f3	0.14670543
38	0x3d71c399	0.059024427
39	0x3d34b844	0.044121042
40	0x3d491d83	0.04910041
41	0x3deaed7f	0.1147108
42	0x3d24097d	0.04004811
43	0x3dd30389	0.10303409
44	0x3d6ac272	0.057314344
45	0x3db57401	0.088600166
46	0x3dadce8f	0.084866636
47	0x3dd0be69	0.10192568
48	0x3d89772a	0.06712182
49	0x3d62c09e	0.055359475
50	0x3da50df7	0.08059304
51	0x3dc0f38e	0.09421454
52	0x3d8a1d8b	0.06743916
53	0x3d4de7b7	0.05026981
54	0x3ddc7a77	0.10765546
55	0x3d76e5d3	0.06027777
56	0x3c54b348	0.012982197
57	0x3d6aaff4	0.05729671
58	0x3db2fa0a	0.087390974
59	0x3d90c0c8	0.0706802
60	0x3d89eb9b	0.06734391
61	0x3c87a34f	0.016557364
62	0x3e0e2707	0.13882075
63	0x3e210978	0.15726268
