model/ckpt/model_Dense_Assistment17_all_ncd.pt (torch, 172993 bytes, 8 tensors)

student_emb.weight f4 [120, 102]
000000 46 e1 1a 3f 82 7f cd 3b 75 15 b8 3f c6 fd be 3f
       0.6049999 0.0062713036 1.4381548 1.4921196
000010 1d cd e2 3e 0b bf 3b bf 9b e3 89 bd 96 33 39 bf
       0.44297114 -0.73338383 -0.067328654 -0.7234434
000020 bf c6 22 bf 57 a5 47 3d 6d f2 17 40 69 34 0b c0
       -0.6358451 0.048741665 2.3741715 -2.1750739
000030 3d 6e 43 bf d1 c7 87 bf c4 3f b5 3f 00 41 d3 3c
       -0.76340085 -1.0607854 1.4160085 0.02578783
000040 98 4e 89 bb 40 76 14 3e 16 9e e1 bc 46 f5 9b 3b
       -0.0041902773 0.14498234 -0.027541202 0.0047594635
000050 55 80 c2 3c da a6 92 3e 2b b4 a7 bd 52 bd 2a 3d
       0.023742834 0.28642923 -0.08188661 0.041684456
000060 d6 06 88 3d c4 9a 55 bf c0 6c 69 be 17 67 73 bf
       0.06641929 -0.8343928 -0.22795391 -0.9507918
000070 51 85 bf 3d 5e 55 f7 3e 05 4c 86 3f 5a 7d e4 bd
       0.093516 0.48307317 1.0491949 -0.111567214
000080 08 df 33 3f 97 03 9a 3f 37 72 35 3f 9d 8e 12 bf
       0.70262194 1.2032346 0.70877403 -0.5724886
000090 fe ed 99 3d 2d c8 6a 3f 49 bc da 3f 97 43 9c 3e
       0.075160965 0.91711694 1.708871 0.30520317
0000a0 8a 69 1e 40 b0 98 dc 3e 34 25 b3 3f fc 5e b4 3f
       2.4751916 0.4308524 1.3995728 1.4091487
0000b0 4f ac b8 bf 34 d4 d2 bf 41 26 0d 40 ae 3b e9 bd
       -1.4427584 -1.6471009 2.2054598 -0.11388336
0000c0 39 a1 1e 3f 33 1e 20 3f ae bb 9b bd f0 2b 61 bd
       0.61964756 0.6254608 -0.076041564 -0.054973543
0000d0 72 97 88 bc 79 bd df 3c 76 3d 61 bd e5 f6 09 bd
       -0.016673777 0.027312027 -0.054990254 -0.033682723
0000e0 61 61 03 be ca 4d 5c 3f 19 cc bc 3d c0 4b 0a c0
       -0.12830116 0.86056197 0.09218616 -2.1608734
0000f0 3e 5f a0 be 91 64 dc 3d da 0a 84 3f f5 44 3b be
       -0.31322664 0.10761369 1.0315812 -0.18288024
000100 8f e0 00 be 79 40 64 3d 54 e5 18 bd 92 ce df bd
       -0.12585662 0.05572555 -0.03732808 -0.10928072
000110 26 80 e8 bc 3c 71 01 3e 23 3e 10 bd c6 bf 5e bd
       -0.028381418 0.12640852 -0.03521551 -0.05438211
000120 58 ce 62 be 4e 5a bf bc 25 12 b5 bd 9d 76 d6 3c
       -0.22149026 -0.02335849 -0.088413514 0.026179606
000130 e2 b0 12 3e 54 b0 2d bc b6 cb ad 3c 7d 3b 03 3e
       0.14325288 -0.010601122 0.021215301 0.12815662
000140 8a 86 54 be 03 17 8b 3d e2 58 5b 3c 4f 5f 37 be
       -0.20754448 0.067914985 0.0133878905 -0.17907451
000150 10 18 74 3f e7 77 a6 bd 36 ff 82 bf 82 2d 6c 3d
       0.95349216 -0.08128338 -1.0234134 0.057660587
000160 d2 a0 e0 bd c5 77 11 3d 32 23 b8 bd b5 21 84 3f
       -0.10968174 0.03551461 -0.08991088 1.0322787
000170 b7 40 2b bc 39 45 ee 3d aa 7c c6 bd 89 c9 2d bc
       -0.010452441 0.11634297 -0.096917465 -0.010607132
000180 a3 68 6c 3f ea df 0a 3f 0c 21 81 bd 93 11 25 bc
       0.9234716 0.54247916 -0.06305131 -0.010074991
000190 61 50 60 3c 95 24 e1 3d 89 77 04 3f 79 8e 92 bd
       0.013691039 0.109933056 0.51744896 -0.07156081
0001a0 19 61 ce 3f 47 9d 9d 3f fa a6 28 3f 0b 6f b4 be
       1.6123382 1.2313622 0.65879786 -0.3524097
0001b0 32 bb d9 3c e1 99 80 bf 67 2a 32 bf e7 ae 1f 3d
       0.02657852 -1.004696 -0.6959595 0.03898516
0001c0 25 43 f6 3e fb 98 f9 bf b5 34 40 bf 9d 87 99 bf
       0.48098102 -1.9499811 -0.75080425 -1.1994511
0001d0 fa ce a0 bf 8d 71 86 bd 2a 12 44 be 6b 14 02 be
       -1.2563164 -0.06564627 -0.19147554 -0.12703101
0001e0 9d dc 0d be a7 54 af bd 69 7c 5b 3e 30 f4 7c bf
       -0.13853689 -0.08561068 0.21434177 -0.988101
0001f0 aa a4 f5 bc 1d 7b 80 3d 41 55 fb 3d 56 42 0c bf
       -0.029985745 0.06273482 0.1227212 -0.5478872
000200 d0 90 21 3e 65 48 bc bf a0 5f 99 3c 5f cb a8 bf
       0.15777898 -1.4709593 0.018722355 -1.3187064
000210 26 ef 6a bf 57 21 97 3d 75 7d 97 3f bb 14 eb 3f
       -0.9177116 0.07379406 1.1835161 1.8365701
000220 9a 7b 36 3f a7 11 d7 3f de 0d 29 be 75 df 95 3f
       0.7128235 1.6802262 -0.16509196 1.1708819
000230 b0 8e b2 3f c1 8c 8a 3e 4d ca 09 40 f1 c9 22 3f
       1.3949795 0.27060512 2.1529725 0.6358939
000240 4d 7e 17 3f ee 05 9e 3f 8f 58 67 3f 59 d0 c4 bf
       0.59177095 1.234556 0.90369505 -1.5376083
000250 e6 e7 08 40 69 9e cb 3a 43 d3 a9 3e a9 5d 85 bf
       2.139154 0.0015534881 0.33168992 -1.0419208
000260 8b 28 12 3e f0 e2 be 3c e2 19 98 3d bc 2b a4 bd
       0.14273278 0.023301572 0.07426812 -0.08016154
000270 5c 94 af 3c 2c 2c ed 3c af c5 dd bd ec a1 a4 3f
       0.021433048 0.028951727 -0.10828721 1.2861915
000280 ee 08 b9 3d 56 75 d7 3f 3f 11 d1 3c 24 46 17 bd
       0.09034906 1.6832683 0.025520919 -0.036932126
000290 84 a6 31 3f 1a 72 92 3c 82 da 86 3d 4a 5d f0 ba
       0.6939471 0.017876673 0.06584646 -0.0018338349
0002a0 48 8c 29 be a4 b1 d2 bd 8c 49 05 bd a6 17 8f be
       -0.1655742 -0.102877885 -0.032540843 -0.2794773
0002b0 b1 ab 74 bc 8c 5e 43 3e 00 94 81 bd 10 52 1f bd
       -0.014933513 0.19079036 -0.06327057 -0.03889662
0002c0 d8 7b d0 bd ca a0 c5 bd 1a 93 8d 3b bb 5b 55 3c
       -0.10179871 -0.09649809 0.0043205144 0.0130223585
0002d0 29 cb 9e 3d 45 99 3f 3d 43 af b5 bc 26 08 bd 3d
       0.077535935 0.04677703 -0.022178298 0.0923007
0002e0 f0 a9 fc bd 0d aa c0 3c a6 ff 50 bf 21 84 d7 3d
       -0.123371005 0.023518587 -0.8164009 0.105232485
0002f0 a4 cc 94 bf 06 d5 c5 3d 1f c3 96 bc be f9 c8 3d
       -1.1624951 0.096597716 -0.018403588 0.098132595
000300 ca 94 17 bd 0a 29 30 3f c7 40 f8 3d 58 99 6a 3c
       -0.03700713 0.6881262 0.1212173 0.014318787
000310 6e 3b a3 bd 2a 33 9f 3d 42 62 8a bf 6d cb ce 3e
       -0.0797032 0.07773431 -1.0811236 0.40389577
000320 b7 4c d4 3d 62 d7 06 be a6 e4 6c bd e3 36 4e be
       0.10366195 -0.131681 -0.057835244 -0.20138125
000330 da 61 09 c0 22 d6 99 3d c3 05 1d 3e 90 7c 67 3f
       -2.1465974 0.07511546 0.15334229 0.9042444
000340 24 0c 23 3f fd 0c 49 bf e1 a4 9b 3c 59 85 c5 bf
       0.636904 -0.78535444 0.018999519 -1.543132
000350 f7 78 d3 3f 2a 77 31 3b 6a e4 1e 3f a8 dc 61 be
       1.652129 0.0027079084 0.6206728 -0.2205683
000360 7b bc 1c bf 64 f1 bb 3f 30 06 00 3d 98 20 a5 bc
       -0.612251 1.4683042 0.0312559 -0.020157143
000370 bb eb d7 39 03 82 63 3d 6b 0f 01 be f4 eb 82 be
       0.00041183628 0.05554391 -0.12603538 -0.25570643
000380 e3 db b5 bd 04 61 90 3d b5 25 48 3b e3 71 70 3d
       -0.08879831 0.07049754 0.0030540053 0.05870236
000390 f6 3b b8 bf 6b ad 10 bf e6 10 88 3d 17 64 af bf
       -1.4393299 -0.56514615 0.06643848 -1.370242
0003a0 c1 35 42 3d cd c3 47 3f 50 7f 38 3f 39 9d 31 be
       0.047414545 0.78033143 0.72069263 -0.17345132
0003b0 8a 53 9e bf e5 20 b2 3f b8 72 71 3f 49 64 d3 be
       -1.2369244 1.3916289 0.9431567 -0.4128745
0003c0 a6 5a b6 bd 69 91 70 3f cd 18 d0 3e 01 ad 22 bf
       -0.089040086 0.9397188 0.40643921 -0.63545233
0003d0 ca 13 eb 3f a2 1c 06 3f 30 04 aa 3e db 9c 94 3f
       1.8365414 0.5238744 0.3320632 1.1610368
0003e0 ff 38 92 bf 20 ec 3c 3f b7 fe c0 bf 76 5f 58 be
       -1.1423644 0.737978 -1.5077733 -0.21130165
0003f0 88 09 39 3f 76 ed 9b 3f a4 41 14 3e fc 76 27 3c
       0.7228017 1.2181842 0.14478165 0.010221239

k_difficulty.weight f4 [83, 102]
000000 08 f0 0e 3f c3 a7 86 bd ee 66 9d bd bb c9 bb 3d
       0.5583501 -0.06574967 -0.07685648 0.091693364
000010 b7 31 bd 3b 3a 9d 50 3d ed 6b 88 be 3d e7 48 3e
       0.0057737487 0.050931193 -0.2664484 0.1961946
000020 5c be 50 bd c9 38 3d 3d 35 c0 eb bc 7c 0a bb 3d
       -0.05096279 0.046196733 -0.028778175 0.09132859
000030 a8 29 10 be 66 e7 7b be 16 55 23 3d 87 b8 21 bd
       -0.1407839 -0.2459999 0.039876066 -0.03948262
000040 10 df 78 bd bc 87 17 3d 36 b2 b7 3d 25 70 48 3c
       -0.060759604 0.03699468 0.08969538 0.012233769
000050 7a 7e fc 3c d3 d4 aa bd ae 31 67 bd 59 17 63 bd
       0.030822027 -0.08341374 -0.056443863 -0.055442188
000060 e2 9e 2f bd 36 60 db 3c a1 3f df ba 62 da 14 bd
       -0.04287613 0.026779275 -0.0017032513 -0.03634108
000070 a1 c9 33 be d8 d7 88 ba ca 05 07 be 64 65 25 bd
       -0.17557384 -0.0010440303 -0.13185802 -0.040379897
000080 02 49 11 3d 53 57 9f bd da 67 b8 3d 13 0a c4 3d
       0.035470016 -0.07780328 0.09004183 0.09572234
000090 1b 7d 20 be 80 a3 f4 bc 63 f1 36 bd f2 75 f6 3d
       -0.15672724 -0.02986312 -0.044663798 0.12034215
0000a0 77 50 6e 3d 65 19 c7 bc 23 8a 65 3e 58 48 2c be
       0.058182206 -0.024304101 0.22415976 -0.16824472
0000b0 30 2d 22 3d 5a 86 a8 bc f4 04 36 3d cd e8 e5 bd
       0.039593875 -0.020571876 0.044438317 -0.11226044
0000c0 74 f1 5d 3c 17 fc 5d bd 32 b5 0b 3e ab a4 ea 3d
       0.013546336 -0.05419549 0.1364334 0.11457189
0000d0 97 f4 28 bd c1 1d eb 3c 29 e7 d9 bd 47 14 52 bc
       -0.041248884 0.028700711 -0.106397934 -0.012822217
0000e0 fb e0 28 be 87 a0 00 3e f4 85 85 be ef 9c cd 3d
       -0.16492073 0.12561236 -0.2607876 0.10039698
0000f0 dc 50 d8 bc e8 65 d9 3d d9 11 c1 bd c8 30 b6 bd
       -0.026405744 0.1061514 -0.09427232 -0.08896023
000100 db 21 44 be 28 ca 26 3e ac 29 a8 3c bc 97 5a bb
       -0.1915354 0.16288054 0.020527683 -0.00333546
000110 bb e3 92 bd ae fc 30 bc d7 99 0f 3e 29 63 37 3d
       -0.071723424 -0.010802431 0.14023529 0.0447723
000120 f2 18 57 3e 52 c6 82 3d 77 ea 25 be 52 e3 10 be
       0.2100561 0.06385483 -0.16202722 -0.14149216
000130 c3 0c 0b be 0e 5e 20 3e 85 4b a2 bd 99 36 dd bc
       -0.13579087 0.15660879 -0.079245605 -0.027003573
000140 cc 5e c7 3d ab 23 49 bd 61 b8 8e bb 76 db 25 bd
       0.09734878 -0.04910628 -0.004355476 -0.040492497
000150 e3 be 83 3c 25 57 a1 bd 89 a9 00 3e f3 f0 82 3c
       0.016082233 -0.078779496 0.12564673 0.015984034
000160 81 15 12 3d df 7b 42 3d 29 ab 25 bc f6 92 5a bd
       0.03566504 0.047481414 -0.010111609 -0.05336281
000170 6b 46 52 bd 07 ee 68 3d d4 c2 ca 3d 42 36 eb bc
       -0.051336687 0.056867626 0.09900442 -0.028712396
000180 39 44 a8 3d bd 66 9a bb 16 33 49 bd 4c 93 5e 3d
       0.082161374 -0.0047119544 -0.049120985 0.054339692
000190 f0 99 94 bd 4b cd 27 3d 84 cc 6a be 25 f4 1d bc
       -0.07255924 0.040967267 -0.22929579 -0.009640728
0001a0 2a 01 5b 3f 67 d4 53 3c a6 b3 99 3d d6 c7 0d bd
       0.8554865 0.012929059 0.07504968 -0.034614407
0001b0 b0 6c 48 3e 1a cb 2d 3d 9c c6 29 3d 24 67 2c 3d
       0.19572711 0.04243002 0.041449174 0.04209055
0001c0 b4 da dc bd 74 eb 6e 3e ef 4f aa 3c bf 91 a5 ba
       -0.10783902 0.23332006 0.020790068 -0.0012631937
0001d0 45 51 67 bd 18 4a 0c 3e 80 28 ea 3d 12 d5 72 bd
       -0.05647399 0.1370014 0.11433506 -0.05928523
0001e0 b9 bf 97 3d 1d c0 60 3d 4f 20 09 be c2 70 68 3e
       0.07409615 0.054870714 -0.13391231 0.22699264
0001f0 b4 bd a9 bd 6e 07 12 bd 0a 22 c3 bd 26 cd 63 be
       -0.08288136 -0.035651617 -0.09527977 -0.22246227
000200 aa 71 1a be a0 7b 46 3b b3 9b 8c bb af a3 aa bd
       -0.15082422 0.0030286089 -0.0042910217 -0.083320014
000210 d5 36 01 3e 09 56 b7 3d 30 ec 7d bd 2d 2f de 3b
       0.12618573 0.08951957 -0.061992824 0.006780526
000220 57 6d 5a 3e 45 2c 89 bd cc 52 9b bd 11 b9 47 bb
       0.21330772 -0.06697897 -0.075841516 -0.0030475298
000230 f7 b5 60 3d db 4b 87 3c 66 0d 07 3d f1 15 b1 3c
       0.054861035 0.016515663 0.032971762 0.021616908
000240 a2 d6 1e bd f5 7a f1 bd e0 7c 3e bd 4e 2b 18 bd
       -0.03877891 -0.1179103 -0.04650581 -0.037150674
000250 86 c7 ec 3d 93 f5 b0 bd 43 56 88 bd bb 6a 50 3e
       0.115614936 -0.086405896 -0.06657078 0.20353214
000260 8a 92 2a 3e 93 f7 a3 3c e7 64 02 3d 46 66 2f 3e
       0.16657463 0.020015514 0.03183451 0.17128858
000270 29 aa 1d be 92 65 7e 3d 83 57 ac 3d d7 3d 9d 3d
       -0.15396942 0.062108584 0.08415129 0.07677811
000280 31 3d 03 bd cd ca 02 be 99 fb ae 3d d7 15 f6 3b
       -0.03204078 -0.12772675 0.08544082 0.0075099277
000290 ad 1b 87 bd ef 42 c9 bd 4f 8f aa bd 89 4a e3 3c
       -0.065970756 -0.0982722 -0.08328115 0.027745502
0002a0 48 e5 02 bd 87 1a 16 3e 04 9e c9 bd 86 2e 37 be
       -0.03195694 0.14658557 -0.09844592 -0.17888841
0002b0 b2 e6 f1 bd fd 76 c8 3c 9c 50 a5 3b de 96 d0 bb
       -0.1181158 0.0244708 0.00504501 -0.006365641
0002c0 ee 99 92 3d 8f 21 cf bd 20 67 16 bc 59 d3 02 be
       0.07158266 -0.10113823 -0.00917986 -0.12775935
0002d0 cf 2b 98 3b c0 37 d1 bc 41 32 5e 3c 58 64 eb 3d
       0.0046438943 -0.025539279 0.013561786 0.114937484
0002e0 23 be f8 bd 4b 30 10 3e 35 24 d4 3d 4d c1 00 be
       -0.12145641 0.14080922 0.103584684 -0.12573738
0002f0 1b 95 23 3f c6 de 06 3d aa 17 06 bd 69 2e 84 3c
       0.6389939 0.032927297 -0.03273741 0.016135411
000300 cf 39 79 bd 6c e8 64 bd 0c d4 ef bc c9 b9 99 bd
       -0.060846146 -0.055885717 -0.029275917 -0.07506139
000310 58 41 7a 3d 9b fe 34 3d b8 15 10 3e d5 60 cb bd
       0.061097473 0.044188123 0.14070785 -0.099305786
000320 93 1d 57 3e 5c 60 ee bc 7c 3e 80 bd d0 f6 f2 bc
       0.21007375 -0.029098682 -0.06261918 -0.029658705
000330 a9 2c ac bd 4a f7 27 bd d2 27 e9 3d 30 4e 80 bd
       -0.08406956 -0.041007318 0.11384548 -0.06264913
000340 e6 7e 0b 3e 47 08 2f be a5 28 20 3e 8f c8 f4 3c
       0.13622627 -0.17093001 0.15640505 0.02988079
000350 53 5e 38 3e b5 55 9e 3d 66 65 a5 bc 29 30 1c be
       0.18004732 0.07731191 -0.020189952 -0.15252747
000360 f1 3a 21 3c 80 ad b5 3d f6 76 83 3c 67 75 fc 3c
       0.009840713 0.08870983 0.016047936 0.0308177
000370 03 0d 99 3c 50 dc 12 bd 9e c5 1a be 28 cb e1 bd
       0.018682962 -0.035854638 -0.15114447 -0.11025077
000380 ad b9 94 bc 53 b1 eb 3c 74 53 af 3d 38 25 08 bd
       -0.018154943 0.028771078 0.08560839 -0.03323862
000390 94 ba cd 3c 32 1b 98 3d ed be 93 3e 83 ae 10 3d
       0.025113381 0.07427062 0.28856602 0.035322677
0003a0 c5 ba 7b bd 87 67 b1 3d 6d 37 3b bc 09 4e 0d 3d
       -0.061457414 0.086623244 -0.011426789 0.03449825
0003b0 f8 48 2a 3d 78 8c 11 3e 07 9f 21 3e 25 09 61 3e
       0.041573495 0.14213741 0.1578332 0.21976145
0003c0 7c 66 4a 3d 36 3f 33 3c 10 ee cd bd 8e 90 a3 bd
       0.049414143 0.010940364 -0.100551724 -0.07986556
0003d0 e4 52 6c 3d 19 58 43 3e 42 a7 a1 3d 8e ce de bd
       0.05769624 0.19076575 0.0789323 -0.10879241
0003e0 1c ca 7c 39 3b f4 37 bd 14 d3 5b bd 02 84 8a 3d
       0.00024107884 -0.04491065 -0.053668097 0.0676346
0003f0 93 1a d3 bc f3 af be bd 9b ba 0c be d3 85 6d 3c
       -0.025769508 -0.093109034 -0.1374306 0.014497238

e_discrimination.weight f4 [83, 1]
000000 34 23 21 40 30 39 34 40 24 80 ce 3f e6 1a 0c 40
       2.5177736 2.8159904 1.6132855 2.1891418
000010 18 fe 1f 40 e0 31 e3 3f 3a 6e 30 40 60 a7 e7 3f
       2.4998837 1.7749596 2.7567277 1.8097954
000020 fd e4 49 40 d0 53 18 40 c1 37 32 40 d8 7f 1a 3f
       3.1546013 2.3801155 2.784653 0.60351324
000030 71 02 50 40 b6 72 fc 3f 1b 7d 27 40 12 f0 06 40
       3.250149 1.9722507 2.6170108 2.1084027
000040 c5 53 f9 3f 55 2f 01 40 da f3 31 40 12 8f 96 3f
       1.947869 2.018514 2.7805085 1.1762412
000050 ad 92 34 40 77 2a 22 40 73 ba 53 40 49 8e f7 3f
       2.8214524 2.5338418 3.308255 1.9340297
000060 06 65 1b 40 76 4f 5f 40 48 79 53 40 a4 59 a9 3f
       2.428041 3.489225 3.3042774 1.3230481
000070 b9 c6 b8 3f da 0f 11 3f 6e 9d 94 3f a0 93 e7 3f
       1.4435645 0.5666481 1.1610544 1.8091927
000080 03 ab fa 3f 8e 4c 32 40 67 f7 bf 3f c3 63 cb 3f
       1.9583439 2.7859225 1.4997376 1.588982
000090 f4 05 09 40 21 03 02 40 30 7d 8e 3f 5f 02 c8 3f
       2.1409883 2.031441 1.1131954 1.5625724
0000a0 b2 89 f1 3f c0 8c 15 40 7f d6 9d 3f 6e 17 a6 3f
       1.8870146 2.3367157 1.2331084 1.29759
0000b0 cf 4e d8 3f 9c 07 32 40 74 0d cd 3f 34 4a 56 40
       1.689905 2.7817144 1.601973 3.348279
0000c0 f7 00 6e 40 2b 8d e9 3f 29 15 0e 40 37 23 1e 40
       3.718809 1.8246206 2.2200415 2.4708993
0000d0 e5 d5 2a 40 d5 c7 18 3f 88 55 2b 40 da 71 0f 40
       2.669305 0.5967992 2.6770954 2.241324
0000e0 78 22 b5 3f 23 f2 0e 40 0b 6d 02 40 43 a8 ad 3f
       1.4151144 2.2335289 2.0379055 1.3566974
0000f0 4b 75 26 40 21 c7 41 bf d8 c2 a2 3f 21 63 93 3f
       2.600909 -0.7569447 1.2715712 1.1514627
000100 b7 e1 e6 3f a3 3d 01 40 56 41 74 40 59 b6 15 40
       1.8037633 2.019387 3.8164878 2.3392546
000110 af ec 04 40 dd 6f fd 3f 48 ed 27 40 5d b6 1e 40
       2.076946 1.9799763 2.6238575 2.4798806
000120 3b 64 a9 3f 7c a6 0e 40 2b fe 09 40 82 93 86 3f
       1.3233713 2.2289114 2.1561382 1.0513766
000130 c2 6f 3e 40 38 bf a6 3f 92 c3 9f 3f f8 97 c8 3f
       2.9755712 1.3027105 1.2481558 1.5671377
000140 cd a9 25 40 ae b6 19 40 04 07 02 40
       2.5884888 2.401775 2.0316782

prednet_full1.weight f4 [128, 102]
000000 98 23 88 3f d5 da 4a 3d 68 3a e6 3f 17 68 1a 40
       1.0635862 0.0495251 1.7986574 2.4126031
000010 65 00 91 3f 05 88 91 3f 13 29 1a 3d 13 15 79 3f
       1.1328245 1.1369635 0.037636828 0.9729778
000020 0f fb f2 3f 00 00 00 00 ba 75 06 40 14 65 a6 3f
       1.8982867 0.0 2.1009355 1.2999597
000030 4a 48 b5 3f 7e 3d c9 3f 33 6d 0e 40 7a 8c da 3d
       1.4162686 1.5721891 2.225415 0.10671325
000040 00 00 00 00 19 65 98 3d 27 9e c1 3d ea d6 21 3d
       0.0 0.07441158 0.09453993 0.0395116
000050 00 00 00 00 98 5c b9 3f 00 00 00 00 00 00 00 00
       0.0 1.4481382 0.0 0.0
000060 ca c5 6c 3f cf db 01 40 00 00 00 00 67 6a cb 3f
       0.924893 2.029041 0.0 1.5891846
000070 00 00 00 00 bb 7f 8b 3f e2 ea 46 3f 00 00 00 00
       0.0 1.0898355 0.7770215 0.0
000080 33 39 01 40 5a 73 14 40 1c 0f ab 3f 95 24 a6 3f
       2.0191162 2.3195405 1.3363986 1.2979914
000090 c1 1b 84 3d 10 04 c9 3f be 3e 52 3f 0f 38 07 40
       0.06450606 1.5704365 0.82126987 2.1127965
0000a0 0f 69 03 3f ec 60 66 3e 75 07 81 3d 02 12 d5 3f
       0.5133218 0.2249791 0.063002504 1.664612
0000b0 13 20 8f 3f 37 a1 a9 3f 87 8c fd 3f c6 d4 8f 3b
       1.1181663 1.3252324 1.980851 0.0043893782
0000c0 41 67 f4 3d f3 60 05 40 06 fa b2 3d 00 00 00 00
       0.119337566 2.0840423 0.087390944 0.0
0000d0 00 00 00 00 65 e2 d8 3d 5b 3d 73 3d 5b 40 1c 3e
       0.0 0.10590056 0.059384685 0.15258925
0000e0 00 00 00 00 a2 16 38 3e 00 00 00 00 6b 04 ca 3f
       0.0 0.17977384 0.0 1.5782598
0000f0 47 46 86 3d 60 0b 71 3b d5 b9 47 3f 84 c6 c3 3d
       0.06556373 0.0036780462 0.7801793 0.09559348
000100 00 00 00 00 00 00 00 00 00 00 00 00 00 00 00 00
       0.0 0.0 0.0 0.0
000110 32 60 06 3c de 61 1a 40 00 00 00 00 00 00 00 00
       0.008201646 2.4122233 0.0 0.0
000120 00 00 00 00 00 00 00 00 00 00 00 00 5d ed 18 3d
       0.0 0.0 0.0 0.037335742
000130 22 83 53 3c 00 00 00 00 00 00 00 00 00 00 00 00
       0.0129096825 0.0 0.0 0.0
000140 bd 63 48 3d 47 e1 0d 3d b1 97 49 3d 1f 75 60 3d
       0.048923243 0.03463867 0.04921693 0.054799195
000150 ff 94 8a 3f a6 7f 87 3b 4f 16 85 3f 90 10 9c 3d
       1.082672 0.00413509 1.0397433 0.076203465
000160 00 00 00 00 f2 56 d3 3c 5f a0 c0 3c be fd a1 3f
       0.0 0.025798295 0.02351397 1.2655561
000170 ee 59 a2 3b 00 00 00 00 59 0d 4d 3d 00 00 00 00
       0.004954568 0.0 0.050061557 0.0
000180 cd e6 2e 40 92 c9 9a 3f 00 00 00 00 71 4c 7d 3d
       2.732837 1.2092764 0.0 0.06184048
000190 82 34 e1 3c 4b e8 d5 3d 2b 13 47 3f d2 83 7b 3d
       0.027490858 0.10444697 0.77763623 0.06140501
0001a0 11 d3 9f 3f 10 6b 35 40 b7 f7 29 3f a3 41 e4 3f
       1.2486287 2.8346596 0.6639361 1.7832531
0001b0 00 00 00 00 7a 57 be 3f 60 91 10 40 88 86 13 3e
       0.0 1.4870446 2.258873 0.14406788
0001c0 92 4f 23 40 58 79 4f 40 84 28 ba 3f ad 66 0d 40
       2.5517316 3.2417812 1.4543614 2.2093918
0001d0 11 d6 2e 40 3d d6 88 3d 54 f3 54 3d 00 00 00 00
       2.7318156 0.06681488 0.05198987 0.0
0001e0 25 c3 0c 3d ea a4 ee 3c cb 5f 01 3d bc fe 2a 40
       0.03436579 0.029131372 0.031585496 2.6717978
0001f0 dc fc fd 3d 00 00 00 00 d9 d4 8a 3f c1 7f 45 40
       0.12401745 0.0 1.0846206 3.0859225
000200 00 00 00 00 6c 52 f0 3f 8c ba 8f 3b 13 26 1c 40
       0.0 1.8775153 0.004386252 2.4398239
000210 14 db db 3f 00 00 00 00 41 30 2a 40 39 55 0a 40
       1.7176232 0.0 2.6591952 2.1614516
000220 f5 02 ba 3f f7 5d 00 40 1f 12 50 3e 95 e0 24 40
       1.4532152 2.0057352 0.20319413 2.5762074
000230 cc eb 63 40 00 a6 2b 40 a1 c9 e1 3f 64 19 79 3f
       3.561267 2.6820068 1.7639657 0.9730437
000240 9c 8e 17 40 fb e9 27 40 45 2d 31 40 9f 9f 0f 40
       2.3680792 2.623656 2.768388 2.2441175
000250 db 89 4a 37 15 ea fe 3d 27 f1 82 3f 61 81 07 40
       1.2072235e-05 0.12446991 1.0229844 2.1172717
000260 00 00 00 00 00 00 00 00 cd f0 bb 3c 2a 58 0d 3e
       0.0 0.0 0.022941971 0.13803163
000270 e1 63 01 3d 00 00 00 00 f3 80 9e 3c 57 6c bd 3e
       0.031589393 0.0 0.019348597 0.3699672
000280 50 49 3a 3d 5f 56 1d 40 10 c1 2f 3c 00 00 00 00
       0.045480072 2.4583967 0.010727182 0.0
000290 5e 66 0f 40 00 00 00 00 68 89 39 3e 84 13 26 3e
       2.240623 0.0 0.18118823 0.16218382
0002a0 70 70 c2 3c eb 88 ba 3d 00 00 00 00 0f 6c 46 40
       0.023735255 0.09108146 0.0 3.1003454
0002b0 00 00 00 00 b9 4d 37 3e 00 00 00 00 56 7d 80 3d
       0.0 0.17900743 0.0 0.06273906
0002c0 00 00 00 00 1c a9 4f 3d c0 42 07 3a 00 00 00 00
       0.0 0.050698385 0.0005159788 0.0
0002d0 00 00 00 00 65 9b 70 3d 00 00 00 00 00 00 00 00
       0.0 0.058741946 0.0 0.0
0002e0 b3 ee 87 3d 96 6d 9a 3c d5 0e ce 3f 00 00 00 00
       0.06637325 0.018851083 1.6098276 0.0
0002f0 71 f3 38 40 08 48 2e 3d f9 56 13 3d 00 00 00 00
       2.8898585 0.042549163 0.035971615 0.0
000300 16 2b 36 3e b8 29 31 40 35 6e 9a 3c f2 78 5d 3c
       0.17789873 2.7681713 0.018851379 0.013517605
000310 b8 e8 ae 3d 00 00 00 00 77 81 54 40 05 a1 1e 40
       0.08540481 0.0 3.320402 2.4785779
000320 ea 81 99 3d da 33 5b 3d 63 b2 db 3c 53 ba 97 3d
       0.07495482 0.053516246 0.02681846 0.074085854
000330 a3 c2 00 40 f6 2e ce 3d 67 32 1e 40 78 79 dd 3f
       2.0118797 0.10067551 2.4718263 1.7302694
000340 1d d5 59 3f bd 90 01 40 4e 8b 9d 3d 5e 90 fb 3f
       0.8509081 2.0244591 0.07692586 1.9653432
000350 81 27 31 40 00 00 00 00 10 44 c6 3f 8f b2 dd 3f
       2.7680361 0.0 1.5489521 1.7320117
000360 5d 9c b8 3f 71 e0 fc 3f de 0e 18 40 d8 04 53 3c
       1.4422718 1.9755994 2.3759074 0.012879573
000370 3d e0 86 3d 4a e8 9d 3d ce 14 a6 3c f9 88 8b 3b
       0.06585739 0.07710321 0.020273592 0.004258272
000380 10 10 f0 3d a7 34 57 40 00 00 00 00 00 00 00 00
       0.11721814 3.3625886 0.0 0.0
000390 e7 67 80 3f 0b 23 29 40 00 00 00 00 81 f3 02 40
       1.0031708 2.6427639 0.0 2.0461123
0003a0 00 00 00 00 d8 c6 de 3f 01 87 b6 3f 00 00 00 00
       0.0 1.7404432 1.425995 0.0
0003b0 a3 24 0d 40 68 30 11 40 b5 dd c6 3f 48 5f fb 3f
       2.2053611 2.2685795 1.553641 1.9638453
0003c0 00 00 00 00 0b 77 bc 3f 8e 90 aa 3f f1 60 4f 40
       0.0 1.4723829 1.3325365 3.2402918
0003d0 19 a4 ae 3f 77 b5 d1 3e 00 00 00 00 84 66 08 40
       1.3643829 0.4095876 0.0 2.131257
0003e0 31 1d e0 3f ad 0c 19 40 ad d2 25 40 00 00 00 00
       1.7508909 2.3913987 2.5909836 0.0
0003f0 82 c1 a9 3e dc 7f 43 40 00 00 00 00 2b 68 c5 3b
       0.33155447 3.054679 0.0 0.0060243807

prednet_full1.bias f4 [128]
000000 f6 42 18 bf ae 6e fc be 72 b0 35 be 67 ed 0e bf
       -0.59477174 -0.49303192 -0.1774309 -0.55831
000010 76 d6 42 bf fd 40 f3 3c 42 0c 33 bf e7 49 29 bf
       -0.7610849 0.029694075 -0.6994058 -0.6612839
000020 a4 96 f3 be b0 63 ac bf 1e 63 72 bf 0e 38 dc bf
       -0.47575867 -1.3467922 -0.9468249 -1.7204607
000030 d1 44 c2 bf ba 9c 9e bf 2d 76 45 bf b9 6a 24 3e
       -1.5177251 -1.2391579 -0.77133447 0.16056336
000040 48 5e 3f bf 96 bf a2 bf 9a 56 4d bf e6 d4 bb bf
       -0.74753237 -1.2714717 -0.8021027 -1.4674346
000050 04 46 1e bf c5 d9 0b bf c2 a5 3d be a0 51 9a bf
       -0.61825585 -0.54629165 -0.18520263 -1.205616
000060 83 9e ac bf 78 8e b7 bf 12 7f 93 bf f0 74 4e bf
       -1.3485874 -1.4340353 -1.1523154 -0.8064718
000070 55 f6 f6 bd 8b af 6b bf 15 7e 42 bd c6 61 15 bf
       -0.12058703 -0.9206473 -0.047483522 -0.58352315
000080 52 49 a5 3d b3 20 45 bf f0 1f aa bf 5a 5b aa bf
       0.08070625 -0.7700302 -1.3290997 -1.3309128
000090 0b c5 44 be b5 c8 a3 bd 70 da a1 bf 80 35 27 bf
       -0.19215791 -0.07997266 -1.2644787 -0.6531601
0000a0 f6 e4 7a bf 29 c7 ec bf e4 28 a7 bf fc b2 cf bf
       -0.98005617 -1.8498279 -1.3059354 -1.6226497
0000b0 b5 2b a1 bf 4e 1a 0c bf 38 4c 36 bf 97 e2 eb be
       -1.2591463 -0.5472764 -0.7121005 -0.46071312
0000c0 d7 02 46 bf 9f 62 c2 be e5 88 a1 bf 1a 56 3d bf
       -0.77348083 -0.37965867 -1.2619902 -0.73959506
0000d0 3e 69 ad bf b5 f8 1c bf 4e 64 9c bf 35 66 7a bf
       -1.3547742 -0.61316997 -1.221811 -0.97812206
0000e0 4f d4 b0 bf 40 d0 17 bf cd 3d 3b bf f0 4a 1c bf
       -1.3814791 -0.5930214 -0.73141176 -0.61051846
0000f0 35 15 94 bf de b3 e6 bf 83 bf a4 bf 8a f4 ef bf
       -1.1568972 -1.8023641 -1.2870945 -1.8746502
000100 a4 0f 8d bf 86 e0 c4 bf 43 5d 99 bf 9a f6 78 bf
       -1.1020398 -1.5381019 -1.1981586 -0.97251284
000110 a4 7c a4 bf 21 52 81 bf a7 f0 83 bf f3 7b b2 bf
       -1.2850537 -1.0103189 -1.0307816 -1.3944076
000120 fd 1d c5 be 65 96 60 bf 83 12 12 be 39 41 9e bf
       -0.38499442 -0.87729484 -0.14264874 -1.2363654
000130 c3 14 2b bf 92 56 88 bf 6a 60 c3 bf 7e 88 1e bf
       -0.66828555 -1.0651419 -1.5263798 -0.6192702
000140 90 cf 30 bf 31 b4 d7 be 12 f6 75 bf 6e 80 b1 bf
       -0.69066715 -0.42129663 -0.960786 -1.3867319
000150 e3 49 59 be 17 c7 9c bd d3 7d 61 bd 45 13 84 bf
       -0.21219592 -0.07655161 -0.055051636 -1.031838
000160 2b 82 c2 bf b1 c6 44 bf 06 6a b1 bf 9d e9 a2 be
       -1.5195974 -0.7686568 -1.3860481 -0.31818858
000170 88 b5 2a be d7 81 a2 bf d1 ab b8 bf 3b 1f 93 bf
       -0.16670811 -1.2695874 -1.4427434 -1.1493906
000180 49 c5 32 bf 79 e1 64 bf e7 81 8d bf e7 e8 9d bf
       -0.69832283 -0.89406544 -1.1055268 -1.2336701
000190 92 10 08 bf 34 97 be bf 5e 91 12 bf cd 1b b7 bf
       -0.53150284 -1.4889894 -0.5725306 -1.4305359
0001a0 82 98 39 bf 5a 06 98 bf d4 df 81 bf 78 28 8e bf
       -0.72498333 -1.1876938 -1.0146432 -1.11061
0001b0 b0 07 d2 bf c0 8e 97 bf 62 e4 46 bf 2f d4 42 bf
       -1.6408596 -1.1840439 -0.77692235 -0.76105016
0001c0 d9 9e 91 be e0 0b 7c be 71 2c a6 bf d3 52 84 be
       -0.28441504 -0.24613905 -1.2982312 -0.2584444
0001d0 ec 02 cb be 28 34 be be 45 ac 94 bf e6 f3 50 bf
       -0.39650667 -0.37149167 -1.1615072 -0.8162216
0001e0 16 f3 a8 be 29 3f f3 be b2 8f e8 be c0 07 9d bf
       -0.3299796 -0.47509125 -0.4542213 -1.226799
0001f0 86 ef 21 bf eb 89 a7 bf 57 8b 40 bf 0e 9c 95 bf
       -0.6325611 -1.3088964 -0.75212616 -1.1688249

prednet_full2.weight f4 [64, 128]
000000 cb 4f ec 3c a9 90 63 3d 68 4f 03 3d a5 13 d7 3c
       0.028846642 0.05555788 0.03205815 0.026254484
000010 c5 37 5b 3d 99 ec 8c 3c ec 76 51 3d 23 92 05 3d
       0.053519983 0.017202662 0.051138803 0.03261007
000020 ce ff 99 3c 4c dc 06 3d 67 91 4b 3d 45 60 a9 3d
       0.018798735 0.032924935 0.049699213 0.08270315
000030 7e d0 39 3d e7 ff 62 3d db cc ab 3c 00 00 00 00
       0.04536485 0.05541983 0.020971706 0.0
000040 8e e0 e7 3b 83 d1 2d 3c 60 ac f8 3c 48 5f 46 3d
       0.0070763296 0.0106090335 0.030355632 0.04843071
000050 55 13 55 3c 8f 28 87 3c d2 f8 cc 3c 25 3b 35 3d
       0.013005097 0.016498832 0.02502099 0.044245858
000060 ce 6a ae 3d cb 81 72 3d 21 f0 5e 3d 41 28 4b 3d
       0.08516465 0.05920581 0.054428224 0.049598936
000070 55 4a 28 3d c0 6b 2a 3d 70 c4 93 3c f3 9b de 3c
       0.041086514 0.041606665 0.018038005 0.027173972
000080 49 dc 39 3b e0 a6 79 3c 63 70 57 3d 66 03 98 3d
       0.002836006 0.01523754 0.052597415 0.07422523
000090 c3 2a ab 3c 00 00 00 00 1a 3b 5a 3d cb 4d e5 3c
       0.020894414 0.0 0.05327902 0.027991196
0000a0 db 46 5b 3d 3f 51 8d 3d 7c 76 12 3d 61 1a 2b 3d
       0.05353437 0.06900262 0.035757527 0.041773204
0000b0 04 2c 08 3d d6 2b 35 3d 09 d8 65 3d df e6 28 3c
       0.0332451 0.04423126 0.05611423 0.01030895
0000c0 1a a6 31 3d 86 c5 10 3d 32 de 0d 3d 43 05 20 3d
       0.043371297 0.035344623 0.03463573 0.039067518
0000d0 25 7d 5e 3d 98 4c 80 3d 18 e5 72 3d 97 57 2f 3d
       0.054318566 0.06264609 0.059300512 0.04280814
0000e0 69 e3 92 3d fb a1 72 3c 27 9c 18 3d ec d1 eb 3c
       0.07172281 0.014809127 0.037258293 0.028786622
0000f0 dc 0a 30 3d ff b1 a6 3d eb f2 7e 3d b7 50 86 3d
       0.042979106 0.08139419 0.062243383 0.06558364
000100 fb 8e 3c 3d eb fd 74 3d d0 ab 80 3d ab 35 c3 3c
       0.046034794 0.059812468 0.06282771 0.023829302
000110 8c 8c 24 3d fe 46 02 3d a7 d8 89 3d ec 4f 7c 3d
       0.0401731 0.031805985 0.06730776 0.061599657
000120 db a4 47 3d 53 7d a6 3c 5e d0 40 3d f8 d3 55 3d
       0.048741203 0.020323431 0.047073714 0.052204102
000130 11 68 9f 3c ad 8e 0b 3d 66 9a 37 3d 93 0b 0c 3d
       0.019458802 0.034071613 0.04482498 0.034190726
000140 f9 82 27 3d fa 80 c2 3b f7 76 f6 3c be 3d 3c 3d
       0.04089639 0.0059357854 0.030086024 0.04595732
000150 f2 35 47 3d 34 4a 08 3c e0 34 62 3c e5 d8 3d 3d
       0.04863543 0.008318473 0.013806552 0.046349425
000160 98 2c 18 3d cb 0d 1a 3d 2f 96 cb 3d 85 ab 2c 3d
       0.037151903 0.03761081 0.099407546 0.04215576
000170 26 f3 0a 3d fd 3e 41 3d 95 eb 6a 3d 3d 0a 8b 3d
       0.03392329 0.04717921 0.057353575 0.06789062
000180 05 dd 01 3d ef d1 82 3d a3 0e 58 3d db b6 d9 3c
       0.03170492 0.06387698 0.052748334 0.02657645
000190 ed 2a a4 3c 8a 12 56 3d 88 c2 29 3d 32 7b 8b 3d
       0.02004 0.052263774 0.041445285 0.06810607
0001a0 75 09 40 3d 2b e2 63 3d 00 00 00 00 ca 54 2f 3d
       0.04688402 0.055635612 0.0 0.04280547
0001b0 71 80 8f 3d 6f 80 89 3d 4e 2d ab 3c 24 d6 38 3d
       0.0700692 0.0671395 0.020895626 0.045126095
0001c0 fa fb 8c 3c a9 bf 0a 3d bf 05 78 3d 16 71 c6 3c
       0.017209996 0.033874188 0.060552355 0.024223845
0001d0 4c c2 db 3c cb 7e bb 3c ac 43 8d 3d 01 8a 02 3d
       0.026826046 0.022887608 0.06897673 0.031869892
0001e0 05 ef ca 3c 9d 10 8a 3b c1 47 21 3d 6a b2 1d 3d
       0.024772177 0.0042134062 0.03937507 0.038500227
0001f0 54 c3 22 3c 5a 34 53 3d da 86 2c 3d 7b 67 86 3d
       0.009934265 0.0515636 0.042120792 0.06562706
000200 00 00 00 00 6d ac 0f 3f f5 19 d2 3d cf a9 02 3e
       0.0 0.56122476 0.10258857 0.1276009
000210 b1 12 79 3e 27 59 8a 3d 60 30 99 3e 81 ea ba 3d
       0.24323536 0.06755286 0.2991972 0.09126759
000220 c5 90 0f 3d 11 cf 30 3d e3 71 59 3e b3 f5 48 3e
       0.035050172 0.043166224 0.2123485 0.19624977
000230 d1 78 94 3e c6 a6 c8 3e 75 89 5b 3b 00 00 00 00
       0.28998426 0.39189738 0.0033498679 0.0
000240 a6 70 be 3d e6 76 ab 3c 64 26 49 3d 55 d2 fe 3d
       0.0929883 0.020930719 0.049108878 0.124424614
000250 51 4d 14 3d 08 d5 8b 3d bf 6f d9 3d 6c 6e 86 3e
       0.036206547 0.06827742 0.10617017 0.2625612
000260 0e b2 79 3e 18 1a c3 3d c2 49 b6 3e 6b 67 42 3e
       0.24384329 0.09526461 0.35603148 0.18984763
000270 0d 23 2a 3c 58 40 61 3e 04 98 07 3d a0 bb 1e 3e
       0.010384333 0.21997201 0.033103958 0.15501261
000280 69 07 fc 3c 00 00 00 00 b1 6a 3f 3e 56 cc 0b 3e
       0.030765252 0.0 0.18693043 0.13652167
000290 ae 73 c1 3d 37 5e 5f 3d ea 98 2d 3e 26 1e 06 3d
       0.09445892 0.05453321 0.16952863 0.032743596
0002a0 65 02 82 3e 49 a3 8d 3e fa b5 9c 3d cf 82 33 3e
       0.25392452 0.2766364 0.07651897 0.17530368
0002b0 ef 1d 4a 3e 0c 78 25 3e 80 e8 0b 3e 0b eb 60 3d
       0.19737981 0.16159075 0.1366291 0.054911654
0002c0 d7 f8 bf 3e 3a 63 9a 3e 76 f9 18 3e e0 40 8a 3e
       0.37494537 0.3015383 0.14938912 0.2700262
0002d0 00 dc c6 3e 1a dc 97 3e 1d 52 6c 3e 0c c4 f1 3e
       0.38839722 0.29660112 0.23078199 0.47219884
0002e0 e3 58 82 3e b2 06 84 3d b7 64 14 3e f8 a5 4e 3e
       0.2545844 0.064465895 0.14491545 0.201805
0002f0 ed f0 33 3d 58 d1 80 3e 51 a2 8c 3e 38 52 4d 3e
       0.043930937 0.25159717 0.27467588 0.20050895
000300 6b 5d d1 3e 02 a0 1c 3e 6b 1b 80 3e e0 36 31 3e
       0.40891585 0.15295413 0.25020918 0.1730609
000310 59 c3 32 3e cb 18 4f 3e 41 c4 5e 3e ec 33 09 3e
       0.17457332 0.20224302 0.21754552 0.13398713
000320 c7 63 64 3d 27 24 5e 3d 2a e3 fc 3c f2 8b 43 3e
       0.055759218 0.054233696 0.030870039 0.19096354
000330 b9 7d ba 3d fd a2 f8 3d 6d ed 3a 3e 58 b3 63 3e
       0.09106011 0.121404625 0.18254633 0.22236383
000340 54 c1 8f 3e 00 00 00 00 e1 6b bf 3d 2c 2a 79 3e
       0.28077185 0.0 0.09346748 0.24332494
000350 2d 33 2b 3e f1 11 c5 3d 00 00 00 00 95 74 0e 3e
       0.16718741 0.09622563 0.0 0.1391166
000360 f9 51 13 3e 08 06 7d 3d 23 ec 9c 3e 17 df ba 3e
       0.14386739 0.06177333 0.30648908 0.3649833
000370 6c 85 25 3c 1c c1 27 3e 7b 4e a9 3e 6b 08 d2 3e
       0.010102611 0.16382259 0.33067688 0.41022047
000380 8d 01 8a 3e 89 28 ba 3e b6 54 7e 3e b2 94 23 3d
       0.26954308 0.3635905 0.24837002 0.03993673
000390 36 e2 e6 3d 5d 2e 71 3e 8b 9a a1 3e c8 16 8c 3e
       0.11273615 0.23552842 0.3156322 0.2736113
0003a0 f6 79 d9 3d f5 10 50 3e ba 6b 0b 3d 0e 28 93 3e
       0.10618965 0.20318969 0.034038283 0.28741497
0003b0 a7 55 9d 3e e8 70 13 3e 63 39 0b 3d be 43 50 3d
       0.3072941 0.14398539 0.033990275 0.050845854
0003c0 04 d5 8b 3d 14 df 0d 3e bb 78 06 3e c7 95 78 3d
       0.06827739 0.13854629 0.13131993 0.060689714
0003d0 1e 50 b9 3d 0c c1 87 3e 0f ce 25 3e ed 29 99 3a
       0.09048484 0.2651447 0.16191886 0.0011685468
0003e0 d9 2c bc 3c 61 97 2c 3d 00 00 00 00 9a ae 99 3e
       0.022970604 0.042136554 0.0 0.30016023
0003f0 00 00 00 00 49 a2 c3 3e bf bc 30 3e fb 6a bc 3e
       0.0 0.3820975 0.17259501 0.3680037

prednet_full2.bias f4 [64]
000000 04 ef db be de 53 7e c0 47 a3 84 3e d9 ba bb be
       -0.42955792 -3.9738688 0.2590582 -0.3666599
000010 00 0d a1 c0 78 4e 5a 3e 83 91 84 3e d9 da 93 bf
       -5.032837 0.21318996 0.25892267 -1.1551162
000020 aa 38 86 c0 98 06 93 3e 98 05 c4 3d 12 4c 95 c0
       -4.194417 0.28715968 0.095713794 -4.665536
000030 59 88 9d 3e 5d b5 a0 c0 f4 cb 93 c0 8e 4f 91 3e
       0.30768088 -5.022139 -4.6186466 0.28381008
000040 2b f1 97 c0 34 89 f6 be fe b7 9a c0 bc 66 b6 bd
       -4.7481894 -0.48151553 -4.83496 -0.08906314
000050 7e 92 a7 3e ac 34 ea be 20 6d 8b c0 5e e1 96 c0
       0.32728952 -0.4574331 -4.357071 -4.7150106
000060 33 3e 00 c0 2f 5a 5e bf ca 17 f8 be 39 e9 17 3e
       -2.0037963 -0.8685636 -0.4845565 0.14835061
000070 b6 36 39 3e 55 1d 95 c0 24 e8 1a bd ad 0f 76 bf
       0.18087277 -4.6598306 -0.037819043 -0.9611767
000080 bf 6e 8c c0 4f 6f df be f3 ae 01 bf 80 a3 19 3e
       -4.388519 -0.4363961 -0.50657576 0.15003777
000090 64 d0 7b 3e 3b ac 8e c0 2f 06 4b c0 51 71 9f 3e
       0.24591213 -4.458524 -3.1722524 0.3114114
0000a0 b4 f8 84 3e 1b 44 4e bf 6f 05 0e c0 ad e3 90 3e
       0.25970995 -0.8057267 -2.2190816 0.28298703
0000b0 55 ce 58 bf 8d 7c 09 3e f1 81 35 3e f2 08 c0 be
       -0.8468984 0.13426419 0.1772535 -0.37506825
0000c0 15 29 9c 3e 21 d0 28 bf 73 f7 9a c0 c2 f8 00 bf
       0.30500093 -0.6594258 -4.842706 -0.50379574
0000d0 9a 7a 57 3e 5b 8c a4 3e 80 88 96 c0 a1 7d 95 c0
       0.21042863 0.32138333 -4.7041626 -4.6715856
0000e0 ff e7 24 3e 39 57 50 3e 95 e9 2b c0 93 9b 98 c0
       0.16104124 0.20345773 -2.6861317 -4.768991
0000f0 a4 e9 92 c0 db 3d 36 3d e5 60 60 3e 03 31 37 bf
       -4.5910206 0.044492584 0.21911962 -0.7155916

prednet_full3.weight f4 [1, 64]
000000 00 00 00 00 68 ff ad 3e 00 00 00 00 00 00 00 00
       0.0 0.33983922 0.0 0.0
000010 bf 4f e1 3e 00 00 00 00 00 00 00 00 a6 72 37 3d
       0.44006154 0.0 0.0 0.04478707
000020 6e e2 d2 3e 00 00 00 00 00 00 00 00 e2 25 e4 3e
       0.41188377 0.0 0.0 0.44560152
000030 00 00 00 00 25 a2 c4 3e a8 78 de 3e 00 00 00 00
       0.0 0.38404956 0.43451428 0.0
000040 6a c4 eb 3e 61 de 21 39 c2 3f f1 3e 00 00 00 00
       0.4604829 0.00015436999 0.47118956 0.0
000050 00 00 00 00 00 00 00 00 6e 9f d3 3e 7b f1 d0 3e
       0.0 0.0 0.41332573 0.40809235
000060 6e 56 0b 3e 00 00 00 00 00 00 00 00 00 00 00 00
       0.13607189 0.0 0.0 0.0
000070 00 00 00 00 36 20 e8 3e 00 00 00 00 00 00 00 00
       0.0 0.45337075 0.0 0.0
000080 16 60 c1 3e 00 00 00 00 00 00 00 00 00 00 00 00
       0.3776862 0.0 0.0 0.0
000090 00 00 00 00 f2 c4 e3 3e 42 2d 92 3e 00 00 00 00
       0.0 0.44486195 0.28550154 0.0
0000a0 00 00 00 00 00 00 00 00 6f 6b 90 3d 00 00 00 00
       0.0 0.0 0.07051741 0.0
0000b0 00 00 00 00 00 00 00 00 00 00 00 00 00 00 00 00
       0.0 0.0 0.0 0.0
0000c0 00 00 00 00 00 00 00 00 0e 85 cc 3e 00 00 00 00
       0.0 0.0 0.39945263 0.0
0000d0 00 00 00 00 00 00 00 00 20 0a e8 3e 06 65 d3 3e
       0.0 0.0 0.45320225 0.41288012
0000e0 00 00 00 00 00 00 00 00 c4 62 3c 3e 87 05 d8 3e
       0.0 0.0 0.18397051 0.42191717
0000f0 bc ff e5 3e e6 27 90 38 00 00 00 00 00 00 00 00
       0.44921672 6.873887e-05 0.0 0.0
