model/ckpt/model_Dense_ProbabilityAndStatistic_train_irt.pt (torch, 4766 bytes, 3 tensors)

theta.weight f4 [105, 1]
0.17958808 0.50980896 0.076114014 0.78852844 0.3893711 0.086590655 1.2063851 -0.12981182
1.4527246 -0.322365 0.8860949 0.62030065 -0.5182638 0.114403024 1.5546682 0.14117223
0.5721496 1.2850125 0.64042014 1.3973696 0.24825466 -1.9845341 -0.33842564 0.80802953
0.8064978 -0.16110708 0.7386823 -1.9475745 -0.029381659 -0.163245 0.35008836 -0.89873034
-0.22323427 0.119223066 0.2938771 1.2024809 1.4320562 0.84331435 0.88209856 0.3931233
1.4853023 1.501029 1.0199685 1.2892846 1.0525345 0.825536 1.3055886 0.16665144
1.2821766 0.2498028 0.8879264 -1.2579582 1.2228409 1.1969545 1.176908 1.1785784
1.3212439 -0.07230974 0.24604641 -0.4924172 -0.64345807 1.5772772 1.1759692 0.1152373
1.3895454 -1.5554799 0.9960546 -0.7985706 -0.026215585 0.75930136 0.30041862 1.6174837
1.3795145 0.88779926 0.9021671 -0.58948886 0.91946316 1.4852525 1.1494818 -1.2411178
0.09390119 -1.4931823 0.25948167 0.025632786 -0.05361771 0.9885056 0.97101545 -0.82322645
-2.117475 -0.005033297 1.0699046 -1.466488 -0.06738353 1.3330218 -0.28181228 1.835035
0.64662546 -0.54502225 -0.00031038845 0.30653918 -0.82405394 -0.14054959 0.45988467 1.2049565
0.12908983
00000000: f0e5 373e d782 023f aae1 9b3d 00dd 493f
00000010: a65b c73e 7156 b13d d46a 9a3f 64ed 04be
00000020: e1f2 b93f 060d a5be 1ed7 623f 06cc 1e3f
00000030: f0ac 04bf 224c ea3d 5eff c63f 748f 103e
00000040: 6578 123f 4a7b a43f 93f2 233f 02dd b23f
00000050: 7836 7e3e 3705 febf 2046 adbe 06db 4e3f
00000060: a476 4e3f 41f9 24be 491a 3d3f 1f4a f9bf
00000070: ceb1 f0bc b329 27be c83e b33e 3113 66bf
00000080: 8697 64be 392b f43d 0f77 963e e5ea 993f
00000090: 9e4d b73f 73e3 573f 36d1 613f 7547 c93e
000000a0: 631e be3f b821 c03f 548e 823f 4707 a53f
000000b0: 73b9 863f 5456 533f 871d a73f ada6 2a3e
000000c0: 5d1e a43f 4ecc 7f3e 254f 633f c604 a1bf
000000d0: 0d86 9c3f ce35 993f eca4 963f a8db 963f
000000e0: 851e a93f 2117 94bd 97f3 7b3e 1b1e fcbe
000000f0: abb9 24bf 38e4 c93f 2986 963f 8901 ec3d
00000100: a0dc b13f f719 c7bf 6ffd 7e3f 1f6f 4cbf
00000110: 11c2 d6bc 9361 423f 78d0 993e b509 cf3f
00000120: ee93 b03f d046 633f 6cf4 663f bee8 16bf
00000130: f061 6b3f c11c be3f 3822 933f f3dc 9ebf
00000140: 444f c03d 9920 bfbf c8da 843e d9fb d13c
00000150: 3e9e 5bbd b40e 7d3f 7894 783f f8be 52bf
00000160: b684 07c0 5bee a4bb a2f2 883f e1b5 bbbf
00000170: 6000 8abd 75a0 aa3f b349 90be 6de2 ea3f
00000180: 3f89 253f 9486 0bbf a2bb a2b9 b4f2 9c3e
00000190: 33f5 52bf 3bec 0fbe 0176 eb3e 043c 9a3f
000001a0: 2030 043e

alpha.weight f4 [263, 1]
-0.88660455 -0.3917778 -0.56972003 -0.32188773 -0.5828488 -0.3066535 -0.14670621 -0.1076493
-1.1014274 -0.5058701 -0.962204 -0.67166555 -1.2462981 -0.83920556 -0.5295635 -0.37763348
-0.8661727 -0.83607036 -0.5546323 -0.85563576 -0.6718464 -0.15440156 -1.0707353 -0.29233363
-0.5104322 -0.6227204 -0.57663757 0.07403545 -0.9582919 -1.2791598 -0.97568053 -1.3216984
-0.62102973 -0.66079384 0.573832 -1.0347506 -0.09244326 -0.69496673 -0.56789017 0.34294793
-0.22200917 -0.5352135 -0.57944924 -0.51723033 -0.39205256 -0.6554171 -0.8058057 -0.7904833
-1.2956086 -0.47564474 -0.7085384 -0.51623684 -1.4247062 -0.511464 -0.64090407 -0.06901104
-1.3001475 -0.69413465 -0.6193423 -1.3440248 -0.4783239 -0.8135298 -1.1371009 -0.6392179
-1.0572026 -1.2223978 -0.58255035 -0.29155883 -0.80776095 -0.79133636 -0.51113355 -0.2605448
-0.33727792 -0.97186846 -0.5277178 -0.5469819 -0.94429654 -0.040178996 -0.8235845 0.019739097
0.07438757 -1.2158636 -0.45302066 -0.60690945 -0.7660902 -1.0668396 -0.33569345 -0.7533853
0.099123746 -0.71094245 -0.9469821 -0.6450489 -0.7416013 -1.0644104 -0.012942728 -0.7916147
-0.45201534 -0.74400175 -0.692644 -0.04288461 -0.5954685 -0.15923482 -0.8901505 -0.3368151
-0.8734279 -0.0683109 -1.3709129 -0.5881284 -0.6532726 -1.2334665 -0.40233696 -0.16618453
-1.1452639 -0.4481105 -0.79415 -0.9342181 -0.766905 -0.4216713 -1.0605042 -0.57255286
-0.8120431 -0.86474335 -0.5220134 -0.7931673 -0.3725755 -0.83042574 -0.68995064 -0.40265206
-0.6519944 -0.56956935 -0.06591348 -0.27743047 -1.1103384 -0.73086846 -0.7684083 -0.38051346
-1.0158756 -0.87674034 -0.9311689 -0.43372023 -0.060239285 -0.99481475 -0.3627961 -0.7897983
-0.46081367 -0.28299716 -0.9034655 -0.7932126 -0.8757014 -0.6713336 -0.8816436 -0.8757546
-1.4423211 -0.7312024 -0.70591277 -0.8020108 -0.24733144 -0.12039496 -1.0765573 -0.7283494
-0.39830303 -0.114493914 0.061762247 -0.76886827 -0.6601058 -1.0710248 -1.0939378 -0.59135675
-0.5795765 -1.2126709 -0.5867221 -1.2902849 -0.70723474 -1.4828206 -1.0386237 -0.7377571
-0.37723693 -0.6697652 -0.6372975 -1.097749 -0.3736804 -0.7884731 -1.3226775 -0.08275247
-0.3826482 -0.9978406 -0.4850219 -0.52059364 -0.59045446 -1.3116767 -0.13186535 -0.1636924
-0.90701085 -1.5918878 -1.2774429 -0.6200933 -0.7751141 -0.9584901 -0.9293578 -0.3098164
-1.1219107 -1.1312907 -0.68958944 -1.5315747 -0.0919528 -0.81875575 -1.0733566 -1.2495805
-0.37707567 -0.23497586 -0.6315905 -1.5122005 -0.90598845 -0.550042 -0.83770573 -0.47623214
-1.028342 -0.8214723 -0.69783294 -0.7961783 -0.9313199 -0.6635999 -1.3003507 -1.5649092
-1.4646662 -0.37768835 -0.4034692 6.60145e-05 -0.63710207 -1.3073947 -0.7845673 -0.70944244
-0.60234964 -0.9478391 -0.56275624 -0.47594222 -0.9574946 -0.6881589 -0.587718 -0.62264884
-0.5305295 -0.36118177 0.12834229 -0.83627045 -0.78204864 -0.5891367 -0.62882054 -0.35651618
-0.6803837 -0.76878965 -0.07758825 -0.507308 -0.48670268 -0.99680537 -0.5989794 -0.880272
00000000: 84f8 62bf 1a97 c8be 2cd9 11bf 78ce a4be
00000010: 9435 15bf b001 9dbe 273a 16be 3c77 dcbd
00000020: 93fb 8cbf b480 01bf 0053 76bf 46f2 2bbf
00000030: b286 9fbf 2dd6 56bf 7991 07bf 2d59 c1be
00000040: 7ebd 5dbf b508 56bf 62fc 0dbf f20a 5bbf
00000050: 20fe 2bbf 711b 1ebe db0d 89bf c1ac 95be
00000060: afab 02bf 9b6a 1fbf 859e 13bf e69f 973d
00000070: 9e52 75bf 82bb a3bf 33c6 79bf 6a2d a9bf
00000080: cefb 1ebf c929 29bf a7e6 123f b572 84bf
00000090: e452 bdbd 57e9 31bf 4061 11bf df96 af3e
000000a0: 5f56 63be c003 09bf c956 14bf 3569 04bf
000000b0: 1dbb c8be 6ac9 27bf 4849 4ebf 1d5d 4abf
000000c0: 81d6 a5bf b587 f3be c662 35bf 1928 04bf
000000d0: c65c b6bf 4eef 02bf 4a12 24bf a955 8dbd
000000e0: 3c6b a6bf cfb2 31bf 388d 1ebf 0109 acbf
000000f0: dfe6 f4be 7d43 50bf 868c 91bf c9a3 23bf
00000100: 6a52 87bf 8877 9cbf 0522 15bf 3347 95be
00000110: 6cc9 4ebf 0595 4abf a6d9 02bf 2166 85be
00000120: b1af acbe 5fcc 78bf 8418 07bf 0107 0cbf
00000130: 6bbd 71bf bb92 24bd 6fd6 52bf e3b3 a13c
00000140: 8358 983d 6ba1 9bbf 53f2 e7be 6b5e 1bbf
00000150: 7d1e 44bf 338e 88bf 03e0 abbe dcdd 40bf
00000160: 6401 cb3d 5300 36bf 6b6d 72bf ed21 25bf
00000170: 95d9 3dbf 9a3e 88bf bc0d 54bc 43a7 4abf
00000180: 8e6e e7be e676 3ebf 1e51 31bf c6a7 2fbd
00000190: a070 18bf 740e 23be e7e0 63bf 0773 acbe
000001a0: f998 5fbf 96e6 8bbd 137a afbf 958f 16bf
000001b0: e03c 27bf 3be2 9dbf 1cff cdbe 472c 2abe
000001c0: 0298 92bf bd6e e5be 6a4d 4bbf eb28 6fbf
000001d0: e353 44bf 4de5 d7be 9abe 87bf d392 12bf
000001e0: 0ee2 4fbf d25f 5dbf aca2 05bf 030d 4bbf
000001f0: 37c2 bebe c896 54bf 9ba0 30bf 6928 cebe
00000200: 1be9 26bf 4ccf 11bf a6fd 86bd 5e0b 8ebe
00000210: 921f 8ebf 321a 3bbf 68b6 44bf a9d2 c2be
00000220: 3608 82bf 0e72 60bf 1661 6ebf 9410 debe
00000230: 78bd 76bd 2eac 7ebf 69c0 b9be 3930 4abf
00000240: c5ef ebbe 01e5 90be 8449 67bf fb0f 4bbf
00000250: f82d 60bf 85dc 2bbf 65b3 61bf 7431 60bf
00000260: fa9d b8bf 1530 3bbf b3b6 34bf 9450 4dbf
00000270: 7444 7dbe a291 f6bd a1cc 89bf 1b75 3abf
00000280: 60ee cbbe c97b eabd 69fa 7c3d 8dd4 44bf
00000290: b2fc 28bf 5717 89bf 2706 8cbf 2863 17bf
000002a0: 205f 14bf cd38 9bbf 6b33 16bf 0e28 a5bf
000002b0: 560d 35bf 11cd bdbf 9ff1 84bf a6dd 3cbf
000002c0: 3325 c1be bb75 2bbf ee25 23bf 0a83 8cbf
000002d0: 0a53 bfbe 60d9 49bf 7f4d a9bf 217a a9bd
000002e0: 77ea c3be 7b72 7fbf ca54 f8be a045 05bf
000002f0: 0628 17bf 06e5 a7bf b607 07be fb9e 27be
00000300: dd31 68bf fbc2 cbbf 4083 a3bf 6fbe 1ebf
00000310: e16d 46bf 9b5f 75bf 65ea 6dbf 41a0 9ebe
00000320: c59a 8fbf 22ce 90bf ef88 30bf a40a c4bf
00000330: c051 bcbd fa99 51bf c063 89bf 41f2 9fbf
00000340: 1010 c1be 839d 70be eaaf 21bf c98f c1bf
00000350: dcee 67bf 8dcf 0cbf e273 56bf b3d4 f3be
00000360: b6a0 83bf 024c 52bf 2ea5 32bf 57d2 4bbf
00000370: fb6a 6ebf afe1 29bf e471 a6bf f24e c8bf
00000380: 2f7a bbbf 5e60 c1be 8493 cebe 4471 8a38
00000390: 1f19 23bf b658 a7bf 67d9 48bf 059e 35bf
000003a0: 9633 1abf 95a5 72bf cb10 10bf b3ae f3be
000003b0: 5e1e 75bf 2f2b 30bf b074 16bf ea65 1fbf
000003c0: c8d0 07bf d1ec b8be 296c 033e d215 56bf
000003d0: 5734 48bf aad1 16bf 62fa 20bf 4a89 b6be
000003e0: a02d 2ebf 66cf 44bf 97e6 9ebd f0de 01bf
000003f0: 1831 f9be a32e 7fbf b756 19bf 8159 61bf

beta.weight f4 [263, 1]
-0.32174587 -0.31705946 0.09202501 0.35545495 0.35058993 -0.08746322 0.8783988 -0.5698655
0.12775625 -0.2719074 -0.20392163 -0.63036567 0.27555823 -0.3835432 -1.1698862 -0.01025553
0.5330413 -0.36611217 -0.11967544 -0.21884939 0.2901638 -0.9221024 -0.17203707 0.5823483
-0.16924956 -0.40460384 -0.3727329 -0.7131993 -0.5194685 -0.50222534 -0.44365364 -0.70215374
0.2831522 -0.16622362 -0.6820055 0.03627678 -0.25975227 -0.075063564 0.40866584 -0.8258807
0.66371423 0.25290442 0.15921457 0.14861234 -0.69276077 -0.10210539 -0.14344005 0.15955977
-0.06959908 -0.055724762 0.419042 -0.33493418 -0.28417906 0.27009365 0.2693023 -0.15685354
-0.108028725 0.1630546 -0.49181205 -0.13364027 0.5479127 -0.5737205 -0.35190582 -0.03123262
-0.24185756 -0.18499847 0.5466581 -0.8873602 -0.10533972 0.19903907 -0.4022387 -0.48536396
-0.04436455 0.051924888 0.09791827 0.25490054 0.29175907 0.79473895 -0.055007562 0.064012386
0.22973724 -0.97399193 -0.21658778 -0.48863888 -0.6529639 -0.77120614 -0.5590269 -0.86166435
-0.80761755 -0.018936824 -0.60035676 0.10951279 -0.20420161 -0.97069365 -0.41150558 -1.0200506
-1.1527295 -0.38796106 0.31293336 0.8125627 -0.1302864 -0.0066075153 -1.223424 -0.14177702
0.5977339 -0.008953933 -0.18243258 0.078770384 0.22832026 -0.55550075 -0.13897453 0.19321834
-0.57674176 0.3041427 0.0042278864 -0.7240765 -0.10399355 -0.76421 -0.1732601 -0.20489556
-0.075288706 -0.00013854554 -0.4353822 -0.5304083 -0.82134193 0.27305156 -0.50513613 -1.132846
-0.65731615 0.08362113 -1.1614308 -0.4017536 -0.68379426 -1.0512524 -0.012593151 -0.05126686
-0.23793185 -0.624358 -0.14290257 -0.14701903 -0.47108364 -1.1348403 -0.19330591 -0.589073
0.20533174 -0.11268611 0.32742247 -0.7026555 -1.1358886 0.15761301 -0.80770946 -0.95928955
-0.38361192 0.24027362 0.14134285 -0.72864085 -0.46043694 -0.7351476 -0.7978505 -0.6434956
0.0006082871 -0.18889043 -0.2245416 -0.09532379 0.4265321 0.5985218 -0.60470545 -0.27872315
-0.44114766 -0.46796447 -0.07847209 -0.4106384 -0.46467936 -0.42692557 -0.48226982 -0.38077703
0.20404387 -0.36221802 -0.7909859 -0.36777306 -0.20621763 -0.91903144 -0.45869878 0.10823909
-0.5549344 -0.5689648 -0.08272938 -0.22557142 0.12849121 -0.69322985 0.25357807 -0.3870622
-0.8872589 -0.46101135 -0.97355336 -1.0917262 -0.8661192 -0.34612888 -0.34286582 -0.9055176
-0.5531594 -0.7981172 -0.7911363 -0.68880886 -0.17282668 -0.78315747 -0.6525046 -0.6399164
-0.033171568 -0.16830866 0.53198165 -1.0291353 -0.5126072 -0.18168207 -0.069603555 -0.16140348
-0.89094496 -0.4071983 -0.3112551 -1.124577 -0.5278691 -0.47526455 -0.5974566 -0.56467706
-0.5341782 -0.55607325 -0.9713893 -0.112664096 -0.60608095 -0.4859529 -0.90747786 -0.766844
-0.3799097 -0.6483605 0.07044406 -0.122790225 -0.89769363 -0.99474937 -0.8044211 -0.048878405
-0.4933743 -0.006010815 -0.3908148 -0.7711809 -1.1124612 -0.31802115 -0.39956373 -0.5686945
-0.7017448 -0.92416394 -0.44135496 -0.61467296 -0.8566909 -0.5654376 -0.41239426 -0.14815506
00000000: e0bb a4be 9e55 a2be 9c77 bc3d 31fe b53e
00000010: 8680 b33e eb1f b3bd bede 603f b5e2 11bf
00000020: 89d2 023e 7237 8bbe d5d0 50be a55f 21bf
00000030: f815 8d3e c65f c4be d5be 95bf cf06 28bc
00000040: 6575 083f 0e73 bbbe 6618 f5bd 0e1a 60be
00000050: 5990 943e e70e 6cbf 7c2a 30be c714 153f
00000060: c24f 2dbe 3c28 cfbe d9d6 bebe 3b94 36bf
00000070: e3fb 04bf d791 00bf 9226 e3be 59c0 33bf
00000080: 53f9 903e 8636 2abe ea97 2ebf f696 143d
00000090: 40fe 84be edba 99bd a63c d13e eb6c 53bf
000000a0: 2de9 293f b07c 813e 2509 233e d52d 183e
000000b0: c558 31bf a11c d1bd f3e1 12be a363 233e
000000c0: f689 8ebd a63f 64bd ac8c d63e 7e7c abbe
000000d0: eb7f 91be b749 8a3e fee1 893e 379e 20be
000000e0: 2a3e ddbd c9f7 263e cace fbbe ffd8 08be
000000f0: 0244 0c3f 59df 12bf 002d b4be 8ddb ffbc
00000100: 82a9 77be 3d70 3dbe c9f1 0b3f 0a2a 63bf
00000110: 5abc d7bd e6d0 4b3e 3bf2 cdbe a081 f8be
00000120: 9ab7 35bd 31af 543d 6089 c83d 5382 823e
00000130: 7261 953e 0374 4b3f 9c4f 61bd ed18 833d
00000140: 3d40 6b3e 8957 79bf 30c9 5dbe e02e fabe
00000150: a428 27bf c46d 45bf 631c 0fbf 0996 5cbf
00000160: 06c0 4ebf 6621 9bbc fbb0 19bf 3e48 e03d
00000170: 3a1a 51be 617f 78bf dcb0 d2be 0591 82bf
00000180: a48c 93bf d5a2 c6be cd38 a03e 1c04 503f
00000190: cc69 05be db83 d8bb 2899 9cbf ff2d 11be
000001a0: 1705 193f 84b3 12bc 9bcf 3abe 5e52 a13d
000001b0: c9cc 693e 4c35 0ebf 574f 0ebe 07db 453e
000001c0: 59a5 13bf 98b8 9b3e 158a 8a3b 145d 39bf
000001d0: 92fa d4bd 44a3 43bf 186b 31be 24d0 51be
000001e0: f730 9abd 8946 11b9 6aea debe d7c8 07bf
000001f0: 7743 52bf 6acd 8b3e 9a50 01bf 1901 91bf
00000200: df45 28bf 8e41 ab3d c4a9 94bf a6b2 cdbe
00000210: 240d 2fbf 708f 86bf 8153 4ebc 33fd 51bd
00000220: 68a4 73be edd5 1fbf 0d55 12be 288c 16be
00000230: e031 f1be 7242 91bf fcf1 45be 7dcd 16bf
00000240: 7c42 523e fac7 e6bd eba3 a73e 3be1 33bf
00000250: cc64 91bf 4e65 213e 0cc6 4ebf 0094 75bf
00000260: c868 c4be 4a0a 763e 2ebc 103e 3588 3abf
00000270: 64be ebbe a232 3cbf ee3f 4cbf 21bc 24bf
00000280: 7575 1f3a 7e6c 41be 3cee 65be 1f39 c3bd
00000290: 6a62 da3e ba38 193f facd 1abf cdb4 8ebe
000002a0: 1bde e1be 0a99 efbe fab5 a0bd 323f d2be
000002b0: 74ea edbe fd95 dabe 12ec f6be 35f5 c2be
000002c0: e0f0 503e a474 b9be 0d7e 4abf c04c bcbe
000002d0: b72a 53be a545 6bbf 91da eabe 75ac dd3d
000002e0: 2e10 0ebf ada7 11bf 056e a9bd 32fc 66be
000002f0: 3393 033e 8377 31bf fcd4 813e 042d c6be
00000300: 6623 63bf ae09 ecbe cb3a 79bf afbd 8bbf
00000310: fdb9 5dbf ce37 b1be 1c8c afbe 00d0 67bf
00000320: db9b 0dbf 6951 4cbf e987 4abf c755 30bf
00000330: 7af9 30be 027d 48bf 8b0a 27bf 90d1 23bf
00000340: e9de 07bd 1b59 2cbe f32f 083f b5ba 83bf
00000350: 3a3a 03bf dd0a 3abe 4f8c 8ebd f446 25be
00000360: f814 64bf 4c7c d0be d45c 9fbe 24f2 8fbf
00000370: 6e22 07bf e055 f3be eaf2 18bf ad8e 10bf
00000380: e7bf 08bf d15a 0ebf f8ac 78bf 6fbc e6bd
00000390: 1f28 1bbf d2ce f8be 7850 68bf e34f 44bf
000003a0: 8683 c2be f4fa 25bf fa44 903d 7179 fbbd
000003b0: 40cf 65bf e5a7 7ebf 8bee 4dbf b934 48bd
000003c0: 8e9b fcbe 5ff6 c4bb e118 c8be 1d6c 45bf
000003d0: 2165 8ebf abd3 a2be 9e93 ccbe f695 11bf
000003e0: 8ca5 33bf 0296 6cbf 47f9 e1be 355b 1dbf
000003f0: 1850 5bbf 85c0 10bf 5725 d3be f6b5 17be
