model/ckpt/model_Dense_LinuxSystem_train_irt.pt (torch, 3914 bytes, 3 tensors)

theta.weight f4 [323, 1]
-1.0306132 -0.6313034 0.06843683 -0.13227946 -1.0920265 -1.1935854 -0.72701997 -0.20126906
-1.1471233 -1.2374249 -1.1032962 -0.006705116 0.34882605 0.09873692 -0.97318304 -0.29973644
-1.183264 -0.7656634 -0.48572397 -0.6093747 -1.0920641 0.14361402 -0.9410819 -0.967783
-0.7925667 -0.0037248412 0.11621237 -1.0314696 -1.1816516 -0.09436808 -0.88103515 -0.79185206
-0.97425747 -1.113163 -0.080928706 -1.1637816 -0.40386388 -0.76699895 0.2307147 -0.2591104
-1.0793102 -0.58138853 -0.06404423 -1.2420461 -0.35503212 0.012049034 -0.39397794 0.20467408
-0.4466716 -0.646769 -0.93589926 -0.3997602 -0.8665143 0.047252458 -0.8598981 -0.77845126
-1.190035 -0.8487008 0.0968984 -0.2865783 -0.84660643 -1.0302014 -0.93000495 0.011329943
-0.88307685 0.080605306 -1.2641389 -1.1184182 -0.48993614 -1.095623 -1.1405219 -0.9561221
-0.3511414 -0.71834713 0.10114803 -0.9462648 -0.020957407 -0.9436032 -0.6493568 -1.2064261
-0.010131963 -1.2628297 0.024805589 -1.286209 -0.01468485 -0.63502187 0.12354396 -0.90708447
-0.033589184 -1.2175796 -0.9122629 -0.081812054 -0.08321697 -1.1155238 -0.12195749 -0.7896534
-1.3065045 -0.8805083 0.014728073 -0.5716547 0.023012733 -1.0823724 -1.1657871 -0.91835684
-0.8895997 -0.17994548 -1.1801705 -1.2205374 -1.019753 -1.1928494 -1.138267 -1.1256038
-0.45211235 -1.282885 -0.9803628 -0.6257241 -0.006951416 -1.179723 -1.0631473 -0.61918956
0.29884705 0.25696853 -1.1723062 -0.9732628 -1.0751349 0.048824064 -0.72937834 0.066688426
-0.6734532 0.55561835 -0.0005502037 -1.0259933 -0.9348458 -0.94914615 0.36950007 -0.85667586
-1.3328937 -0.012340286 -0.92513585 -1.1972302 0.050200026 -0.59611 -1.0340185 -0.70825756
-0.8771546 -0.90338045 -0.19117916 -1.2052991 -0.828849 -0.9871504 -1.2329003 -1.1884735
-0.09206216 -0.6848174 -1.1775556 -0.15748626 0.015158099 0.0029621716 -0.10761148 0.14486343
-1.1368288 -0.6300809 0.029069893 -0.7529972 -0.667791 -1.2064102 0.02189897 -0.017416596
-1.1879073 -0.9350527 -1.2374104 -0.9118752 -1.035183 -0.90156096 -1.1375247 -1.1006285
-1.2469714 -0.04985666 -0.34731242 -0.9407786 -0.61095583 -0.022869617 -1.04599 -0.6034333
-0.14028163 -1.1677278 0.17427838 -0.683312 -0.9321747 0.06937695 -0.6878601 -1.2616357
-0.7883611 -1.0169352 -1.0879316 -1.0562707 0.049056277 -1.2573954 -0.67670935 -1.3958492
-1.3580728 -1.0952798 -1.1701757 0.002868442 0.1256404 -0.12329691 -1.136375 -0.43124688
-1.2582968 -0.73195726 -0.9852996 0.13939126 -0.03791216 0.033648077 -1.0052694 -1.1874033
-0.8338764 -0.618159 -0.49596104 -1.2587861 -1.0815792 -0.00458578 -0.76907367 -1.1211839
-1.2983767 -0.3155522 0.3814108 -0.4389486 -0.3952398 0.20800488 -1.2112669 0.05803433
0.05790157 -0.087853245 -0.5453925 -0.101887085 -0.8495084 -1.1600087 0.08159153 -0.15476221
0.054622345 -0.79669183 -1.2402745 -1.2617929 -0.023166366 -1.0635855 -1.2679299 -1.0095443
-0.01705119 -1.143718 0.012568678 -0.6168646 -0.85300946 0.037045915 -0.97171676 -1.0895331
00000000: 22eb 83bf 1a9d 21bf 9c28 8c3d 4474 07be
00000010: 86c7 8bbf 68c7 98bf fb1d 3abf 7a19 4ebe
00000020: f0d4 92bf f063 9ebf cf38 8dbf 97b6 dbbb
00000030: 5499 b23e 9536 ca3d 8622 79bf 0e77 99be
00000040: 3275 97bf 8402 44bf d0b0 f8be fbff 1bbf
00000050: c2c8 8bbf 8e0f 133e beea 70bf a0c0 77bf
00000060: a7e5 4abf 771c 74bb c000 ee3d 3207 84bf
00000070: 5c40 97bf 0d44 c1bd 858b 61bf d1b6 4abf
00000080: f068 79bf 207c 8ebf f3bd a5bd ccf6 94bf
00000090: 3fc7 cebe 0b5a 44bf 7940 6c3e 1eaa 84be
000000a0: d626 8abf e1d5 14bf 9f29 83bd 5efb 9ebf
000000b0: c5c6 b5be 5069 453c 7ab7 c9be 1596 513e
000000c0: 24b2 e4be a792 25bf 1897 6fbf 5ead ccbe
000000d0: e2d3 5dbf cb8b 413d 4822 5cbf 9548 47bf
000000e0: 1153 98bf 7544 59bf ab72 c63d 64ba 92be
000000f0: 33bb 58bf a4dd 83bf ce14 6ebf 3aa1 393c
00000100: 5311 62bf 6514 a53d 4ecf a1bf 5428 8fbf
00000110: e9d8 fabe 603d 8cbf 9ffc 91bf 6bc4 74bf
00000120: cec8 b3be 99e5 37bf b326 cf3d 693e 72bf
00000130: deae abbc fb8f 71bf 3f3c 26bf 2c6c 9abf
00000140: 8800 26bc 67a4 a1bf 1735 cb3c 7fa2 a4bf
00000150: ba98 70bc cb90 22bf 9e04 fd3d b036 68bf
00000160: d094 09bd a6d9 9bbf 108a 69bf 148d a7bd
00000170: a96d aabd 7cc9 8ebf d9c4 f9bd ba26 4abf
00000180: 8a3b a7bf fe68 61bf 044e 713c f657 12bf
00000190: 3385 bc3c 2e8b 8abf 8338 95bf 6f19 6bbf
000001a0: cebc 63bf a143 38be d40f 97bf 923a 9cbf
000001b0: 4487 82bf 4aaf 98bf bcb2 91bf c913 90bf
000001c0: 457b e7be 9335 a4bf 0ef9 7abf 742f 20bf
000001d0: b4c8 e3bb 2a01 97bf 3615 88bf 3583 1ebf
000001e0: 7b02 993e 6191 833e 210e 96bf c027 79bf
000001f0: 059e 89bf befb 473d 8ab8 3abf f193 883d
00000200: 6e67 2cbf 013d 0e3f 8c3b 10ba c053 83bf
00000210: 0e52 6fbf 3efb 72bf 1d2f bd3e 1c4f 5bbf
00000220: 439c aabf e92e 4abc b4d5 6cbf d73e 99bf
00000230: 8b9e 4d3d aa9a 18bf b85a 84bf 5e50 35bf
00000240: 348d 60bf f143 67bf 78c4 43be 3e47 9abf
00000250: 732f 54bf e3b5 7cbf adcf 9dbf e61f 98bf
00000260: 168b bcbd 3150 2fbf 24ba 96bf 1444 21be
00000270: ad59 783c fe20 423b 6863 dcbd 1457 143e
00000280: 9b83 91bf fb4c 21bf fc23 ee3c 6dc4 40bf
00000290: 5af4 2abf a66b 9abf 7865 b33c 40ad 8ebc
000002a0: 590d 98bf 9d5f 6fbf 7763 9ebf a770 69bf
000002b0: e080 84bf b3cc 66bf 699a 91bf 65e1 8cbf
000002c0: c29c 9fbf 7f36 4cbd efd2 b1be ded6 70bf
000002d0: 9a67 1cbf 1059 bbbc 00e3 85bf 9b7a 1abf
000002e0: fda5 0fbe 1b78 95bf 0876 323e 89ed 2ebf
000002f0: 00a3 6ebf 8115 8e3d 9917 30bf 477d a1bf
00000300: 08d2 49bf ef2a 82bf 5841 8bbf e133 87bf
00000310: 3cef 483d 55f2 a0bf d33c 2dbf 30ab b2bf
00000320: 54d5 adbf 2132 8cbf 51c8 95bf 79fc 3b3b
00000330: e1a7 003e 1783 fcbd bc74 91bf 64cc dcbe
00000340: df0f a1bf 8d61 3bbf 983c 7cbf 95bc 0e3e
00000350: c849 1bbd 91d2 093d abac 80bf d5fc 97bf
00000360: ec78 55bf ab3f 1ebf 9bee fdbe e71f a1bf
00000370: 3071 8abf 5044 96bb 03e2 44bf f482 8fbf
00000380: 3531 a6bf 0f90 a1be 4748 c33e dfbd e0be
00000390: df5c cabe 3bff 543e cb0a 9bbf 68b5 6d3d
000003a0: 322a 6d3d 67ec b3bd d89e 0bbf 2daa d0bd
000003b0: 6279 59bf 2a7b 94bf 7619 a73d fc79 1ebe
000003c0: aebb 5f3d fff3 4bbf 51c1 9ebf 6e82 a1bf
000003d0: 64c7 bdbc 9223 88bf 874b a2bf bf38 81bf
000003e0: f0ae 8bbc 5a65 92bf dbec 4d3c d7ea 1dbf
000003f0: d45e 5abf 75bd 173d 6ec2 78bf d275 8bbf

alpha.weight f4 [81, 1]
-1.3306891 -1.0315531 -0.3887326 -1.4952071 -0.32795984 -0.3099121 0.043670267 -1.5196376
-0.29354542 0.5993489 -1.4942802 -0.74092597 -1.0120473 -0.98823386 -1.0656174 -1.4848467
-1.4041221 -1.3914645 -0.86470294 -1.3338307 -0.54656255 -0.5264243 -1.2515546 -0.7311895
-1.6859738 -1.2646952 -1.2852355 -1.300005 -0.46848014 -1.5163554 -1.3807534 -1.4206924
-1.4251326 -0.9501109 -1.2719367 -1.4032967 -1.6231551 -1.2837069 -1.1355925 -1.2679443
-1.3095165 -1.4943514 -1.5240947 -1.4955865 -1.4198315 -1.3266352 -0.69535005 -1.4236175
-0.4828541 -1.0359141 -1.3467875 -1.3213662 -1.5499866 -1.4323767 -1.2112546 -1.4331456
-1.042104 -0.7790272 -1.5606813 -1.372496 -1.2053996 -1.5560328 -1.3827617 -1.133626
-1.5837995 -1.4794793 -1.0910113 -1.286619 -0.8952059 -1.5135038 -1.4865208 -1.6596856
-1.0873393 -1.0522768 -1.5883907 -1.1448007 -1.2226565 -1.5272763 0.67500305 0.063016735
-0.15190496
00000000: 0554 aabf ef09 84bf f607 c7be f262 bfbf
00000010: 5aea a7be ccac 9ebe 98df 323d 7c83 c2bf
00000020: 964b 96be ee6e 193f 9344 bfbf 53ad 3dbf
00000030: c48a 81bf e5fc 7cbf 2766 88bf 750f bebf
00000040: 46ba b3bf 821b b2bf 2c5d 5dbf f7ba aabf
00000050: 86eb 0bbf bec3 06bf f132 a0bf 3c2f 3bbf
00000060: fdcd d7bf 88e1 a1bf 9982 a4bf 9066 a6bf
00000070: a1dc efbe ef17 c2bf 87bc b0bf 40d9 b5bf
00000080: bf6a b6bf 783a 73bf d2ce a2bf 3a9f b3bf
00000090: 8cc3 cfbf 8250 a4bf 185b 91bf 004c a2bf
000000a0: 3d9e a7bf e846 bfbf 8915 c3bf 616f bfbf
000000b0: 0abd b5bf 2fcf a9bf 7602 32bf 1939 b6bf
000000c0: a738 f7be d598 84bf 8863 acbf 8722 a9bf
000000d0: f665 c6bf 1f58 b7bf 640a 9bbf 5171 b7bf
000000e0: aa63 85bf 546e 47bf 68c4 c7bf f3ad afbf
000000f0: 894a 9abf 152c c7bf 56fe b0bf a81a 91bf
00000100: f1b9 cabf 945f bdbf 42a6 8bbf eeaf a4bf
00000110: 372c 65bf 7eba c1bf 5046 bebf 9470 d4bf
00000120: ef2d 8bbf 02b1 86bf 6350 cbbf d488 92bf
00000130: 0280 9cbf ca7d c3bf 00cd 2c3f eb0e 813d
00000140: f98c 1bbe

beta.weight f4 [81, 1]
0.50108665 0.31162873 0.12900728 0.63135034 -0.33519903 -0.32200336 -0.5844489 0.86930925
-0.47556835 -0.6895266 0.6025942 0.16938259 0.47053826 0.027056767 0.75797725 0.9662558
0.8500561 0.7629567 0.68180895 0.9760845 0.17160554 0.09190039 0.69993377 0.53972375
0.77571577 0.7773648 0.72892785 0.6804248 0.12930739 0.76173204 0.66999966 0.78710026
0.85249853 0.6139174 0.67059046 0.4077 0.78713536 0.952503 0.7088666 0.70877105
0.5731777 0.74740887 0.945379 0.5641195 0.9862954 0.7827295 0.36760294 0.6557855
0.68054014 0.47818154 0.62781334 0.36662987 0.82278216 0.6878798 0.70964974 0.6726597
0.77541137 0.029988542 0.8226644 0.53988796 0.5706205 0.68057907 0.6732293 0.44972825
0.65695 0.54217446 0.48837423 0.5907558 0.509777 0.8646218 0.4342875 0.70184016
0.28949296 0.6307134 0.687164 0.6444633 0.4247244 0.86474943 -0.5196875 -0.1269028
0.25338545
00000000: 3747 003f cd8d 9f3e 7c1a 043e 2da0 213f
00000010: 359f abbe a0dd a4be 719e 15bf 0d8b 5e3f
00000020: b27d f3be d184 30bf 9d43 1a3f a172 2d3e
00000030: 64ea f03e 27a6 dd3c cc0a 423f 8a5c 773f
00000040: 479d 593f 2151 433f 088b 2e3f ace0 793f
00000050: 5db9 2f3e 4636 bc3d dc2e 333f 562b 0a3f
00000060: 4f95 463f 6101 473f 049b 3a3f 5230 2e3f
00000070: 2869 043e df00 433f 1985 2b3f 677f 493f
00000080: 583d 5a3f b129 1d3f d1ab 2b3f 0ebe d03e
00000090: b481 493f 3dd7 733f 4878 353f 0572 353f
000000a0: c6bb 123f 3056 3f3f 5c04 723f 236a 103f
000000b0: db7d 7c3f f660 483f 7436 bc3e 8fe1 273f
000000c0: e137 2e3f 36d4 f43e 60b8 203f e9b6 bb3e
000000d0: daa1 523f e418 303f 9bab 353f 6d33 2c3f
000000e0: 5c81 463f 88aa f53c 229a 523f 1936 0a3f
000000f0: 2f14 123f 6e3a 2e3f c158 2c3f c842 e63e
00000100: e02d 283f f2cb 0a3f 300c fa3e c63b 173f
00000110: bf80 023f db57 5d3f ee5a de3e ccab 333f
00000120: 6c38 943e 6f76 213f fbe9 2f3f 8cfb 243f
00000130: 7a75 d93e 3860 5d3f 3d0a 05bf cff2 01be
00000140: bdbb 813e
