model/ckpt/model_Dense_LinuxSystem_all_ncd.pt (torch, 642292 bytes, 8 tensors)

student_emb.weight f4 [323, 284]
-0.02877958 0.01873415 0.0015473877 0.012086636 -0.036829446 0.2112897 -0.026272014 -0.036687765
-0.012640504 0.038718402 0.10475975 0.019736597 -0.011335272 0.06999946 0.10305556 0.042009123
0.050152995 0.04022292 0.016275484 0.032407615 -0.094369315 -0.017975718 0.01608614 0.003620288
-0.046020973 -0.01924677 0.022254892 -0.08409941 -0.038329646 -0.06794558 0.034131564 0.018520692
0.00092921057 -0.061815936 -0.049571447 0.029066157 -0.067704946 -0.012610297 -0.0693519 -0.028660564
0.14541051 -0.041640032 -0.026100175 0.80705607 0.09643602 0.030599216 0.022115735 -0.004835757
-0.10827606 0.034488395 0.083935946 0.087699026 -0.020730887 0.075077154 -0.027024891 -0.09429645
0.2779353 -0.064516746 0.81704026 -0.097444266 -0.03726341 -0.00033421395 0.04452933 -0.060509752
-0.027013637 -0.10400766 0.059244294 -0.0872746 -0.03422218 -0.0055847433 0.014822241 -0.09347084
0.01211296 -0.08215356 -0.0037964778 0.054226935 0.018426983 -0.030188182 0.2507288 0.056958053
0.013465033 -0.11937454 0.10693116 -0.00031638506 -0.055081345 -0.06536632 -0.032378156 -0.027602188
-0.06230009 -0.040725145 0.051406827 -0.049068157 0.06672508 0.03966363 0.041918658 -0.032008998
-0.0047241133 -0.0430494 -0.08019342 0.010455512 -0.05978706 -0.007973498 -0.012615888 0.046283588
0.044608958 -0.0040317015 -0.064903334 -0.011115306 0.05790525 -0.030159881 0.054076202 -0.12639019
0.029981216 -0.04474841 0.020217843 -0.03988433 0.032683834 0.11545264 -0.020044845 0.023387015
0.058372673 -0.044271514 -0.19891246 -0.05024649 -0.059930895 0.053821173 0.025333434 1.0354877
-0.050075717 -0.112072416 0.010687961 -0.066784196 -0.0044975327 0.08067416 -0.059410393 -0.006866864
-0.0056859567 -0.025619628 0.059478458 -0.006974694 0.010782873 0.0744302 0.007060997 0.060231328
0.036725067 -0.06973755 0.006409958 -0.03308514 -0.031244967 0.010436948 -0.12873189 -0.0018535043
0.008275803 0.028485838 -0.043626714 0.023335235 0.15298519 -0.0075443448 -0.07239714 -0.058217257
-0.046047606 -0.07049275 -0.17012 0.6103411 -0.011036307 0.063705504 0.06997415 -0.02752466
-0.051340494 -0.063066386 0.038005333 -0.08038215 -0.087817945 -0.1162639 -0.058308896 0.019252388
-0.00097111514 0.04663808 0.062263563 0.04777315 0.018979039 0.015613501 -0.064030744 -0.010480506
-0.025300818 -0.03333321 -0.026546383 0.020311434 -0.00755864 -0.01635844 -0.07558396 -0.055976763
-0.018527806 0.020998433 0.94334 0.036254674 -0.022861375 0.07143416 0.010659928 -0.09475564
-0.025717782 0.012465154 0.07204294 0.020333322 -0.053738553 -0.09531991 0.04750727 -0.12011
-0.04624404 0.0057645002 0.012059374 0.029908016 0.02268113 -0.056516144 0.0675658 -0.015491274
0.005091951 0.015879579 0.063154444 -0.03798984 0.037351217 -0.00078498543 -0.052079163 -0.05758374
0.037252687 1.1563114 0.021111371 0.07266588 0.040923554 -0.0034124264 -0.057085212 -0.091449805
0.02737297 0.10244721 -0.12083131 -0.06693212 -0.11283014 -0.04203688 0.07965002 -0.13816519
-0.11335302 -0.014988012 0.061087847 0.04366861 0.07202375 -0.05140184 0.005891901 -0.03315358
-0.024225516 0.85476154 0.0042450917 -0.03765906 0.0176769 0.84487045 0.029772243 -0.039152812
00000000: 27c3 ebbc 5c78 993c b7d1 ca3a 0707 463c
00000010: 79da 16bd 545c 583e 6838 d7bc e945 16bd
00000020: 1e1a 4fbc 3097 1e3d 488c d63d a5ae a13c
00000030: 94b7 39bc e05b 8f3d cb0e d33d c211 2c3d
00000040: 3a6d 4d3d cac0 243d 2a54 853c d9bd 043d
00000050: b344 c1bd d041 93bc 15c7 833c 5b42 6d3b
00000060: 7d80 3cbd 67ab 9dbc e44f b63c 503c acbd
00000070: 8cff 1cbd 0d27 8bbd 8acd 0b3d b5b8 973c
00000080: 4496 733a b532 7dbd 6e0b 4bbd 261c ee3c
00000090: e4a8 8abd 6b9b 4ebc 5e08 8ebd 8fc9 eabc
000000a0: 7ee6 143e bd8e 2abd 09d0 d5bc 3a9b 4e3f
000000b0: 4080 c53d 35ab fa3c 0f2c b53c 4575 9ebb
000000c0: d7bf ddbd b443 0d3d 9ce6 ab3d 8c9b b33d
000000d0: d2d3 a9bc 0dc2 993d 4e63 ddbc 7f1e c1bd
000000e0: 894d 8e3e 5b21 84bd 8d29 513f dc90 c7bd
000000f0: 84a1 18bd 7039 afb9 6364 363d 13d9 77bd
00000100: b44b ddbc f801 d5bd 25aa 723d 07bd b2bd
00000110: 8e2c 0cbd 3900 b7bb fcd8 723c a46d bfbd
00000120: 7075 463c 2040 a8bd 54ce 78bb 101d 5e3d
00000130: 2ff4 963c 354d f7bc 865f 803e d94c 693d
00000140: 719c 5c3c a47a f4bd b9fe da3d 7ce0 a5b9
00000150: fa9c 61bd c7de 85bd f59e 04bd fc1d e2bc
00000160: 612e 7fbd 69cf 26bd f78f 523d b1fb 48bd
00000170: 29a7 883d 5576 223d e6b2 2b3d de1b 03bd
00000180: bccc 9abb 9154 30bd 733c a4bd 994d 2b3c
00000190: 47e3 74bd 46a3 02bc dfb2 4ebc dc93 3d3d
000001a0: e2b7 363d 5d1c 84bb 0aec 84bd f91c 36bc
000001b0: 0e2e 6d3d db11 f7bc 027f 5d3d 6e6c 01be
000001c0: 2b9b f53c 1c4a 37bd e49f a53c c05d 23bd
000001d0: 7cdf 053d 6f72 ec3d 1635 a4bc 2096 bf3c
000001e0: 2f18 6f3d 0c56 35bd b5af 4bbe 43cf 4dbd
000001f0: 197a 75bd 9773 5c3d 1088 cf3c dc8a 843f
00000200: 321c 4dbd 3986 e5bd 8f1c 2f3c 27c6 88bd
00000210: 0a60 93bb 7e38 a53d 5058 73bd 6e03 e1bb
00000220: 4351 babb 41e0 d1bc af9f 733d f98b e4bb
00000230: a6aa 303c dc6e 983d f05f e73b 20b5 763d
00000240: 066d 163d 90d2 8ebd a00a d23b 4984 07bd
00000250: 72f5 ffbc bcff 2a3c 4bd2 03be 49f1 f2ba
00000260: 3c97 073c 225b e93c edb1 32bd 8929 bf3c
00000270: 26a8 1c3e 8d36 f7bb f444 94bd 3875 6ebd
00000280: 6a9c 3cbd 815e 90bd f033 2ebe 503f 1c3f
00000290: a0d1 34bc 0878 823d 9b4e 8f3d 657b e1bc
000002a0: 694a 52bd f328 81bd 7bab 1b3d 669f a4bd
000002b0: e5d9 b3bd c51b eebd 4fd5 6ebd 2fb7 9d3c
000002c0: 6f92 7eba 9207 3f3d 1408 7f3d c7ad 433d
000002d0: ee79 9b3c c5cf 7f3c 8d22 83bd 6eb6 2bbc
000002e0: a943 cfbc 6788 08bd cd77 d9bc 2a64 a63c
000002f0: 78ae f7bb 2302 86bc c3cb 9abd e447 65bd
00000300: a0c7 97bc e804 ac3c bb7e 713f c87f 143d
00000310: c747 bbbc 134c 923d fba6 2e3c 3f0f c2bd
00000320: 19ae d2bc a53a 4c3c 408b 933d 1192 a63c
00000330: f51c 5cbd 1637 c3bd fc96 423d 3bfc f5bd
00000340: 646a 3dbd 22e4 bc3b ae94 453c a801 f53c
00000350: c7cd b93c 797d 67bd f05f 8a3d 1dcf 7dbc
00000360: 62da a63b e415 823c 1e57 813d 3c9b 1bbd
00000370: 97fd 183d 7bc7 4dba f650 55bd eedc 6bbd
00000380: 4696 183d 0302 943f c1f1 ac3c d9d1 943d
00000390: 759f 273d 04a3 5fbb 2fd2 69bd 094a bbbd
000003a0: 473d e03c d8cf d13d 6876 f7bd b513 89bd
000003b0: 7d13 e7bd dd2e 2cbd 8d1f a33d 2d7b 0dbe
000003c0: a125 e8bd 4790 75bc 4037 7a3d dbdd 323d
000003d0: 3081 933d bc8a 52bd d910 c13b 0ccc 07bd
000003e0: 9774 c6bc a7d1 5a3f 691a 8b3b 6340 1abd
000003f0: 25cf 903c 6e49 583f ebe4 f33c b35e 20bd

k_difficulty.weight f4 [81, 284]
-0.074386455 -0.07999372 0.2106751 0.004424194 -0.0993697 -0.063879766 -0.038465835 -0.026035978
0.026240686 -0.1500811 -0.09433061 -0.0008565927 -0.011993227 0.044931542 0.0073478823 -0.02408023
-0.008220047 0.03015402 0.06819333 -0.035239957 -0.06795887 0.018151375 -0.040770315 -0.107080914
-0.10144616 -0.05735744 0.097419396 -0.057868138 -0.0157889 -0.14915943 0.05056851 -0.01713572
-0.011830962 0.00096073776 -0.03239915 0.056763526 -0.2532835 -0.07400969 0.10773301 0.04142046
0.12623477 0.019801723 -0.088763416 0.11392787 -0.07957925 -0.07283028 -0.019548155 0.010023867
-0.0046698283 0.031014279 -0.0080521945 0.122830674 0.025536686 0.0032003522 -0.025179999 0.10503275
-0.05808839 0.053409394 0.3792424 -0.0025237733 -0.081179686 -0.02095323 0.021688774 -0.0020349293
0.046653513 0.0076805144 0.05467247 -0.040401634 -0.05511252 -0.03996298 0.054192517 0.050662987
0.1152535 0.039460696 0.0259458 -0.003975922 -0.01225898 0.04445015 -0.016196946 -0.10503561
-0.03545625 0.08997605 -0.10254579 -0.037246615 0.102246776 -0.029315747 -0.04129694 0.005857944
0.12336424 -0.13496225 -0.17052014 0.032464176 -0.038596667 0.049516544 0.05107149 -0.016068012
0.06090766 0.039307453 0.107284136 -0.07266112 -0.09858645 -0.12577069 -0.043822844 0.0013237468
0.10141405 -0.06586444 0.005206415 -0.008266874 -0.00066464156 -0.031245796 0.008759969 0.036959328
0.108185984 -0.039839383 0.10158594 0.08279162 0.14980169 -0.046096843 -0.07820883 -0.03139047
0.08179378 0.052317884 0.044941805 -0.076918386 -0.049714286 -0.14498238 0.05549237 -0.101914704
-0.04689965 -0.10846596 0.0087311035 0.024897553 0.0395495 -0.007041795 0.08192023 -0.085201435
0.0005333547 -0.08245498 0.13610329 -0.19553944 -0.012190817 -0.014501938 0.07768677 0.039417118
-0.052483488 -0.17192113 -0.09142533 -0.0053605502 0.07234218 0.021600625 -0.10764541 0.033609282
0.0321434 -0.027061952 0.033303365 0.024870988 0.021354023 -0.047840547 -0.03430187 -0.023527892
0.13740495 -0.13565506 0.07864921 -0.1575059 -0.012838816 0.028026858 0.08123729 0.09073452
0.00017032979 0.027399251 -0.1685465 0.04879835 -0.019757725 0.061540954 0.054112326 0.055960417
-0.05329688 0.06608125 0.077365115 -0.09258493 -0.0018487937 -0.10073361 0.19302957 -0.08327169
-0.01943439 0.034113057 0.020043408 -0.09997668 0.040102616 0.07236839 0.018394724 0.056818713
-0.11184343 -0.020091077 -0.10870454 -0.110490225 -0.062651575 -0.015611639 0.061588634 0.035020795
-0.047088172 0.033297144 -0.10922535 -0.121476784 0.0480384 -0.013209294 0.028063975 0.11024259
0.018083103 0.09163179 -0.0039517386 -0.042209268 0.07683429 -0.0070881187 0.050906043 0.07909281
-0.09292782 -0.061274774 -0.019530043 0.08508874 -0.05449498 -0.028512798 0.08985532 -0.10664486
0.080853224 0.0017823331 0.039960522 0.0065754973 -0.07706666 -0.058722455 -0.045241345 0.015281021
-0.115629576 -0.03671303 -0.025173416 0.07864717 0.05922439 -0.0707311 0.15444727 0.01415079
0.04191815 0.06909021 -0.09252161 0.029542122 0.018981973 -0.117437966 -0.061839316 -0.1605301
0.0033064515 0.021398727 -0.100810245 0.004800698 0.028034138 0.105865315 0.03702934 -0.07173566
00000000: ed57 98bd bfd3 a3bd 37bb 573e d4f8 903b
00000010: 5782 cbbd 65d3 82bd 5a8e 1dbd 6749 d5bc
00000020: b5f6 d63c dcae 19be 6830 c1bd f78c 60ba
00000030: 3d7f 44bc 230a 383d 81c6 f03b e743 c5bc
00000040: 60ad 06bc 9005 f73c f2a8 8b3d c657 10bd
00000050: 052e 8bbd 31b2 943c c6fe 26bd 3d4d dbbd
00000060: 01c3 cfbd a3ef 6abd d283 c73d 2407 6dbd
00000070: b957 81bc 40bd 18be ed20 4f3d 3660 8cbc
00000080: a7d6 41bc 05da 7b3a f9b4 04bd df80 683d
00000090: 60ae 81be 6492 97bd 20a3 dc3d 80a8 293d
000000a0: b043 013e 3937 a23c 98c9 b5bd 0453 e93d
000000b0: 72fa a2bd 0b28 95bd 7423 a0bc 253b 243c
000000c0: 5c05 99bb a811 fe3c 5aed 03bc a68e fb3d
000000d0: 5032 d13c 00bd 513b 4946 cebc 691b d73d
000000e0: 17ee 6dbd cfc3 5a3d 0f2c c23e e465 25bb
000000f0: 8941 a6bd 1ca6 abbc a8ac b13c 735c 05bb
00000100: c117 3f3d d3ac fb3b 3df0 5f3d 2f7c 25bd
00000110: aabd 61bd 39b0 23bd f9f8 5d3d fe83 4f3d
00000120: 070a ec3d 8aa1 213d 498c d43c 7348 82bb
00000130: e4d9 48bc 5c11 363d 75af 84bc e91c d7bd
00000140: 933a 11bd 5d45 b83d 8703 d2bd e88f 18bd
00000150: c266 d13d 9427 f0bc fb26 29bd fff3 bf3b
00000160: 64a6 fc3d 8b33 0abe d59c 2ebe 28f9 043d
00000170: 8a17 1ebd dcd1 4a3d 5730 513d 10a1 83bc
00000180: 4f7a 793d da00 213d c9b7 db3d 5acf 94bd
00000190: b1e7 c9bd 08ca 00be 957f 33bd 9281 ad3a
000001a0: 2bb2 cf3d efe3 86bd 939a aa3b c871 07bc
000001b0: 573b 2eba 2ff7 ffbc f985 0f3c aa62 173d
000001c0: 9d90 dd3d 9f2e 23bd 4a0c d03d a78e a93d
000001d0: 9d65 193e 0bd0 3cbd f32b a0bd 4b93 00bd
000001e0: 7f83 a73d 474b 563d e614 383d 6387 9dbd
000001f0: 35a1 4bbd 4376 14be f84b 633d a8b8 d0bd
00000200: d919 40bd 6723 debd e70c 0f3c f4f5 cb3c
00000210: a8fe 213d dcbe e6bb cbc5 a73d 177e aebd
00000220: d4d0 0b3a 28de a8bd a95e 0b3e 7e3b 48be
00000230: febb 47bc 8999 6dbc 3e1a 9f3d d873 213d
00000240: edf8 56bd 180c 30be 343d bbbd 8ea7 afbb
00000250: 2328 943d cbf3 b03c 3275 dcbd e3a9 093d
00000260: cca8 033d 07b1 ddbc 1c69 083d 3ebe cb3c
00000270: a2ee ae3c 73f4 43bd 1e80 0cbd 91bd c0bc
00000280: e2b3 0c3e 29e9 0abe d612 a13d 3a49 21be
00000290: e659 52bc 9598 e53c bc5f a63d 05d3 b93d
000002a0: 8e9a 3239 6574 e03c 7497 2cbe c7e0 473d
000002b0: f4da a1bc 5e12 7c3d e3a4 5d3d c036 653d
000002c0: d44d 5abd 9b55 873d 9a71 9e3d 2b9d bdbd
000002d0: 3953 f2ba 6c4d cebd 8ba9 453e 598a aabd
000002e0: df34 9fbc 22ba 0b3d 1332 a43c 93c0 ccbd
000002f0: a442 243d e135 943d 88b0 963c bdba 683d
00000300: 2b0e e5bd 0b96 a4bc 7ca0 debd b348 e2bd
00000310: 784f 80bd f6c7 7fbc 5d44 7c3d f771 0f3d
00000320: 87df 40bd 9662 083d 8ab1 dfbd d2c8 f8bd
00000330: eac3 443d cb6b 58bc 6ce6 e53c dec6 e13d
00000340: 0423 943c 73a9 bb3d 967d 81bb a0e3 2cbd
00000350: 4c5b 9d3d 7343 e8bb db82 503d 69fb a13d
00000360: f150 bebd 42fb 7abd 78fd 9fbc 0143 ae3d
00000370: 2136 5fbd ac93 e9bc 1106 b83d 9f68 dabd
00000380: 6096 a53d 2d9d e93a a5ad 233d 4577 d73b
00000390: 20d5 9dbd f586 70bd fd4e 39bd 3f5d 7a3c
000003a0: 33cf ecbd 6760 16bd 7b38 cebc c411 a13d
000003b0: 4695 723d 78db 90bd 6d27 1e3e b7d8 673c
000003c0: 5eb2 2b3d 2b7f 8d3d f87b bdbd 5202 f23c
000003d0: 1580 9b3c 5183 f0bd 394b 7dbd 0162 24be
000003e0: 0db1 583b 624c af3c 9a75 cebd 2c4f 9d3b
000003f0: d9a7 e53c eacf d83d 14ac 173d 25ea 92bd

e_discrimination.weight f4 [81, 1]
1.8753146 1.6863699 2.136189 0.7271115 1.8166808 2.3298028 2.1404629 1.6194437
2.114783 1.6320937 1.5474305 1.3278719 1.9385257 1.4091768 1.6219411 1.299983
0.8464711 2.0871935 1.8710558 1.6296333 2.481561 1.7632322 2.1731339 1.6175224
1.4312875 1.4926214 1.1652071 1.6833309 1.8825121 1.6478672 2.4950056 1.5853583
1.0284331 1.711474 1.8328242 1.434031 1.6602283 1.9694324 1.7502302 1.9847143
1.6199924 1.7873772 1.7554547 2.127097 1.6915532 2.0391011 1.8144634 1.3549314
1.5159974 1.5477248 1.6347446 1.3120936 1.7324084 1.4389769 1.5018985 1.2892331
2.1194701 2.12955 1.1210563 2.007614 1.26246 1.9887449 1.3460509 1.7248613
1.3025954 1.6114753 1.9460123 2.1042104 1.8179437 1.1679018 2.10681 1.6285213
2.0781555 2.2453802 1.4986979 1.3643293 2.2514336 2.5686262 2.0887263 1.784293
1.3904088
00000000: 4f0a f03f f8da d73f 52b7 0840 fb23 3a3f
00000010: ff88 e83f 7d1b 1540 58fd 0840 ee49 cf3f
00000020: 9b58 0740 72e8 d03f 3412 c63f b5f7 a93f
00000030: 9c21 f83f e85f b43f c49b cf3f d865 a63f
00000040: 54b2 583f 9494 0540 c27e ef3f d397 d03f
00000050: e5d1 1e40 98b1 e13f a014 0b40 f90a cf3f
00000060: 6e34 b73f 380e bf3f 8225 953f 6377 d73f
00000070: 28f6 f03f 50ed d23f 2cae 1f40 05ed ca3f
00000080: b2a3 833f 9411 db3f fc99 ea3f 548e b73f
00000090: 5c82 d43f 5c16 fc3f 8b07 e03f 1e0b fe3f
000000a0: e95b cf3f c7c8 e43f bdb2 e03f 5b22 0840
000000b0: d184 d83f a280 0240 5640 e83f 646e ad3f
000000c0: 340c c23f d91b c63f 503f d13f aff2 a73f
000000d0: 8fbf dd3f 6530 b83f 363e c03f 9705 a53f
000000e0: 66a5 0740 8c4a 0840 c67e 8f3f bf7c 0040
000000f0: 4a98 a13f 318f fe3f 654b ac3f 41c8 dc3f
00000100: 72bb a63f d344 ce3f ee16 f93f 62ab 0640
00000110: 61b2 e83f ce7d 953f fad5 0640 6373 d03f
00000120: 8000 0540 4fb4 0f40 55d5 bf3f 58a2 ae3f
00000130: 7d17 1040 5f64 2440 b1ad 0540 b763 e43f
00000140: eaf8 b13f

prednet_full1.weight f4 [128, 284]
0.08255467 0.0770806 0.023970352 0.10892249 0.0 2.2237513 0.0 0.13904773
0.0 0.0 0.0 0.067589186 0.0 0.071927175 0.0 0.0
0.0796045 0.0 0.0 0.0 0.050409805 0.0070964727 0.0 0.058972582
0.04038395 0.0 0.0 0.029190218 0.0 0.0 0.051567767 0.0
0.039211664 0.0 0.05176763 0.0 0.0 0.0 0.03694572 0.0
0.039627068 0.0 0.0 1.906202 0.0 0.01203007 0.010354254 0.042382155
0.044451132 0.0 0.0 0.0 0.0057488545 0.041118357 0.009247272 0.0
2.1504478 0.0 1.9407455 0.047529228 0.13058355 0.0 0.025294365 0.06569512
0.0 0.0 0.0 0.11676164 0.015220031 0.084702514 0.009303211 0.0
0.015846193 0.0 0.03430686 0.0 0.018885428 0.0 1.9175382 0.114936635
0.04845771 2.1064076 0.07835857 0.048055258 0.08552552 0.09180232 0.0 0.0
0.0 0.038376927 0.0 0.051882427 0.026247153 0.055203516 0.04826603 0.0
0.103106454 0.0 0.0 0.0 0.0 0.02589101 0.03260539 0.0
0.010004506 0.0 0.0 0.14596236 0.0 0.0 0.0 0.02146448
0.0 0.020244265 0.0 0.042187423 0.0 0.0 0.0 0.19869365
0.032649145 0.0 1.7919662 0.0 0.0 0.0 0.0 2.2482204
0.044272274 0.0035864825 0.124557264 0.014394335 0.1144838 0.11768436 0.026878083 0.028785352
0.018358033 0.0 0.045342453 0.0 0.13098292 0.0027454472 0.0 0.1458203
0.0 0.04598772 0.025359165 0.13793623 0.004200715 0.0 0.042521685 0.0
0.013485678 0.0 0.0 0.033881616 0.07122949 0.0 0.0 0.0
0.013714798 0.0 0.0 1.26614 0.019658223 0.14116849 0.0 0.025936348
0.0 0.015342212 0.0 0.09608152 0.033101413 0.035963897 0.028409202 0.06000645
0.0 0.008548579 0.07115709 0.0 0.11528468 0.09943552 0.0 0.0
0.019182302 0.0 0.012011765 0.088354655 0.08258339 0.066449314 0.028194724 0.0
0.07562682 0.0 1.8265399 0.0 0.006021551 0.0140335625 0.0 0.0
0.04690887 0.0 0.0 0.077051304 0.08955352 0.015996365 0.0 2.1001325
0.12378439 0.0 0.0 0.07148997 0.1677226 0.0 0.0 0.030523736
0.0 0.021499373 0.016816067 0.0 0.0 0.0 0.0 0.0
0.0 2.071219 0.0 0.060195148 0.0 0.0 0.0 0.0
0.0 0.041276053 0.015023551 0.0 0.026132375 0.0 0.0 2.2041588
0.122240946 0.028075298 0.0 0.0 0.13397771 0.084958 0.0 0.05661966
0.0839183 2.2132237 0.0 0.010422664 0.025944794 2.16583 0.1333916 0.0
00000000: 6c12 a93d 6fdc 9d3d 795d c43c c112 df3d
00000010: 0000 0000 f151 0e40 0000 0000 8762 0e3e
00000020: 0000 0000 0000 0000 0000 0000 336c 8a3d
00000030: 0000 0000 8e4e 933d 0000 0000 0000 0000
00000040: af07 a33d 0000 0000 0000 0000 0000 0000
00000050: 837a 4e3d 8789 e83b 0000 0000 3c8d 713d
00000060: a469 253d 0000 0000 0000 0000 5320 ef3c
00000070: 0000 0000 0000 0000 b938 533d 0000 0000
00000080: 699c 203d 0000 0000 4b0a 543d 0000 0000
00000090: 0000 0000 0000 0000 6554 173d 0000 0000
000000a0: fe4f 223d 0000 0000 0000 0000 6dfe f33f
000000b0: 0000 0000 c519 453c e4a4 293c e998 2d3d
000000c0: 6412 363d 0000 0000 0000 0000 0000 0000
000000d0: e360 bc3b b96b 283d df81 173c 0000 0000
000000e0: f0a0 0940 0000 0000 596a f83f 02ae 423d
000000f0: b2b7 053e 0000 0000 2136 cf3c 2a8b 863d
00000100: 0000 0000 0000 0000 0000 0000 ba20 ef3d
00000110: 705d 793c 8378 ad3d 7f6c 183c 0000 0000
00000120: e0cf 813c 0000 0000 5a85 0c3d 0000 0000
00000130: 9db5 9a3c 0000 0000 e471 f53f e663 eb3d
00000140: 977b 463d 62cf 0640 757a a03d 97d5 443d
00000150: 0128 af3d db02 bc3d 0000 0000 0000 0000
00000160: 0000 0000 2031 1d3d 0000 0000 ab82 543d
00000170: 4504 d73c 151d 623d 9ab2 453d 0000 0000
00000180: 7a29 d33d 0000 0000 0000 0000 0000 0000
00000190: 0000 0000 6219 d43c 3b8d 053d 0000 0000
000001a0: f1e9 233c 0000 0000 0000 0000 2877 153e
000001b0: 0000 0000 0000 0000 0000 0000 47d6 af3c
000001c0: 0000 0000 4dd7 a53c 0000 0000 b8cc 2c3d
000001d0: 0000 0000 0000 0000 0000 0000 5976 4b3e
000001e0: 1cbb 053d 0000 0000 265f e53f 0000 0000
000001f0: 0000 0000 0000 0000 0000 0000 d8e2 0f40
00000200: d856 353d 310b 6b3b e117 ff3d 38d6 6b3c
00000210: 7c76 ea3d 7f04 f13d 6d2f dc3c 42cf eb3c
00000220: 9663 963c 0000 0000 02b9 393d 0000 0000
00000230: 6320 063e f6ec 333b 0000 0000 eb51 153e
00000240: 0000 0000 9f5d 3c3d 06be cf3c 283f 0d3e
00000250: 27a6 893b 0000 0000 382b 2e3d 0000 0000
00000260: 08f3 5c3c 0000 0000 0000 0000 73c7 0a3d
00000270: c4e0 913d 0000 0000 0000 0000 0000 0000
00000280: 08b4 603c 0000 0000 0000 0000 e010 a23f
00000290: 480a a13c 798e 103e 0000 0000 7778 d43c
000002a0: 0000 0000 e75d 7b3c 0000 0000 63c6 c43d
000002b0: 5995 073d e14e 133d 6aba e83c 53c9 753d
000002c0: 0000 0000 570f 0c3c cfba 913d 0000 0000
000002d0: 601a ec3d daa4 cb3d 0000 0000 0000 0000
000002e0: 3424 9d3c 0000 0000 fecc 443c 49f3 b43d
000002f0: 7b21 a93d 9416 883d 9ff8 e63c 0000 0000
00000300: 3ce2 9a3d 0000 0000 0fcc e93f 0000 0000
00000310: 6e50 c53b 07ed 653c 0000 0000 0000 0000
00000320: 8423 403d 0000 0000 0000 0000 13cd 9d3d
00000330: d667 b73d cf0a 833c 0000 0000 9268 0640
00000340: ac82 fd3d 0000 0000 0000 0000 5569 923d
00000350: 79bf 2b3e 0000 0000 0000 0000 ea0c fa3c
00000360: 0000 0000 741f b03c d9c1 893c 0000 0000
00000370: 0000 0000 0000 0000 0000 0000 0000 0000
00000380: 0000 0000 da8e 0440 0000 0000 308f 763d
00000390: 0000 0000 0000 0000 0000 0000 0000 0000
000003a0: 0000 0000 1411 293d 5725 763c 0000 0000
000003b0: 9013 d63c 0000 0000 0000 0000 f010 0d40
000003c0: 7659 fa3d 2bfe e53c 0000 0000 0000 0000
000003d0: 7431 093e 76fe ad3d 0000 0000 04ea 673d
000003e0: 5cdd ab3d 75a5 0d40 0000 0000 d2c3 2a3c
000003f0: 2d8a d43c f59c 0a40 cf97 083e 0000 0000

prednet_full1.bias f4 [128]
-0.38118455 -0.29982537 -0.4122159 -0.3268607 -0.56445146 -0.34056485 -0.23372108 -0.53780174
-0.52135485 -0.5265002 -0.5876414 -0.43542686 -0.17773443 -0.5014473 -0.19661455 -0.4398672
-0.17858772 -0.45376334 -0.43133345 -0.34321445 -0.46294183 -0.3325457 -0.20826642 -0.22201332
-0.4771223 -0.5312648 -0.4244095 -0.34906527 -0.46870595 -0.13769624 -0.59488374 -0.43504387
-0.36795378 -0.27060434 -0.3785836 -0.3754353 -0.22396784 -0.28720227 -0.31753084 -0.3350217
-0.31037188 -0.17398351 -0.15919383 -0.37813526 -0.50060874 -0.3730905 -0.2668767 -0.17272027
-0.1869561 -0.23001847 -0.36038992 -0.46279404 -0.27933705 -0.273788 -0.37512538 -0.07437598
-0.16339459 -0.47850698 -0.26388416 -0.18031979 -0.17292158 -0.35662958 -0.39729238 -0.19917645
-0.33986732 -0.40417206 -0.20366356 -0.43250474 -0.35121265 -0.47156626 -0.3811376 -0.3943862
-0.4826995 -0.11973857 -0.33237144 -0.35774115 -0.45150745 -0.18977211 -0.3679319 -0.36632213
-0.45644116 -0.25521535 -0.19028531 -0.35610572 -0.30710226 -0.22428891 -0.2407693 -0.47174788
-0.46936435 -0.45226544 -0.36843237 -0.16255961 -0.43461135 -0.12738685 -0.1838827 -0.06318472
-0.5391501 -0.36232856 -0.19084626 -0.15275556 -0.07896736 -0.23096913 -0.31653193 -0.19865808
-0.3641695 -0.5069994 -0.3173716 -0.37619224 -0.19947205 -0.21662195 -0.28711686 -0.45319945
-0.29732126 -0.30714294 -0.2555635 -0.1501059 -0.4735047 -0.4541628 -0.4127396 -0.3716002
-0.38224995 -0.37965074 -0.44344887 -0.43125814 -0.14914474 -0.48523837 -0.3356698 -0.4961089
00000000: 9f2a c3be b682 99be f60d d3be 495a a7be
00000010: e47f 10bf 845e aebe 9454 6fbe 60ad 09bf
00000020: 8377 05bf b8c8 06bf ab6f 16bf 45f0 debe
00000030: 0400 36be da5e 00bf 5355 49be 4636 e1be
00000040: b3df 36be ab53 e8be bdd7 dcbe ceb9 afbe
00000050: b606 edbe 6e43 aabe cb43 55be 7657 63be
00000060: 6049 f4be f800 08bf 344c d9be afb8 b2be
00000070: 3afa efbe 3e00 0dbe 4d4a 18bf 12be debe
00000080: 7064 bcbe a78c 8abe b6d5 c1be 0e39 c0be
00000090: d357 65be 2d0c 93be 6793 a2be f787 abbe
000000a0: 10e9 9ebe bc28 32be b503 23be f29a c1be
000000b0: e527 00bf b805 bfbe 10a4 88be 95dd 30be
000000c0: 6b71 3fbe f689 6bbe 0785 b8be 57f3 ecbe
000000d0: 4405 8fbe f12d 8cbe 6f10 c0be 6f52 98bd
000000e0: e950 27be defe f4be d31b 87be c0a5 38be
000000f0: 5b12 31be 2798 b6be e869 cbbe e9f4 4bbe
00000100: 1703 aebe a4ef cebe 2e8d 50be 4371 ddbe
00000110: 25d2 b3be 2271 f1be 7824 c3be fdec c9be
00000120: 6424 f7be 7f39 f5bd 972c aabe d929 b7be
00000130: fc2b e7be 9f53 42be 9261 bcbe 938e bbbe
00000140: a8b2 e9be 96ab 82be 27da 42be 7d53 b6be
00000150: 823c 9dbe feab 65be 3a8c 76be f088 f1be
00000160: 8650 f0be 568f e7be 2ba3 bcbe 0776 26be
00000170: 6185 debe b371 02be bf4b 3cbe fe66 81bd
00000180: be05 0abf 2183 b9be 346d 43be f46b 1cbe
00000190: a4b9 a1bd 2c83 6cbe 7910 a2be 066d 4bbe
000001a0: 6d74 babe b6ca 01bf 887e a2be 459c c0be
000001b0: 6742 4cbe 25d2 5dbe fb00 93be c209 e8be
000001c0: 7e3a 98be d741 9dbe 38d9 82be 5cb5 19be
000001d0: 356f f2be 0788 e8be 9b52 d3be 6242 bebe
000001e0: 44b6 c3be 9561 c2be bb0b e3be decd dcbe
000001f0: 66b9 18be 2a71 f8be e9dc abbe fc01 febe

prednet_full2.weight f4 [64, 128]
0.009235037 0.09537796 0.19663838 0.04645395 0.034475815 0.0011700885 0.040853016 0.0024837577
0.002456311 0.030810317 0.023963887 0.080491304 0.0 0.003913861 0.000289699 0.14292806
0.18240793 0.0025192418 0.0025002416 0.028297715 0.0012193349 0.027939565 0.05851296 0.0
0.0016017442 0.12088801 0.00075846503 0.0020499355 0.00212152 0.035240866 0.07885532 0.091122404
0.017932948 0.00076826435 0.0012786812 0.07522932 0.00036287945 0.075806044 0.058325175 0.00036424355
0.13442405 0.1571442 0.0 0.0031332027 0.00198509 0.0018134528 0.030142061 0.00037985775
0.0 0.00012908166 0.002465261 0.002819228 0.07051745 0.00080412434 0.0013482514 1.4464731e-05
0.03328494 0.0012539253 0.0013277954 0.0 0.026001764 0.025439562 0.0024256983 0.0003079967
0.12906404 0.0022459233 0.020897524 0.001192553 0.0017520721 0.0015865681 0.001241248 0.00249569
0.0016646072 0.0 0.0010940905 0.0009449282 0.035329606 0.0 0.00063504203 0.0039971983
0.0023862794 0.0 0.072043054 0.0018019823 0.21641786 0.10471815 0.1509445 0.0027660634
0.03814057 0.10181117 0.0014693346 0.0 0.0010187157 0.0 0.00011823695 1.1842841e-08
0.13835506 0.077570364 0.0004730459 0.06643275 0.0 0.0 0.038081996 0.050465018
0.025721723 0.037077393 0.0014955978 0.0019797983 0.0 0.030096563 0.0007899348 0.00261461
0.0008602385 0.00068989105 0.00071279006 0.028490119 0.18967678 0.07079836 0.0040954854 0.03406361
0.0008645512 0.015662787 0.10049934 0.0030789373 7.430702e-05 0.0022084357 0.0017653697 0.0022896277
0.039722983 0.03454327 0.063650586 0.024480049 0.047674324 0.0978459 0.012410681 0.056071512
0.06003328 0.077006884 0.041493125 0.058126226 2.0381735e-06 0.045792487 0.007312479 0.11978094
0.030919734 0.049208544 0.047033183 0.039468702 0.03508969 0.094547935 0.013700003 0.0019173304
0.1659615 0.09246911 0.029846547 0.043108113 0.047128476 1.1534316e-06 0.09783367 0.05518431
0.053907763 0.022804556 0.03826149 0.04729172 0.04385573 0.025273291 0.030618235 0.030917244
0.024227675 0.0023978387 0.25115407 0.05465197 0.13150582 0.039865073 0.0048204213 0.059728704
2.1169076e-06 0.056735337 0.052872807 0.061897635 0.0016333301 0.023124032 0.078871936 0.016102983
4.965539e-06 0.03628212 0.03014806 7.253881e-05 0.0 0.041942235 0.044515267 0.011899904
0.07358895 0.0446335 0.0007738671 0.035377488 0.1287146 0.03254581 0.03054033 0.041500695
0.037361648 5.3955194e-08 0.029239181 0.027919197 0.0374608 0.0 0.021987814 0.053752773
0.047530208 0.06447113 0.0030646503 0.0819775 0.022106169 0.011047071 0.014609873 0.051620353
0.040757913 0.059812803 0.030190228 4.2414486e-05 0.024208724 0.0 0.007473309 0.0
0.102148354 0.036068138 0.008331442 1.557148e-05 0.0 0.10318541 0.022944298 0.00066120585
0.025351902 0.16552855 0.039673913 0.04770564 6.179485e-07 0.0004791142 0.10742939 0.04856152
0.028716665 0.014868265 0.16589376 0.0 0.0785845 0.04485971 0.05138524 0.093071386
0.08182193 0.031644795 0.12126214 0.027813233 0.16473204 0.18192306 0.04144418 0.04801748
00000000: 8d4e 173c 8555 c33d 925b 493e 7f46 3e3d
00000010: 8336 0d3d a85d 993a 7e55 273d 8ac6 223b
00000020: 0ffa 203b eb65 fc3c ea4f c43c a0d8 a43d
00000030: 0000 0000 d83f 803b bee2 9739 bc5b 123e
00000040: 25c9 3a3e dd19 253b 18db 233b 9cd0 e73c
00000050: 17d2 9f3a 84e1 e43c 49ab 6f3d 0000 0000
00000060: 9ef1 d13a 2294 f73d bad3 463a 3658 063b
00000070: 3309 0b3b ba58 103d e67e a13d 629e ba3d
00000080: 1ee8 923c 5965 493a 6c99 a73a d411 9a3d
00000090: db40 be39 3340 9b3d 61e6 6e3d f1f7 be39
000000a0: 75a6 093e 69ea 203e 0000 0000 6b56 4d3b
000000b0: 4918 023b 61b1 ed3a 7cec f63c a527 c739
000000c0: 0000 0000 185a 0739 3790 213b ccc2 383b
000000d0: 746b 903d dfcb 523a cfb7 b03a 8cad 7237
000000e0: ca55 083d c05a a43a 6c09 ae3a 0000 0000
000000f0: a701 d53c a166 d03c 77f8 1e3b 9e7a a139
00000100: 5d29 043e 5730 133b 4931 ab3c 704f 9c3a
00000110: c9a5 e53a 64f4 cf3a 5fb1 a23a bb8e 233b
00000120: f32e da3a 0000 0000 9667 8f3a 0fb5 773a
00000130: c7b5 103d 0000 0000 f378 263a eefa 823b
00000140: 2063 1c3b 0000 0000 4f8b 933d 7e30 ec3a
00000150: a59c 5d3e 7876 d63d 3291 1a3e d846 353b
00000160: 4939 1c3d 6082 d03d b096 c03a 0000 0000
00000170: 6d86 853a 0000 0000 fbf5 f738 5e75 4b32
00000180: f3ac 0d3e 36dd 9e3d 2503 f839 e50d 883d
00000190: 0000 0000 0000 0000 defb 1b3d 68b4 4e3d
000001a0: 5db6 d23c 77de 173d ef07 c43a 81bf 013b
000001b0: 0000 0000 118d f63c a113 4f3a e059 2b3b
000001c0: a181 613a ced9 343a 88da 3a3a 1c64 e93c
000001d0: a13a 423e bbfe 903d 6c33 863b 4986 0b3d
000001e0: 0da3 623a 3f4f 803c 99d2 cd3d ffc7 493b
000001f0: 47d5 9b38 67bb 103b fa63 e73a 940d 163b
00000200: 91b4 223d 3e7d 0d3d 3d5b 823d 628a c83c
00000210: 2746 433d 6e63 c83d 2b56 4b3c 3eab 653d
00000220: 75e5 753d c9b5 9d3d b2f4 293d c415 6e3d
00000230: 8ec7 0836 e790 3b3d 859d ef3b b64f f53d
00000240: 624b fd3c e68e 493d dea5 403d efa9 213d
00000250: 35ba 0f3d 59a2 c13d fa75 603c ef4e fb3a
00000260: d0f1 293e 7260 bd3d bf80 f43c 2292 303d
00000270: ca09 413d 9ccf 9a35 055d c83d f108 623d
00000280: 63ce 5c3d 9fd0 ba3c 15b8 1c3d f6b4 413d
00000290: 11a2 333d ef09 cf3c 18d3 fa3c 2946 fd3c
000002a0: 1e79 c63c 0f25 1d3b 4497 803e beda 5f3d
000002b0: 76a9 063e 8f49 233d a0f4 9d3b 16a6 743d
000002c0: 3210 0e36 5063 683d 2891 583d 6088 7d3d
000002d0: 7715 d63a 9c6e bd3c 9c87 a13d 67ea 833c
000002e0: a89d a636 8f9c 143d 10f9 f63c fa1f 9838
000002f0: 0000 0000 9fcb 2b3d a455 363d d1f7 423c
00000300: ceb5 963d 9ed1 363d 58dd 4a3a fce7 103d
00000310: c3cd 033e c14e 053d b72f fa3c a2fc 293d
00000320: 8708 193d 5dbc 6733 0287 ef3c cdb6 e43c
00000330: 7f70 193d 0000 0000 ca1f b43c de2b 5c3d
00000340: 09af 423d 7109 843d 4dd8 483b d2e3 a73d
00000350: ff17 b53c c6fe 343c 405e 6f3c dd6f 533d
00000360: c5f1 263d 45fe 743d 7f51 f73c 35e6 3138
00000370: 6051 c63c 0000 0000 a9e2 f43b 0000 0000
00000380: 2833 d13d 2fbc 133d 9a80 083c 809f 8237
00000390: 0000 0000 df52 d33d aef5 bb3c c654 2d3a
000003a0: cbae cf3c 5180 293e 1d81 223d fd66 433d
000003b0: 19e1 2535 9f31 fb39 f103 dc3d 72e8 463d
000003c0: 363f eb3c 069a 733c 0ee0 293e 0000 0000
000003d0: e9f0 a03d d1be 373d 5479 523d 369c be3d
000003e0: 4292 a73d f99d 013d 4958 f83d 94d8 e33c
000003f0: 84af 283e 0a4a 3a3e 5fc1 293d faad 443d

prednet_full2.bias f4 [64]
-0.027771896 -0.55356336 -0.31028473 -1.349928 -2.4735866 -0.078762226 -0.26931068 -3.145424
-1.7204938 -1.0899394 -0.51649696 -0.21181346 -3.0045078 -1.1027625 -2.373281 -0.9571453
-0.27452105 -0.85389465 -0.9894688 -2.4171076 -0.5643579 -0.22231215 -2.5870917 -0.06284452
-2.4222028 -2.056598 -2.8097525 -0.19044456 -0.57685435 -0.16693988 -0.014962065 -0.11327547
-2.9280167 -2.931816 -1.181591 -2.8895361 -2.640844 -0.09632306 -0.23459128 -0.37260947
-0.96620935 -2.1056216 -1.0735269 -2.7126527 -0.22404896 -0.30879536 -0.14250769 -0.017682066
-0.75771993 -2.3607469 -2.2945628 -0.1922694 -0.19077268 -1.3147087 -0.38251716 -0.16788776
-0.093496904 -0.09194316 -0.3575204 -3.13792 -0.47531754 -0.78119457 -0.06303205 -2.8815594
00000000: e381 e3bc 54b6 0dbf a4dd 9ebe 71ca acbf
00000010: 3e4f 1ec0 174e a1bd 17e3 89be a04e 49c0
00000020: 2439 dcbf 2283 8bbf 2539 04bf a1e5 58be
00000030: db49 40c0 5227 8dbf d6e3 17c0 7907 75bf
00000040: 068e 8cbe d798 5abf d44d 7dbf e4b1 1ac0
00000050: c279 10bf cca5 63be e992 25c0 a1b4 80bd
00000060: 5f05 1bc0 4d9f 03c0 fcd2 33c0 e603 43be
00000070: baac 13bf 4af2 2abe 7323 75bc f8fc e7bd
00000080: a064 3bc0 e0a2 3bc0 603e 97bf 29ee 38c0
00000090: 9703 29c0 0645 c5bd b238 70be abc6 bebe
000000a0: 7f59 77bf 81c2 06c0 5469 89bf 1a9c 2dc0
000000b0: 176d 65be 6d1a 9ebe 89ed 11be fbd9 90bc
000000c0: eff9 41bf 7a16 17c0 1eda 12c0 45e2 44be
000000d0: ea59 43be 6048 a8bf 4ad9 c3be c5ea 2bbe
000000e0: 4e7b bfbd b24c bcbd ea0c b7be aed3 48c0
000000f0: d25c f3be 5efc 47bf f316 81bd 786b 38c0

prednet_full3.weight f4 [1, 64]
0.0 0.0015701655 0.0 0.16383722 0.213111 0.0 0.00012738492 0.3411313
0.105140164 0.05767424 0.00021693943 0.0 0.27078706 0.1375278 0.17712472 0.051030867
0.00011324901 0.01567349 0.057381056 0.20615159 0.0002571334 0.0 0.21143922 0.0
0.16377303 0.14493568 0.23757954 0.0 0.0 0.0 0.0 7.5550724e-06
0.22328572 0.27621156 0.06663544 0.2857065 0.23094757 0.0 0.0 0.0009325474
0.039154597 0.16628224 0.042128883 0.22342916 0.0 0.0 0.00027607824 0.0
0.0012772031 0.16192801 0.16047432 0.0 0.00015555562 0.114587784 0.00049248093 0.00043229052
0.0 0.0 5.7229125e-05 0.32862496 0.00019119543 0.001735583 0.0 0.25227654
00000000: 0000 0000 03ce cd3a 0000 0000 f2c4 273e
00000010: c539 5a3e 0000 0000 a192 0539 c3a8 ae3e
00000020: ba53 d73d d33b 6c3d 3c7a 6339 0000 0000
00000030: 9aa4 8a3e 16d4 0c3e 2f60 353e be05 513d
00000040: 1980 ed38 b165 803c 6608 6b3d 6719 533e
00000050: dccf 8639 0000 0000 8683 583e 0000 0000
00000060: 1eb4 273e 056a 143e 0d48 733e 0000 0000
00000070: 0000 0000 0000 0000 0000 0000 9481 fd36
00000080: 03a5 643e 9a6b 8d3e 2978 883d 1f48 923e
00000090: 857d 6c3e 0000 0000 0000 0000 3276 743a
000000a0: 9260 203d e445 2a3e 568f 2c3d 9dca 643e
000000b0: 0000 0000 0000 0000 98be 9039 0000 0000
000000c0: d367 a73a 75d0 253e 6153 243e 0000 0000
000000d0: a51c 2339 00ad ea3d d619 013a 0da5 e239
000000e0: 0000 0000 0000 0000 4e09 7038 8841 a83e
000000f0: a27b 4839 807c e33a 0000 0000 642a 813e
