model/ckpt/model_Dense_ComputationalThinking_train_irt.pt (torch, 14032 bytes, 3 tensors)

theta.weight f4 [2433, 1]
00000000: 8cde 9abe e2f4 85bf 9933 98bf 6621 3dbc
00000010: f0b1 41be 3447 5fbf f8b9 20bc 22d0 17c0
00000020: 7b9a c23f acde dfbf 0936 10c0 f8dc cf3e
00000030: d9d8 7fbf 6ca2 14c0 6d27 0ec0 47cd 05c0
00000040: e8cc 01c0 4433 973e 45f1 d0bf 4c2b 1ac0
00000050: f9ed dfbe 16bc 39bf f279 1cbe abc0 dfbf
00000060: 1072 34bf 326f 0b3f 02c4 19bc 36cb 73ba
00000070: 43f0 81bc 7cda 0cc0 3052 1fbf f2a9 ab3e
00000080: f998 b4bf 8656 f33c 30f3 2a3e bd8d 4ec0
00000090: 210d 8abf 7d5c 123d 6278 30bc 3fbd a4bc
000000a0: 2200 fdbf c219 553d b0ce 84bf ac39 a63c
000000b0: c2ab 19c0 a75d 31bf 7e2f ee3e 518b 9abe
000000c0: b870 74bf f63c adbe ef5d 033d 961b 4fc0
000000d0: 6431 7b3e d1a0 d4bf d5cb e9bf ec0e e2bf
000000e0: 7979 acbf ebed b2bf a2af 34bf 3771 5abf
000000f0: 6097 3ebd dde4 a7bf b0ad 19be 35c6 133f
00000100: b826 09bf 56fb 5fba 898f 8abf 8beb febf
00000110: 2676 14bf 3fd1 313c 8c3c dbbe 71fc 273e
00000120: 2bb7 b93c f121 9fbf 45e6 dabe 60f0 6ebc
00000130: 2512 bebc 5604 b1bf db76 bcbc 5e8a 143f
00000140: 5ddc 66bf e7b4 0bc0 a57e 89bc 6b55 a1bf
00000150: 9464 8bbf 9b12 a0be c48d aabf 9453 5fbf
00000160: 97b3 1a3d 0303 b83c 620a a5bf ade2 e13c
00000170: 2eff 1cbf 25c5 82be f3ec 40bd e124 9fbf
00000180: 9d13 93bf 34b5 f2bf 2dca e63d acf3 d8bf
00000190: 4fc2 2c3d c8f2 40bf eaa3 b1bc 423d fd3e
000001a0: ee6f 62be f225 fd3e 35f6 a23f 7472 e13d
000001b0: a2fe b8bf 3d07 0cc0 1a90 2bbf a553 073f
000001c0: db32 92bf 522c 46bf e904 82bf fc0e 42c0
000001d0: 8c07 4fbc 857c 04c0 acd4 e2bc 192f a1be
000001e0: 849e ba3c 0499 58bf eb5f 0c3d bd5e 883b
000001f0: dfed febd bafe 1ebf 6d8a 613c 18dd e3bf
00000200: ad28 133f dca3 4e3d f227 dc3e 4445 29be
00000210: 0fe5 ec3e fbb1 aabf a0ae d13c ef64 423d
00000220: 6d9d efbf 7ef4 2bbf 4b8f 50bd 58fe bebf
00000230: 9e1a 17c0 c1e4 c3be 43e9 4cbf a9cd 9dbb
00000240: 3ecf 193d 49b9 35bf d16a 1fbc 8c32 1ac0
00000250: 78f3 0ebd 7243 0b3b 4e5e fcbe 1995 443d
00000260: 3919 f13e 3316 02bf e81d 2d3d ad51 34be
00000270: 4fd0 0ac0 ecac 173f 92b3 e1ba 4571 af3d
00000280: f06f c8bf 9dd3 493e 7199 babf 9d7d d9be
00000290: 8e21 1ebd 03f6 d9ba 733a 0dc0 850c c0be
000002a0: 531c 19be cb99 833d b8af 1f3d 8492 8abd
000002b0: f98f c53c 15ff bdbf afdc eebf 4d8d 2dbf
000002c0: 1c46 17bf d8e8 163e 6a51 67bf fffa a33e
000002d0: 4ffb 96bc 5864 5a3c 2ae1 bdbd 5982 003e
000002e0: 6a55 07c0 ee49 b13c 10ce 8bbf 4304 b33e
000002f0: 40e5 06bf 8291 aebf adcd bcbe c372 15bd
00000300: cc83 bdbc 061c 21bb 0c28 833d 0555 2bbf
00000310: 37d6 bf3c 547b 9a3e b59c 69be 2475 80bf
00000320: be6c abbf c292 e2be d016 94bf ba03 f13e
00000330: 4747 ecbf 7b24 27bd 663d a1bf daaf c9bc
00000340: 32dd 06c0 814e 27bf c0ce d3bf 682a b1bf
00000350: 6e39 fdbd c799 303f 05c1 69be 9bcd 24bf
00000360: 9a45 05bf 6f99 883b f42e 84bc 9817 98bf
00000370: daa0 8bbc 2c3f 26bf e854 c23b 4d78 37c0
00000380: 854f 24bf 0286 11be 37ff 8abf 3eb4 01c0
00000390: ea7b 4fbf 92a9 4fbc a85e 463f d1fe a03b
000003a0: 31ee 14bf c428 b8bf 678d caba 2350 64bc
000003b0: c68a 35be 12e5 c3bf 6d23 9cbe 4429 37bf
000003c0: 7fcd 2bbc 0faf bc3e ebf5 f1be 184b 143e
000003d0: b627 a23f cea3 f6bf d428 e13c e038 413f
000003e0: c550 29bc ad0b 4e3d dcb0 c9bf 09bb 32c0
000003f0: 4d4b 90bf 4dc6 c4be 0483 18c0 2277 0bbf
-0.30247915 -1.0465357 -1.1890746 -0.011543607 -0.18915534 -0.8721802 -0.009809963 -2.3720784
1.5203394 -1.7489829 -2.253298 0.40598273 -0.9994026 -2.3224134 -2.2211564 -2.0906541
-2.0281315 0.295313 -1.632363 -2.4088926 -0.43736246 -0.7255262 -0.15280893 -1.7480673
-0.70486546 0.54466546 -0.009385111 -0.0009299995 -0.015861636 -2.2008352 -0.62234783 0.33528095
-1.4109184 0.029704344 0.16694331 -3.227401 -1.0785257 0.035732735 -0.010770889 -0.02010977
-1.9765666 0.052026518 -1.0375576 0.020291172 -2.4011083 -0.6928353 0.4652061 -0.30184415
-0.95484495 -0.33835572 0.032072004 -3.2360587 0.2453056 -1.6611577 -1.826533 -1.7660804
-1.347457 -1.3978857 -0.70580494 -0.85329 -0.04653108 -1.3116719 -0.15007663 0.57724315
-0.53574705 -0.0008544227 -1.0825053 -1.9915632 -0.5799278 0.010853111 -0.4281963 0.16404893
0.02267035 -1.2432233 -0.42753807 -0.014583677 -0.023202011 -1.3829448 -0.023005893 0.5802363
-0.9018 -2.1829164 -0.016784022 -1.2604192 -1.0890069 -0.31264195 -1.3324513 -0.87236905
0.037768926 0.022462374 -1.2893794 0.027573908 -0.61326873 -0.25541034 -0.047100972 -1.243313
-1.149036 -1.8961549 0.11269031 -1.6949363 0.042177495 -0.75370455 -0.021684606 0.49460799
-0.2211301 0.49443012 1.2731386 0.11008158 -1.4452708 -2.1879418 -0.67016757 0.52862006
-1.142177 -0.7741138 -1.0157748 -3.0321646 -0.012636077 -2.0701 -0.0276893 -0.31481245
0.022780664 -0.84608483 0.034271162 0.0041616843 -0.12447714 -0.6210743 0.013765913 -1.7801847
0.5748394 0.050449237 0.42999226 -0.16530329 0.46268508 -1.3335565 0.025595963 0.04745954
-1.8719918 -0.6716994 -0.050917905 -1.492137 -2.3609996 -0.38260463 -0.8004343 -0.0048157764
0.037551157 -0.7098585 -0.009730057 -2.4093351 -0.03490016 0.0021249917 -0.492907 0.047993753
0.47089556 -0.50815123 0.04226485 -0.17609282 -2.1689641 0.5924823 -0.0017219654 0.08566526
-1.5659161 0.1970963 -1.4578077 -0.42478648 -0.03860622 -0.0016629103 -2.2066925 -0.37509552
-0.14952211 0.06425818 0.038985938 -0.06766227 0.024116503 -1.484347 -1.8661097 -0.6779373
-0.59091353 0.1473726 -0.90358603 0.32027432 -0.01843038 0.013329588 -0.09271462 0.12549724
-2.1145883 0.021641698 -1.092226 0.3496419 -0.5269356 -1.3638155 -0.36875668 -0.0364864
-0.023134135 -0.0024583354 0.06404123 -0.66926605 0.023417575 0.30172217 -0.22813685 -1.0035748
-1.339256 -0.44252592 -1.1569462 0.47073156 -1.8459252 -0.040806275 -1.2596862 -0.024619985
-2.1072507 -0.6535416 -1.654747 -1.3841066 -0.123644695 0.68984646 -0.22827537 -0.6437623
-0.5205933 0.0041686813 -0.01613567 -1.18822 -0.017044473 -0.6494014 0.005930532 -2.8667176
-0.6418384 -0.14211276 -1.0859135 -2.026626 -0.8104845 -0.012674706 0.77488184 0.004913189
-0.5817595 -1.4387441 -0.0015453518 -0.013935122 -0.17728719 -1.5304282 -0.30495778 -0.7154734
-0.010486006 0.3685231 -0.47257933 0.14481771 1.2668369 -1.9268739 0.027485289 0.7547741
-0.010334198 0.050304104 -1.5757098 -2.7926657 -1.127298 -0.3843254 -2.3829966 -0.5447866

alpha.weight f4 [272, 1]
00000000: e25e 5bbf c3f7 9bbf 8ec6 9dbf f35b cdbf
00000010: ab91 a1bf 5ac7 4bbf 5371 a1bf e586 6cbf
00000020: 9f7f 61bf 33f7 7fbf dde1 c7bf 7584 a4bf
00000030: 2b02 6fbf ad95 a0bf 0b31 a6bf 3fd4 8ebf
00000040: f6dd 53bf e735 68bf df9e 57bf 0105 bdbe
00000050: 4ab7 4abf e316 36bf 7941 90bf 21c9 87bf
00000060: 65ff 6fbf 320f 07bf c304 49bf 8674 3bbf
00000070: de9f 1abf 6c1b 7bbf f6c8 8fbf 6907 68bf
00000080: 0db2 70bf 278a a7bf fad1 9fbf 052a 8fbf
00000090: f62d 2bbf 8bb7 39bf 3421 f5bf fcfa 93bf
000000a0: d3b7 ddbf f92c 6fbf 222a d4bf 0807 87bf
000000b0: 469e 80bf e5f4 a9bf bd50 60bf 9e62 b7bf
000000c0: 62ca 86bf 7088 c5bf 3c53 c5bf a8e4 8cbf
000000d0: 4b1e d4bf 5f10 bbbf 8e55 aabf 1c89 1ac0
000000e0: a6ca d8bf be63 afbf a6ad 9fbf 7131 23c0
000000f0: d577 76bf 30a1 96bf 7e19 80bf c5aa 8ebf
00000100: 3c1e 4dbf 663c 8bbf c8be 53bf 4310 50bf
00000110: 5683 bebe d81b 20bf 4d94 8abf a5fa bbbf
00000120: 50c0 babf c3b2 8ebf 1734 fabe 8b38 0fbf
00000130: 4209 34bf 40d0 30bf 28db efbe 65c5 40bf
00000140: c983 8dbf 6564 c5bf 972f b9bf ca66 cebf
00000150: 051e bdbf f384 a0bf 7923 7cbf 37f6 35bf
00000160: fd45 2ebf 8113 74bf ca4b 1cbf 364c 85bf
00000170: 637d c4bf 6e46 89bf 85e5 abbf 49f7 b2bf
00000180: bca5 a6bf fd1f d4bf ea56 07bf 6e39 37bf
00000190: 4156 42bf 8348 29bf c6b4 cdbf 7e53 c6bf
000001a0: 0b28 e0bf fdc3 afbf b997 c4bf 4340 dbbf
000001b0: a8ed 58bf 8306 f7bf 8307 89bf e7a0 9cbf
000001c0: c326 b5be eac2 cabf a365 c5bf dd9c 8bbf
000001d0: c882 3fbf 79d2 61bf 598d 74bf 64a7 1dbf
000001e0: 490f ebbf 63cf 8abf 3e6a e1bf 68be 92bf
000001f0: c358 1ec0 9378 d1bf 1a25 cebf 1357 69bf
00000200: 61ed c8bf 8670 1ac0 a439 83bf fd34 a5bf
00000210: 57a2 62bf 1e7f 6dbf d240 7ebf 7241 5bbf
00000220: 9b45 5ebf 4a53 88bf 3eca 4abf 8f24 afbe
00000230: 467b 97bf 78a4 8bbf 1106 89bf 273b 18bf
00000240: 75ce 17bf 1c1a c5bf 1e67 0bc0 c7d5 febf
00000250: b9d0 06c0 e51e 81bf d55e 84bf 3e0d 39c0
00000260: d87c bdbf b2b8 58bf 31d8 78bf 3477 edbf
00000270: 1bfe 57c0 20c3 b4bf 5805 d0bf 6d51 0fc0
00000280: b57e 8abf 053d d7bf a802 b7bf 2b67 cabf
00000290: 4e3f c1bf 721b d3bf 01fd 2ec0 4f46 29c0
000002a0: 205e 8bbf bc4a d7bf 8ea1 6dbf 2d15 13bf
000002b0: 613a 2abf d1c9 27bf acf1 52bf 3064 a0bf
000002c0: a3ff 43bf 2bc5 52bf 0c9c 60bf 275b a3bf
000002d0: 3233 99bf c99a 9ebf e041 55bf 8c2b 1cbf
000002e0: 27a3 54bf 7c8a 67bf feb1 16bf cb1f c3bf
000002f0: c603 20bf e57a acbf a911 6abf 80fb 92bf
00000300: 3f39 4cbf e328 32bf d3a3 c1bf d2a8 69bf
00000310: b32f 00bf 29b3 f7be 6e37 36bf d547 40bf
00000320: d679 d9be 7293 24bf a262 22bf bd45 75bf
00000330: 3815 6bbf 1bbc 75bf 03ee bbbe 800e 27bf
00000340: a8a8 1dbf 67b2 b6bf 5c57 e2bf 4c06 b7bf
00000350: a9ef 06c0 13dc a3bf c87c 96bf 5e85 bbbe
00000360: 24e0 adbf 632c b8bf 7aa3 85bf 7e2c cebf
00000370: 30a0 85bf 5798 56bf 90ce 43bf c124 aebf
00000380: aea3 94bf 9b84 f6bf f466 e1bf 45fb c9bf
00000390: fcf1 c5bf c234 6abf 127b b3bf cb47 66bf
000003a0: a025 13bf 8c71 ccbe 3617 7fbf d4fe b7bf
000003b0: 85ff b8bf a168 a3bf 6290 c1bf 9a10 b2bf
000003c0: 8f2d 0ec0 35aa 39bf f000 3ac0 5670 bbbf
000003d0: 7cdd c1bf 6bb6 86bf 750f 83bf 18ee 9ebf
000003e0: ffee 93bf e54e d4bf 4f06 8abf f70c 1ebf
000003f0: 9472 d7bf 0c48 9cbf 2840 9cbf b83e 9cbf
-0.85691655 -1.2184986 -1.2326219 -1.6043686 -1.2622579 -0.7960106 -1.2612709 -0.9239333
-0.8808536 -0.9998657 -1.5615803 -1.2852923 -0.93362683 -1.2545677 -1.2983717 -1.1158522
-0.8276056 -0.9070725 -0.84226793 -0.3691788 -0.79185927 -0.7112867 -1.1269981 -1.0608255
-0.93749076 -0.5275756 -0.7852289 -0.73224676 -0.6040019 -0.9808872 -1.1233203 -0.90636307
-0.94021684 -1.3089036 -1.2485955 -1.1184698 -0.66867006 -0.7254569 -1.9150758 -1.1560969
-1.7321724 -0.93428 -1.6575358 -1.0549021 -1.0048301 -1.3277861 -0.87623197 -1.432697
-1.0530512 -1.5432262 -1.5416026 -1.100728 -1.6571745 -1.4614371 -1.3307359 -2.4146185
-1.6936843 -1.3702314 -1.2474868 -2.5498927 -0.962766 -1.176794 -1.000778 -1.1145865
-0.8012426 -1.0877807 -0.82712984 -0.81274813 -0.37209576 -0.62542486 -1.0826508 -1.4685866
-1.4589939 -1.1148304 -0.48867866 -0.5594565 -0.70326626 -0.69067764 -0.4684689 -0.753012
-1.1055843 -1.5421263 -1.4467648 -1.6125119 -1.4774786 -1.2540573 -0.98491627 -0.7107882
-0.68075544 -0.9534226 -0.61053145 -1.0413883 -1.5350765 -1.0724618 -1.3429419 -1.3981715
-1.3019328 -1.6572262 -0.52866995 -0.71572006 -0.75912863 -0.6612627 -1.6070793 -1.549423
-1.751222 -1.3731686 -1.5358802 -1.7128986 -0.84737635 -1.9298862 -1.0705417 -1.2236603
-0.35381135 -1.5840733 -1.5421642 -1.0907246 -0.7480893 -0.8821178 -0.9552818 -0.6158354
-1.836404 -1.0844539 -1.7610548 -1.1464357 -2.4741676 -1.6364921 -1.6105072 -0.9114849
-1.5697442 -2.413118 -1.0251966 -1.2906796 -0.8852896 -0.9277209 -0.9931766 -0.85646737
-0.8682496 -1.0650418 -0.7921485 -0.3420758 -1.1834495 -1.0909567 -1.0704976 -0.5946526
-0.59299403 -1.5398593 -2.1781688 -1.990899 -2.1064894 -1.0087553 -1.034144 -2.8914332
-1.4803724 -0.8465682 -0.9720488 -1.8552003 -3.3748844 -1.4122047 -1.6251631 -2.2393448
-1.0819918 -1.6815497 -1.4297686 -1.5812734 -1.5097444 -1.6492751 -2.7341921 -2.6449163
-1.08881 -1.6819682 -0.9282464 -0.57454187 -0.6649533 -0.6554232 -0.8240001 -1.2530575
-0.76561946 -0.82332104 -0.8773811 -1.2762192 -1.1968749 -1.2390987 -0.8330364 -0.6100395
-0.8306145 -0.90445685 -0.58865345 -1.5244077 -0.6250576 -1.3475004 -0.914332 -1.1483002
-0.7977485 -0.6959364 -1.512812 -0.91273224 -0.50072783 -0.48378876 -0.7117833 -0.75109607
-0.42475766 -0.64287484 -0.6343175 -0.9580954 -0.9182925 -0.9599015 -0.36705026 -0.652565
-0.61585474 -1.4273194 -1.768291 -1.4298797 -2.1083777 -1.2801536 -1.175683 -0.3662519
-1.3584027 -1.4388546 -1.0440514 -1.6107328 -1.043951 -0.838262 -0.76487064 -1.3604966
-1.1612451 -1.9259218 -1.7609544 -1.5779806 -1.5464473 -0.9148675 -1.4021933 -0.899533
-0.57479286 -0.3993038 -0.9964479 -1.4374642 -1.4452978 -1.2766305 -1.5122187 -1.3911316
-2.2215307 -0.7252534 -2.9063072 -1.4643657 -1.5145717 -1.052442 -1.0239092 -1.241641
-1.1557311 -1.6586577 -1.0783175 -0.6173853 -1.6831841 -1.2209487 -1.2207079 -1.220664

beta.weight f4 [272, 1]
00000000: f7f3 113f bb23 423f ba9c 203f 9339 563f
00000010: c135 103f 2a78 8a3e b35d 423f e25a c73e
00000020: 68de ba3e 1c35 bb3e 1d2a 603f 72ff e63e
00000030: 4b7d 923e 415d 3e3f 13b7 213f 452e 043f
00000040: a709 db3e d8f1 053f 8f2e f73e f636 8c3e
00000050: 3026 773f 75e9 7a3f fde5 953f 7442 873f
00000060: ff73 923f 897a 043f eb9b 063f 4244 4e3f
00000070: 545e be3e e202 863f 917b 5e3f a352 3c3f
00000080: 8d7d 763f 7998 973f 586a 7b3f 9047 503f
00000090: 16e3 913f 43a2 0b40 3249 083f ce61 0d3f
000000a0: 2031 dd3f 4c7c 233f 2480 9a3f 012b d93f
000000b0: fab9 f13e ced7 b93e 00b1 6a3f 1345 8c3f
000000c0: 7801 0b3f e028 ab3f b2b7 e43f 21c0 fb3e
000000d0: cf28 373f f211 ac3e 1844 243f feb2 ab3f
000000e0: ea53 763f 9426 683f 03ca 523f ff8d ac3f
000000f0: 1de8 c23e 2608 873f f173 983f b4f0 873f
00000100: ac53 ae3e 6add fa3f 687c 743f cbf0 ac3f
00000110: f70d 4c3f 9781 1c3e 1fb9 4e3f a33c 923f
00000120: 0e14 883f 1557 513e 2396 7d3e 7953 c63f
00000130: e86d 0a40 ca1f 0c40 af00 b13f 61f4 343f
00000140: feb2 d23f 1eed ab3f 0c8e b23f 4e46 ae3f
00000150: ec99 a63f 3b5d b33f 6cb2 543f 193b 093f
00000160: 7735 063f 1d68 993f e71c ba3e 5aeb a23f
00000170: 8d8d a23f f06e 4e3f 9d9a 823f b83b ac3f
00000180: 39ad 823f b92d a83f 5e3b 0f3e 9bdd 6b3f
00000190: 33ca 803f 6115 243f 1db3 db3f eeec d83f
000001a0: 96e4 7b3f 4451 c13f 1843 363f 15d0 643f
000001b0: 66fd ae3f c0ab 1240 4115 a33f cc30 d13f
000001c0: b924 e43e 8b18 da3f 133f b73f c59f 1b3f
000001d0: 838a de3e a368 963f 64e6 1f3f 571e b63f
000001e0: f058 733f 1c06 4c3f c814 bc3f 4ae6 403f
000001f0: 6fda ac3f e52a 793f 539e 453f df05 f03e
00000200: ecfe 563f dece aa3f 8569 133f 37bf 653f
00000210: 451d 523f a51a 1e3f 8df5 283f b6ad 4f3f
00000220: 02c7 c03e 50ba 193f 3db6 673f 9c88 af3e
00000230: 9a63 9a3f 3ffc e43f 6f57 a03f 2def 393f
00000240: 916a 933f 1c94 3c3f 8988 7b3f 4c93 883f
00000250: e5c1 0f40 5498 723f 5593 813f 5219 2c40
00000260: 9084 c63f ce0b ef3f fdbe d23f 111e 8e3f
00000270: ed28 c93f 1296 673f 13e5 9f3f 4064 9c3f
00000280: 1bea 903f 29f9 893f 1a63 513f dddc 393f
00000290: 2423 3b3f f815 463f 5261 ba3f d42b aa3f
000002a0: 3aaf 6d3f c1a6 a43f b536 db3e cd3a c1ba
000002b0: ed0c a53d ce5b 833f e6c7 b03f 6005 1540
000002c0: 5dec 533f 7eef da3e 5c34 2b3f b9ce a43f
000002d0: be40 193f 7217 b63f 7ea8 0d40 142c 023f
000002e0: 1743 2b3f 8860 9c3f 9577 0d3f b516 d13f
000002f0: e54b ae3e 8545 bf3f 218e ff3e 314f a43f
00000300: 0cf6 dc3f cb7e 1c3e 0b9f cf3f ba50 3f3f
00000310: 1b05 c83e 0d88 ad3e 51e4 423f e85a 143f
00000320: 32b4 473e dfa2 e33e 9563 de3e b0e9 643f
00000330: 61ea 743f 8522 783f 8f90 2abe 54f9 093f
00000340: aada b63e e697 013f b9fa 133f 0f22 d13e
00000350: 5cba 5a3f 13e9 083f 3639 653f 356e 073f
00000360: 4c55 9d3f 561d 943f dc5c 323f 383b 863f
00000370: e88c e03e 98c9 863e 4b38 083e 1ba3 a93f
00000380: fd08 6f3f f8d8 453f 29ef 1b3f 9f41 0b3f
00000390: 4e35 0a3f 046e 2d3f 6d35 873f f306 2d3f
000003a0: 896f 1f40 970c 423f f950 dd3e 2aa6 6a3f
000003b0: f07c 893f 896c 813f d317 ae3f 741a 873f
000003c0: 8ae8 1540 b39a d23e 01e3 0c40 b987 633f
000003d0: eafc 933f 2c18 023f 42ac ab3e 76c0 093f
000003e0: 8e6a 1f3f 61da 2d3f fb76 bf3e 7ecf 93bd
000003f0: 4144 293f 7cf3 a83e cd51 f23e ddd4 1a3f
0.57012886 0.7583577 0.62739146 0.836816 0.5633202 0.27044803 0.75924224 0.38936526
0.36497808 0.36563957 0.8756426 0.45116764 0.28611216 0.74361044 0.63169974 0.516331
0.42780802 0.5232215 0.4827771 0.27385682 0.96542645 0.9801248 1.1710812 1.0567155
1.1441649 0.51749474 0.5258166 0.80572903 0.37181342 1.046963 0.869073 0.73563594
0.96285325 1.1843406 0.9820914 0.81359196 1.1397426 2.1817787 0.5323669 0.55227363
1.7280617 0.63861537 1.2070355 1.6966249 0.472122 0.36297458 0.9167633 1.095858
0.54299116 1.3371849 1.7868559 0.4917002 0.71546644 0.3360744 0.641664 1.3413999
0.9622179 0.90683866 0.82339495 1.3480834 0.38067713 1.0549362 1.1910383 1.0620332
0.34048212 1.959882 0.9550233 1.3510984 0.7970881 0.1528381 0.8075122 1.1424755
1.063112 0.20443375 0.24764304 1.5494224 2.1629581 2.1894403 1.3828334 0.7068539
1.6460874 1.3431737 1.3949599 1.3615205 1.3015723 1.4012827 0.8308475 0.536058
0.5242533 1.1984898 0.36350176 1.2728074 1.2699448 0.8063803 1.0203434 1.3455725
1.0209113 1.3138953 0.1398749 0.9213502 1.0061706 0.6409512 1.7164036 1.6947305
0.9839567 1.5102925 0.71196127 0.8938001 1.3671081 2.2917328 1.2740861 1.6343017
0.44559267 1.703874 1.4316124 0.60790664 0.4346505 1.1750683 0.62460923 1.4228009
0.9505758 0.7969682 1.4693842 0.75351393 1.3504161 0.97331077 0.7719471 0.4687948
0.8398273 1.3344381 0.57582885 0.89744896 0.8207591 0.61759406 0.6599968 0.81124437
0.3765183 0.60049915 0.9051245 0.34283912 1.2061646 1.7889479 1.2526683 0.7263058
1.1516896 0.73663497 0.9825521 1.0669951 2.2462094 0.94763684 1.0123087 2.6890454
1.5509205 1.8675478 1.6464535 1.1102926 1.5715615 0.90463364 1.2491783 1.2218094
1.1321443 1.0779163 0.8179184 0.72602636 0.73100495 0.7737727 1.456095 1.3294625
0.928455 1.2863389 0.42815176 -0.0014742255 0.08059106 1.0262392 1.3811004 2.328453
0.82782537 0.42760843 0.6687677 1.2875587 0.59864414 1.4225905 2.213409 0.5084851
0.66899246 1.2216959 0.5526059 1.6335055 0.34042278 1.4943091 0.49913123 1.2836667
1.7262588 0.15282743 1.6220411 0.74732554 0.39066395 0.3389286 0.76129633 0.5795121
0.19502333 0.44460198 0.4343535 0.8941908 0.95670134 0.9692767 -0.16656707 0.5389607
0.35713702 0.50622404 0.5780445 0.40846297 0.8544061 0.53480643 0.8954042 0.5290254
1.2291656 1.1571453 0.6967294 1.0486822 0.43857503 0.2632568 0.13302724 1.3252901
0.9337309 0.77284193 0.60911804 0.54397005 0.53987586 0.67745996 1.0563179 0.6758873
2.4911826 0.7580046 0.4322584 0.91659796 1.0741253 1.0111247 1.360102 1.0554948
2.342318 0.4113365 2.2013552 0.8887897 1.1561558 0.50818133 0.3352986 0.538093
0.62271965 0.67911345 0.37395462 -0.0721731 0.6611977 0.32998264 0.47328034 0.60481054
