model/ckpt/model_NeurIPS2020_train_ncd.pt (torch, 431808 bytes, 8 tensors)

student_emb.weight f4 [2000, 38]
000000 7a fa 12 bf e7 4a 1a bc d6 6d 06 bf ab db df 3c
       -0.57413447 -0.009417272 -0.52511346 0.027326426
000010 53 98 9b 3e 93 88 08 3f 47 bb f2 3e 14 1b be 3e
       0.30389652 0.53333396 0.47408506 0.37130034
000020 a2 e6 a9 3e e1 ce 7f bc 5c f4 0e 3f 90 22 07 3f
       0.3318377 -0.015613289 0.5584161 0.52787113
000030 42 30 e8 bc 11 26 5b bc 6d b6 a1 3e 9e 4c 0c 3e
       -0.028343324 -0.013375775 0.31584492 0.13701102
000040 59 8c b1 be 63 34 c7 3b f0 fc 99 be 2a 37 db 3e
       -0.3467739 0.006079243 -0.30075788 0.42815524
000050 7f 8e 10 3f 1c 63 e3 bc 91 c1 d8 3b 54 09 b4 3d
       0.5646743 -0.02775722 0.006614872 0.08790842
000060 73 77 ec be ff fa ac bc 49 3f 06 3f 84 cb 03 bd
       -0.46184883 -0.021115778 0.52440315 -0.03217651
000070 08 84 93 3f 12 35 eb 3c a1 eb 06 bf b8 29 15 3f
       1.1524668 0.02871183 -0.5270329 0.5826678
000080 e2 e4 77 bf 76 8c 57 3e 8d f3 fe 3e 20 cf 83 3f
       -0.9683362 0.21049675 0.4979519 1.0297585
000090 e1 d5 c5 3f c5 ef de 39 10 8f c8 3e 9c 5c c4 3b
       1.5455896 0.00042521782 0.39171648 0.005992485
0000a0 17 b8 f4 3d 81 52 8a bd 58 9c 4d 3f 6a 4a 1b 3f
       0.11949175 -0.067540176 0.80316687 0.6066042
0000b0 eb 47 12 3f b6 b2 a0 3d 66 7f 81 3e 43 a0 ab bd
       0.5714099 0.078465864 0.2529251 -0.08380177
0000c0 96 1a 6a bd b3 64 d3 3e eb e9 ab 3d 1e f5 2e 3f
       -0.05715426 0.41287765 0.08394226 0.6834277
0000d0 78 f1 fe be ab d9 2d 3e 3f 6a 14 bf af 74 17 bd
       -0.497936 0.16977565 -0.5797462 -0.036976513
0000e0 ed 21 1c bf 7e f9 eb 3e a8 40 89 bf 84 ac 6a bd
       -0.60989267 0.46088785 -1.0722857 -0.05729343
0000f0 8f 73 dd 3e 1f 4d c2 3a 26 be 18 3f e6 2e 21 3d
       0.43252227 0.0014824009 0.59665143 0.039351366
000100 c5 1e 26 3f 64 dd 6e bd 72 29 2d 3d 3f 77 3e bc
       0.648907 -0.058316603 0.042275853 -0.01162511
000110 56 74 ff be f5 90 3e be e2 9a 42 bf b6 7a d2 3f
       -0.49893445 -0.18609984 -0.7601758 1.6443698
000120 e6 96 cc be a2 56 83 3f 8f 16 83 3e 3f 9f 9b 3c
       -0.39958876 1.0260813 0.25603148 0.018996833
000130 d0 4f 2b 3c 34 4a 0e 3d 2e b5 f5 ba 2b ff 2e 3d
       0.0104560405 0.034738734 -0.0018746012 0.042723816
000140 fa 0b ae 3f 81 9e 4f bd 4b ad 13 3f 08 1e 1d bd
       1.3597405 -0.05068827 0.576863 -0.03835872
000150 12 33 00 3a e1 0b 29 bd ef 76 37 3f 83 41 ee 3c
       0.00048904226 -0.041271094 0.71665853 0.029083973
000160 ff d6 c5 3a ca c6 92 ba 7a d6 a7 3c 95 b8 f2 3e
       0.0015093981 -0.001119816 0.020488013 0.4740645
000170 34 8f 6c 3d dc 31 b5 bd 51 89 33 3f 96 c6 1a be
       0.057753757 -0.088474005 0.70131403 -0.15114817
000180 c9 ad 77 3f 50 5e ad 3c 9b db 40 bd 21 13 1d 3d
       0.9674955 0.021163136 -0.047084432 0.03834832
000190 0c 65 0f 3f 63 71 4d bd 6f e0 b7 bd 10 ae c7 3c
       0.5601356 -0.050156962 -0.08978354 0.024374992
0001a0 f7 3d 0e bd 9c 0e d1 3c da 80 6d bd 69 07 e8 3c
       -0.034727063 0.025519662 -0.05798421 0.028323846
0001b0 8e 2f b0 3e 95 e7 89 3f 55 1d 24 bd 56 ed 52 3d
       0.3441128 1.0773798 -0.040067036 0.051495872
0001c0 ea df a4 bb 96 16 6b bc 04 ab 17 bf a2 3e 7f 3d
       -0.0050315754 -0.014348647 -0.59245324 0.06231559
0001d0 92 59 41 3f 73 3e 1a bc 53 5b 0e 3f 10 cf 00 3f
       0.755273 -0.009414303 0.556081 0.5031595
0001e0 c7 b4 2b bc 98 b5 c0 3e 0c cf 27 3f e5 f9 6f ba
       -0.010480112 0.37638545 0.65550303 -0.00091543637
0001f0 f4 f5 07 bf 87 23 1a 3e 45 19 fb be 28 0d ea ba
       -0.5310967 0.15052615 -0.49042717 -0.0017856704
000200 af f7 11 bf df 62 19 3e 6e bd 01 3e 36 b0 24 bb
       -0.5701856 0.14979123 0.12669918 -0.0025129444
000210 ff ee 84 be 4c b4 d5 3e 9e 29 49 bf d5 e2 5e bc
       -0.2596359 0.41739118 -0.7857913 -0.013603886
000220 74 2f ba 3e 94 7e 78 3e 1a ef 1d bf a6 ae a6 3b
       0.3636433 0.24267036 -0.61692965 0.0050867377
000230 b9 8e d6 3e fa ea 2f 3c 25 c3 1c be 09 4b a0 bc
       0.41905764 0.010737175 -0.15308817 -0.01956703
000240 8d 58 e3 be 6b f9 ba bd f7 95 3d bf f0 6a a9 3d
       -0.44403496 -0.09129604 -0.74056953 0.0827235
000250 b4 4b 0a 3f 01 6b 70 bf af b3 30 3f 00 1b 0d ba
       0.54021764 -0.93913275 0.69024175 -0.00053827465
000260 b6 b2 8c 3c f6 03 b5 3d 7e 1b e7 3c c6 1b 41 3d
       0.01717506 0.08838646 0.028211351 0.047145627
000270 38 3a 96 3e 76 33 91 3c aa 58 21 3f 03 40 80 3d
       0.29341292 0.017724734 0.63025916 0.06262209
000280 f5 8c c3 3f 93 a8 13 3d b9 9d 82 bc e4 62 2d 3f
       1.5277392 0.036049437 -0.015944349 0.6772902
000290 ba 56 0c 3c 8f 2f 1b 3f ba 34 c5 ba fd d6 70 3e
       0.008565599 0.60619444 -0.0015045621 0.23519512
0002a0 90 14 4f bd ca 56 2d bd e7 db 42 bd 26 68 42 3f
       -0.05055672 -0.042319097 -0.047572996 0.7594017
0002b0 ae 12 51 3c 16 31 88 bd fd 9c 82 bb 39 61 27 3f
       0.012760801 -0.066499874 -0.0039859996 0.65382725
0002c0 1a 17 8d 3d 9e d3 01 bd 61 1d db 3e 32 3a e8 ba
       0.06889172 -0.031695955 0.42795852 -0.0017717539
0002d0 bc cb 3e bf f0 cd 84 bc a1 a3 50 3d b3 9b 66 3e
       -0.74529624 -0.01621148 0.0509373 0.22520332
0002e0 64 1c 1f bc fc 38 08 3f c8 91 96 bc 11 37 40 be
       -0.009711359 0.5321195 -0.01838006 -0.18771006
0002f0 3f 71 05 3f be b5 32 3c 09 fb b3 bb 22 e5 5a bf
       0.52125925 0.0109075885 -0.005492572 -0.8550588
000300 f8 e1 9a 3d c1 d8 81 3f 4d c6 09 3b 67 19 1b 3d
       0.07562631 1.0144273 0.0021022737 0.037866022
000310 c5 92 4c 3f b5 00 99 3c e8 53 69 3f 6c 64 ab bd
       0.7991145 0.018677095 0.91143656 -0.08368763
000320 a6 9e 30 be 03 de 4e 3f a9 9f f4 bc 9d 59 93 bb
       -0.1724802 0.80807513 -0.029861288 -0.0044967667
000330 82 e7 55 bf ac 73 83 bf ea 2b 56 bd 92 e3 e4 be
       -0.8355638 -1.0269675 -0.052287973 -0.44704872
000340 ab 32 30 bf 92 33 ed 3e 41 3f 4c bf a4 19 2d bf
       -0.68827313 0.46328408 -0.7978402 -0.6761725
000350 a4 5a 49 bd 1c 3b ac 3b e4 ce 72 bc fc b1 3b bf
       -0.049158707 0.00525607 -0.014819834 -0.7331846
000360 4d e9 b2 3c 39 92 d3 3b 48 79 0d be 78 2c e4 3c
       0.021839762 0.00645664 -0.13815796 0.027853236
000370 8d ef 49 bd 96 3b c4 3e fa 79 e7 be ad a8 03 3d
       -0.04930072 0.3832671 -0.45210248 0.032143284
000380 57 c7 03 3f 02 03 04 bf f0 3d 52 bf 3b eb 6c 3e
       0.51476043 -0.5156709 -0.8212576 0.23136608
000390 c3 b3 84 3c 8d 14 4a bc 4f 4d 25 3f 34 51 60 3b
       0.016198998 -0.012334001 0.6457109 0.0034228088
0003a0 dc 89 2f 3f 94 f4 51 bc 41 fc 37 3e 47 c9 c1 3b
       0.6856973 -0.01281466 0.17967321 0.0059138867
0003b0 3e f5 d3 3d 9b 76 a3 bc f5 b6 c6 bc e8 f0 d3 3e
       0.103495106 -0.019954016 -0.024257163 0.41394734
0003c0 1d 7c 8b 3c 9f 63 16 3f e0 55 fb bc d3 d1 4d 3f
       0.017026955 0.5874576 -0.030680597 0.8039829
0003d0 cb 7b 38 3d d2 4d 13 bc 87 cb 57 bd b9 65 1e 3f
       0.045039933 -0.008990722 -0.052684333 0.61873966
0003e0 12 a1 7e bb 59 c9 9b bd 17 9e d4 3c 66 24 a5 3e
       -0.003885333 -0.076067634 0.02595429 0.32254332
0003f0 31 68 4f 3e 24 b6 83 bc 3b 87 a8 3c f4 c7 7c bb
       0.2025459 -0.016078062 0.020572295 -0.003857133

k_difficulty.weight f4 [454, 38]
000000 ad d5 41 3c 5c 36 aa 3c b7 74 8e 38 ae 62 18 3d
       0.011830729 0.020777874 6.7928275e-05 0.037203483
000010 85 48 99 bc 06 09 ab 3d 4a d7 99 3d 5d 6c d4 3b
       -0.018711338 0.083513305 0.07511766 0.0064826445
000020 fa 1b 46 3d c1 b6 32 bd 29 f1 52 3d 0f 96 d2 39
       0.048366524 -0.04363132 0.05149952 0.00040166124
000030 f8 36 c4 3d 26 9d 37 3d c5 68 1b 3d 02 2d 29 bb
       0.09580797 0.044827603 0.037941713 -0.002581418
000040 13 2e 94 bc 7e 09 d4 3c eb f6 ae 3d 21 3e 7e bc
       -0.018088376 0.025883432 0.085431896 -0.015517742
000050 f6 a1 2b 3d d2 4d 02 be e1 9e 58 bc a0 11 43 bd
       0.041902505 -0.12724999 -0.013221473 -0.04762423
000060 30 39 16 bd f6 f4 0e bb 1e 95 1e 3f 42 d1 bb 3c
       -0.036675632 -0.0021813489 0.61946285 0.02292693
000070 07 c0 ca 3b d4 32 e2 3d 30 7d f3 3c c7 c0 8a bd
       0.006187442 0.11044851 0.02972278 -0.067750506
000080 64 70 01 3d 98 8f da 3d c1 a9 78 bc 6d 5e 92 3d
       0.031601325 0.106719196 -0.015177191 0.071469165
000090 cc e8 91 3d bd cb 1e 3e eb 1e 75 bd 51 b2 0e bd
       0.071244806 0.15507407 -0.05984394 -0.034838025
0000a0 f5 3d 12 3e db 4c 92 bc 56 62 ad 3d a1 1a 1a 3c
       0.14281447 -0.017858913 0.08466022 0.009405763
0000b0 38 eb d0 bc 53 41 da 3c 5f 54 5b bd de f1 d1 bc
       -0.025502786 0.026642477 -0.05354726 -0.025628027
0000c0 d9 18 c7 3b 77 85 ff 3c b8 7b ee 3d 5a 12 a9 bc
       0.00607596 0.03119157 0.11644691 -0.020638634
0000d0 58 d9 e1 bd 8e 7e a8 3c 17 f3 0d 3d 4a ea ed bc
       -0.11027783 0.020568158 0.034655657 -0.029042382
0000e0 fc 84 36 3c e6 fb ae 3c c1 cf dd bc 88 39 90 3d
       0.011140104 0.021360349 -0.027076604 0.07042223
0000f0 25 1c ee bb 69 c7 6f bd 1d 60 6e 3d 49 ea 4e 3d
       -0.0072665387 -0.05853978 0.05819713 0.0505164
000100 e8 02 b7 3c 59 70 9d bd f0 fc bf 3d 2d 16 f8 be
       0.022340253 -0.07687444 0.09374416 -0.4845442
000110 fc 0e 14 3d 08 72 07 bd 7e dc 34 3c 6b dc 1c 3c
       0.036147103 -0.033067733 0.011038898 0.009574036
000120 33 36 2e bd 6e ba d4 3d 56 b3 a4 bc 3d 83 93 bc
       -0.042532157 0.10387121 -0.020105045 -0.018006915
000130 02 06 f5 bb 8f 03 0b bd 8c 86 cf 3c cf 0e 23 bd
       -0.007477523 -0.03393894 0.025332712 -0.039809044
000140 bf 31 0c 3d 87 45 12 bd 05 fc 0f 3c a6 e0 2b 3d
       0.03422713 -0.035710838 0.0087881135 0.04196229
000150 f3 d9 3e bd 31 b0 30 3c c0 10 3a 3d ee 25 29 be
       -0.04659457 0.010784195 0.04542613 -0.16518375
000160 14 07 1a be 88 0c 59 bd b9 5e 0d 3d b1 c8 90 3c
       -0.15041763 -0.052990466 0.034514163 0.017673822
000170 b0 21 03 bc c1 15 63 bd 96 96 c8 bb 87 81 b4 bd
       -0.008003637 -0.055440668 -0.006121467 -0.08813768
000180 f3 42 2e 3d 95 8e 97 bc 62 0c 6c 3c fc 95 ff bc
       0.042544317 -0.018500606 0.014407249 -0.031199448
000190 24 4c 0f 3e 8a ca a9 bc 72 d2 aa 3d cf b1 a9 39
       0.13993889 -0.020726461 0.083409205 0.0003236667
0001a0 c9 1a cb bd b7 88 f6 3d f9 04 62 bd 33 c5 59 3f
       -0.09917218 0.12037795 -0.055180524 0.8506653
0001b0 78 4b 25 3c 07 35 4b bd 66 9e cc bc 79 77 82 bd
       0.010088794 -0.049611118 -0.024977874 -0.06370444
0001c0 63 61 56 3d 5c ad 71 3b 6d d0 ea 3c 17 1a 90 3d
       0.05233897 0.0036877012 0.028663838 0.07036226
0001d0 8d aa 66 bd 09 da 79 bc 49 68 17 bc 74 ce d4 bc
       -0.056314994 -0.015249738 -0.009241172 -0.02597735
0001e0 bc 3d 75 3d 77 54 0c 3e 07 4e e9 39 2c 8b 64 3c
       0.059873328 0.13704096 0.00044499358 0.013949197
0001f0 c4 85 6c bd 56 33 5b be 48 69 04 3e e0 3e 6f 3c
       -0.057744756 -0.21406302 0.12930787 0.014602393
000200 c5 eb eb 3a 53 3f 1e bd 5c 7a 4a bd a7 38 40 bd
       0.0017999342 -0.03863461 -0.049433097 -0.046929028
000210 d1 30 1e be 54 06 53 3d ab 09 92 bc 04 b1 bd 3d
       -0.1544831 0.051519707 -0.017826876 0.09262279
000220 f4 78 04 3d 08 4b 7b 3c f4 0b 66 3d 5f 27 ed 3c
       0.032341912 0.015337713 0.056163743 0.028949438
000230 ff 99 bf bd 7d e8 83 3d fa 1f f5 bc 70 87 71 bd
       -0.09355544 0.06440828 -0.029922474 -0.058967054
000240 bc 66 37 3d 06 99 f7 bc 77 a9 25 3a 5c 5c 1c 3e
       0.04477571 -0.030224334 0.0006319503 0.15269607
000250 94 5d e5 bd bc e8 d2 bd b8 32 80 bd 81 bc 22 bc
       -0.11199489 -0.10298297 -0.06259674 -0.009932638
000260 1f 45 d4 bc ad d5 75 bd d4 b3 c5 3c 42 6e 05 3b
       -0.025911866 -0.06001823 0.0241336 0.0020359908
000270 23 d4 a2 bd 74 63 dd bc 75 67 8b bd a6 d7 c3 3c
       -0.07950618 -0.027024962 -0.06806842 0.02390654
000280 7b 47 7e 3c cd bf d0 bc 24 99 bb 3d cf 52 f0 3d
       0.015519972 -0.025482083 0.09160069 0.117345445
000290 d6 3d c7 3d 71 68 8a 3d e1 42 c1 bc df 82 07 3f
       0.09728591 0.06758202 -0.02359146 0.5293407
0002a0 75 58 75 bc fe fd 4d bd 30 a6 e7 bd 20 0e 3b 3d
       -0.014974703 -0.050291054 -0.113109946 0.045667768
0002b0 cd 18 05 bd af 5b 32 3b ef ba cc 3d 7f 72 55 3d
       -0.032494355 0.0027215292 0.09996592 0.052111145
0002c0 ec 0b 2b 3d 1f fd ba 3c ad 21 2f 3d 26 cc 49 3d
       0.041759416 0.022825776 0.042756725 0.049266957
0002d0 d9 c2 12 3d 49 ce fb 3a 8e df e7 bd b8 5d 13 bd
       0.035830352 0.0019211258 -0.113219365 -0.03597805
0002e0 c8 04 8c bd 5f e5 78 3c a7 bc 5d bc e2 89 cf 3d
       -0.068368495 0.015191405 -0.013533748 0.10133721
0002f0 44 97 56 3d e5 64 be 3d 95 fe 01 bc c7 d9 5d bc
       0.052390352 0.09296588 -0.007934232 -0.013540692
000300 a3 66 d1 3d b8 f2 10 3d ca 31 77 3f 8c 30 e2 3d
       0.102246545 0.035387725 0.9656035 0.11044416
000310 60 22 36 3d e2 e1 c0 bd b5 82 a1 bd 05 2b 1c bd
       0.044466376 -0.09418084 -0.078862585 -0.038126964
000320 a6 e8 17 3d 71 38 b8 3c 9f 20 f9 3c d2 da 99 bd
       0.037087105 0.02248785 0.030411063 -0.0751244
000330 3a da 17 3d 1e 7f e8 3d 19 0d 2b 3d 0a e7 0c 3c
       0.03707335 0.11352371 0.041760538 0.008600006
000340 59 c2 d7 bd dd cd 02 bb a6 56 35 3d 38 2d c1 bd
       -0.10535116 -0.001995913 0.044272088 -0.09432453
000350 63 cf ea bd 62 b6 96 3d 28 a1 91 bc d7 ed 85 3b
       -0.11465337 0.073590055 -0.01777704 0.0040871906
000360 42 09 2c bc 28 2d 8d bc 7f fd 35 3c 15 6d 48 3e
       -0.010500254 -0.017233446 0.011107801 0.19572861
000370 e6 f6 90 3a f2 e6 00 3e f9 a2 8c bd 2a 70 a1 bd
       0.001105991 0.12588099 -0.06867022 -0.07882722
000380 f8 f9 02 be 44 3f d9 3c 46 92 80 bd 0d 42 a3 bd
       -0.12790668 0.026519425 -0.062778994 -0.079715826
000390 e8 86 2c bd 88 04 8d ba ef 85 85 bd 46 44 08 be
       -0.042120844 -0.0010758797 -0.065196864 -0.13307294
0003a0 f4 96 10 bc 62 f8 84 3d 41 15 af bc 56 86 fa 3c
       -0.0088250525 0.06492688 -0.02137244 0.030581634
0003b0 47 3b 08 3e 54 5f 89 bc 10 c0 d2 bd b7 e3 83 3d
       0.13303863 -0.016769089 -0.10290539 0.064399175
0003c0 ee d4 a6 bd a5 2d a7 bd c2 25 63 bc 4b c8 cf bc
       -0.08146082 -0.08163003 -0.013863983 -0.025364062
0003d0 c8 f2 22 bd ed c2 a6 bc 0e 46 93 bd 14 18 4d bd
       -0.039782315 -0.02035662 -0.07191096 -0.05007179
0003e0 d1 49 07 3d 26 4e 08 3d 50 0b 16 bd 05 27 bd 3d
       0.03302938 0.033277653 -0.036631882 0.09235958
0003f0 f3 56 4e bd e2 51 7a 3d d7 16 88 3d f4 7d 2f bd
       -0.05037589 0.061113246 0.06644981 -0.042844728

e_discrimination.weight f4 [454, 1]
000000 8d 49 70 40 c8 54 61 3f 30 1c dc 3e 0a 40 d2 3f
       3.7544892 0.8801999 0.42990255 1.6425793
000010 62 d6 0b 40 98 c1 56 40 46 db 6b 40 9a b6 12 3f
       2.18496 3.355566 3.6852584 0.5730988
000020 39 99 2e 40 14 f2 3d 3f 14 a6 e6 3f be e5 45 40
       2.728102 0.74197507 1.8019433 3.0921474
000030 c0 93 e5 3e 73 10 c1 3c 91 a1 22 40 87 63 7c 40
       0.44839287 0.023567414 2.5411112 3.9435747
000040 1e 74 60 3f 3f 40 9c 3f a0 93 64 40 a9 d8 5c 3f
       0.8767718 1.2207106 3.5715103 0.862681
000050 e2 23 4b 3f 16 55 51 be a4 b1 8d 40 47 20 51 bf
       0.7935163 -0.20442614 4.4279346 -0.81689876
000060 8c 30 8c 3f 24 07 02 40 f2 4a 7a 40 2d 53 75 40
       1.0952315 2.0316858 3.9108243 3.8332016
000070 5d 64 20 40 6f a3 c4 3f 80 e3 b1 3f fa 40 e2 3f
       2.5061257 1.5362376 1.3897552 1.7676079
000080 9a 18 d4 3f 77 39 25 40 f7 f8 bc 3f 74 6c 1b 40
       1.6570008 2.5816324 1.4763478 2.4284945
000090 cf b4 ef 3f a7 37 bb 3f 37 dc 2c 3d 4b 4c 3a 40
       1.8727053 1.4626359 0.0422022 2.9109066
0000a0 11 ef 15 40 c6 92 07 40 4f 0e fe 3e 44 40 89 40
       2.3427165 2.1183333 0.49620292 4.289095
0000b0 bb b4 5d 40 d6 7d 38 40 9a 4b 08 40 1b 01 a3 3f
       3.464156 2.8826804 2.1296144 1.2734712
0000c0 91 8a 42 40 fd 66 6a 40 cf 7e 8a 3f 4c 3f 8c bf
       3.0397074 3.662536 1.0819949 -1.0956817
0000d0 40 10 0f 40 5a e8 04 3f ad d2 be 3f 5e e6 b6 3f
       2.2353668 0.5191704 1.4908043 1.4289052
0000e0 46 50 74 3f 81 ca 5c 3f 96 50 84 40 b6 7b 47 40
       0.9543499 0.86246496 4.134837 3.1169257
0000f0 7f 71 e9 3f b3 88 0d 40 5e 59 d1 bd ce 56 32 3f
       1.8237761 2.2114685 -0.102221236 0.69663703
000100 19 45 81 40 c3 0d 1d 40 47 2c 16 40 15 30 ac 3f
       4.039685 2.453965 2.3464525 1.3452173
000110 b3 5a 81 3f 32 97 19 bf dc 5d 35 3f 38 53 2a 40
       1.0105804 -0.5999633 0.70846343 2.6613293
000120 e6 9c 00 40 4a b9 2f bf 0e 31 f9 bb 66 a1 87 3f
       2.0095763 -0.68642104 -0.0076047247 1.059613
000130 b0 02 5d 40 75 b2 ef 3f a1 3b d0 3f c5 3f 46 bf
       3.453289 1.8726336 1.6268197 -0.77441055
000140 9d f5 3e 40 11 c7 5d 3f 04 e4 c7 3f fe 01 9a 40
       2.983741 0.86631876 1.561646 4.812743
000150 c0 3d b4 3f f5 19 61 40 8d 92 fb 3f 9f a6 01 40
       1.4081345 3.5172093 1.9654099 2.0257947
000160 f2 c9 75 3f 53 ec 86 40 0f ca 63 40 fb d2 7b 40
       0.9601127 4.216348 3.5592077 3.9347522
000170 50 0d 6f be e8 ef 5f be 68 51 bd 3f e3 8f fb 3e
       -0.23344922 -0.2186886 1.4790468 0.49133214
000180 2d 1e 47 bf 9e 99 07 40 d1 32 3d be 6b ee 61 40
       -0.7778042 2.118751 -0.18476416 3.5301769
000190 63 da 32 3f 47 97 ce 3f ff 12 e7 bf dd e9 14 40
       0.6986448 1.6139916 -1.8052672 2.326774
0001a0 cc 48 f0 3f e0 d4 c1 be 81 ce 4b 3e 80 4a 88 3e
       1.8772216 -0.37857723 0.19902994 0.2661934
0001b0 43 50 72 3f b5 95 b7 3f 6a 7b 85 40 cf 5c 44 3e
       0.9465372 1.4342562 4.171315 0.19176029
0001c0 4f 31 bc 3e c9 e9 70 3f cc 42 03 40 1c f4 49 3e
       0.3675637 0.9410673 2.050952 0.19722027
0001d0 ca ce e3 bf f0 e3 4d 3f eb e7 69 40 b3 0e ca 3f
       -1.7797482 0.8042593 3.6547801 1.5785736
0001e0 9c a8 1a 40 ac 50 e2 3f ea e0 f5 3e 86 e7 7f 40
       2.416541 1.7680869 0.48023158 3.998506
0001f0 fe e8 16 40 28 e5 16 3f 08 6a b8 3f fd 8b 83 40
       2.3579707 0.58943415 1.4407358 4.1108384
000200 2d ef 62 40 46 b0 82 bf b6 49 6d 40 8d 80 88 bf
       3.5458481 -1.0210044 3.707624 -1.066423
000210 37 8f db 3e de 64 87 40 65 e0 cb 3d cc bc c2 3f
       0.42882702 4.231063 0.09954909 1.5213866
000220 75 aa 46 3f be c4 b5 3c 51 34 6d 3f c8 d5 a8 3f
       0.77603847 0.02218854 0.92657954 1.3190241
000230 ec ed 09 3f 9f 63 1b 40 df 71 2a 3f a5 b4 c0 3e
       0.53878665 2.4279554 0.66580003 0.3763782
000240 ec c0 81 40 fc 40 77 3f a7 8c e5 3c a4 b7 70 3f
       4.0548 0.96583533 0.02802117 0.94030213
000250 16 36 c5 3f 0d 5f 22 40 48 ee a9 3f b6 25 8b 3f
       1.5407131 2.5370514 1.3275843 1.0870883
000260 a0 98 69 40 5b f4 3f bf 8a cc 02 3f 64 a7 dd 3f
       3.6499405 -0.7498223 0.5109335 1.7316709
000270 2f 6f 66 40 62 cc 97 40 bc 51 a0 3f 4e f3 82 3f
       3.600536 4.743699 1.2524943 1.0230501
000280 63 70 17 3f f4 2d 10 40 84 f1 af 3e ba d2 dc 3f
       0.59155864 2.2528048 0.3436395 1.7251809
000290 37 5e 90 3f ab 1f af 3f 7c 75 82 40 a9 2a 43 40
       1.1278752 1.3681539 4.0768414 3.0494788
0002a0 08 32 91 3f 81 ba 44 40 13 68 31 40 30 a5 16 3f
       1.1343393 3.0738833 2.7719772 0.58845806
0002b0 d3 bd e1 3e b4 d4 fd 3f 68 1e 5e 40 5b e2 57 40
       0.44090137 1.9830537 3.4706059 3.3731906
0002c0 4a 49 31 40 5f ff 95 3f a7 b3 32 3f b3 eb 60 3f
       2.7700982 1.1718558 0.6980538 0.8785965
0002d0 b0 2b 35 3f a8 11 67 3f ab 0b 85 3f ae 42 56 be
       0.70769787 0.90261316 1.0394186 -0.20923874
0002e0 0e 03 94 3f 3d 95 0c 40 33 05 24 40 be aa 4b 40
       1.1563432 2.1966088 2.5628173 3.1822963
0002f0 e1 75 24 3f ef fb eb 3f 81 5d ec 3f 17 58 b0 3f
       0.6424237 1.8436259 1.8466035 1.3776883
000300 ca da 86 40 ff c6 b9 3f 0d 7a db 3f 25 60 b7 3f
       4.2142076 1.4513854 1.7146622 1.4326216
000310 ce 00 2f 3e 1c 98 7e 3f 1e b2 f8 3d d8 ba 8a bf
       0.1709015 0.9945085 0.12143348 -1.083827
000320 65 5e 55 3f d6 f8 e2 3f 01 9e 1f 3f 7a 8d 96 40
       0.8334716 1.7732189 0.6235047 4.70477
000330 be 21 57 40 da bb b8 3f bb ca c2 3f e8 f8 8b 3f
       3.3614345 1.4432328 1.5218118 1.0935335
000340 11 61 b9 3d 87 6b 0d bf c1 eb 3e be 5e 6c 39 40
       0.09051717 -0.552422 -0.1864462 2.8972392
000350 4b 4e bb 3f 1a a4 0b 40 c9 f0 74 40 a0 cd 7c 40
       1.4633268 2.181891 3.8271964 3.9500504
000360 61 c5 83 40 7c 1b 17 bf 72 b3 40 40 1b 98 e4 3f
       4.117844 -0.5902631 3.0109525 1.7858919
000370 94 44 50 3f d8 04 d6 3f 27 32 47 be a2 de e4 3f
       0.8135464 1.6720228 -0.19452725 1.7880442
000380 e7 25 95 3f 2d d1 1d bf 1d c9 67 3f 44 e3 cd 3e
       1.1652192 -0.616473 0.9054125 0.40212452
000390 a3 f0 f3 3f 39 61 41 3f e8 3f 86 3f 36 94 16 40
       1.9057811 0.75538975 1.0488253 2.352796
0003a0 14 8d be 3f b1 c6 01 3f a5 9a 67 40 09 d6 86 40
       1.4886804 0.50693804 3.6188138 4.2136273
0003b0 29 04 82 40 69 0d 7d 40 1d 51 1b 40 6f 72 42 40
       4.063008 3.9539435 2.4268258 3.0382345
0003c0 f2 b1 4b 40 09 83 66 3f 83 58 a7 40 52 a4 4c 40
       3.182736 0.90043694 5.2295547 3.1975293
0003d0 37 3f 2e bf 0e e0 95 3f de e6 02 40 78 6e d3 bd
       -0.6806521 1.1709001 2.045341 -0.103238046
0003e0 cd 45 2f be 47 6b b9 3f c6 60 3d 3e 73 c3 0d be
       -0.1711647 1.4485863 0.18493947 -0.13844089
0003f0 f5 17 e1 3f b9 1b 90 be d7 ca b4 3f 57 b9 cc 3d
       1.7585436 -0.2814615 1.4124402 0.09996288

prednet_full1.weight f4 [128, 38]
000000 ef 6e b9 40 a0 3a 33 40 1d 33 ca 40 41 e8 58 40
       5.7947917 2.8004532 6.3187394 3.3891757
000010 97 a8 eb 3e b4 47 7b 40 81 89 0c 3f 8d 96 b5 40
       0.4602706 3.9262514 0.54897314 5.674628
000020 c4 9e 3d 3e ee cf cc 3f 9f de 31 40 04 75 1c 3f
       0.18517596 1.6000955 2.7792127 0.6111605
000030 c1 96 a0 40 7e 1f bf 40 a7 4c b8 40 19 89 ec 3e
       5.0184026 5.9725943 5.759357 0.46198347
000040 cf d9 af 40 29 4a b1 3f 7c 44 98 40 1d cb f5 40
       5.495338 1.3850757 4.75836 7.681044
000050 63 3d 3f 40 91 65 4d 40 89 20 db 40 ac 07 34 40
       2.9881217 3.2093241 6.8477216 2.8129683
000060 1a dd 1a 40 66 66 3f 40 00 00 00 00 0c 2f ad 3f
       2.419745 2.990625 0.0 1.3529983
000070 9b 25 c7 40 e0 11 3e 40 4f 7e b2 40 a6 bf 2d 3f
       6.2233405 2.969841 5.5779185 0.6787056
000080 61 ab aa 40 c3 c8 dd 3e 1c 84 c9 40 27 d6 a6 40
       5.3334203 0.43317232 6.2973766 5.2136416
000090 59 63 77 3f b9 ed 5b 40 a2 ac c2 40 c8 cf 33 40
       0.9663597 3.4363844 6.0835733 2.809557
0000a0 f5 21 cd 40 4c 09 6e 40 9c cb cb 3e 73 89 8b 40
       6.410395 3.7193174 0.3980378 4.3605285
0000b0 5b 25 10 3f fa 0e bf 40 25 3f 41 3e 75 00 f0 3f
       0.56307 5.970578 0.18871744 1.875014
0000c0 13 5c 37 40 3c 48 4a 3a 62 8d ad 40 ee 62 d0 40
       2.8649948 0.0007716452 5.4235086 6.5120764
0000d0 a7 09 b6 40 1b c9 b9 3e 18 32 bd 40 1c fe 14 40
       5.6886783 0.36286244 5.912365 2.3280096
0000e0 76 9c a5 40 d2 23 00 41 78 71 37 40 89 cd 2b 40
       5.175349 8.008745 2.8663006 2.6844199
0000f0 ac 4e dc 40 70 99 09 40 b8 da 22 40 4f 90 42 40
       6.8846035 2.14999 2.5445995 3.040058
000100 ad 57 86 40 0f c3 ac 3f 2f ed da 40 15 f7 3c 40
       4.1982026 1.3497027 6.841453 2.9525807
000110 bc cc b6 40 5c d2 2b 3f cb 49 b2 40 f4 98 a8 3e
       5.712492 0.6711786 5.571508 0.32929194
000120 f7 81 d7 40 e0 da 9a 40 6f 5d 73 3f f3 8c 51 40
       6.734615 4.839218 0.95064443 3.2742279
000130 6f 3e c0 40 9c 77 42 40 fb 05 c6 40 03 99 69 40
       6.0076213 3.0385504 6.18823 3.649964
000140 b0 62 15 3f 04 65 82 40 ea 37 91 3e 3d d2 a7 40
       0.5835371 4.074831 0.28362972 5.244414
000150 3d aa c9 3d 96 22 24 40 49 c5 31 40 21 d8 3c 3f
       0.098469235 2.564611 2.7776663 0.73767287
000160 38 4c a5 40 24 68 cc 40 be c2 bc 40 9c 80 68 3f
       5.165554 6.3877125 5.8987722 0.9082124
000170 2c ca aa 40 63 55 22 40 6c d8 9a 40 43 60 fa 40
       5.337179 2.5364616 4.8389187 7.8242507
000180 32 ec 44 40 8c b9 2b 40 46 16 e1 40 b1 9c 2e 40
       3.0769162 2.6832 7.033969 2.7283137
000190 31 1e 3c 40 16 f2 32 40 44 3e 8d 40 d5 17 b0 3f
       2.9393427 2.7960258 4.413851 1.3757273
0001a0 25 50 e4 40 3c 8f 45 40 ba 77 b4 40 fe a6 2a 3f
       7.1347833 3.0868673 5.639615 0.6666106
0001b0 a9 bc a6 40 dc 4b 04 40 3a cd c9 40 92 30 b0 40
       5.21053 2.06713 6.306302 5.505929
0001c0 ee 40 31 3f f3 e2 4f 40 d4 49 a0 40 81 2b 1f 40
       0.692397 3.248227 5.009012 2.4870303
0001d0 ec 0d b6 40 7d c7 44 40 ec 9e 46 3f d6 03 6f 40
       5.6891994 3.0746758 0.77586246 3.7346091
0001e0 73 a2 0d 3f 0e fa aa 40 7b 0d 0a 3f 44 eb 09 40
       0.55326 5.3430243 0.5392682 2.1549845
0001f0 da d4 5a 40 0f e3 52 3f 62 ab 96 40 57 d2 b5 40
       3.4192414 0.82377714 4.7084208 5.6819263
000200 f4 39 b3 40 e8 ec 51 3f ce 64 a4 40 c0 00 1a 40
       5.6008244 0.82002115 5.1373053 2.4062958
000210 e2 6e 91 40 9f cb d7 40 ba 38 2a 40 00 77 41 40
       4.5447855 6.743606 2.6597123 3.0228882
000220 0b ee bc 40 80 0f 1b 40 dd d3 56 40 c1 a8 22 40
       5.904058 2.422821 3.356681 2.54155
000230 8e 7d a2 40 fa 52 93 3f e0 f0 c6 40 ae 25 33 40
       5.0778265 1.1509697 6.2169037 2.7991748
000240 86 c6 9c 40 8b 6a 4f 3f 2b aa a3 40 0c 6b cb 3f
       4.899234 0.81021947 5.1145225 1.5892043
000250 8c 5c b9 40 97 b7 98 40 bc a8 7f 3f b1 80 41 40
       5.792547 4.772411 0.99866843 3.0234797
000260 a0 7f 87 40 2a 1a 19 40 db 4b 8d 40 07 ae 2a 40
       4.234329 2.392222 4.4155097 2.6668718
000270 5b 8a 26 40 72 86 28 40 86 49 29 40 d4 37 8c 40
       2.6021945 2.633206 2.6451125 4.381815
000280 35 f1 a9 40 08 e1 28 40 38 13 83 40 9a 98 d7 3f
       5.310694 2.6387348 4.096096 1.6843445
000290 82 af 55 40 38 bc 95 40 6f 27 93 40 42 db d2 3f
       3.3388371 4.679226 4.5985637 1.6473162
0002a0 78 f9 77 40 af e2 2e 40 cc b8 7d 40 86 c7 c5 40
       3.8746014 2.7325857 3.964404 6.180606
0002b0 ef 4c 3e 40 65 9b 21 40 af cc b5 40 2b 7d 2a 40
       2.9734457 2.5251095 5.681236 2.6638896
0002c0 26 5d 7b 40 c4 43 05 40 56 98 c9 40 7c ca 7c 3f
       3.9275603 2.082261 6.2998457 0.98746467
0002d0 db 3d bb 40 65 d5 03 40 3f 0e 60 40 0b cf bd 3f
       5.8513007 2.0598996 3.5008695 1.482881
0002e0 a4 32 85 40 74 a8 8c 40 02 33 9c 40 23 f9 98 40
       4.1624317 4.395563 4.8812265 4.780412
0002f0 6f 47 a1 3f fd df 26 40 9b db a2 40 7e ba 2a 40
       1.2599925 2.6074212 5.0893073 2.6676326
000300 ad 0f a8 40 28 48 3a 40 7f ea fb 3f 1c d2 43 40
       5.2519135 2.910654 1.9680938 3.059699
000310 fe 4e 27 3f 01 ea 9b 40 52 28 92 40 9f 75 21 40
       0.6535491 4.872315 4.567422 2.522804
000320 33 5b 68 40 18 20 a6 3f 63 13 7b 40 fa ef af 40
       3.6305664 1.2978544 3.9230583 5.498044
000330 fc 84 af 40 37 e2 a7 3f 56 7c 94 40 2c ec 3c 40
       5.4849834 1.311591 4.6401777 2.9519148
000340 59 3a 96 40 b3 94 d9 40 54 0b 4e 40 03 19 35 40
       4.6946225 6.7994018 3.2194414 2.8296516
000350 c1 71 cc 40 7a 39 30 40 58 48 43 40 e6 ee 17 40
       6.388886 2.753508 3.0512905 2.3739562
000360 15 35 ae 40 48 89 89 3f 9e 81 c6 40 01 c4 19 40
       5.4439797 1.074502 6.2033224 2.4025881
000370 25 17 86 40 80 4f 89 3f 98 85 97 40 1c 5a 43 40
       4.1903253 1.0727386 4.735058 3.0523748
000380 86 0b ae 40 e0 5a a8 40 ba 45 8d 3f a1 d6 51 40
       5.4389067 5.261093 1.1036904 3.278725
000390 b3 f0 b7 40 77 64 22 40 3f a5 ba 40 ee e8 57 40
       5.748132 2.537382 5.8326716 3.373592
0003a0 86 32 71 3f cc 33 81 40 2c 49 27 3f 47 da ae 40
       0.9421772 4.037573 0.65346026 5.464145
0003b0 b6 f8 33 40 6b 11 17 40 23 b8 6d 40 63 47 4a 3f
       2.812055 2.360438 3.7143638 0.7901518
0003c0 34 d3 a0 40 60 25 bd 40 05 d4 b0 40 80 d6 75 3f
       5.0257816 5.9108124 5.5258813 0.96030426
0003d0 56 55 aa 40 1b c6 19 40 25 3c 88 40 64 54 ef 40
       5.322917 2.4027164 4.257342 7.4790516
0003e0 ac bb 20 40 04 be 29 40 db 7f be 40 49 98 23 40
       2.5114546 2.6522226 5.9531074 2.5561697
0003f0 24 ae 4e 40 09 c3 2c 40 ff fe a8 40 38 c8 9f 3f
       3.2293787 2.699404 5.2811275 1.2482977

prednet_full1.bias f4 [128]
000000 26 86 29 bf 32 2e 6c bf 0b 4a 91 bf fb b1 9a bf
       -0.6622032 -0.9225799 -1.1350721 -1.2085565
000010 78 8e bb bf b7 0d b0 bf 0f 48 83 bf 58 34 9f bf
       -1.4652853 -1.3754185 -1.0256366 -1.2437849
000020 21 cb a8 bf 66 21 ab bf 20 83 9b bf 32 68 a9 bf
       -1.318699 -1.3369567 -1.2149391 -1.3234923
000030 6e 03 9b bf 81 33 6e bf 36 e8 ad bf b0 7b 9c bf
       -1.2110422 -0.9304734 -1.358649 -1.2225246
000040 18 13 ac bf c1 d8 83 bf 47 b8 9f bf b9 64 70 bf
       -1.3443327 -1.0300523 -1.2478112 -0.9390369
000050 59 5b 9a bf cc 1e a7 bf 46 bb 90 bf 08 f1 7e bf
       -1.2059127 -1.3056273 -1.1307151 -0.99586535
000060 87 9e 6e bf 5f 48 4b bf 94 4c 8c bf e7 d8 fb bf
       -0.93210644 -0.79407305 -1.096087 -1.9675568
000070 66 47 a4 bf dd 2f aa bf f2 05 9f bf 8f 68 94 bf
       -1.2834289 -1.3295857 -1.2423689 -1.1594409
000080 e4 b2 92 bf 9a 20 40 bf e0 4f b9 bf e8 94 a5 bf
       -1.1460843 -0.75049746 -1.4477501 -1.2936068
000090 88 62 8f bf 24 83 eb bf 77 bd 96 bf ad 9b 90 bf
       -1.1201944 -1.8399396 -1.177657 -1.1297508
0000a0 9b 56 9e bf 4c 27 ae bf 2e 30 dd bf b1 34 7c bf
       -1.237018 -1.3605742 -1.7280328 -0.985179
0000b0 71 ff 7c bf f2 35 5c bf a4 43 a8 bf aa a9 7e bf
       -0.9882727 -0.86019814 -1.3145642 -0.99477637
0000c0 fe c1 95 bf 2a 2c b8 bf 89 c2 69 bf 26 e9 9f bf
       -1.1699827 -1.4388478 -0.9131246 -1.2493026
0000d0 b5 69 63 bf 5a b1 e9 bf ed 09 85 bf 00 6b b3 bf
       -0.8883317 -1.8257248 -1.0393654 -1.4017029
0000e0 b9 4b 45 bf 1f 51 a6 bf d6 39 ab bf 39 7e 6a bf
       -0.7706867 -1.2993506 -1.3377025 -0.9159885
0000f0 fd 17 b5 bf 07 13 48 bf 10 ab cd bf a7 81 88 bf
       -1.4147946 -0.78154033 -1.6067829 -1.0664567
000100 42 10 86 bf 65 05 91 bf c9 dd d3 bf da 07 c1 bf
       -1.0473711 -1.1329771 -1.6552058 -1.5080521
000110 e6 72 98 bf 30 f9 00 c0 c2 3b 86 bf 2b 34 e2 bf
       -1.1910064 -2.0152092 -1.0486987 -1.767217
000120 35 d0 64 bf fe f4 c6 bf b8 70 b7 bf ec 52 9d bf
       -0.893802 -1.5543516 -1.4331274 -1.2290931
000130 81 dc d5 bf f0 be 98 bf d5 a7 a6 bf 40 fd ae bf
       -1.6707917 -1.193327 -1.3019968 -1.3671036
000140 fd c5 b4 bf 6d a8 64 bf e6 c0 8d bf a2 b9 9e bf
       -1.4122921 -0.893195 -1.1074493 -1.2400401
000150 ba 6a b0 bf fa 35 bb bf c7 df 97 bf 0a bd 8c bf
       -1.378257 -1.4625847 -1.1865166 -1.099519
000160 8c 48 4f bf 02 fe bb bf 25 54 98 bf 4f 95 98 bf
       -0.8097007 -1.4686892 -1.1900679 -1.1920565
000170 f6 0e a5 bf b4 f1 8d bf a1 00 a7 bf 7e b6 7f bf
       -1.2895191 -1.1089387 -1.3047067 -0.99887836
000180 b9 f9 6a bf b1 86 6c bf 71 b6 af bf 20 78 b1 bf
       -0.91787297 -0.9239302 -1.3727552 -1.3864784
000190 cb aa 91 bf f1 38 df bf 6e b5 84 bf 90 12 84 bf
       -1.1380247 -1.7439252 -1.0367868 -1.0318165
0001a0 5c a1 dd bf b0 d7 d6 bf d2 fc aa bf 2c 36 cd bf
       -1.7314868 -1.6784573 -1.3358405 -1.6032157
0001b0 5b 88 43 bf 4e 85 77 bf e3 74 c5 bf 87 d1 bc bf
       -0.76379937 -0.9668778 -1.5426296 -1.4751443
0001c0 06 30 a5 bf 4c 74 9b bf 27 0a 98 bf 7b 4f b0 bf
       -1.290528 -1.2144866 -1.1878098 -1.3774256
0001d0 58 52 6a bf d8 8f a5 bf 29 f0 b3 bf 34 b4 5e bf
       -0.91531897 -1.2934523 -1.4057666 -0.8699372
0001e0 1b 44 ac bf ab 7b cd bf c3 44 ab bf 63 3b a0 bf
       -1.3458284 -1.6053365 -1.338036 -1.2518123
0001f0 4b 6d 84 bf b0 c7 8b bf e5 ac a6 bf fe 1a 63 bf
       -1.0345854 -1.0920315 -1.3021513 -0.8871306

prednet_full2.weight f4 [64, 128]
000000 66 9f 69 3e b8 be 38 3e e5 c7 e2 3d bc 2d d2 3d
       0.22814712 0.18041503 0.11073283 0.102626294
000010 32 e7 a2 3d 67 8b 24 3d 96 65 d7 3d 6a fb ad 3d
       0.07954253 0.040172007 0.10517423 0.08495219
000020 f3 e7 a8 3d 5f 45 2a 3d aa f8 bf 3d c3 ca de 3d
       0.08247366 0.041570064 0.09373601 0.108785175
000030 39 25 81 3d c5 a7 e1 3d b3 3c e6 3c 5d d8 52 3d
       0.06305928 0.110183276 0.028105116 0.05147587
000040 68 87 8f 3d 17 6f e4 3d 4a f2 77 3d 4b 61 14 3e
       0.070082486 0.11154001 0.0605338 0.1449024
000050 21 45 9f 3d dc e9 2e 3d d6 e5 af 3d 6c 4a d3 3d
       0.07776857 0.042703494 0.085887596 0.10316929
000060 96 f5 9d 3d 0b cf 08 3e aa 7a ee 3d 00 00 00 00
       0.077128574 0.1336023 0.1164449 0.0
000070 83 9a a0 3d 25 ff cd 3d 49 22 60 3d 84 b9 7a 3d
       0.07841971 0.100584306 0.054720197 0.061212078
000080 7a 62 6a 3d 82 fd 40 3e 74 48 96 3c bd ff 9f 3d
       0.05722282 0.18846706 0.018345095 0.0781245
000090 5b 77 e7 3d 87 ff d9 3a 75 20 37 3d 0b 3f df 3d
       0.11302062 0.0016631939 0.044708688 0.10900696
0000a0 47 6e 55 3d 23 9b 75 3c e8 a1 1c 3c 7c 72 15 3e
       0.05210712 0.014990601 0.009560086 0.14594454
0000b0 80 17 1e 3e f2 dd 11 3e cc 51 b9 3d 0e ca 19 3e
       0.15438652 0.14244822 0.09048805 0.15018484
0000c0 e2 78 87 3d 03 58 dd 3c 6a f1 f5 3d e3 7a 9d 3d
       0.066148534 0.027019506 0.12008937 0.076894544
0000d0 8e 0a 01 3e 00 00 00 00 aa 3c 12 3e 34 11 9d 3d
       0.12601683 0.0 0.14280954 0.07669297
0000e0 1b f7 0f 3e 66 ba 65 3d b1 50 fb 3c ca 73 f0 3d
       0.14059107 0.056085967 0.030678125 0.11740835
0000f0 39 0b 94 3d ad 01 fc 3d b3 05 3b 3c c4 bf 09 3e
       0.07228703 0.12305007 0.011414933 0.13452059
000100 9a 6f 13 3e 3a 89 b8 3d ad 70 a1 3b 27 75 bb 3c
       0.14398041 0.09010549 0.004926762 0.022883011
000110 4e ab be 3d c9 f5 11 3c 47 bb a3 3d 45 ce a5 3c
       0.093100175 0.008908697 0.07994705 0.020239959
000120 e9 8e 62 3e 00 00 00 00 eb 3e 29 3d 59 1e b3 3d
       0.22124828 0.0 0.04131977 0.08746023
000130 f1 65 35 3c 41 0e a0 3d 83 2a af 3d 4f 29 55 3d
       0.011071668 0.07815219 0.0855303 0.052041348
000140 66 81 4f 3c f1 d0 da 3d 61 38 c2 3d 38 de a9 3d
       0.012665128 0.10684384 0.0948341 0.08294338
000150 c1 b3 4f 3d fb 6c cb 3b 55 89 de 3d 4f 5f a2 3d
       0.050708536 0.00620806 0.10866038 0.07928335
000160 34 63 04 3e 67 47 fd 3c e3 cb e3 3d 57 72 0a 3e
       0.12928468 0.030917836 0.11122873 0.1352018
000170 53 d9 2d 3d 0d 94 f1 3d 02 ac 56 3c f2 a2 c2 3d
       0.042443585 0.117958166 0.013102533 0.095037356
000180 49 45 44 3e 3f e8 e5 3d 7c 77 5e 3d a6 16 52 3d
       0.19167055 0.11225938 0.054313168 0.05129113
000190 de 3b b1 3d 97 74 bf 3c a8 99 ad 3d 6b 4f 2b 3e
       0.08653997 0.023371024 0.08476573 0.16729514
0001a0 00 00 00 00 0c c5 10 3c 18 b1 10 3d 62 5c d7 3c
       0.0 0.008836042 0.03532514 0.026289169
0001b0 a3 fc db 3d 89 2a 2a 3e 63 75 cc 3c 7f d9 f0 3c
       0.10741546 0.16617788 0.024958318 0.029400585
0001c0 1a e9 76 3c 84 43 84 3d e2 1c ce 3d d6 c8 2e 3c
       0.015070224 0.0645819 0.10064103 0.010668
0001d0 74 c2 07 3e 30 de 65 3d ee 8c b1 3c e6 f7 fe 3d
       0.13257772 0.056120098 0.021673646 0.124496266
0001e0 82 9f cc 3d b1 bc a6 3b 80 f5 9c 3d 05 35 8b 3d
       0.09991361 0.0050884117 0.07664013 0.06797222
0001f0 bc 7c d7 3d f2 77 44 3e 78 80 8d 3d 8b 75 d7 3d
       0.10521838 0.1918638 0.06909269 0.105204664
000200 80 16 9f 3d 48 cb 8e 3d 77 01 41 3d 12 67 83 3d
       0.077679634 0.069723666 0.047120538 0.064161435
000210 f6 53 aa 3d 02 2b 72 3d bd f4 90 3d ba 57 ab 3d
       0.083167955 0.059123047 0.0707793 0.08366342
000220 51 61 92 3d 75 8a 9f 3d 71 d5 5a 3d af 26 37 3d
       0.07147468 0.077900805 0.05342621 0.044714626
000230 e3 5a a8 3d 97 03 97 3d bd 7e 9f 3d 49 19 b1 3d
       0.0822046 0.073737316 0.07787845 0.08647401
000240 28 19 c0 3d d3 df 3f 3d 60 12 b9 3d 26 b0 9c 3d
       0.09379798 0.046844315 0.09036708 0.07650785
000250 67 fd 71 3d 53 90 a9 3d a5 d2 af 3d fc de ab 3d
       0.059079554 0.08279481 0.08585099 0.0839214
000260 ed 5a 85 3d 02 4d 8d 3d 10 e3 53 3d f7 1f b8 3d
       0.06511483 0.06899454 0.051730216 0.08990472
000270 18 98 68 3d d5 77 64 3d f6 f9 e9 3c 01 d5 9a 3d
       0.056785673 0.055778343 0.028561573 0.075601585
000280 70 05 ba 3d fd 0c 8e 3d d6 13 aa 3d 4c 94 41 3d
       0.09083068 0.06936071 0.08304565 0.047260568
000290 cc d2 72 3d f9 40 cb 3d fa a1 33 3d 32 e8 a9 3d
       0.059283063 0.09924502 0.043855645 0.08296241
0002a0 29 da a5 3d 4a 8a aa 3d b6 07 c1 3d 31 fa a1 3d
       0.080982514 0.08327158 0.09425299 0.07909048
0002b0 2c b0 24 3d 52 11 84 3d eb de ab 3d 9a 3a 77 3d
       0.040207073 0.06448616 0.083921276 0.06035862
0002c0 46 3e 7c 3d 9f 9e 84 3d ab 14 7c 3d 08 2f 83 3d
       0.061582826 0.06475567 0.061543148 0.06405455
0002d0 de aa 82 3d 3c 16 b9 3d 26 26 28 3d 2d b9 a7 3d
       0.063802466 0.09037444 0.041052006 0.08189616
0002e0 0e 18 40 3d 2c bf 9f 3d 21 95 79 3d e7 f1 2c 3d
       0.04689794 0.07800135 0.060933236 0.042222884
0002f0 20 cc 73 3d 17 e5 68 3d c3 eb 97 3d a4 fd a1 3d
       0.05952084 0.056859102 0.07418015 0.07909706
000300 4f 87 99 3d 45 8d 11 3d c2 98 af 3d f7 b3 bf 3d
       0.07496511 0.035535116 0.08574058 0.093604974
000310 f8 04 8a 3d 5f 72 c2 3d 19 35 58 3d c6 72 cc 3d
       0.06739229 0.09494471 0.052785013 0.09982829
000320 16 e3 57 3d 2d 0c 9c 3d b3 6d b5 3d b8 00 82 3d
       0.0527068 0.0761951 0.08858814 0.06347793
000330 1e 93 a2 3d cb 9c 28 3d 9e 74 7e 3d 7e ef a1 3d
       0.079382166 0.041165154 0.062122934 0.07907008
000340 b4 ea ac 3d a8 bb 6d 3d c6 3d 38 3d 22 e3 c5 3d
       0.084432036 0.05804029 0.044980787 0.09662463
000350 6e c1 af 3d b5 dd de 3d 5a 73 8b 3d 3c c1 b0 3d
       0.08581816 0.10882131 0.06809111 0.086306065
000360 50 06 3a 3d 75 7f a4 3d 28 e5 a4 3d 87 83 e4 3d
       0.045416176 0.08032123 0.080515206 0.11157899
000370 d1 bb 8d 3d 2e 81 6b 3d 29 e7 a6 3d 51 b5 4d 3d
       0.06920589 0.057496242 0.08149559 0.050221745
000380 95 20 88 3d 40 5f ce 3c f2 7b 7b 3d 90 15 95 3d
       0.066468395 0.025191903 0.0613975 0.07279503
000390 a4 2e 6d 3d 10 64 d9 3d a5 f7 88 3d 3c 6f bf 3d
       0.057905808 0.106147885 0.066878594 0.09347388
0003a0 e7 c8 e8 3d c3 42 af 3d 32 f4 96 3d c2 3f b4 3d
       0.11366444 0.08557656 0.07370795 0.08801223
0003b0 68 b4 d9 3d 17 3d b8 3d f3 8c a8 3d c6 9f 87 3d
       0.10630113 0.08996027 0.08230009 0.06622271
0003c0 59 20 b6 3d 32 27 a6 3d 26 7f a1 3d eb 2f 94 3d
       0.088928886 0.08112945 0.0788558 0.07235702
0003d0 24 15 9b 3d 0f f2 6d 3d cf fd 82 3d 8f 93 3e 3d
       0.07572392 0.058092173 0.063960664 0.04652744
0003e0 2e d2 55 3d eb 4a cf 3d 8e 88 b0 3d e0 43 83 3d
       0.052202396 0.10121711 0.08619796 0.064094305
0003f0 d0 4b 24 3d fb f0 9d 3d 1f 70 b0 3d ce a6 e1 3c
       0.040111363 0.07711979 0.086151354 0.027545359

prednet_full2.bias f4 [64]
000000 1c 36 9d bf 58 b3 9b bf eb cf 97 c0 90 56 80 bf
       -1.2282138 -1.2164106 -4.7441306 -1.0026417
000010 fb 8d 72 c0 65 39 7e c0 92 36 8d c0 4f d1 70 bf
       -3.7899158 -3.972253 -4.4129114 -0.9406938
000020 7a a7 3d c0 12 94 89 c0 58 8b 8e c0 3b c8 14 c0
       -2.963347 -4.299325 -4.4545097 -2.324721
000030 40 48 7f bf 6d c4 a2 bf 17 6d 52 c0 30 41 a7 bf
       -0.9971962 -1.2716194 -3.2879083 -1.3066769
000040 6a 2b e8 bf 52 7a 00 c0 17 df 85 c0 cc 12 1e c0
       -1.8138249 -2.0074658 -4.1834826 -2.4698973
000050 8c 57 88 c0 41 07 8d c0 36 8b 52 bf d0 8d cc bf
       -4.260687 -4.4071355 -0.8224367 -1.5980778
000060 bb 19 40 c0 04 91 83 c0 59 44 94 c0 19 b0 7f c0
       -3.0015705 -4.111452 -4.633343 -3.9951231
000070 6c e9 8a c0 e2 ae cd bf bf c5 3e c0 5b 63 64 bf
       -4.340994 -1.6068995 -2.9808195 -0.89214104
000080 9e 99 6b c0 ed 94 72 c0 f7 d2 8d c0 6e d8 8c c0
       -3.681251 -3.7903397 -4.4320025 -4.4014196
000090 dc 44 82 c0 95 9f 63 bf cd 38 87 c0 64 19 88 c0
       -4.0709057 -0.8891538 -4.2256837 -4.2530994
0000a0 83 bb 8d c0 78 48 2e c0 18 c8 aa bf 7c 38 16 c0
       -4.4291396 -2.7231731 -1.3342314 -2.3471975
0000b0 44 fa 90 c0 9d d4 a3 bf cf 57 88 c0 3d 34 80 c0
       -4.53055 -1.279926 -4.260719 -4.0063767
0000c0 11 d2 42 bf 31 05 8d c0 95 ea 8a c0 49 5b 8e bf
       -0.76101786 -4.4068837 -4.3411355 -1.1121608
0000d0 32 1e 91 bf ef 53 89 c0 49 54 83 c0 eb eb 5b bf
       -1.133734 -4.291496 -4.1040387 -0.8590686
0000e0 73 80 8d c0 f7 e6 94 c0 a1 f3 24 c0 67 8d 6d c0
       -4.42193 -4.653194 -2.57737 -3.7117555
0000f0 60 e7 56 c0 fa a2 5f c0 e9 84 8f c0 d3 1a 92 c0
       -3.357872 -3.4943223 -4.4849744 -4.5657744

prednet_full3.weight f4 [1, 64]
000000 d9 d2 c6 3c 97 d4 e7 3c 4d 0b 03 3e 6b cf 10 3d
       0.024270462 0.028299613 0.1279728 0.03535406
000010 b5 9e d7 3d 89 f9 cf 3d 32 b4 02 3e fe ee c9 3c
       0.10528318 0.10155017 0.12764052 0.024650093
000020 fd 34 47 3d a2 9d 0c 3e 2e 31 45 3e 00 ac 4c 3d
       0.048634518 0.13732007 0.19257042 0.04996872
000030 cf b9 aa 3c 91 f4 43 3d 26 73 a8 3d b5 1e d3 3c
       0.020840554 0.04784066 0.08225088 0.025771478
000040 b1 ee 49 3d b9 bf 42 3d c8 a9 db 3d a8 5e 6c 3d
       0.0492999 0.047546122 0.107257426 0.05770746
000050 9c a6 e3 3d 08 af 31 3e 91 10 a6 3c 20 ab 21 3d
       0.111157626 0.17351925 0.020271571 0.03946984
000060 c2 b6 71 3d 83 73 f2 3d 35 f9 ff 3d 75 79 ac 3d
       0.059012182 0.11838438 0.12498704 0.084216036
000070 be 28 db 3d c2 79 18 3d af 62 bd 3d 2b 12 4c 3d
       0.1070113 0.037225492 0.09247338 0.049822014
000080 c1 41 fb 3d 58 6a aa 3d e5 75 ef 3d 35 e8 f7 3d
       0.12268401 0.08321065 0.116924085 0.12104837
000090 17 ca f8 3d af 58 07 3d df 60 1c 3e 0e ff b9 3d
       0.121479206 0.03304356 0.15271328 0.09081851
0000a0 f8 29 1d 3e 46 0c 8b 3d 3d 10 79 3d 6e e6 9c 3d
       0.15348041 0.0678945 0.0608065 0.076611385
0000b0 da bc c9 3d 5d 07 43 3d 11 82 17 3e 58 47 da 3d
       0.09850474 0.047614444 0.1479571 0.10658139
0000c0 ad 18 43 3d bf 9d de 3d d8 8f de 3d 45 d3 bf 3c
       0.047630955 0.108699314 0.1086728 0.02341617
0000d0 04 22 47 3d de d6 04 3e 27 30 ed 3d af 8d 0d 3d
       0.048616424 0.1297259 0.1158145 0.034558948
0000e0 d9 c6 c9 3d 93 e7 b7 3d 80 16 a9 3d e5 80 cf 3d
       0.0985238 0.08979716 0.08256245 0.101320066
0000f0 ab 52 2a 3d f1 f9 65 3d c8 cd dc 3d 81 2a df 3d
       0.041582745 0.056146566 0.10781437 0.10896779
