model/ckpt/model_Dense_ProbabilityAndStatistic_train_ncd.pt (torch, 528938 bytes, 8 tensors)

student_emb.weight f4 [105, 247]
000000 d8 c8 b9 bd d8 6a 5e bd d3 10 b7 3c e5 eb 0e 3d
       -0.09071511 -0.054301113 0.02234689 0.034892935
000010 a5 f5 0d bd 59 7e ba 3d 7d 3d e1 bb e3 e6 83 3b
       -0.034658093 0.0910613 -0.006873785 0.0040253266
000020 fa dc df 3c fa 08 65 bd 75 a6 4d 3c 52 0c 96 3d
       0.02732705 -0.055916764 0.0125518935 0.07326569
000030 2f 87 68 3d 89 71 3e 3d b9 7a fb bb ec 1c d9 bc
       0.056769546 0.046494994 -0.007674542 -0.026503049
000040 88 a4 cc bc 93 35 9c 3d e7 77 d4 bd 3b e1 9b bb
       -0.024980798 0.07627406 -0.10374432 -0.004757074
000050 ad a3 80 3d e0 56 18 3e 13 15 99 3c 5d 4d 11 be
       0.06281219 0.1487689 0.018686807 -0.14189668
000060 89 1e f9 3c 07 d7 8b bc b9 2e d5 3d d9 d9 2b 3c
       0.030410068 -0.017070306 0.10409302 0.010488951
000070 a4 f9 ee 3d 98 b5 59 3d 2d 4b a4 bd 31 39 f9 3c
       0.11668709 0.053151697 -0.08022151 0.030422779
000080 c8 10 0d be 68 2d 22 3d ae b7 c4 3c 2c 35 bf 3c
       -0.13775933 0.039594084 0.024013367 0.023340784
000090 c6 72 8e 3d 54 cf e8 bd 25 00 ef bd eb 70 3b 3c
       0.06955485 -0.1136767 -0.116699494 0.011440496
0000a0 d7 c8 88 bd 5c bb 54 3c 4c 6e 5b 3d cd 9d ba bd
       -0.06678932 0.012984123 0.053571984 -0.09112129
0000b0 7e 23 37 3d d6 07 4b 3d 1f 6d 95 3d 43 de 8c bd
       0.044711582 0.04956802 0.07296204 -0.068783306
0000c0 e2 3c 3d 3d 2f 66 d8 bd c3 b1 14 bd db 3f 83 be
       0.04620064 -0.10566365 -0.03630234 -0.25634655
0000d0 41 f0 4e 3e 17 c2 5b 3d 17 b6 2b be 5d bc 1c bd
       0.20208837 0.053651895 -0.1676868 -0.038265575
0000e0 00 ea fe 3c 3e 1a bc 3c 35 a8 49 3d 08 b6 64 bd
       0.03111744 0.022961732 0.04923268 -0.05583766
0000f0 5d da 98 bd fe a0 cf bc 31 09 3f bc 59 90 1f 3d
       -0.074635245 -0.025345322 -0.011659906 0.03895602
000100 bc 88 b7 3d 41 52 a0 bc 0f 38 13 bc 67 ae 53 3d
       0.08961627 -0.019570472 -0.008985533 0.051679995
000110 27 a6 3c be 97 7c 13 3e bb 66 b9 3d b8 eb 07 3d
       -0.18422757 0.14402996 0.090527974 0.033183783
000120 ca 21 d9 bd 9b 09 d1 37 2d 7a 7e bd b1 2b fd bc
       -0.10602148 2.4919214e-05 -0.062128235 -0.030904623
000130 8a f8 a8 bd 26 ad a7 3d 64 a9 f4 bc fa 74 b5 3d
       -0.0825053 0.08187322 -0.029865928 0.08860202
000140 f2 fd c9 3c a8 b2 9c 3d e7 4a b8 bd 75 c0 3e 3d
       0.024657223 0.076512635 -0.089986615 0.04657026
000150 39 d1 2a 3d 5d 5c b8 ba 07 24 62 3d 00 b8 f7 3c
       0.041703437 -0.0014065612 0.05521014 0.030239105
000160 53 b5 bd 3d 0b 2b f0 3c 68 25 6f bd 10 ca f6 3c
       0.092631005 0.0293174 -0.058385283 0.030125648
000170 f9 ed 91 3d d2 ed 45 3c 2b f9 b8 3c df 67 26 be
       0.07125468 0.012080627 0.02257975 -0.16250561
000180 4c 03 7f 3d 0a 95 48 bd 29 13 5c 3d d2 fe 4e 3d
       0.062259004 -0.04897026 0.05372921 0.050535984
000190 9b b4 0e bd 00 f0 77 bc cb e6 dc bc c0 26 a7 bc
       -0.034840208 -0.015132904 -0.02696552 -0.02040422
0001a0 78 0f bb 3c 4e 93 49 bc f7 1e 36 3d fa a8 18 3e
       0.022834525 -0.012303187 0.044463124 0.1490821
0001b0 39 26 41 bd ee cf 81 bb 65 dc 82 bb d5 3d bb bd
       -0.047155593 -0.0039615547 -0.003993558 -0.09142653
0001c0 56 ba 46 3e 35 dd 67 3d 4d 85 7c bd bb 4d f9 bd
       0.19407019 0.056607444 -0.061650563 -0.12173029
0001d0 d0 cf 91 bc 0a 50 da bc ef b2 42 3c 96 65 be 3c
       -0.017799288 -0.026649494 0.011883481 0.0232418
0001e0 07 fe f0 bc a1 95 96 3d 2a 64 59 bd 6e 78 fa 3c
       -0.029418005 0.07352758 -0.05307404 0.030575003
0001f0 f7 03 64 3d 32 3b 4b bd dc 71 bf bc 26 51 a4 bd
       0.055667844 -0.049617 -0.023369722 -0.0802329
000200 9d c7 5a bb cc 1e aa 3b a4 6f 54 3b 2a 14 db bd
       -0.003338314 0.0051916596 0.0032415176 -0.10697205
000210 35 16 b7 3d d6 f6 4e 3d cb f1 c0 bd 29 3b 14 3c
       0.089397825 0.05052837 -0.09421118 0.009047308
000220 3b fd 14 be c0 f1 3f 3d bb c4 89 bd e5 a0 74 bc
       -0.14549725 0.04686141 -0.067269765 -0.014930938
000230 58 1d 48 3d ef e0 bc bd 30 c6 a0 3b 09 ff 21 3c
       0.04885611 -0.0922259 0.0049064383 0.009887465
000240 40 1e 29 bd 8f 65 b7 bd d8 e8 c9 3d 29 60 a8 3c
       -0.041288614 -0.08954918 0.098588645 0.020553665
000250 06 08 2e 3b 4a 21 3f 3d f8 3f 36 bd 49 7e d3 bd
       0.0026555075 0.046662606 -0.0444946 -0.10326821
000260 ef 4d 27 bd 04 9b bf 3d dd cb a6 bc c0 e7 51 bd
       -0.040845808 0.09355739 -0.020360881 -0.051246405
000270 d1 bf 4c bd c4 42 d1 bd bc cf c2 bd ce 08 a5 bc
       -0.049987618 -0.10217813 -0.095122784 -0.0201458
000280 c8 81 d4 bd 1a d4 06 3e 17 06 42 3d 23 9a b6 bd
       -0.10376316 0.13166848 0.04736909 -0.08916118
000290 0a f7 34 bd 4c e2 e6 3c cd 76 77 bd 8d 1f 8b bd
       -0.044180907 0.028184079 -0.06041603 -0.06793127
0002a0 0f 7d d0 3d 4d e6 14 3e 0e 6f 3a bd 9e 60 a0 bb
       0.10180103 0.14540978 -0.045516066 -0.00489433
0002b0 c8 22 c6 3c a3 f7 41 ba 9e fb 7b bd 3c 46 bc 3c
       0.024186507 -0.00073992665 -0.061519258 0.02298271
0002c0 09 ec b2 3d 49 35 61 bd ba 66 d0 bd 13 10 c7 3c
       0.087364264 -0.054982457 -0.101758435 0.024299657
0002d0 45 59 eb bd 61 fb 73 bc 54 23 d7 bd c4 de 96 3c
       -0.11491636 -0.014891476 -0.10504785 0.01841677
0002e0 72 b9 18 3e b5 22 8b 3d ec d8 3d bd b8 00 b8 bd
       0.14914492 0.06793729 -0.04634945 -0.08984512
0002f0 74 46 39 3d bf 2c 1b 3b 88 36 19 be 96 78 82 be
       0.045233205 0.0023677794 -0.14962208 -0.25482625
000300 e0 32 e3 bb 71 68 6f 3d 98 e9 63 bd e9 0b a5 3d
       -0.006933555 0.058449212 -0.055642694 0.08058912
000310 35 e8 f9 3c 1d a9 0b be 30 08 93 bc 9d ba de bd
       0.030506233 -0.1363873 -0.01794824 -0.108754374
000320 6c f8 0c bc c8 a3 ca bd 7e 42 8a ba b4 fb d7 3c
       -0.00860415 -0.0989452 -0.0010548381 0.026365139
000330 00 c0 b5 3d ab f0 ba 3d c7 cf ce bc 6a b7 16 3d
       0.08874512 0.09127935 -0.02524556 0.03679601
000340 ea d7 b3 bd 8e fb 1a be ba aa a4 bc 3e fe 40 bd
       -0.08781417 -0.15135023 -0.02010094 -0.047117464
000350 7f 71 16 be 9d e0 e3 3c ba ae 3a bd 1b b9 0c 3e
       -0.14691733 0.027817065 -0.04557679 0.13742487
000360 66 2e 60 bb ec ea 2e 3d 8c 33 a8 3d b4 94 a3 bd
       -0.0034207343 0.042704508 0.08212957 -0.07987347
000370 c6 d9 68 3d 9c 35 2c bc 32 fa dc bc 32 03 c6 3c
       0.05684831 -0.010510828 -0.026974771 0.024171446
000380 79 fd a9 3d 86 67 a3 b8 ab 01 59 bc 7d 5d a2 3d
       0.08300299 -7.7917284e-05 -0.013245027 0.07927988
000390 cc 50 d5 3d e7 e5 20 3d dc 05 6b bc 91 57 2f 3d
       0.104158014 0.039281752 -0.014344659 0.04280812
0003a0 a8 14 c8 3b 43 01 60 be 75 08 aa 3c b0 c8 69 3d
       0.006105978 -0.21875481 0.020755986 0.057076156
0003b0 c8 6d 4b bd e8 61 d4 3d d0 39 d2 bc cf 4d fe 3c
       -0.049665242 0.10370237 -0.025662333 0.031042961
0003c0 86 c5 0f bd 88 58 72 3d 2c 2c 91 bc ec 7b 22 3d
       -0.035100482 0.05916646 -0.017721258 0.039668962
0003d0 8d d3 bd bd c6 ce ca 3d 27 84 a3 bd 64 53 8c bf
       -0.09268866 0.0990272 -0.079841904 -1.0962949
0003e0 0d 3e 68 3e 7d f5 5f bc 7b f8 7d bf 22 30 41 3d
       0.2267992 -0.013669369 -0.99207276 0.047165044
0003f0 8d fb d1 bd 7e 88 78 bc bb 5d 72 3f 49 e4 1f bd
       -0.10253058 -0.015169261 0.9467427 -0.03903607

k_difficulty.weight f4 [263, 247]
000000 a3 27 03 bd 08 af b5 bc 13 e8 b1 bd bd e7 94 bd
       -0.032020222 -0.022178188 -0.08686843 -0.07270763
000010 9b a6 d0 bb 78 c1 07 3e 97 4c 91 ba 3c 25 84 3c
       -0.006367517 0.13257396 -0.0011085448 0.016131036
000020 dc 98 c7 bb 32 a6 26 be 94 21 1b 3c a1 90 87 bd
       -0.0060912203 -0.16274336 0.009468455 -0.06619383
000030 29 a2 00 3d 27 65 b2 bd c1 ce ac bc 9b f5 66 bc
       0.031404648 -0.087106995 -0.021094682 -0.014096643
000040 e9 9b d9 bd c8 57 e6 3d f9 da cc 3d 3e b3 e1 bd
       -0.106254406 0.11247212 0.10002703 -0.11020516
000050 2c 86 8e bc 26 b6 8a b8 08 a6 f0 3d ea 48 15 bb
       -0.017397963 -6.6142806e-05 0.11750418 -0.0022779056
000060 fe 96 13 3c ff b5 34 3d f1 07 88 3d 34 17 fa bc
       0.009008167 0.044118878 0.0664214 -0.030528642
000070 8d 80 d1 bc 17 9c c8 3c a9 35 f4 bb be 67 07 3d
       -0.025573993 0.024488492 -0.007452686 0.03305792
000080 94 c1 81 3d 70 aa 89 3d d3 f1 8f bd 9f b5 50 bc
       0.0633575 0.067219615 -0.07028546 -0.012738614
000090 d4 6c 88 bc 88 bc 18 bc 8f b0 85 3d 82 00 08 bc
       -0.016653456 -0.009322293 0.065278165 -0.008300902
0000a0 dc eb e9 bd ee ae bf bb 8e 07 8e 3c d4 09 cf 3c
       -0.1142194 -0.0058497107 0.017337587 0.025273241
0000b0 90 d5 85 3d 18 5f 77 3c 29 fd a8 bb 6a c9 be 3d
       0.065348744 0.015098356 -0.005157132 0.093157604
0000c0 b1 8b 27 bd 8b 45 86 3d b5 7b b2 bc 49 a0 39 bd
       -0.040904704 0.06556233 -0.021787504 -0.045318875
0000d0 cb fb 60 bd a8 c7 04 be 00 61 01 bb 3d 69 1f be
       -0.05492763 -0.12966788 -0.0019741654 -0.15567489
0000e0 c4 6d ac bd 6a f6 63 bd 6a f7 ab 3c 12 96 c9 3c
       -0.08419374 -0.05565492 0.020992 0.024607692
0000f0 49 40 e2 3c 15 6c 85 bd 45 7b 2c bc de 2f 13 3e
       0.027618544 -0.06514756 -0.010527437 0.14373729
000100 42 ce db 3d fa 84 ac bc dc f9 05 bd 3b bf 56 3d
       0.107327 -0.021059502 -0.032708988 0.052428465
000110 1f ab c0 bb 1c fc 92 3d 03 b9 0b bd 20 98 af bc
       -0.005879774 0.07176992 -0.034111988 -0.021434844
000120 ff 02 05 3d 84 3b 12 bd cf 3e ed 3c bf 36 83 3d
       0.03247356 -0.03570129 0.028960614 0.06406926
000130 fa c8 60 bc f4 4b c3 3c 99 1c 5b 3d 3f 63 ad bc
       -0.013719792 0.023839928 0.05349407 -0.021165488
000140 6f ad e3 bc 09 71 bc bd c4 2f f5 bd 76 e1 30 3d
       -0.02779266 -0.09201247 -0.11972001 0.043183766
000150 4b c0 6e bb 21 ad ab bd bf 86 de 3c e0 8c 59 3d
       -0.0036430534 -0.08382631 0.027163861 0.053112864
000160 52 1e 69 3d 0f 6a bd bd 82 45 41 bd 80 8e f3 3d
       0.05691368 -0.09248745 -0.04718543 0.11892414
000170 8c fb da b8 59 2a d6 3d 1b 7d 1e 3c fe fd bd bd
       -0.00010441904 0.10457296 0.009673382 -0.09276961
000180 5c b6 1c 3c 50 5a 0e bd f2 8e b7 3c e0 9a 59 3d
       0.009564962 -0.034754097 0.022407029 0.053126216
000190 58 89 ea 3d 96 91 a3 3d 69 39 25 3c e3 e3 4c bd
       0.114519775 0.07986753 0.010084488 -0.050022017
0001a0 f4 54 99 3d 44 fe 11 3b 9c f8 6d bd d3 2b 35 bd
       0.07486907 0.0022276798 -0.05809842 -0.044231247
0001b0 04 ef 0d 3d 88 97 c5 bd 57 27 46 3c 7a 6a 2d bd
       0.03465177 -0.09648043 0.01209434 -0.042337872
0001c0 b3 fa 1d 3d a4 11 d0 3d 29 7c 01 be 08 e5 04 bd
       0.038569164 0.10159615 -0.1264502 -0.032444984
0001d0 22 a6 78 3c ba 9c 97 3d 6e 58 b7 3b 48 85 ea 3d
       0.015176328 0.0740294 0.0055952584 0.11451203
0001e0 ad ba a7 3c 05 30 e7 bd 75 48 88 3d ec d5 d2 3c
       0.020474756 -0.11288456 0.06654445 0.025736772
0001f0 6f d2 be 3d 92 db 4b 3d 1f 83 c3 3d d9 a1 6b bc
       0.09317481 0.049769945 0.09546494 -0.014381849
000200 07 d8 47 3e 1b 22 7c 3c 67 c4 ad 3c d3 5a 82 bc
       0.19516002 0.015388991 0.021211816 -0.015912449
000210 01 3e 8b bc e5 59 3c 3d 8f 8b fc bc 31 4d 3f 3d
       -0.01699734 0.045984168 -0.030828265 0.046704475
000220 71 2e 00 3e 88 4c 98 3d 85 a8 e8 bd 9c b9 49 3c
       0.12517716 0.07436472 -0.113602675 0.012312319
000230 2b 5d ae 3c a0 06 0a bd 2e da f6 3c c5 85 a6 bd
       0.02128466 -0.033697724 0.030133333 -0.08130983
000240 40 99 b7 3c 45 ef d6 bd 7e 0f 26 bd 33 75 ab 3c
       0.022411942 -0.10494856 -0.04054212 0.020929908
000250 e3 c9 b9 3c 35 56 31 bc 2e 70 d8 3b ea 56 02 3d
       0.022679275 -0.010823776 0.0066051697 0.03182117
000260 b6 90 0d 3e fa 2e ae 3c 02 1a 24 bd ed a4 90 bd
       0.13824734 0.021262635 -0.040063865 -0.07062707
000270 83 ce 84 bc 07 91 2f bd 36 63 1c 3e 23 6e 87 bd
       -0.016211754 -0.04286292 0.15272221 -0.06612804
000280 81 ff ef 3d 9d 3a 4e 3e 63 33 4b 3d fa 3f 07 bc
       0.117186554 0.20139547 0.049609553 -0.008254999
000290 f6 d2 08 be d5 75 d9 3d 4b e9 dd 3c d6 e8 77 bd
       -0.13361725 0.10618178 0.027088782 -0.060524784
0002a0 ad 38 8c bd 8f 94 13 be 06 1b 95 bd 94 e4 b4 3c
       -0.068467475 -0.1441214 -0.07280545 0.02208165
0002b0 6d e5 a2 bd 05 86 e1 3c d9 8a 72 3d 18 a5 17 3e
       -0.07953916 0.027529726 0.059214447 0.14809072
0002c0 c8 dd cb 3c 80 14 6f 3d bc 7d e2 3d af 97 a9 bc
       0.024886027 0.05836916 0.11059138 -0.020702211
0002d0 3d 69 4e 3a 09 8e c4 3c e1 c9 14 3c 15 77 04 bd
       0.0007873958 0.023993509 0.009081335 -0.032340128
0002e0 ff 8b 51 3b 43 4f b1 3a 7d 1c 32 3d 90 d2 aa bd
       0.0031974313 0.001352765 0.0434842 -0.08340943
0002f0 2f 3d f3 bb 4e 04 64 bb 12 26 82 bc 01 d7 19 bd
       -0.007423065 -0.0034792605 -0.015887294 -0.03755856
000300 f7 22 9e 3d 32 b8 74 3d 59 aa d0 3c 01 36 86 3c
       0.07721513 0.059745975 0.025471853 0.016383173
000310 f7 ab 2a bd 00 1b bd 3d 91 f1 80 bb de 9a 5c bd
       -0.041667905 0.092336655 -0.003935047 -0.05385863
000320 d3 d7 31 3c 2d 83 bd 3d d9 df 61 3d 7d 37 cf bd
       0.010854679 0.092535354 0.05514512 -0.101180054
000330 57 85 95 3c 31 f2 8e 3d 10 a5 28 bd 42 b5 4e bd
       0.018252058 0.06979788 -0.04117304 -0.05046583
000340 b4 17 67 bb 47 82 35 bd 3a 92 7e bd 12 9b a2 bc
       -0.003526193 -0.044313695 -0.06215117 -0.019849334
000350 1f 66 7b bd 6a 71 8a 3d d3 b4 11 3d 9e dd 57 bc
       -0.061376687 0.06759913 0.035572838 -0.013175396
000360 f8 2b 5e 3d ba a9 57 bd 3a c1 5b bd c6 32 70 bd
       0.05424115 -0.0526521 -0.053651072 -0.05864217
000370 c1 17 21 bd 2d 3f 13 bd 60 c3 ee 3d 66 86 82 3d
       -0.039329294 -0.03594892 0.116583586 0.06373291
000380 ab 71 91 3d 55 ca 1e bd b7 89 93 3d 29 11 53 bb
       0.071017586 -0.038767178 0.072040014 -0.0032206273
000390 97 32 81 3d 1a 5c 0f bd 54 6c f9 bc a4 e4 01 bc
       0.06308477 -0.034999944 -0.030447163 -0.007928047
0003a0 91 2d 92 bd c4 ed b3 bb 04 b1 d1 3d 90 1e 8b 3b
       -0.07137597 -0.0054909904 0.10238841 0.0042455867
0003b0 f0 22 24 bd 52 fb ca bd 0a e0 35 bd 9b 0f 43 3d
       -0.04007238 -0.09911217 -0.044403113 0.047622304
0003c0 db fd 87 3d 96 2d 4c 3d d6 12 42 3d 11 1c ae bd
       0.06640216 0.04984816 0.047381245 -0.08501447
0003d0 c9 9f 34 3d 14 c5 08 3d db 46 01 3c 17 30 a1 3d
       0.044097695 0.033391073 0.007890428 0.078705005
0003e0 23 d8 bc 3d cf 6e ac bc 32 21 c3 3b 3a 88 ee bc
       0.09220912 -0.021048931 0.005954885 -0.029117692
0003f0 d2 86 50 3d 6d 75 35 3d 4a 5b 2f 3d fc 5f e8 bd
       0.050909825 0.04430144 0.04281167 -0.113464326

e_discrimination.weight f4 [263, 1]
000000 ec 5a 62 40 39 31 1e 40 06 3e 22 c0 a4 c7 6a 40
       3.5367994 2.4717543 -2.5350356 3.668435
000010 95 19 2a 40 ba 65 11 c0 04 d6 4d 40 04 44 64 40
       2.6578114 -2.271834 3.2161875 3.5666513
000020 25 6f 89 40 f1 54 71 3f 6f 55 61 40 80 10 29 40
       4.2948174 0.94270235 3.5208395 2.641632
000030 b4 a1 87 3f 3f cd 0e bf 66 ef 3b 40 d6 18 51 40
       1.0596223 -0.5578193 2.9364867 3.2671409
000040 29 fd 2c 40 48 4b 08 40 f3 f3 3c 40 e5 79 78 40
       2.7029517 2.1295948 2.9523895 3.8824399
000050 2e c9 37 40 5a e2 34 40 0c 8f e8 bf 1d c1 86 40
       2.871654 2.8263154 -1.8168654 4.2110734
000060 e3 db 52 40 2f e9 09 40 c6 a7 6a 40 e4 b3 4a 40
       3.2946708 2.1548574 3.66649 3.1672297
000070 59 ff 86 3f 67 24 5f 3f 14 2a 4f be a3 99 5d 40
       1.0546676 0.8716492 -0.20230895 3.4625022
000080 98 a7 dd be a0 f8 ea bf 58 cb fb 3e 16 a4 3a 40
       -0.43291926 -1.8357124 0.49178576 2.916265
000090 5e 75 d7 bf 06 ab be 3f a1 bd ca 3e 40 05 99 40
       -1.6832693 1.4895942 0.395978 4.781891
0000a0 64 97 e9 bd 90 15 f0 bf 52 21 06 c0 6f 9a 32 bf
       -0.114058286 -1.875658 -2.0957837 -0.69766897
0000b0 37 84 b8 3f b8 58 72 3f d7 19 3a 3e d9 ab a3 3e
       1.4415349 0.94666624 0.1817392 0.31967047
0000c0 c3 91 09 40 38 50 85 bf 8a be 05 3e 39 9e 8d bf
       2.1495216 -1.0415106 0.13060966 -1.1063911
0000d0 ec 5b 90 40 1d c6 62 3e 01 28 a7 3f 3e 7d a3 3e
       4.511221 0.22145887 1.3059083 0.3193149
0000e0 17 5c 3d 40 17 58 94 bf 14 35 ee 3f db 89 c1 3f
       2.9587457 -1.1589383 1.8609948 1.5120195
0000f0 01 52 9e bf 08 8c 7c 40 14 af 6f 40 ea 55 3d bf
       -1.2368776 3.9460468 3.745061 -0.7395922
000100 3f 3e 90 40 ff b3 14 40 ea 0f 5d bf 5b 65 66 40
       4.5075984 2.323486 -0.8635241 3.5999362
000110 83 dc a7 bf 7c 0b 19 bf 7e 89 79 bf 73 5a bc bf
       -1.311417 -0.5978315 -0.9747542 -1.4715103
000120 aa a8 98 bf b5 4a fe 3f e2 01 86 40 05 d4 1a 40
       -1.1926472 1.9866549 4.18773 2.4191906
000130 4a 16 8e 3f f2 6d 31 40 8c bd 57 3f 03 ca 26 c0
       1.1100552 2.7723355 0.842736 -2.6060798
000140 a4 23 02 bf 01 56 5d 40 50 73 60 40 7d a6 61 40
       -0.50835633 3.4583743 3.507038 3.5257866
000150 a8 45 17 40 90 0d 3b 40 e6 18 5c 40 71 4d 49 40
       2.3636265 2.9227028 3.4390197 3.1453516
000160 b1 30 43 40 af 00 a6 bf 10 5e 9c 40 ae 3f 37 40
       3.049847 -1.2968959 4.8864822 2.8632617
000170 35 0d 64 40 a0 be 8f 40 a7 a8 0b 40 fe 9e 63 40
       3.563306 4.4920197 2.1821687 3.556579
000180 19 06 52 40 f9 54 5a 40 26 0b 00 bf aa 23 2b 40
       3.2816222 3.4114363 -0.5001701 2.6740518
000190 08 04 04 40 95 ca f0 3f 42 4d bb 40 e7 01 f0 bf
       2.062746 1.8811823 5.853181 -1.875058
0001a0 0d 2d 35 40 b5 ef 15 40 ab 77 27 40 f1 3a 09 c0
       2.8308747 2.3427556 2.616679 -2.1442225
0001b0 50 bb 54 40 56 d3 38 40 d6 ba 0f 40 10 62 7b 40
       3.3239326 2.887899 2.2457786 3.9278603
0001c0 02 e2 54 40 ac 42 8b 40 99 67 68 3d 2d 80 1e 40
       3.3262944 4.3518887 0.056739423 2.4765732
0001d0 ce 3b 78 bf 97 a7 ed be 55 ee 88 3f 88 d8 f0 bf
       -0.96966255 -0.46416923 1.0697733 -1.881608
0001e0 7d ac 32 bf 6c 02 50 3e 3c 7a 06 3f 4f 6c 38 bf
       -0.69794446 0.20313424 0.52530265 -0.72040266
0001f0 ef 7f 87 40 71 da 12 40 2a 29 61 3f bd 22 9a 40
       4.234367 2.2945826 0.87953436 4.8167405
000200 4b 11 26 40 dc cc c4 3f 96 6c 74 40 84 46 42 40
       2.5948055 1.5375018 3.8191276 3.035554
000210 62 9a 94 40 b6 b9 d8 40 9d a9 8b bf da 5b 23 c0
       4.6438456 6.77267 -1.0911137 -2.5524812
000220 b6 bb a0 3e 5e 03 57 40 fd 37 96 3e 58 fb af 3d
       0.31393212 3.3595805 0.2933959 0.08592862
000230 31 01 e3 bd 4d 1e ae 40 ea c4 fa bf fa 98 38 40
       -0.110842116 5.441199 -1.9591343 2.884337
000240 1a 06 06 40 93 a1 9e bf 02 06 5e 40 4c 8c 12 40
       2.0941224 -1.2393059 3.4691167 2.289813
000250 3a 21 83 40 57 f0 14 40 e8 73 40 40 3c 28 99 40
       4.097806 2.3271692 3.0070744 4.7861614
000260 84 23 11 40 75 8f 43 40 a1 b2 57 bf 65 ce 81 40
       2.2677927 3.055631 -0.8425694 4.0564446
000270 57 26 1b c0 2f e2 5b 40 9d 2a 0d 40 5f 1e 8a 3f
       -2.424215 3.4356802 2.205726 1.0790519
000280 3a e8 1b 40 62 4a 35 40 94 eb 69 40 14 92 df be
       2.436049 2.832665 3.6550035 -0.43666136
000290 30 b1 f8 be c3 49 b0 3f bd 57 d2 3e 1a 6a 2f bf
       -0.48572683 1.377251 0.41082564 -0.68521273
0002a0 d4 3d 2b bf e2 c4 a5 40 80 d9 c2 be 5c ab e6 3f
       -0.6689122 5.1802835 -0.38056564 1.8021045
0002b0 8a 5d 0b bf 99 22 5b 40 92 bf 45 40 f3 69 a8 be
       -0.54439604 3.4239867 3.0898175 -0.32893333
0002c0 9e 46 f9 bf 8e 75 86 bf c2 18 96 3f 71 a9 af 3f
       -1.9474676 -1.0504625 1.1726305 1.3723584
0002d0 dd 95 e7 bf b6 80 8f 40 41 fe 09 40 98 58 5b c0
       -1.809261 4.484462 2.1561434 -3.4272823
0002e0 e1 ad db bf cc d6 80 bf bf 69 05 c0 59 b1 c9 3c
       -1.7162439 -1.0065551 -2.0845792 0.024620699
0002f0 85 fe a4 bf 5d 3b 99 40 db 4e 16 c0 93 d0 02 c0
       -1.2890173 4.7884965 -2.348563 -2.0439804
000300 32 4d ee 3f 8c b0 a6 3f 5a fb 8c 3e a3 ec 8b 40
       1.8617308 1.3022628 0.27535516 4.3726363
000310 81 0f 67 40 fe 0e e3 3f 02 55 c5 3f aa 6e 6b 40
       3.6103213 1.773895 1.5416567 3.6786294
000320 af d7 0e 40 09 1d d5 3f 5a 0f 57 40 f5 b2 4f 40
       2.2319143 1.6649486 3.360312 3.2452977
000330 7f ae 04 c0 66 f4 82 3e 84 86 63 40 af 67 8f 40
       -2.0731504 0.25577086 3.5550852 4.4814067
000340 a6 c3 b8 bf ee ad 12 c0 43 0c cd be df 1f 62 40
       -1.4434707 -2.2918658 -0.40048417 3.5331953
000350 53 61 91 3d 17 4d 14 bf 08 45 43 40 36 46 6d 40
       0.07098641 -0.5793013 3.0510883 3.7074103
000360 29 05 44 40 9c 4a 21 40 88 00 0a c0 b5 30 80 40
       3.062815 2.5201788 -2.1562824 4.0059457
000370 e7 48 50 40 98 a9 5f 3f 42 8c 92 3f b1 d0 5a 40
       3.2544496 0.87368155 1.1449053 3.4189875
000380 b9 ef 10 40 f0 44 3f 40 8b 95 24 40 d4 d7 dd 3f
       2.2646315 2.9885826 2.5716274 1.733149
000390 9d ab 1f c0 aa bb 0f 40 7d ef 08 40 88 9c 8a 40
       -2.4948494 2.245829 2.1396172 4.331608
0003a0 21 0e d5 3f 71 2d 87 40 e5 22 29 40 44 4e 00 3f
       1.6644937 4.224297 2.6427548 0.50119424
0003b0 9d 99 70 40 3f c9 2e 40 0a 59 39 40 17 d1 28 40
       3.7593758 2.731033 2.8960595 2.6377618
0003c0 74 91 5b 40 e9 7f 70 40 61 64 4e 40 4a e1 4a 40
       3.4307528 3.757807 3.2248766 3.1700006
0003d0 75 8d 47 40 a5 9f 56 bf 88 14 e8 3f 13 27 10 40
       3.1180089 -0.8383735 1.8131266 2.252385
0003e0 5f 8f 46 40 c2 2b 71 40 4c 49 11 40 87 4b 09 c0
       3.1025007 3.7682958 2.2700987 -2.1452348
0003f0 6b 59 72 40 3e a3 3f 40 f6 90 47 40 1e f0 2f 40
       3.7867076 2.9943385 3.1182227 2.7490306

prednet_full1.weight f4 [128, 247]
000000 a6 81 19 40 1f a4 16 40 00 00 00 00 1c 77 5d 40
       2.398538 2.3537672 0.0 3.4603949
000010 00 00 00 00 34 2c 20 3d 00 00 00 00 e7 77 00 40
       0.0 0.039104655 0.0 2.0073183
000020 00 00 00 00 c9 b9 d8 3a 43 44 22 3d dd 32 06 40
       0.0 0.001653486 0.03961588 2.0968544
000030 d7 ef a9 3d 00 00 00 00 b6 2f 89 3f de 68 13 40
       0.08297699 0.0 1.0717685 2.3032756
000040 bd 0d 3a 40 75 37 03 40 00 00 00 00 44 26 dc 3d
       2.9070885 2.0502598 0.0 0.10749486
000050 cb 74 04 40 00 00 00 00 25 61 b9 3c 00 00 00 00
       2.0696285 0.0 0.02262933 0.0
000060 82 3d 24 3e 78 75 2e 40 c6 9d 94 3d 00 00 00 00
       0.16039088 2.7259197 0.072566554 0.0
000070 8a 8b 6a 3d 99 ba 2a 40 00 00 00 00 00 00 00 00
       0.05726198 2.667639 0.0 0.0
000080 69 bb 06 40 00 00 00 00 00 00 00 00 01 9e 83 3d
       2.1051886 0.0 0.0 0.06426621
000090 d4 cd ee 3d 1e 84 89 3e 45 81 17 3d f3 41 65 40
       0.11660352 0.2685861 0.036988515 3.5821502
0000a0 5c 63 0b 40 33 1e b7 3a 0f 48 a7 3b 11 97 74 3d
       2.1779394 0.0013970792 0.0051050256 0.05971438
0000b0 01 10 17 40 03 76 40 40 00 00 00 00 00 00 00 00
       2.3603518 3.0072029 0.0 0.0
0000c0 5e 41 c3 3e 14 4c 0d 3e 00 00 00 00 22 0d 9b 3d
       0.3813581 0.13798553 0.0 0.07570864
0000d0 c7 0a dc 3c 00 00 00 00 00 00 00 00 07 0b 17 40
       0.026860608 0.0 0.0 2.360048
0000e0 28 af 1d 40 5b 7c 43 3d 00 00 00 00 4f a1 91 3d
       2.4638157 0.047726016 0.0 0.07110845
0000f0 3c 69 82 3b 00 00 00 00 6e 93 00 38 80 65 59 3d
       0.00397983 0.0 3.0654883e-05 0.053075314
000100 00 00 00 00 50 86 8e 3d 00 00 00 00 3e 14 ed 3e
       0.0 0.06959212 0.0 0.46304506
000110 00 00 00 00 19 a9 47 40 8c a9 e8 3d 22 5c ad 3f
       0.0 3.119696 0.113604635 1.3543742
000120 00 00 00 00 00 00 00 00 73 66 09 3e da d6 98 3d
       0.0 0.0 0.13417988 0.07462855
000130 99 70 a7 3d 21 92 6a 3c 00 00 00 00 00 00 00 00
       0.08175773 0.014317066 0.0 0.0
000140 ca 49 34 40 f8 08 92 3d 00 00 00 00 00 00 00 00
       2.8170037 0.07130617 0.0 0.0
000150 78 e3 90 3c 21 eb 0b 3e c9 97 c0 3f 34 26 1d 3c
       0.01768659 0.13663913 1.5046321 0.009591628
000160 77 a3 ab 3c 00 00 00 00 cb 0b 4b 3d 00 00 00 00
       0.02095197 0.0 0.049571794 0.0
000170 2c 02 2b 40 00 00 00 00 53 43 d3 3d 00 00 00 00
       2.6720076 0.0 0.103155755 0.0
000180 a7 37 ff 3f d6 84 3f 3d ab a7 7f 3d 00 00 00 00
       1.9938859 0.04675754 0.06241576 0.0
000190 00 00 00 00 91 7f a8 3d 00 00 00 00 30 c6 b8 3d
       0.0 0.08227456 0.0 0.09022176
0001a0 4f 7e 16 40 83 90 7a 3c 37 1a 15 3d 00 00 00 00
       2.3514593 0.015293243 0.036401954 0.0
0001b0 19 f9 80 40 00 00 00 00 d4 b8 a7 3b 00 00 00 00
       4.0304074 0.0 0.005118469 0.0
0001c0 00 00 00 00 ed 20 48 40 00 00 00 00 00 00 00 00
       0.0 3.1270096 0.0 0.0
0001d0 df d3 56 39 60 a6 ec 3a 00 00 00 00 eb 62 ed 3c
       0.00020487559 0.0018054955 0.0 0.028977832
0001e0 ee e8 1d 3e 6b 81 a6 3f 7f d5 32 3d 00 00 00 00
       0.15420887 1.3008245 0.043660637 0.0
0001f0 00 00 00 00 00 00 00 00 81 c3 52 40 00 00 00 00
       0.0 0.0 3.2931826 0.0
000200 00 00 00 00 00 00 00 00 18 09 3b 40 00 00 00 00
       0.0 0.0 2.92243 0.0
000210 00 57 13 3d 00 00 00 00 a3 d8 0a 3d 00 00 00 00
       0.03597164 0.0 0.033898007 0.0
000220 00 00 00 00 e2 fd 47 3d 93 c2 01 40 6d 79 ce 3d
       0.0 0.048826106 2.0275009 0.10081754
000230 00 00 00 00 00 00 00 00 fe 0f bf 3f 00 00 00 00
       0.0 0.0 1.4926755 0.0
000240 06 8b 17 3e 9d 58 7b 3d 00 00 00 00 77 88 05 3d
       0.14799127 0.061363805 0.0 0.032600846
000250 30 e7 fa 3d f1 89 3b 40 f1 7b b0 3d d4 01 e5 3d
       0.12251127 2.9302943 0.0861739 0.11181989
000260 07 cb 56 3d 6a 19 af 3f 91 bc 04 40 86 94 02 40
       0.052439716 1.3679631 2.0740092 2.0403152
000270 00 00 00 00 31 d6 42 3d 5a 62 28 40 00 00 00 00
       0.0 0.04756755 2.631003 0.0
000280 19 73 fc 3c fb 55 08 3e 00 00 00 00 e6 8a 26 40
       0.030816602 0.13314049 0.0 2.6022277
000290 f3 6a f4 3d 00 00 00 00 2b 74 a3 3d cf c0 07 40
       0.119344614 0.0 0.07981142 2.121143
0002a0 a3 ae 38 40 c3 f5 f0 3c 00 00 00 00 65 f0 1a 3f
       2.885659 0.029414063 0.0 0.6052306
0002b0 ac 1b 82 3d 00 00 00 00 28 df 1b 40 be 31 ee 3c
       0.06352934 0.0 2.4354954 0.029076453
0002c0 f2 0c e5 3b 90 cc 2b 40 00 00 00 00 1d fb 3c 40
       0.0069900686 2.6843605 0.0 2.9528267
0002d0 00 00 00 00 76 92 ac 3d 30 d8 7d 3d 00 00 00 00
       0.0 0.08426373 0.06197375 0.0
0002e0 81 12 0c 40 55 14 9f 3d 00 00 00 00 d8 69 24 3d
       2.1886294 0.0776755 0.0 0.040140003
0002f0 ef ca 14 3d 86 04 c2 3c 0c 0a 1b 3f 00 00 00 00
       0.036326345 0.023683798 0.60562205 0.0
000300 15 e5 b7 3d e5 3c fa 3c 00 00 00 00 7a 0b 16 3e
       0.08979241 0.030546615 0.0 0.14652815
000310 00 00 00 00 83 99 fb 3f 73 86 30 3d cd 6c 0f 40
       0.0 1.9656223 0.04309697 2.2410157
000320 4b c0 9d 3d a9 2f 0d 3c bb 75 02 3d 00 00 00 00
       0.077026926 0.00861732 0.031850558 0.0
000330 0b a5 72 40 52 42 26 3e 00 00 00 00 ba 63 7f 3d
       3.7913234 0.16236237 0.0 0.062350966
000340 36 8a 09 3e d9 7f 36 40 dd e5 2c 40 00 00 00 00
       0.1343163 2.8515532 2.7015297 0.0
000350 68 03 17 40 00 00 00 00 00 00 00 00 08 41 b5 40
       2.359583 0.0 0.0 5.6641884
000360 27 c2 59 3c 00 00 00 00 36 c1 b3 3c f4 6d 0e 40
       0.013290918 0.0 0.021942716 2.225461
000370 e6 b4 47 3c 46 38 8f 3f 00 00 00 00 5a 02 ef 3f
       0.012189126 1.1189048 0.0 1.8672593
000380 ff 60 13 3d 00 00 00 00 02 5e 4a 3c 00 00 00 00
       0.035981175 0.0 0.012351515 0.0
000390 00 00 00 00 00 00 00 00 00 00 00 00 68 f5 ea 3f
       0.0 0.0 0.0 1.8356142
0003a0 00 00 00 00 8a c3 a7 3c ed c3 41 3d e0 74 14 3d
       0.0 0.020478982 0.04730599 0.036244273
0003b0 e2 7f fc 3d a8 cb 19 3f 00 00 00 00 8d 53 8b 3c
       0.12329079 0.6007638 0.0 0.017007614
0003c0 00 00 00 00 13 b4 84 40 00 00 00 00 3e dc 94 3d
       0.0 4.1469817 0.0 0.0726857
0003d0 d7 db 81 3d 71 76 c9 3c 67 1e 72 3d 30 0e 00 40
       0.06340759 0.02459261 0.059111025 2.000866
0003e0 f0 90 41 40 eb 0b 4b 3e 65 70 35 40 00 00 00 00
       3.0244713 0.19828765 2.834985 0.0
0003f0 15 1d a1 3d b7 ac a2 39 09 6b 21 40 32 61 9b 3d
       0.07866875 0.0003102773 2.522158 0.07586898

prednet_full1.bias f4 [128]
000000 5e 4b 57 c0 79 09 fc bf 03 89 f4 bf 74 28 10 c0
       -3.363975 -1.9690391 -1.9104313 -2.252469
000010 2d de b6 bf 29 c8 1a c0 26 4e ec bf d4 df dc bf
       -1.4286553 -2.4184668 -1.8461349 -1.7255807
000020 51 0a f6 bf 8b 1b e7 bf fa d8 bb bf 9b 41 0b c0
       -1.9221898 -1.805528 -1.4675591 -2.1758792
000030 b2 76 f0 bf 91 cf fa bf 86 fd c2 bf de 6a 28 c0
       -1.8786223 -1.9594594 -1.5233619 -2.6315227
000040 4b 41 18 c0 fa 4f 11 c0 e5 3f ea bf f3 b1 35 c0
       -2.3789852 -2.2705064 -1.8300749 -2.8389862
000050 68 b2 0e c0 91 2b 2c c0 1d dc 1a c0 2a 55 19 c0
       -2.229639 -2.690159 -2.4196846 -2.395823
000060 69 51 37 c0 22 f6 e9 bf 52 60 27 c0 74 5f 1b c0
       -2.864344 -1.8278239 -2.615254 -2.427701
000070 fa e7 05 c0 d5 b9 ee bf b7 12 37 c0 0a 87 18 c0
       -2.0922837 -1.8650461 -2.8605173 -2.3832421
000080 78 9d 12 c0 ed 9b f3 bf 6a 7c b6 bf 43 0a 1d c0
       -2.2908611 -1.903196 -1.4256718 -2.4537513
000090 ec 47 d4 bf fa 37 0a c0 bf 0a 26 c0 6e cf cd bf
       -1.6584449 -2.1596665 -2.594406 -1.6078928
0000a0 34 0b fc bf b7 0b 12 c0 fb f8 c3 bf 09 e7 2f c0
       -1.9690919 -2.281965 -1.5310358 -2.7484763
0000b0 22 a3 c0 bf 63 4c 96 bf 18 22 ee bf 49 f5 e1 bf
       -1.5049784 -1.1742061 -1.8604155 -1.765298
0000c0 12 b2 e7 bf b7 26 42 c0 34 ab 13 c0 e6 36 29 c0
       -1.8101218 -3.033613 -2.3073244 -2.6439757
0000d0 6f 2d f1 bf e0 71 13 c0 22 ce 1b c0 59 f4 d0 bf
       -1.884199 -2.3038254 -2.4344563 -1.6324569
0000e0 19 35 ad bf e9 90 15 c0 16 34 d2 bf 05 c7 cd bf
       -1.3531829 -2.3369696 -1.6422145 -1.6076361
0000f0 48 09 1d c0 e1 a4 18 c0 6f 14 d6 bf cc 12 17 c0
       -2.4536915 -2.3850634 -1.6724986 -2.3605223
000100 74 3e 09 c0 65 40 f8 bf a9 f7 da bf 77 c6 08 c0
       -2.1444368 -1.9394652 -1.710683 -2.1371133
000110 78 ca 42 c0 70 28 f4 bf 00 76 0f c0 e7 70 d8 bf
       -3.0436077 -1.907484 -2.2415771 -1.6909455
000120 25 22 e5 bf 63 33 1c c0 73 a6 11 c0 e5 81 29 c0
       -1.7901045 -2.4406364 -2.2757843 -2.6485531
000130 bc 02 4e c0 53 1d f0 bf 1c f4 1c c0 3f dd d9 bf
       -3.218917 -1.8758949 -2.4523993 -1.7020644
000140 97 a1 e8 bf 81 f7 1b c0 18 ee ca bf 33 d1 bd bf
       -1.8174313 -2.4369814 -1.585391 -1.4829468
000150 e8 2d 02 c0 8a 97 e2 bf 67 0e f9 bf b2 73 3e c0
       -2.034052 -1.7702496 -1.945752 -2.9758115
000160 37 b2 a5 bf 2b 69 1f c0 d5 fd 03 c0 27 bd 20 c0
       -1.2945012 -2.490794 -2.0623677 -2.511545
000170 c5 ae 0c c0 e9 38 b2 bf a3 a7 1c c0 98 0e 25 c0
       -2.198167 -1.3923618 -2.4477317 -2.5790157
000180 d1 de 1c c0 3f 43 05 c0 f5 ab c5 bf a3 bf d8 bf
       -2.4510996 -2.0822294 -1.5443102 -1.6933483
000190 9a 97 18 c0 45 0b 17 c0 8f bf 1b c0 ff 2a 3b c0
       -2.384253 -2.3600628 -2.4335668 -2.9244993
0001a0 a8 6f 38 c0 b9 b2 de bf 31 20 f5 bf 71 89 fe bf
       -2.881815 -1.7398292 -1.9150449 -1.9885694
0001b0 09 a5 eb bf 1b 3a bc bf 3e b1 40 c0 eb 7a 20 c0
       -1.840974 -1.4705232 -3.010818 -2.5075023
0001c0 66 07 a5 bf d6 90 f9 bf 9a c9 c9 bf 73 b9 14 c0
       -1.2892883 -1.9497325 -1.5764649 -2.323819
0001d0 e0 74 12 c0 81 17 15 c0 1a 3d 02 c0 04 e7 d4 bf
       -2.2883835 -2.3295596 -2.0349793 -1.6633
0001e0 02 83 ed bf d2 54 10 c0 4e bf 28 c0 4d ab 24 c0
       -1.8555605 -2.255177 -2.6366763 -2.5729554
0001f0 9a aa 1a c0 11 89 03 c0 1a f4 2a c0 2f 99 91 bf
       -2.4166627 -2.0552409 -2.6711488 -1.1374873

prednet_full2.weight f4 [64, 128]
000000 ed 08 ad 3d 92 54 56 3e 00 00 00 00 00 00 00 00
       0.08448968 0.20930699 0.0 0.0
000010 1c 0a cb 3d 59 31 fb 3d 73 23 e6 3d 00 00 00 00
       0.099140376 0.12265272 0.1123723 0.0
000020 9a 44 80 3e d3 c9 af 3d 56 62 e5 3d 00 00 00 00
       0.2505234 0.08583417 0.11200397 0.0
000030 00 00 00 00 00 00 00 00 00 00 00 00 00 00 00 00
       0.0 0.0 0.0 0.0
000040 43 20 43 3e 00 00 00 00 ee 6c 06 3f d2 90 f4 3c
       0.19055276 0.0 0.52509964 0.029854212
000050 9b f6 11 3e fe d3 56 3e d7 71 3d 3e 0c e1 28 3e
       0.14254229 0.20979306 0.18500458 0.16492099
000060 40 51 12 3d cc b5 2a 3e a7 6a ea 3e e5 83 9e 3c
       0.035722017 0.16670913 0.45784494 0.019350002
000070 85 ce 02 3e 6c 62 29 3c e6 e2 df 3d 00 00 00 00
       0.12774093 0.010338407 0.10931949 0.0
000080 f4 2a f5 3e 88 c9 17 3e 00 00 00 00 a1 17 e0 3e
       0.47884333 0.14822972 0.0 0.43768027
000090 00 00 00 00 36 41 b8 3d 00 00 00 00 c7 a5 b6 3e
       0.0 0.08996813 0.0 0.35673353
0000a0 f5 72 98 3d 24 42 7a 3e 00 00 00 00 89 40 da 3d
       0.07443801 0.24439293 0.0 0.1065684
0000b0 6f f9 a5 3e 00 00 00 00 81 56 9d 3d 00 00 00 00
       0.32416865 0.0 0.07682515 0.0
0000c0 8f 26 d2 3e 37 14 ca 3d f6 45 d7 3d af df 1d 3d
       0.41045043 0.09867137 0.10511391 0.0385434
0000d0 9c a1 93 3e d7 23 2d 3b 9d e0 a7 3c db 85 87 3d
       0.28834236 0.0026419067 0.020492846 0.06617328
0000e0 00 00 00 00 d3 99 07 3e 78 a3 29 3e f7 86 63 3e
       0.0 0.13242273 0.16566265 0.22219454
0000f0 25 36 93 3e 5f 18 c2 3e 51 f6 90 3e 00 00 00 00
       0.28752246 0.3790922 0.28312925 0.0
000100 00 00 00 00 9b f4 8a 3e 00 00 00 00 6c 92 71 3d
       0.0 0.27139744 0.0 0.05897753
000110 39 2d 8a 3e 00 00 00 00 1f 4a 32 3a 0a 90 45 3f
       0.26987627 0.0 0.0006801206 0.7717291
000120 83 f4 56 3e 58 b1 95 3d 64 fb 0d 3d aa a4 f0 3e
       0.20991711 0.07309216 0.034663573 0.4700063
000130 9c 3b fc 3a 0a a2 4a 3c 67 50 d8 3c e5 4a e8 3b
       0.0019243839 0.012367735 0.026405526 0.0070890062
000140 9d d8 cd 3c 54 36 69 3d 47 79 ac 3d 78 15 e8 3c
       0.025127703 0.056936577 0.08421569 0.02833055
000150 9b 44 6b 3a 66 04 53 3b 30 7e 38 3c 44 ab a1 3d
       0.00089747616 0.0032198667 0.011260554 0.078939945
000160 8c f6 57 3d 47 5f 95 3b 08 b8 f8 3c 53 7a 7e 3e
       0.05272536 0.004558477 0.03036119 0.2485135
000170 00 00 00 00 b1 d1 41 3f 49 c7 87 3d 00 00 00 00
       0.0 0.7571059 0.066298075 0.0
000180 00 00 00 00 d5 9d 0c 3d a0 e9 59 3b 00 00 00 00
       0.0 0.034330208 0.0033250824 0.0
000190 c0 2a d0 3b a6 c7 49 3e 33 84 03 3e 22 65 6e 3d
       0.0063527524 0.19705066 0.12843399 0.058201917
0001a0 98 2f 62 3e d5 f0 77 3f 63 d0 fd 3d 00 00 00 00
       0.22088468 0.96851856 0.12393262 0.0
0001b0 f5 89 c5 3e 00 00 00 00 00 00 00 00 95 51 f5 3d
       0.38581815 0.0 0.0 0.11978451
0001c0 00 00 00 00 4c 7d 34 3e eb 85 28 3a 2c 2c e0 3e
       0.0 0.17625922 0.0006428647 0.437837
0001d0 1a 5b 17 3c f9 19 95 3d d2 29 c3 3d bb 8d 33 3e
       0.009238029 0.072803445 0.09529461 0.17534535
0001e0 81 f3 14 3d df 90 65 3c 28 72 2b 3e 00 00 00 00
       0.036365036 0.014011591 0.16742766 0.0
0001f0 00 00 00 00 0e 17 f6 3e d6 d1 97 3e 60 c2 d3 3c
       0.0 0.48064464 0.2965228 0.025849521
000200 4c 7a d7 3e 59 7f 67 3f c7 a6 a8 3f e2 f6 02 3f
       0.42085493 0.9042869 1.3175896 0.51157963
000210 60 a7 85 3e 4a e2 0a 3f fc 42 3e 3f 67 20 24 3f
       0.2610426 0.5425154 0.7432096 0.6411194
000220 c0 3c 29 3f ec f3 be 3e 11 7c 8b 3f 53 3e d9 3e
       0.6610832 0.37295473 1.0897237 0.42430362
000230 be 74 2e 3e 0e 64 e3 3e 53 5e 81 3f 7c c6 67 3e
       0.17036721 0.44412273 1.010691 0.2263431
000240 1f 4b e0 3e 97 c8 d6 3e f7 ff 82 3e 0f 41 07 3f
       0.43807313 0.41949913 0.2558591 0.52833647
000250 9f 27 39 3f a9 62 df 3e 63 80 83 3e b9 c8 a2 3e
       0.7232608 0.4362996 0.2568389 0.31793764
000260 b9 2b e0 3e 08 56 5a 3f f6 a1 05 3f 82 c4 f5 3e
       0.43783358 0.85287523 0.5220026 0.48001486
000270 02 6e 09 3f 97 5a b5 3e 8d 23 e9 3e 4b 74 6c 3f
       0.53683484 0.35420677 0.45534936 0.9236495
000280 d4 43 d7 3e 50 b4 4d 3f 72 4e 75 3f 35 15 69 3e
       0.42043936 0.8035326 0.95822823 0.22761996
000290 18 5d 2e 3f 20 5b 12 3e a7 ad 53 3e da a5 85 3f
       0.681108 0.14292574 0.20671712 1.0441239
0002a0 b8 ab 75 3f 23 c4 d1 3e 4a 7b 37 3f 14 84 cc 3d
       0.95965147 0.40969953 0.716725 0.099861294
0002b0 50 71 09 3f 15 1c 89 3f 80 a5 32 3f 80 af 3f 3f
       0.53688526 1.0711695 0.6978378 0.74877167
0002c0 f7 6c d4 3e 2f 3e 53 3e d9 d6 79 3f 6d 03 59 3e
       0.41489384 0.2062919 0.97593457 0.21192713
0002d0 c6 f9 e4 3e 7d c4 0a 3e fa 87 b8 3e d5 a0 a7 3e
       0.44721812 0.13551517 0.36041242 0.32739893
0002e0 52 54 4e 3f b7 a7 05 3f 13 b7 2b 3d 97 cb 14 3f
       0.8059741 0.5220904 0.04192264 0.58123153
0002f0 6c 4f 0b 3f 7e 58 5c 3e 7f 45 6a 3e 8e 95 90 3f
       0.54418063 0.21518132 0.22878073 1.129564
000300 8f bd 22 3f 7c 01 b7 3e ec 45 a8 3f 3c 44 2b 3f
       0.63570493 0.3574332 1.3146338 0.6690099
000310 22 ff 77 3e ed fa 14 3f 4b ff 73 3f e7 4d fc 3e
       0.24218419 0.5819538 0.9531142 0.49278185
000320 50 4b 01 3f 20 60 01 3f 10 49 3c 3e c5 63 01 3f
       0.5050554 0.505373 0.18387246 0.5054286
000330 a0 4a 4a 3e dd 39 07 3e 14 23 16 3f 2e 92 4c 3f
       0.1975503 0.13205667 0.58647275 0.7991055
000340 cf 9d 2a 3f f8 00 a1 3e 80 3d 1a 3e ec 6e a1 3f
       0.66647047 0.31446052 0.15062523 1.2611976
000350 06 72 3f 3f 7e 80 2b 3f a9 e5 a4 3e ac 01 0a 3f
       0.7478336 0.6699294 0.32206467 0.539088
000360 e7 22 47 3f f0 93 fd 3e 82 94 9a 3d 82 e3 09 3f
       0.7778763 0.4952693 0.07547857 0.53862774
000370 27 c9 f3 3e f0 ca 00 3f 7a 49 b0 3e 40 30 94 3e
       0.47614405 0.5030966 0.34431058 0.28943062
000380 55 7c ee 3e 33 89 68 3f e7 0a 10 3f 41 13 2f 3e
       0.46579233 0.9083435 0.56266636 0.17097189
000390 00 00 00 00 c7 88 cd 3e fc 3a b6 3e 2e d9 b3 3e
       0.0 0.40143415 0.35591877 0.35126632
0003a0 10 2f 8c 3e 97 5b 2f 3f 27 03 5c 3e e9 1a 4b 3f
       0.27379656 0.6849913 0.21485578 0.79337937
0003b0 43 0b e9 3e 8b 07 67 3f 33 fe 64 3e 25 f6 bf 3e
       0.45516405 0.90245885 0.22362594 0.3749248
0003c0 4d af d9 3f d7 b3 09 3f de ca 19 3f 0b f7 27 3f
       1.7006623 0.5379004 0.60075176 0.6561133
0003d0 12 7d 97 3e 66 f1 b9 3e 58 c0 16 3f 5a 18 12 3f
       0.2958761 0.36316985 0.58887243 0.5706841
0003e0 fd 6d 46 3d 69 62 d5 3e 8a f3 af 3e ce c1 c3 3e
       0.048444737 0.41676643 0.34365493 0.382338
0003f0 c4 07 6f 3e a2 69 52 3e 6a ad 2b 3e 1b 72 92 3f
       0.23342806 0.20548108 0.16765371 1.1441072

prednet_full2.bias f4 [64]
000000 1d bd 90 c0 a5 6b 29 c0 8c fa 32 c0 7c 22 6a c0
       -4.523085 -2.647195 -2.7965422 -3.6583548
000010 1a 64 28 c0 15 84 77 c0 20 04 6b c0 30 06 88 c0
       -2.6311097 -3.8674366 -3.6721268 -4.2507553
000020 42 4d f5 bf 27 13 43 c0 11 ac b9 bf 36 db ab c0
       -1.9164202 -3.048044 -1.4505635 -5.370509
000030 9c a8 99 c0 7a 71 6e c0 4a 6f 30 c0 68 12 0e c0
       -4.801832 -3.725676 -2.7567925 -2.2198734
000040 6b 48 09 bf d5 19 1e c0 5c d7 11 bf a0 64 47 bf
       -0.53626126 -2.4703267 -0.5696924 -0.77887917
000050 59 e8 74 c0 db 90 1d c0 af d6 bb bf a3 de 05 c0
       -3.8266814 -2.4619663 -1.4674891 -2.0917137
000060 55 34 08 bf 3b ab 15 c0 c0 cb 19 bf 3f 34 52 bf
       -0.5320485 -2.338576 -0.6007652 -0.8211097
000070 d5 43 75 bf 48 81 30 c0 32 dc be bf e9 0f 80 bf
       -0.9580663 -2.7578907 -1.4910948 -1.0004855
000080 71 1c 8a c0 16 42 a8 c0 ae 25 e4 bf 70 f3 9b bf
       -4.315972 -5.258067 -1.7823999 -1.2183666
000090 1d 84 08 c0 3a 52 93 c0 1f 09 2f c0 ab fb 26 c0
       -2.1330636 -4.6037874 -2.7349317 -2.6091106
0000a0 c9 2d 2e c0 77 39 18 c0 60 60 9d bf a5 10 a8 c0
       -2.7215445 -2.3785074 -1.2295036 -5.252032
0000b0 a2 88 1b c0 3f e8 10 c0 fa ff be c0 01 04 d0 bf
       -2.4302144 -2.2641752 -5.968747 -1.6251222
0000c0 91 6e 1b bf 24 9b 6c c0 76 27 93 c0 6e 17 56 bf
       -0.60715586 -3.696969 -4.598567 -0.836295
0000d0 d3 da 50 c0 24 e5 00 c0 be 15 6c bf 32 f7 96 c0
       -3.263356 -2.0139856 -0.92220676 -4.717675
0000e0 ad ae b2 c0 af a2 a4 c0 3b 90 85 c0 09 c1 11 c0
       -5.5838227 -5.144859 -4.1738563 -2.277407
0000f0 2d 5e a5 c0 c3 bb 77 bf 30 62 81 c0 97 12 e2 bf
       -5.167746 -0.96770877 -4.043236 -1.7661923

prednet_full3.weight f4 [1, 64]
000000 a4 64 dc 3d 04 2e 94 3d 2c e4 83 3d 49 e5 dd 3d
       0.10761383 0.07235339 0.06440005 0.10834748
000010 98 ae b4 3d 15 b3 7c 3d 02 90 e0 3d 74 5e 82 3d
       0.088223636 0.061694223 0.10964967 0.06365672
000020 38 38 c0 3d 4f a9 ba 3d 6f 0d b5 3d 5d 64 1a 3e
       0.09385723 0.09114324 0.08840453 0.15077348
000030 34 6f 20 3e bb f4 bb 3d 5a 6d ac 3d 0a e7 5b 3d
       0.1566742 0.09177538 0.08419295 0.053687133
000040 bb 73 03 3b 84 ed fd 3d 79 d1 90 3c a9 82 3e 3d
       0.0020057994 0.12398818 0.01767801 0.046511326
000050 6c ea 47 3e 47 42 dd 3d 7b 3f dd 3c 9d 77 e7 3d
       0.19523019 0.10803657 0.027007809 0.11302111
000060 a9 c7 28 3d b7 2f 03 3c f7 c3 32 3d ce b6 1c 3d
       0.041206036 0.008006982 0.043643918 0.038260274
000070 2f e8 84 3c 66 7d cc 3d 4e f7 ae 3d 9a b0 8c 3d
       0.016223995 0.09984855 0.085432634 0.068696216
000080 2f 02 7e 3d 2d f5 24 3e 6c 3e 42 3d 82 1b d7 3d
       0.0620138 0.16109152 0.04742281 0.105032936
000090 1d c6 93 3d b2 de 07 3e 84 b6 ae 3d b8 f1 8f 3d
       0.072155215 0.13268545 0.08530906 0.07028526
0000a0 bb b7 d4 3d 19 94 d6 3d 43 1d 9c 3d 4c 56 d6 3d
       0.10386606 0.10477466 0.07622769 0.104656786
0000b0 0d dd 2a 3d df ff 20 3b 2e f3 0a 3e 09 c8 f4 3b
       0.041714717 0.0024566574 0.13569328 0.007470135
0000c0 2e 0d 4e 3d 2b a1 df 3d 8c 14 f3 3d 28 d7 99 3d
       0.050305538 0.10919412 0.118691534 0.07511741
0000d0 40 0d c0 3d 7b 7a c4 3d d8 5f 16 3d 2a 2b d6 3d
       0.09377527 0.09593674 0.036712497 0.10457452
0000e0 79 13 0b 3e da eb 8c 3d f8 0b 9d 3d ab 07 eb 3c
       0.13581647 0.068809226 0.076682985 0.02869018
0000f0 d3 08 2b 3e aa d3 9d 3d 82 a5 0f 3e 8b af 65 3d
       0.16702585 0.07706387 0.1402798 0.056075614
